graph_classification_model.pt (torch, 34850 bytes, 12 tensors)

att_src f4 [1, 1, 32]
-0.08640001 -0.41403857 -0.32422036 0.07649904 0.18428637 0.252203 0.10390169 0.41183028
-0.11798976 -0.31506985 0.0016179627 -0.20154886 0.15912008 -0.2845961 -0.15396647 -0.08484224
-0.39947847 0.4259051 0.16623724 0.33437145 0.4155914 0.004391378 -0.0013302187 0.3766089
-0.09218007 -0.11159945 -0.100867055 -0.376262 -0.13183002 -0.15968244 -0.15234682 -0.06305265
00000000: 7df2 b0bd ddfc d3be 3600 a6be 87ab 9c3d
00000010: 91b5 3c3e c020 813e 69ca d43d 6bdb d23e
00000020: 9ea4 f1bd d650 a1be d211 d43a d362 4ebe
00000030: 60f0 223e 94b6 91be 63a9 1dbe c5c1 adbd
00000040: 7188 ccbe 3c10 da3e 183a 2a3e bc32 ab3e
00000050: 65c8 d43e 8ce5 8f3b bc5a aeba e2d2 c03e
00000060: e8c8 bcbd 418e e4bd 6393 cebd 6aa5 c0be
00000070: 73fe 06be cb83 23be ce00 1cbe bf21 81bd

att_dst f4 [1, 1, 32]
-0.2537642 0.25422284 -0.22287343 0.094395086 0.30075184 -0.34310603 0.37082377 0.2463291
-0.3243609 -0.39581883 0.028172672 -0.07377751 -0.012357257 0.03644918 0.051754564 0.22996177
-0.2466811 0.1504496 0.053905446 -0.29017696 0.02964136 -0.26509818 -0.30903056 -0.042097963
-0.42292866 0.334223 0.37695578 -0.31164134 0.31272364 0.1530514 0.29227397 -0.119532764
00000000: 62ed 81be 7f29 823e ef38 64be 3652 c13d
00000010: 25fc 993e 98ab afbe 9ddc bd3e b23d 7c3e
00000020: a212 a6be c4a8 cabe 60ca e63c aa18 97bd
00000030: 1876 4abc bc4b 153d 98fc 533d 197b 6b3e
00000040: f899 7cbe 760f 1a3e f5cb 5c3d 1392 94be
00000050: 70d2 f23c f3ba 87be 4139 9ebe ea6e 2cbd
00000060: 1b8a d8be 471f ab3e 5900 c13e 748f 9fbe
00000070: 501d a03e 82b9 1c3e efa4 953e 98cd f4bd

bias f4 [32]
-0.002997731 -0.003004742 0.002996283 -0.0029978824 0.0030009681 -0.0029955648 0.0029696925 -0.0029957956
-0.00296289 -0.0027715932 -0.0027147057 -0.0029792662 -0.002945661 0.002977065 -0.0029835857 -0.0015914829
-0.001866728 -0.0029127826 -0.0029722466 -0.0020626613 0.0029860218 -0.0026878922 -0.0029328389 -0.0029689334
-0.0024297019 -0.0029737698 0.0029142606 -0.0022056517 0.0030047477 0.002996695 0.0029814534 -0.002941385
00000000: 9575 44bb 35eb 44bb 495d 443b 1f78 44bb
00000010: e4ab 443b 3d51 44bb 2c9f 423b 1c55 44bb
00000020: 0c2d 42bb 9ea3 35bb 34e9 31bb cb3f 43bb
00000030: fe0b 41bb dd1a 433b 4388 43bb 4e99 d0ba
00000040: ffac f4ba 62e4 3ebb 06ca 42bb b72d 07bb
00000050: 22b1 433b 5927 30bb df34 40bb 7092 42bb
00000060: a23b 1fbb 94e3 42bb 2efd 3e3b b28c 10bb
00000070: 4deb 443b 3364 443b 7d64 433b 40c4 40bb

weight f4 [32, 11]
-0.28529373 0.301873 -0.2288773 0.33006573 0.1286654 0.18911102 -0.35589796 0.3380163
-0.20133509 0.124077804 -0.07622396 0.09654634 0.2218397 -0.044597615 -0.2987442 -0.20613584
0.25739622 0.08247647 -0.23121119 0.20658742 0.2208372 0.2786534 0.07852586 0.18311518
-0.29112852 -0.1623363 0.08381944 0.0047735027 -0.10550746 -0.095712334 -0.1348995 0.27768207
-0.15982914 0.24590518 -0.3256065 0.13063942 -0.3105353 0.118579365 -0.18258509 0.2653169
-0.2893908 0.36852002 0.33960548 0.13468345 0.36256403 -0.3544384 -0.011510144 -0.30086124
0.2401281 -0.03752508 0.22204581 -0.07322134 0.16068935 0.29544443 -0.25811878 0.3392734
-0.3691212 -0.031451937 -0.09139741 -0.11551558 0.37279823 -0.2360836 0.011297332 0.016592357
0.12929574 -0.088650666 0.28931344 0.34843233 -0.21970193 -0.1106684 -0.26279765 0.2206966
-0.34348813 -0.12775964 -0.17112352 0.04382375 -0.12113852 0.28345197 0.10995553 0.07998093
0.22221532 -0.03611356 0.0814579 -0.17790237 0.15435296 -0.11790519 0.2791393 -0.16303776
-0.063922286 -0.32494888 0.22235169 -0.22902487 0.3314491 0.11021542 -0.022699116 -0.13723607
-0.08856843 -0.2633805 0.10993086 -0.35165635 -0.15949884 -0.2547429 0.13551417 0.116500944
0.33214897 -0.057934813 0.31082526 -0.2545384 -0.23859729 -0.27201504 0.0073518166 -0.3396901
0.2507905 -0.29489297 0.15596704 -0.16248117 0.0045519383 -0.104570895 0.17482297 0.35146263
-0.36570692 -0.32282588 -0.033888295 0.010176873 0.35380682 0.16184996 -0.0061533106 -0.32278752
0.079481006 -0.14700656 0.14010602 -0.13536666 -0.02300167 0.257244 0.33276892 -0.33164823
-0.22935373 -0.14655532 -0.013460675 0.25645953 0.22409923 -0.03421988 -0.20719238 0.33569568
-0.13017108 -0.16403496 0.17235717 0.21014835 0.11554486 -0.08618201 -0.14436412 -0.10592288
0.2770253 0.21003939 0.15975992 -0.038737115 0.17702016 0.045937542 -0.14685558 -0.1487531
0.16591747 -0.0011995205 0.28420088 0.24933599 0.2091032 -0.2878402 -0.3448165 0.16431019
-0.02550658 -0.3709917 -0.164497 -0.17620343 -0.24024583 0.07492361 0.12119023 -0.22326097
-0.3212319 0.24745536 0.20676829 0.11425472 0.13042752 -0.061195794 -0.048520464 -0.08858347
-0.18196364 -0.26691666 0.2274128 -0.05790176 0.016516477 -0.313163 0.010951453 0.0009336407
-0.26188603 -0.31907967 -0.30635166 -0.35693872 0.29671523 -0.17731126 -0.08289447 0.23265077
0.0947063 0.034761477 -0.0054016686 -0.0021694074 -0.0051279 -0.1405468 0.030823022 0.14991102
-0.198402 0.28478816 0.083899684 -0.10823472 0.14229558 0.13502225 0.1404537 -0.09408855
0.2456383 0.008508074 0.26670533 -0.12944643 -0.11917172 0.15780695 0.051438674 0.12860122
-0.18609084 -0.01850709 0.35880417 -0.15216273 0.17911442 -0.35969713 0.20312098 0.27272618
0.00011498828 -0.07599972 0.14132349 0.07558279 0.18861823 0.048984967 -0.2957014 -0.28843126
0.2588715 -0.0061092474 0.27775607 0.18996295 -0.20837983 -0.25424057 0.2509619 -0.12101327
0.22016571 -0.24335885 -0.062782735 0.047321886 -0.030436633 0.29038712 -0.03038611 0.08918068
00000000: 0512 92be 198f 9a3e d05e 6abe 60fe a83e
00000010: ddc0 033e 52a6 413e 4238 b6be 7910 ad3e
00000020: c92a 4ebe 811c fe3d 4f1b 9cbd 16ba c53d
00000030: f229 633e fdab 36bd 00f5 98be 4615 53be
00000040: 70c9 833e 6ce9 a83d a0c2 6cbe a78b 533e
00000050: 2623 623e a9ab 8e3e 2bd2 a03d 8c82 3b3e
00000060: cc0e 95be 7d3b 26be 87a9 ab3d 0b6b 9c3b
00000070: 4c14 d8bd d404 c4bd 1823 0abe 582c 8e3e
00000080: 40aa 23be 91ce 7b3e e5b5 a6be 57c6 053e
00000090: 7cfe 9ebe bdd9 f23d 96f7 3abe 9ed7 873e
000000a0: 082b 94be a8ae bc3e c5e0 ad3e 75ea 093e
000000b0: fea1 b93e f378 b5be 0b95 3cbc 7c0a 9abe
000000c0: 24e4 753e e6b3 19bd fa5f 633e 12f5 95bd
000000d0: c08b 243e 7e44 973e 2528 84be 3eb5 ad3e
000000e0: 74fd bcbe bfd3 00bd 912e bbbd 6f93 ecbd
000000f0: 69df be3e e6bf 71be 7218 393c b2ec 873c
00000100: 1a66 043e 7b8e b5bd e420 943e b965 b23e
00000110: 8bf9 60be 1da6 e2bd 6a8d 86be 4afe 613e
00000120: addd afbe 6cd3 02be 013b 2fbe 8880 333d
00000130: 7917 f8bd 9e20 913e 5d30 e13d 0bcd a33d
00000140: 6a8c 633e d0eb 13bd 66d3 a63d 0a2c 36be
00000150: b40e 1e3e 4778 f1bd 59eb 8e3e 5ff3 26be
00000160: b0e9 82bd b35f a6be 29b0 633e 7f85 6abe
00000170: b2b3 a93e 9fb8 e13d 7ff3 b9bc 9d87 0cbe
00000180: 5d63 b5bd cfd9 86be 6e23 e13d 4d0c b4be
00000190: aa53 23be a96d 82be 3ac4 0a3e 0c98 ee3d
000001a0: 6e0f aa3e 0e4d 6dbd 7d24 9f3e db52 82be
000001b0: d952 74be 8e45 8bbe 82e7 f03b dceb adbe
000001c0: 9d67 803e 36fc 96be d3b5 1f3e 7761 26be
000001d0: 6d28 953b 4429 d6bd cb04 333e e9f2 b33e
000001e0: f03d bbbe 6f49 a5be 74ce 0abd e6bc 263c
000001f0: 2b26 b53e ffbb 253e b6a1 c9bb 6844 a5be
00000200: f0c6 a23d e388 16be f477 0f3e 8f9d 0abe
00000210: 006e bcbc 7cb5 833e b060 aa3e cccd a9be
00000220: b4db 6abe 9912 16be 2a8a 5cbc aa4e 833e
00000230: 457a 653e 252a 0cbd 3d2a 54be 4ee0 ab3e
00000240: 914b 05be c8f8 27be 667e 303e 2131 573e
00000250: c9a2 ec3d 3280 b0bd 30d4 13be 18ee d8bd
00000260: 43d6 8d3e 9114 573e 1b98 233e cfaa 1ebd
00000270: c644 353e 0129 3c3d 4f61 16be bc52 18be
00000280: 45e6 293e 3b39 9dba c782 913e ef51 7f3e
00000290: 261f 563e ca5f 93be ca8b b0be ee40 283e
000002a0: 2df3 d0bc a0f2 bdbe e771 28be ac6e 34be
000002b0: 0103 76be 8d71 993d 9532 f83d 869e 64be
000002c0: 8278 a4be f064 7d3e 11bb 533e 61fe e93d
000002d0: cb8e 053e 71a8 7abd 65bd 46bd 406b b5bd
000002e0: ad54 3abe 4da9 88be e7de 683e 652a 6dbd
000002f0: 904d 873c e756 a0be b96d 333c 91bf 743a
00000300: ed15 86be 695e a3be 20da 9cbe acc0 b6be
00000310: 0feb 973e 1591 35be 93c4 a9bd 013c 6e3e
00000320: 60f5 c13d 0d62 0e3d 7b00 b1bb 9e2c 0ebb
00000330: f107 a8bb 80eb 0fbe 9080 fc3c 4682 193e
00000340: e529 4bbe c1cf 913e 99d3 ab3d 2aaa ddbd
00000350: efb5 113e 4643 0a3e 18d3 0f3e 7fb1 c0bd
00000360: 9b88 7b3e 7365 0b3c 9a8d 883e 9b8d 04be
00000370: 4e10 f4bd 2598 213e 5cb1 523d 0ab0 033e
00000380: 998e 3ebe 2e9c 97bc 2eb5 b73e 8cd0 1bbe
00000390: c569 373e 392a b8be f2fe 4f3e c4a2 8b3e
000003a0: dd25 f138 bea5 9bbd 1bb7 103e 26cb 9a3d
000003b0: 2325 413e 76a4 483d 2d66 97be 43ad 93be
000003c0: ce8a 843e 1530 c8bb 0b36 8e3e a685 423e
000003d0: 8661 55be d22b 82be 147e 803e ced5 f7bd
000003e0: 1f73 613e 1033 79be 3c94 80bd 98d4 413d
000003f0: 3f56 f9bc 9fad 943e 4bec f8bc 5ca4 b63d

att_src f4 [1, 1, 32]
-0.28303775 -0.20861003 -0.41600192 -0.3808808 -0.24015257 0.09422741 -0.25561118 0.21429034
0.31101918 0.058752198 0.2771877 -0.24941649 -0.06401284 -0.29741538 0.20523426 -0.23642153
0.034599192 0.052251417 -0.32641584 -0.39972487 0.22122908 -0.19894075 0.25751644 0.07545469
-0.1370486 0.033885825 0.21596634 -0.2492187 0.3098757 -0.3828262 -0.21289678 0.038097307
00000000: 53ea 90be de9d 55be 34fe d4be cf02 c3be
00000010: 8eea 75be 4dfa c03d 78df 82be ed6e 5b3e
00000020: e83d 9f3e 25a6 703d 8ceb 8d3e 0967 7fbe
00000030: 2a19 83bd d446 98be ee28 523e 7c18 72be
00000040: e2b7 0d3d 9505 563d fa1f a7be bda8 ccbe
00000050: e089 623e 20b7 4bbe 32d9 833e fd87 9a3d
00000060: 7856 0cbe ddcb 0a3d 4826 5d3e 3033 7fbe
00000070: 07a8 9e3e cc01 c4be 9d01 5abe ec0b 1c3d

att_dst f4 [1, 1, 32]
-0.26011825 0.33799115 -0.40171817 0.10397449 -0.2385289 -0.16754308 0.0908871 -0.20604824
0.41658172 0.193274 -0.027626567 -0.15605766 -0.34830713 -0.38997158 0.42433733 0.17858374
0.17201193 0.34584457 -0.2938262 0.38387844 -0.2502448 0.3403559 0.07368198 0.34634143
0.29965296 0.13661496 0.046745397 -0.010410802 -0.033874847 0.057197835 0.30520886 -0.04782873
00000000: 382e 85be 2d0d ad3e 01ae cdbe 94f0 d43d
00000010: ec40 74be 6a90 2bbe 0423 ba3d 4ffe 52be
00000020: 334a d53e 9fe9 453e 1c51 e2bc 94cd 1fbe
00000030: 5055 b2be 5baa c7be be42 d93e a8de 363e
00000040: e523 303e 8a12 b13e 6370 96be b78b c43e
00000050: 1620 80be 2143 ae3e 94e6 963d aa53 b13e
00000060: 1d6c 993e cbe4 0b3e 1a78 3f3d 1292 2abc
00000070: 5ac0 0abd 4748 6a3d 5644 9c3e 0fe8 43bd

bias f4 [32]
5.580046e-06 0.0 -0.0027181767 -0.0022050552 -0.0030000159 0.0028501959 0.0 0.002970985
-0.0029927527 0.0 0.002985713 0.0029881287 0.0027867288 -0.0026906908 0.0029729102 0.0028308916
0.0 0.0027516424 -0.0029587247 -0.0012658223 -0.0022442183 0.0 -0.002796133 0.003002108
0.0029429318 0.0015841856 -0.0029460443 -0.0029265569 -0.002936335 -0.0029910528 0.0027698085 0.002897765
00000000: 3b3c bb36 0000 0000 7023 32bb b082 10bb
00000010: ea9b 44bb 5aca 3a3b 0000 0000 dbb4 423b
00000020: 0f22 44bb 0000 0000 f4ab 433b 7bd4 433b
00000030: 8da1 363b 4d56 30bb 28d5 423b 7b86 393b
00000040: 0000 0000 e654 343b 2ae7 41bb f3e9 a5ba
00000050: bc13 13bb 0000 0000 543f 37bb 04bf 443b
00000060: 34de 403b 73a4 cf3a 6c12 41bb 7acb 3fbb
00000070: 876f 40bb 8a05 44bb ad85 353b 6ee8 3d3b

weight f4 [32, 32]
0.25122803 0.13188793 0.2680061 -0.2101449 0.29652596 0.057795662 0.051078938 -0.20724434
0.18661521 0.24620232 -0.18979816 0.09073567 -0.2952815 -0.17036656 -0.23402247 -0.049221516
0.17347942 0.27403152 -0.022748102 0.049042802 -0.2110079 0.19864468 -0.10343151 -0.012804014
-0.16109173 -0.18138337 -0.10843873 0.20104654 -0.068769984 -0.03764312 -0.12541501 0.28122592
-0.30173475 -0.12595041 0.027296012 0.034365043 0.08451278 0.2931217 -0.268417 0.012838679
0.2671049 -0.13011836 -0.060382906 -0.005472123 0.24422893 -0.29001597 -0.24595797 0.14675331
0.087520175 0.20877747 0.02791575 -0.117545776 -0.028661875 -0.2707792 0.2679807 0.095247686
-0.13739175 -0.270632 -0.10573038 0.046422713 -0.23257232 0.20656087 -0.13110374 -0.20991814
0.29633692 0.052300647 0.12276343 -0.21206744 -0.20708455 0.07369512 0.12265714 0.22151686
-0.14954779 0.013779993 -0.1726622 0.24361894 -0.11855293 -0.08023342 -0.11510482 -0.24064629
0.037058394 0.17048529 0.19304262 -0.22068149 0.07138416 -0.017213551 0.18523623 0.015338461
-0.23501585 0.19338638 -0.13995841 0.17294765 -0.17163698 0.06022248 0.037572328 0.09680045
0.23682547 0.15429741 0.24810225 -0.042968318 -0.23857792 -0.0274935 -0.17275359 0.107520886
0.15829521 0.19462393 0.2587835 -0.21667024 -0.25828278 -0.11681034 -0.07676992 -0.089781456
0.014070861 0.18685736 -0.20570919 0.2869819 -0.19512701 -0.12598106 0.01629743 0.099300414
-0.0071191345 -0.28211632 -0.14003494 0.28796533 0.25044933 0.24900866 -0.22709695 0.15809147
0.09928663 0.24112943 -0.25376335 0.03799603 -0.23027448 0.09756658 -0.00096641417 -0.1595074
-0.05768398 -0.1367247 0.12972271 -0.13274111 0.2332781 0.13048215 -0.09285836 0.07201981
-0.038362563 0.22152148 -0.15643853 0.088710226 0.009813726 -0.05045151 0.23980427 0.19688316
-0.22510864 0.056861036 -0.24448708 -0.08143547 0.15835007 -0.26945353 0.20078684 0.1003099
0.13044254 -0.2664662 0.050993413 -0.086063854 0.047966655 0.009505369 -0.013301219 0.08759792
0.28549963 0.21304032 0.30602655 0.0155370245 -0.25216436 0.26452932 -0.060167827 -0.042913783
-0.16708897 -0.21757948 -0.14115147 0.26889262 -0.18848324 -0.16222729 0.17550339 -0.11180947
0.25014314 -0.29488695 -0.0050639114 -0.10921132 0.11510702 0.18311864 0.030748136 -0.21422757
-0.14751743 -0.29925483 -0.09243784 0.002414106 -0.008039743 0.30621392 -0.25092703 -0.08819272
-0.108879276 -0.023602402 -0.024448136 0.070660666 0.21765944 0.032141708 -0.30224022 -0.21852216
-0.1860298 0.09238004 -0.28547898 -0.24462691 -0.29138592 -0.13335483 0.15455952 -0.15412661
0.08724486 -0.26180258 -0.09145821 0.24453995 -0.2096592 0.23474084 0.18915582 -0.29410523
0.08647808 0.25433424 0.108409174 0.13457991 0.17285866 -0.13938954 -0.26986936 -0.26137048
0.08461177 -0.1681129 0.2156921 0.14691295 -0.1201503 -0.042774204 -0.2899171 -0.18904138
-0.1250638 0.077924065 -0.1249365 0.140304 -0.14635915 0.04028125 -0.26794037 0.21612652
0.03076365 0.109961845 -0.08677908 -0.26742893 -0.068227455 -0.17403877 -0.1404966 0.10003972
00000000: f6a0 803e a10d 073e 1838 893e 3a30 57be
00000010: 40d2 973e 25bb 6c3d 2638 513d dc37 54be
00000020: 0f18 3f3e 761c 7c3e 735a 42be 9fd3 b93d
00000030: 232f 97be 9274 2ebe 96a3 6fbe 809c 49bd
00000040: 97a4 313e dc4d 8c3e 3a5a babc 1be1 483d
00000050: 7412 58be 8369 4b3e e6d3 d3bd edc7 51bc
00000060: 3bf5 24be 90bc 39be 2015 debd 25df 4d3e
00000070: 47d7 8cbd ac2f 1abd cb6c 00be d8fc 8f3e
00000080: fa7c 9abe 25f9 00be e39b df3c 5cc2 0c3d
00000090: 0915 ad3d 0c14 963e f46d 89be 5359 523c
000000a0: f9c1 883e bf3d 05be 1154 77bd 7f4f b3bb
000000b0: 2617 7a3e f97c 94be 68dc 7bbe 8046 163e
000000c0: c73d b33d c3c9 553e 92af e43c d7bb f0bd
000000d0: 4fcc eabc 92a3 8abe c434 893e 3811 c33d
000000e0: 6cb0 0cbe 4790 8abe 2b89 d8bd be25 3e3d
000000f0: 7027 6ebe b184 533e 0f40 06be c8f4 56be
00000100: 79b9 973e 3439 563d 656b fb3d 3528 59be
00000110: f90d 54be 78ed 963d ab33 fb3d 51d5 623e
00000120: 0e23 19be 7bc5 613c 5cce 30be 3e77 793e
00000130: e1cb f2bd 6b51 a4bd 13bc ebbd fb6b 76be
00000140: 8bca 173d b293 2e3e f7ac 453e 54fa 61be
00000150: dc31 923d 6f03 8dbc 91ae 3d3e 2b4e 7b3c
00000160: ffa7 70be 1407 463e 4251 0fbe 3019 313e
00000170: 9bc1 2fbe d9ab 763d 71e5 193d 503f c63d
00000180: 6082 723e 2400 1e3e 840e 7e3e 8cff 2fbd
00000190: c54d 74be 0c3a e1bc 51e6 30be e933 dc3d
000001a0: 2418 223e 7f4b 473e 457f 843e cede 5dbe
000001b0: a43d 84be 423a efbd 8c39 9dbd 57df b7bd
000001c0: 7889 663c 8957 3f3e 6ea5 52be 4bef 923e
000001d0: 60cf 47be 2e01 01be 3082 853c 045e cb3d
000001e0: a147 e9bb 8d71 90be 5265 0fbe 3170 933e
000001f0: e53a 803e 20fc 7e3e 1a8c 68be bbe2 213e
00000200: ca56 cb3d a2ea 763e 45ed 81be baa1 1b3d
00000210: 13cd 6bbe fdd0 c73d f556 7dba e855 23be
00000220: 0946 6cbd 8f01 0cbe 08d6 043e 49ed 07be
00000230: 74e0 6e3e 1d9d 053e 862c bebd 1f7f 933d
00000240: 1022 1dbd 87d6 623e 6c31 20be b5ad b53d
00000250: c0c9 203c 3ea6 4ebd 408f 753e bd9b 493e
00000260: e182 66be 1ee7 683d d25a 7abe a4c7 a6bd
00000270: 8526 223e d0f5 89be 119b 4d3e 476f cd3d
00000280: bb92 053e 426e 88be 78de 503d 3f42 b0bd
00000290: af78 443d 68bc 1b3c 5bed 59bc 8a66 b33d
000002a0: 022d 923e 3e27 5a3e 83af 9c3e 018f 7e3c
000002b0: b01b 81be 6370 873e 8a72 76bd 5dc6 2fbd
000002c0: 5f19 2bbe 28cd 5ebe 038a 10be 4bac 893e
000002d0: c001 41be e91e 26be 29b7 333e 5dfc e4bd
000002e0: c312 803e 6cfb 96be 2bef a5bb 2faa dfbd
000002f0: 3bbd eb3d 7483 3b3e 84e3 fb3c 795e 5bbe
00000300: cf0e 17be ee37 99be 0d50 bdbd fa35 1e3b
00000310: 20b9 03bc 12c8 9c3e 8279 80be 639e b4bd
00000320: 19fc debd d359 c1bc 7547 c8bc 8ab6 903d
00000330: 1ee2 5e3e 06a7 033d 3bbf 9abe 46c4 5fbe
00000340: 997e 3ebe bf31 bd3d 4d2a 92be 7a7f 7abe
00000350: 8930 95be 2b8e 08be da44 1e3e 5ed3 1dbe
00000360: 6fad b23d fd0a 86be 714e bbbd ae68 7a3e
00000370: e7b0 56be e75f 703e 10b2 413e f694 96be
00000380: 6b1b b13d 1938 823e a105 de3d 51cf 093e
00000390: dc01 313e 22bc 0ebe 512c 8abe 5ad2 85be
000003a0: f048 ad3d ca25 2cbe 64de 5c3e 5970 163e
000003b0: 5c11 f6bd 0134 2fbd 0470 94be 1094 41be
000003c0: ba10 00be a796 9f3d b5de ffbd daab 0f3e
000003d0: 2cdf 15be f4fd 243d 7b2f 89be 4550 5d3e
000003e0: 0d04 fc3c ad33 e13d 3bb9 b1bd 72ec 88be
000003f0: d6ba 8bbd 3837 32be 57de 0fbe a0e1 cc3d

att_src f4 [1, 1, 4]
0.82778037 0.9938038 -0.8188802 -0.05335244
00000000: 6ae9 533f ed69 7e3f 22a2 51bf 1788 5abd

att_dst f4 [1, 1, 4]
-0.88060504 0.8201388 0.5748957 0.9466632
00000000: 556f 61bf 9ef4 513f 5d2c 133f 8558 723f

bias f4 [4]
-0.0029945327 -0.0029762934 -0.0011170858 -0.0030034562
00000000: ec3f 44bb eb0d 43bb 2e6b 92ba a2d5 44bb

weight f4 [4, 32]
-0.074213564 0.39949608 0.34857377 0.14951967 0.09063662 0.01586109 0.3877039 0.08804433
0.06328307 0.14096242 0.39979422 -0.35900462 -0.34789294 -0.13171597 -0.2709204 0.19355237
0.24764013 0.046615005 0.10693803 -0.22651017 0.04575623 0.040590793 -0.34408906 -0.036666416
-0.13738215 -0.1469208 0.3461396 0.07492456 0.013204517 -0.2689534 -0.4033108 -0.06749252
0.29093492 0.11909479 0.32085916 0.029838383 0.33954796 0.093835406 0.350416 -0.32794642
0.18133095 0.13976246 -0.36337027 -0.017503295 0.031836085 0.37766013 -0.064139344 -0.21426569
-0.27797237 0.14992177 0.2480221 -0.3561066 0.30758384 0.39311963 0.36099187 0.18579417
-0.107159995 0.2377249 0.058094043 0.38282666 0.009398087 0.14032555 0.2694322 -0.22371678
-0.3151283 0.0938257 0.3920475 0.37995526 -0.08922676 0.12145984 -0.15313321 -0.071853586
0.03878525 -0.31802768 0.14711396 0.117949836 -0.08066344 -0.14194825 0.38722378 0.03227014
-0.38558316 0.2047665 -0.215833 0.21682854 -0.39009503 0.3042882 0.27161437 0.00040270013
0.3479283 -0.19016509 0.3599997 0.019015584 0.06276039 -0.15602213 -0.25805336 -0.3886252
-0.35862416 0.32283056 0.14992034 -0.041169066 0.15000789 -0.33425295 0.046643376 -0.13741006
0.22007021 -0.058011144 -0.26728058 -0.256912 -0.22424857 -0.27713498 -0.1789223 -0.27595675
0.31896228 -0.16852997 0.33253992 0.37676057 0.340689 0.31784356 0.21243528 -0.33806732
-0.060135514 -0.14264354 0.37039298 0.019709779 0.07594391 0.34066674 -0.17103203 -0.39446652
00000000: 48fd 97bd c08a cc3e 4378 b23e af1b 193e
00000010: b19f b93d 1eef 813c 2081 c63e 9650 b43d
00000020: 8e9a 813d 7458 103e d4b1 cc3e 74cf b7be
00000030: 061f b2be 8de0 06be 14b6 8abe 9832 463e
00000040: 6095 7d3e 60ef 3e3d 5302 db3d 48f2 67be
00000050: e26a 3b3d 8842 263d 712c b0be 862f 16bd
00000060: e8ad 0cbe 6872 16be 3639 b13e 0c72 993d
00000070: c257 583c 43b4 89be c17e cebe 8539 8abd
00000080: 6cf5 943e f8e7 f33d a747 a43e a06f f43c
00000090: 3bd9 ad3e c72c c03d ba69 b33e 98e8 a7be
000000a0: d2ae 393e e41d 0f3e ab0b babe 1263 8fbc
000000b0: 8e66 023d ab5c c13e 7d5b 83bd 7768 5bbe
000000c0: 6552 8ebe 1885 193e 81f9 7d3e 9b53 b6be
000000d0: a17b 9d3e fa46 c93e edd3 b83e d440 3e3e
000000e0: b376 dbbd 286e 733e 05f4 6d3d db01 c43e
000000f0: 6ffa 193c 80b1 0f3e 04f3 893e 0316 65be
00000100: 7f58 a1be b027 c03d 73ba c83e 7f89 c23e
00000110: 85bc b6bd f0bf f83d f4ce 1cbe f927 93bd
00000120: 48dd 1e3d 86d4 a2be 0ba5 163e af8f f13d
00000130: e032 a5bd e25a 11be 3242 c63e b22d 043d
00000140: 286b c5be 4fae 513e 5303 5dbe 4d08 5e3e
00000150: 89ba c7be aacb 9b3e 0a11 8b3e 7f21 d339
00000160: a823 b23e a3ba 42be e151 b83e 92c6 9b3c
00000170: 8588 803d 44c4 1fbe 921f 84be e2f9 c6be
00000180: 969d b7be 0c4a a53e b884 193e e5a0 28bd
00000190: ab9b 193e 3423 abbe 200d 3f3d 39b5 0cbe
000001a0: 165a 613e 189d 6dbd 00d9 88be f889 83be
000001b0: 6ba1 65be a3e4 8dbe 6837 37be 344a 8dbe
000001c0: 064f a33e 1f93 2cbe ac42 aa3e c3e6 c03e
000001d0: ca6e ae3e 64bc a23e a288 593e 2917 adbe
000001e0: a850 76bd 2611 12be 26a4 bd3e 6776 a13c
000001f0: 7b88 9b3d df6b ae3e 0523 2fbe 84f7 c9be
