graph_classification_model.pt (torch, 225106 bytes, 23 tensors)

bias f4 [64]
000000 83 3d a5 3c b4 4d 84 3c e5 08 07 3d 42 15 09 3d
       0.020170933 0.016150333 0.032967467 0.03346754
000010 80 2a 07 3d c4 95 d8 3c 1f 63 77 3c 09 89 8a bc
       0.032999516 0.026438601 0.015099316 -0.016911047
000020 9e 3a fe 3b a1 1a f7 3c 80 5e 02 3d 41 d5 c1 3c
       0.0077584526 0.030164065 0.031828403 0.023661258
000030 bf 18 68 bc 2e 59 d5 3c f9 f5 10 3d 81 88 2f 3c
       -0.014166056 0.0260435 0.035390828 0.010713697
000040 ec f7 1e 3d 0e 97 64 bc fa d0 c0 3c 86 f3 16 3d
       0.038810655 -0.01395203 0.023537148 0.036853336
000050 d3 28 64 bb 63 21 da 3c 3d 61 5a bc a2 de f0 3c
       -0.0034814372 0.026627248 -0.0133288475 0.029403035
000060 28 19 11 3d 8f 93 36 bc 6a 8d 71 bc 2a 95 06 3d
       0.03542438 -0.011143579 -0.014743188 0.032857098
000070 2f ad 0f 3d 46 d6 b8 3c c1 3c 3d bb fd c8 17 3d
       0.03507727 0.022563111 -0.0028875323 0.03705691
000080 d2 32 d5 3c e6 db 12 bc c1 0f 31 bc fa f2 7c bc
       0.02602521 -0.008963561 -0.010806979 -0.0154387895
000090 c9 df a8 3c 71 5c 14 3d 82 79 a2 bc ac d0 12 3d
       0.020614522 0.03622097 -0.01983333 0.035843536
0000a0 3c bd c9 bc 84 22 02 3d d1 38 68 bc de 14 e6 3c
       -0.024626367 0.031771198 -0.014173702 0.028086122
0000b0 58 a2 00 bc d7 52 0c 3d 62 1a 1d 3d 26 54 04 3d
       -0.007851206 0.03425869 0.03835524 0.032306813
0000c0 3e b2 1c 3c 5b df 85 bc 96 dd e8 bb b3 eb 74 3c
       0.009563981 -0.016341856 -0.007106493 0.014948773
0000d0 f0 b7 b8 bb 77 9a 4b bc 83 1e d5 bb ef ec c6 3c
       -0.0056371614 -0.012426964 -0.0065038814 0.0242829
0000e0 da c5 2e bc b8 1d 12 3d 58 12 0b 3c df 1d 19 3d
       -0.010667289 0.035672873 0.00848826 0.037382003
0000f0 e3 49 0a bc ee 64 fc 3c 3c 29 ea 3c cf ab 04 3d
       -0.0084404675 0.030809846 0.028584115 0.032390412

weight f4 [64, 1]
000000 05 88 e5 bd 1a bd 5e 3e 6b 02 6d be 9a 18 0c 3e
       -0.11207584 0.21751824 -0.23145454 0.1368126
000010 06 0e 61 be c4 ec fc 3d 01 93 04 be 50 e8 52 3e
       -0.21978006 0.12349847 -0.12946703 0.20596433
000020 70 86 61 be c7 b6 a9 3e 73 77 9d 3e 84 eb 0a 3e
       -0.2202394 0.3314726 0.30755195 0.13566405
000030 25 6c 8d 3e f9 4f 88 be 66 06 a5 3c 81 36 70 be
       0.2762157 -0.26623514 0.020144653 -0.23458292
000040 b2 c6 68 3e c0 55 3c bd 25 94 49 3e 95 e9 fb bc
       0.22732046 -0.045980215 0.19685419 -0.030751029
000050 03 25 00 3e 03 67 87 3e 00 8d 67 be 7c 53 9b 3e
       0.12514119 0.2644578 -0.22612381 0.3033713
000060 8f d3 8a be 90 8d 05 bd 74 31 ae bd ae b0 6f bd
       -0.2711453 -0.032605708 -0.08505526 -0.058518104
000070 be aa ab 3e 95 41 2f be 76 39 c5 3b d3 9f 49 3d
       0.33528703 -0.17114861 0.006018813 0.049224686
000080 57 ec 07 3e b9 b8 a2 bd f9 6b 65 3e 4b ab 86 3e
       0.1327375 -0.07945389 0.2240447 0.2630256
000090 64 ec 21 be 3e 64 77 bd 22 41 74 be 09 93 57 3e
       -0.15812832 -0.060398333 -0.23852971 0.21052183
0000a0 7c 4b 9d be 1f 1b 9d bd 79 da 1e be 7f 4b 6c 3d
       -0.30721653 -0.076711886 -0.15513028 0.057689186
0000b0 80 cc d7 bd 59 c0 87 3e ec a2 01 3e e5 a3 cb 3d
       -0.10537052 0.26513937 0.12659806 0.0994337
0000c0 94 cd 3c 3e 99 7d 2f bd cb 02 82 3d c0 ad 04 be
       0.18437797 -0.04284439 0.06348189 -0.12956905
0000d0 b7 6a f7 3d 7b bd e1 bd 31 37 68 3e 4c d9 d4 bd
       0.12080901 -0.11022469 0.22677304 -0.103930086
0000e0 c5 e3 60 bd b8 a9 70 be 4e 26 41 3e 4d 5b 1b be
       -0.054904718 -0.23502243 0.18862268 -0.15171547
0000f0 9b c7 85 3e c4 b5 f7 3d f1 02 1c 3b 49 bf a6 bd
       0.2612885 0.12095216 0.0023805464 -0.081419535

weight f4 [64, 1]
000000 dd 30 ae bd 22 eb 6b be 22 06 88 3d 97 ca a0 be
       -0.08505414 -0.23038915 0.06641795 -0.31404564
000010 02 99 25 be 79 29 70 be 07 de af 3d 84 2d cf 3d
       -0.16171649 -0.2345332 0.0858727 0.10116103
000020 27 24 88 3e 16 82 90 bd 95 b5 6e 3e eb c0 6e be
       0.26590082 -0.07056062 0.23311456 -0.2331578
000030 2c ed 31 be 8c 7b 74 be 6e df b8 bc e3 de 93 be
       -0.1737563 -0.23875254 -0.022567477 -0.28880987
000040 c6 2c 34 3e a2 ed 64 be 55 74 e0 3d 44 68 24 be
       0.17595205 -0.22356275 0.109596886 -0.16055399
000050 9e 50 12 3c 74 84 e7 bd a0 c8 2b 3e 64 7f 89 3e
       0.008930353 -0.1130456 0.16775751 0.26855004
000060 94 61 a3 be 00 b7 87 be c2 76 59 bc 2a d1 cf bc
       -0.31910384 -0.26506805 -0.013272943 -0.025368292
000070 21 ef 82 3e 40 dd d8 3d 71 be 0a 3b 2e c4 95 be
       0.25573066 0.10589075 0.002117064 -0.29251236
000080 52 b3 3f 3d 53 1e ef bd 90 d0 e2 3d 43 8e fe bd
       0.046801873 -0.11675706 0.110749364 -0.12429478
000090 3e 87 0c bd 50 ef 39 3e 7f 0c 97 3e 38 66 98 be
       -0.034308665 0.18157697 0.2950172 -0.29765487
0000a0 e6 32 21 be ef 31 11 be d7 86 eb 3b ce f2 42 3e
       -0.15742072 -0.14179204 0.007187705 0.19037935
0000b0 aa 10 39 3e 99 d4 4c bd a8 9a 4a be ec 08 78 3e
       0.18072763 -0.050007436 -0.19785559 0.24222153
0000c0 11 8e 09 be e8 fd f3 bd 28 18 0d 3e 19 87 18 3e
       -0.134331 -0.11913663 0.13778746 0.14895286
0000d0 90 ff d5 3d 81 0c 52 bd 80 e9 f7 bd 71 6d ec bd
       0.10449135 -0.051281456 -0.121050835 -0.11544312
0000e0 cd 82 66 3e 12 5d 0d 3e a1 c5 03 3e f6 5f 82 bd
       0.22510834 0.13805035 0.12868358 -0.06365959
0000f0 e3 f5 12 3e 8b 49 53 3c 85 c7 d8 bd d5 d6 1a be
       0.14351611 0.012895952 -0.1058493 -0.15121014

weight f4 [64, 1]
000000 17 87 1b 3e 93 cf 28 3c 21 11 82 3e f5 85 72 3e
       0.15188251 0.010303396 0.25403693 0.23683913
000010 92 52 4c 3e e2 d5 54 be 6c b1 9e be f8 72 eb 3d
       0.19953373 -0.20784715 -0.30994737 0.11496538
000020 d6 5c c6 bc 1e 88 98 be 07 91 f8 bd 68 05 f2 bd
       -0.02421419 -0.2979135 -0.12137037 -0.118174374
000030 85 d2 38 be 27 fe 9b 3d 61 1c 04 3e 4c 3f 2c be
       -0.18049057 0.07616835 0.1290145 -0.16821021
000040 b9 24 8b be 2e 20 40 3e 10 9d 36 3e 00 2f e2 3d
       -0.27176455 0.18762276 0.17833352 0.11044121
000050 50 21 dd 3d 64 57 66 bc a2 df c6 bc 61 cf ba bd
       0.107973695 -0.0140589215 -0.024276558 -0.09121586
000060 1f 0a 10 be 5c 1a 61 be 0f 24 30 3e 9c 5f 34 bc
       -0.14066361 -0.21982712 0.17201255 -0.011009123
000070 db 17 46 3d 19 4a 89 be a5 f3 4b ba 60 40 cf 3c
       0.048362594 -0.26814345 -0.00077801413 0.025299251
000080 49 8b 65 be f0 76 83 be 96 ed 71 be 84 9f 8a be
       -0.22416414 -0.2567668 -0.23625788 -0.27074826
000090 ad 0c 87 3e 43 a8 0f be d9 fe b7 bd 5c fe 62 3e
       0.26376858 -0.1402903 -0.08984155 0.22167343
0000a0 cc 56 5b 3d c8 af 43 3d 32 f6 74 bc 1f ad 3e 3b
       0.053549573 0.04777506 -0.014951276 0.0029094887
0000b0 88 bf f7 3b 7f 9c f4 bd 1f dd 4d 3d 70 eb 15 3e
       0.007560674 -0.11943912 0.050259706 0.14640594
0000c0 e5 73 10 be 33 55 5e 3e 1c a2 8d 3d 61 0d cb bd
       -0.1410671 0.21712188 0.069156855 -0.09914661
0000d0 80 d3 d0 3d a7 c1 b2 3d 1b 86 e7 3d 51 8b 6f bd
       0.101965904 0.087283425 0.113048755 -0.05848247
0000e0 ca c0 4b 3e f8 fc f7 3c e7 77 6c 3e 7a 36 a5 bd
       0.19897762 0.030271992 0.23092614 -0.08067031
0000f0 b4 ac a9 bd 36 a5 16 3e 18 91 b3 3b e2 b4 09 3e
       -0.08284894 0.1471146 0.005479943 0.13447908

weight f4 [64, 1]
000000 b9 21 2a be be 2b d0 bc 50 99 87 3e eb b9 21 be
       -0.16614427 -0.025411483 0.26484156 -0.15793578
000010 4f 7a f4 3d 3f d3 a3 be fe 82 57 3e 1d 7d 6f 3e
       0.11937391 -0.31997105 0.21046063 0.2338757
000020 9f 06 07 3d 58 40 8e bd ec ab b3 3d 8b eb 1f 3d
       0.0329653 -0.06945866 0.08773026 0.03904299
000030 b6 72 0f 3e 5f d8 d9 3c 4e 0b 8a be 4a 91 7e be
       0.14008602 0.026592432 -0.2696175 -0.24860111
000040 fb ff 4e 3e d4 0d d4 3b 18 8d 69 3e 2a f8 02 3e
       0.20214836 0.006471375 0.22807729 0.1278998
000050 08 a8 26 be 81 4a 71 be a5 31 3b 3e 35 f0 e2 bd
       -0.16275036 -0.23563577 0.18280657 -0.11080972
000060 e4 87 1b 3e d5 c6 4a be 42 20 1d bd 70 12 af 3b
       0.15188557 -0.19802411 -0.03836084 0.005342774
000070 18 e5 65 bd 76 70 89 3e 33 60 0f bc 80 61 33 3d
       -0.056126684 0.26843613 -0.008750963 0.043794155
000080 89 2c 6f 3e 87 fb 96 be d5 59 92 3d 3d 2d 5c 3e
       0.23356833 -0.29488775 0.0714604 0.21501632
000090 60 0a 81 bd 73 87 e1 3c 70 42 45 3e 40 20 ae 3d
       -0.06300807 0.027530408 0.19263625 0.08502245
0000a0 17 3f 72 bd 2d 18 69 3e 1a d2 11 be a1 ed 4c 3e
       -0.0591422 0.22763129 -0.14240304 0.20012523
0000b0 ee 62 96 3e 19 ac 3e 3e 48 44 62 3d 27 c0 3a be
       0.29372352 0.18620338 0.0552409 -0.18237363
0000c0 8f d8 6d 3e 9b c9 73 bb 89 3f 76 be 0e 4e 4c 3e
       0.23227142 -0.0037199024 -0.24047674 0.1995165
0000d0 87 e6 58 3d b0 e0 60 3e 25 3b 9e bd eb 02 e2 3c
       0.052954223 0.21960711 -0.07726125 0.027589282
0000e0 32 5d b8 3d 5f 02 3d be 95 b3 71 3d f1 9f 31 3e
       0.090021506 -0.18457936 0.059009153 0.17346169
0000f0 3f 03 59 3e 03 7a b5 3d f5 cf 69 3e 95 16 f4 bd
       0.21192645 0.088611625 0.22833236 -0.1191837

weight f4 [64, 1]
000000 d4 f6 b5 bd 64 1c 04 bd e8 ff a1 3e d5 f6 a7 bd
       -0.08884969 -0.032253638 0.31640553 -0.08201376
000010 b4 e6 2f be bd 21 2e 3e 56 ff 99 3c da 14 24 be
       -0.1717785 0.17005058 0.018798511 -0.16023579
000020 0a 7a 73 be f6 aa 83 3e 96 10 d5 3d 66 ff 90 3e
       -0.23777023 0.2571637 0.10403554 0.28319854
000030 48 44 56 be b4 3c 98 3e 6f d8 e9 bc c0 21 5a 3b
       -0.20924485 0.29733813 -0.028545586 0.0033284277
000040 09 a4 17 3e 82 7d 3d be 39 b1 83 bd c8 2c 4f bd
       0.14808668 -0.18504909 -0.06430287 -0.050579816
000050 8b 30 34 3e 18 06 42 be eb 9f 7d 3d c3 8b 5d be
       0.17596643 -0.18947637 0.061920088 -0.21635346
000060 99 51 99 bd 03 c1 e7 bd 9b 65 0f be ea 58 b6 bd
       -0.07486267 -0.11316111 -0.14003603 -0.08903678
000070 27 3c e7 3d d9 48 34 be 57 66 d8 bd c6 8e 07 be
       0.1129077 -0.17605914 -0.10566395 -0.13238057
000080 8f a6 73 3d f8 9e d6 3c 00 de 1a be 9c b7 0a 3b
       0.059485015 0.02619885 -0.15123749 0.0021166569
000090 de 2c 8e 3e a5 d3 2b 3c d4 9e 32 be 74 54 7e be
       0.27768606 0.010487472 -0.174434 -0.24836904
0000a0 7d 31 6b 3e 89 e7 13 3e ef a1 4f 3e 94 29 67 3e
       0.22968097 0.14443792 0.20276617 0.22574455
0000b0 f8 f0 a0 bd 98 55 89 3d 91 4b c8 3d 83 47 12 3e
       -0.07858461 0.06705779 0.09780038 0.14285092
0000c0 e7 f5 d7 bd 84 ca 9d be 7e d0 92 3e 49 81 35 3e
       -0.10544949 -0.3081857 0.28674692 0.177251
0000d0 49 23 4a bc 9f ee 3d 3e 79 fc d5 bd 69 dc 86 be
       -0.012337514 0.18548058 -0.10448546 -0.26340035
0000e0 c5 d1 9d 3c c7 23 40 be 44 76 30 be 75 81 88 3e
       0.019265065 -0.18763648 -0.17232615 0.26661268
0000f0 67 0b 38 be 65 ff 3d 3e 11 01 77 3e e4 c1 3f be
       -0.179731 0.18554457 0.241215 -0.18726307

weight f4 [64, 1]
000000 9b 19 a4 bd 1d 1e 9f be 5a 38 82 be ed d4 e1 3c
       -0.08012696 -0.31077662 -0.25433618 0.027567351
000010 dd 28 e6 3d 84 cc 20 3e e9 dc 4b 3d dd e6 93 3e
       0.11238263 0.15703017 0.049771223 0.28887072
000020 3b 92 cf bd 21 b8 82 be f2 15 4e bc d7 5a 2b be
       -0.10135313 -0.25531104 -0.012578474 -0.16733871
000030 fc d2 fc 3d 15 c3 68 be 52 1f 0e be 9c f8 8e bd
       0.123449296 -0.22730668 -0.13879135 -0.06981012
000040 44 04 a3 be da b7 a3 3e 5e 53 e9 3d e7 18 5b 3e
       -0.31839192 0.31976205 0.11392854 0.21396218
000050 82 0c 97 3e c9 48 e2 bc 7b 42 ad 3c 6b 6d 8d 3e
       0.2950173 -0.027622597 0.021149864 0.27622542
000060 e7 ab a6 bd a2 20 a5 bd 87 ad 6f bd 98 7d 9c be
       -0.081382565 -0.08062865 -0.058515098 -0.3056457
000070 5e d3 04 be 64 d3 09 be ff 97 e5 bd 31 04 92 bd
       -0.12971255 -0.13459545 -0.112106316 -0.07129706
000080 fb 24 51 be bc e2 33 3e 93 4e 27 be 16 57 82 3d
       -0.20424263 0.17566961 -0.16338567 0.063642666
000090 d1 14 4a 3e 94 2c 8d be 2a 19 73 3e 96 d5 14 3e
       0.19734503 -0.27573073 0.23740068 0.14534602
0000a0 d7 d5 52 be fb ab 9f be e2 a9 1b 3d b6 b0 92 bd
       -0.20589386 -0.31185898 0.03800381 -0.07162611
0000b0 1d 32 4f bc 21 e6 12 3b 79 a6 d4 3b 02 1c 09 3e
       -0.012646225 0.0022415 0.0064895716 0.1338959
0000c0 c4 99 50 be 6f 4a f0 3d 96 91 27 3d f6 93 68 be
       -0.20371157 0.11732947 0.040910326 -0.22712693
0000d0 cb 4b fc 3c a7 a2 29 be 9c b8 60 be 56 c9 79 bd
       0.03079786 -0.16565953 -0.21945423 -0.060983025
0000e0 8c 83 9a be 23 f4 6e 3e dd 18 98 3e 95 d2 82 be
       -0.30178487 0.23335318 0.2970647 -0.25551286
0000f0 60 47 72 3e da ea ac 3d 79 7c 5e 3e 8f d3 ef bd
       0.2366004 0.08443232 0.2172717 -0.117102735

bias f4 [64]
000000 87 14 92 3c 62 2c fd 3c ec ad 4a bc ff 44 d1 3c
       0.017832054 0.030904952 -0.012370568 0.025545595
000010 e5 7e 04 3d 74 d3 2c bc 79 9f 37 3d 29 05 b1 bb
       0.03234758 -0.010548461 0.04482982 -0.0054022265
000020 e1 93 ff 3c ce 8c 54 bc f4 fa 19 3d b0 60 36 bc
       0.031198444 -0.012973024 0.037592843 -0.0111314505
000030 5b 23 15 bc e1 46 ee 3a cf b7 0f 3d 7b 7a 55 bc
       -0.009102668 0.0018179083 0.035087403 -0.01302969
000040 f2 a9 aa bc 8c 43 36 bc 58 81 17 3d ff d2 cc 3c
       -0.02083299 -0.011124503 0.036988586 0.025002955
000050 6d b8 06 3d e6 7d bf 3c e4 4d e4 b8 f4 20 29 3d
       0.032890726 0.023375463 -0.000108863955 0.041291192
000060 f2 6b 90 3c 86 57 92 bc b3 17 24 bc 66 51 de 3c
       0.017629597 -0.017864 -0.010015416 0.027138423
000070 9c fc c7 3c ce 21 9f 3a 10 f5 19 3d b7 ea 4d bc
       0.024412446 0.0012140812 0.037587225 -0.012568167
000080 31 20 3e bc a2 8e 00 3d ae 3f b2 3c 4e 51 6a 3c
       -0.011604355 0.031386025 0.02175888 0.014301611
000090 d0 9d 1b 3d f6 34 b9 bb 7e 5e d9 3c 44 82 08 3d
       0.0379923 -0.0056520654 0.026534315 0.033327356
0000a0 6e f8 f7 3b 5c 17 06 3d 6d a6 34 bc 27 3c 86 3b
       0.007567457 0.03273712 -0.011026007 0.004096526
0000b0 ec cd cd 3a 43 78 d6 bc 2c 7e b7 3c 44 db ee 3c
       0.0015701628 -0.026180392 0.02239903 0.029157288
0000c0 a9 6c 6c 3c 91 5c d8 bb 49 ea 15 3d 8a b7 8e bc
       0.0144302035 -0.0066028317 0.036600385 -0.017421503
0000d0 d6 2c 1c 3d bd c5 58 bc 42 4a 18 3d a9 33 04 3d
       0.038128696 -0.013230738 0.037180193 0.03227583
0000e0 ff a1 1f 3d 8e ec 77 3b cb 9d c9 bb 47 4e 60 bc
       0.03897285 0.0037830207 -0.0061528436 -0.013690538
0000f0 b0 34 11 3d 3b d5 0f 3d 44 e1 22 bc 76 6a 03 3d
       0.035450637 0.03511546 -0.009941403 0.03208395

weight f4 [64, 64]
000000 b9 d2 63 3d 77 9a 46 be ed 2f 82 3d 60 3f 0f 3e
       0.055620883 -0.19394861 0.06356797 0.1398902
000010 4a 44 1e 3c ca 45 81 3d 1a 0e 19 3e 1a fc 08 3e
       0.009659836 0.06312139 0.14946786 0.13377419
000020 0a 10 f0 bd 32 81 4c be 9b 91 77 bc e1 bf 35 3a
       -0.11721809 -0.19971159 -0.015110399 0.0006933194
000030 90 44 50 3e 6a 37 5c 3e e4 a6 13 be 73 5a c8 3d
       0.20338655 0.21505514 -0.14419132 0.09782877
000040 ee 1a 31 be 3a f8 55 be bd b6 d8 bc dd 53 bd 3d
       -0.17295429 -0.20895472 -0.026454324 0.09244511
000050 29 85 56 be 86 65 f5 bd 2b 09 fc bd a9 59 4b 3e
       -0.20949234 -0.11982255 -0.12306436 0.19858421
000060 19 36 4f 3e 05 ba 6d bd 72 7c bc 3c 3d 74 27 be
       0.2023548 -0.05803873 0.023008559 -0.16352935
000070 e9 74 cd ba b6 bf 93 bd 9c 3c 3c 3d 43 cc 17 3e
       -0.0015675101 -0.072143 0.04595624 0.14824013
000080 6c eb ae bd 53 67 fb bd 60 3a cc 3d 1e 3d 31 be
       -0.08540997 -0.12275567 0.09972072 -0.1730847
000090 ab da 37 3e f4 b1 02 be cd bd ff 3d 88 3b 0c be
       0.17954509 -0.12763196 0.124873735 -0.13694584
0000a0 bf 5a 5a be df 0f 64 3d ae 0f c3 bc 00 be d4 3d
       -0.2132368 0.0556792 -0.023811188 0.10387802
0000b0 d7 1b a7 bd f2 05 9d 3d 8a c7 2c 3d e3 42 0f be
       -0.08159607 0.076671496 0.042182483 -0.13990359
0000c0 92 c8 e9 bd f3 fc c7 3d a6 53 76 3a 95 88 18 3e
       -0.11415209 0.09765043 0.000939662 0.14895852
0000d0 b7 4d ba 3d c3 99 89 bd 6d de 0e 3e af 63 fe 3d
       0.09096854 -0.06718781 0.13952036 0.12421357
0000e0 d2 d2 17 3e b3 a5 b2 bc 3a 02 0b be 74 1c 33 3e
       0.14826515 -0.021807527 -0.13575068 0.17491323
0000f0 55 57 ce 3d e4 69 d0 bd 6f f3 16 bd ec e0 fb bd
       0.10075251 -0.10176447 -0.03685325 -0.1229876
000100 13 74 89 3c f0 33 45 3e ad 77 a8 3c c8 3a c1 bc
       0.016778981 0.19258094 0.020564878 -0.0235876
000110 39 65 0f 3e 03 9c 73 3d 8a 5b 4a bd 0d 2d 41 3e
       0.14003457 0.059474956 -0.049403705 0.18864842
000120 a2 2e 07 be c7 b6 09 3d 97 ae 9d bd 46 7b db bd
       -0.13201383 0.033621576 -0.07699316 -0.10716872
000130 cd 84 b0 bd a7 d7 ea bd c8 4b e1 bc b3 d3 93 3d
       -0.0861908 -0.11466914 -0.027501956 0.07218113
000140 21 ff c2 3d 20 84 74 3d f0 3b 08 3c 07 27 ba bd
       0.09521318 0.059696317 0.008315071 -0.09089475
000150 4d 6d 52 3e e2 2f 09 be e1 31 fa 3d 12 8a 50 3e
       0.20549507 -0.13397172 0.12216545 0.2036517
000160 4b e7 4f 3e 88 f7 19 bc cb 6a f7 bc 0d f3 1f be
       0.20303075 -0.009397395 -0.03020229 -0.1562006
000170 82 a2 2f bd a1 ef 19 3e 0b 5d 21 3d d1 33 3c 3d
       -0.04287959 0.15032817 0.039395373 0.045947853
000180 13 43 b2 3d 2a 64 d7 3d cc 7d fb 3d 7d 06 5c 3e
       0.087042 0.10517152 0.12279853 0.2148685
000190 0d 97 25 3e ed d2 35 be 5c 10 50 be 5b 84 63 3e
       0.16170903 -0.17756243 -0.2031874 0.22218458
0001a0 b0 9a 2e bd b9 f9 38 3e e2 41 42 3c 36 53 40 be
       -0.04262799 0.18064012 0.011856528 -0.18781742
0001b0 bf de 0a bd 37 8a 1d 3e ca 16 6c 3e 20 02 76 3e
       -0.033903833 0.15384756 0.23055568 0.24024248
0001c0 4e 19 4b 3d b7 4a 62 3e 86 0d b4 3d 8a 17 57 3e
       0.04958468 0.22098814 0.08791642 0.21005073
0001d0 89 55 39 bd 45 eb 4d 3e e8 bf 9c 3d 32 54 70 3e
       -0.04524759 0.2010928 0.07653791 0.23469618
0001e0 d6 d7 d5 bd b7 17 0f be 7f b5 fc 3d 8a 2b 2f 3c
       -0.10441558 -0.1397389 0.12339305 0.010691533
0001f0 f1 62 18 be 8a e8 fb bd 19 c5 6a 3e e6 0d 59 bd
       -0.14881493 -0.12300213 0.2292675 -0.05299177
000200 87 90 b3 3d 11 71 09 3e 87 2a e1 3c e7 d1 4e bd
       0.08767801 0.13422038 0.027486099 -0.050493147
000210 20 11 0b 3e 87 2c 55 3d 72 2f 0e be 7f 5c f4 3c
       0.13580751 0.052044418 -0.13885286 0.029829262
000220 0b 75 b6 3d 4b d1 18 3d 46 b0 64 be 52 f9 f8 3d
       0.08909043 0.037308972 -0.22332868 0.12156929
000230 23 a7 0d be 4e 3a 0c be c2 58 4f 3e ec a9 d6 3c
       -0.13833289 -0.13694116 0.20248702 0.026204072
000240 d4 29 73 bd e4 c6 45 bc 88 c8 64 be 04 07 43 be
       -0.059366062 -0.012071345 -0.22342122 -0.19045645
000250 a3 e4 c5 3d 53 f1 42 3c b1 dd 73 bd 21 c3 f6 3d
       0.096627496 0.0118983565 -0.059537593 0.12048937
000260 71 4d 4e be 3c d3 d2 bd e7 f2 16 be 72 c6 ac 3d
       -0.20146729 -0.10294196 -0.14741097 0.08436288
000270 44 c4 3b bd 07 20 ec bd e3 66 fc bd 20 8a a9 3d
       -0.04584147 -0.11529546 -0.123243116 0.082782984
000280 a7 6b f1 3d 6b ec f7 3d f3 62 29 be bd 97 6d 3d
       0.11788111 0.1210564 -0.16541652 0.058006037
000290 e6 af c1 bd 34 84 14 3e c5 7b a3 3d 81 5a 2e 3c
       -0.09457378 0.14503556 0.079825915 0.010641695
0002a0 18 59 d3 3b 18 cb 5c be 26 de 45 be 41 fc 9b bd
       0.00644983 -0.21561849 -0.19323024 -0.07616473
0002b0 c8 b3 67 3d 51 94 69 3d da 0b bb bd 55 68 59 be
       0.056567937 0.05702621 -0.0913312 -0.21231206
0002c0 ec fc 2f bd 51 b0 5e be 85 a8 17 3e 4c 10 f7 bd
       -0.042965814 -0.21746947 0.14810379 -0.12063655
0002d0 25 15 4e 3d b6 67 57 be 27 dd 0a 3d 3c a4 4f be
       0.050313134 -0.21035656 0.033902314 -0.20277494
0002e0 ef 06 b1 bd 37 3a 04 bc e6 1e 7e 3d cf 67 66 bd
       -0.086439006 -0.00807052 0.062041186 -0.056251343
0002f0 8a a1 84 3d c2 b2 42 be 20 ec a2 3c 82 27 71 bd
       0.06476124 -0.19013503 0.019887984 -0.05887557
000300 98 e8 33 3e c0 0e 86 bd e1 24 ed 3d db 00 89 3d
       0.17569196 -0.06545782 0.115793 0.06689616
000310 32 82 25 3e a5 ad 42 be 96 69 34 be eb e3 e4 3d
       0.16162947 -0.19011553 -0.17618403 0.111762844
000320 db 5e 7e bd 57 75 55 3e 09 35 ab 3d b6 df 91 bd
       -0.06210218 0.20845543 0.08359725 -0.071227476
000330 cc be 28 3e e8 fa 90 3b b1 23 78 bd 58 2a f1 3d
       0.16479033 0.0044244416 -0.060580913 0.117756546
000340 db 02 42 3e 18 98 10 be c7 95 e0 bd e6 60 4b 3c
       0.18946402 -0.14120519 -0.10966068 0.012413239
000350 cf e1 8a 3c 79 4d 8d bc 57 51 a3 bd ab f7 72 3d
       0.016953377 -0.017248856 -0.07974499 0.059318226
000360 9a be 10 3e 9f 94 a0 bd a4 ac 47 be c1 3f 03 be
       0.14135209 -0.07840847 -0.19499451 -0.12817289
000370 e9 c2 fb bc 81 ad da bd 88 44 2a bb e0 f9 2e 3e
       -0.030732589 -0.106776245 -0.002598079 0.17087507
000380 53 fa f7 bd 0c 1b 0c be ed 96 90 3d bb 2c f2 bd
       -0.121082924 -0.13682193 0.07060037 -0.11824938
000390 f2 19 6e 3e 87 5a a5 3d 3f e0 49 3e af e8 e7 3d
       0.23252085 0.08073907 0.1971445 0.11323678
0003a0 73 02 cc 3d a5 51 6b 3e 61 b8 bc 3d 88 20 5f 3d
       0.09961405 0.22980364 0.09214855 0.054474384
0003b0 32 21 47 3e 75 af e1 bd 40 34 4d 3e 65 c7 50 3e
       0.19446257 -0.11019794 0.20039463 0.20388563
0003c0 e6 33 48 be 1c 2e b7 bb 91 94 ac 3d 9f 3e 19 bd
       -0.19551048 -0.0055902135 0.08426774 -0.037413236
0003d0 73 87 27 3c 97 e0 09 3e 1e 66 b8 bd 5c cd 1a 3c
       0.010225165 0.1346458 -0.09003852 0.009448376
0003e0 d7 8a b0 b9 dd 5d 15 be 82 88 0f 3c 70 99 de 3c
       -0.0003367278 -0.14586587 0.008760573 0.027172774
0003f0 d9 3c 57 3e 55 a7 37 be 49 e5 47 bc 55 4b 20 be
       0.21019305 -0.17934926 -0.012200662 -0.15653737

weight f4 [64, 64]
000000 59 d3 d2 3d 28 19 3d be da 4a 91 bd f6 dd 4f 3e
       0.102942176 -0.18466628 -0.07094355 0.20299515
000010 f2 26 9b 3d 87 c7 25 3c 14 7e dc bd 1f 74 b1 bd
       0.075757876 0.010118372 -0.10766235 -0.086647265
000020 88 95 1e 3d 17 6a 5e be 77 af 33 be d2 8b 9f 3d
       0.038716823 -0.21720158 -0.17547403 0.077903405
000030 44 9c 1f 3d ea ea 09 be 36 e3 be bd a7 76 a7 3d
       0.038967386 -0.13468519 -0.09320681 0.08176928
000040 e8 76 ca 3d 5a 09 5e be a8 97 11 3d dd 59 15 be
       0.09885961 -0.21683255 0.03554502 -0.14585061
000050 48 78 e0 bd 7f 91 7e 3c 01 2f 31 3d 0a 5c 1b be
       -0.10960442 0.015537619 0.043257717 -0.15171829
000060 c5 5f f3 bc af 25 e2 3c 3a 95 d3 ba 33 f0 95 bd
       -0.029708752 0.02760586 -0.0016142495 -0.07321205
000070 4b 3e 48 3d 8e 62 26 be 67 4a e6 bd 8a 1e 40 3c
       0.048887532 -0.16248533 -0.1124466 0.011726031
000080 d9 93 35 3e 31 59 da bc 75 37 1a 3d 8e 01 7a bc
       0.1773218 -0.026653858 0.037650544 -0.01525916
000090 9c 4f 49 3c 23 40 0e 3e 5f 30 00 be 2b ff cd bd
       0.012287047 0.13891654 -0.12518452 -0.10058435
0000a0 2e 34 47 be 3f 9d 24 bd 4f a4 41 3e 80 d6 08 be
       -0.19453499 -0.040189024 0.18910335 -0.13363075
0000b0 3f 7b 0b bc b7 d6 a9 3d 46 94 26 3e 0a 95 b2 3c
       -0.008513271 0.08292907 0.162675 0.021799583
0000c0 b7 f1 dd 3d c0 26 ef bd 70 05 be bd d2 db f0 bc
       0.10837119 -0.11677313 -0.09278381 -0.029401693
0000d0 f8 4b 14 3e 37 5b 31 be cf ef e8 3d 9a 0d 5e be
       0.14482105 -0.17319952 0.11373865 -0.21684876
0000e0 e7 5a df 3d 7a 1b 56 be 66 dd f1 bd 90 dc 3b 3e
       0.1090601 -0.20908919 -0.118098065 0.18345857
0000f0 24 95 0c be 0e ff d5 bd a2 56 ab 3d 98 48 0a be
       -0.13728768 -0.104490384 0.08366133 -0.13504255
000100 cc ff f5 bd 1d 18 ef 3d d8 61 4e bb 58 eb 41 be
       -0.1201168 0.11674521 -0.0031491425 -0.18937433
000110 0b 27 1b 3e a2 2c 08 bd cf 5f 37 bd 78 95 30 be
       0.15151612 -0.03324569 -0.044769105 -0.17244518
000120 e1 40 c7 3d 12 20 c1 3d b8 2f 0f bd ad 93 0e 3e
       0.097291715 0.09429945 -0.034957618 0.13923521
000130 b0 9c 9a 3d 6a 5a 1a 3e cd 67 3f be c7 50 53 3d
       0.07549417 0.15073553 -0.1869194 0.051590707
000140 5e 2b cc 3d ed 69 ea bd af a9 11 3e 48 51 20 be
       0.09969209 -0.11445985 0.14224885 -0.15656006
000150 63 c5 af bd 33 14 f0 bd 72 d4 a8 3c c3 31 9f 3c
       -0.085825704 -0.11722603 0.020609114 0.019432908
000160 75 cc 02 be bd 07 31 be 74 00 3f be 9b 77 0c 3e
       -0.12773307 -0.17288108 -0.18652517 0.13717501
000170 79 3d 57 bc 87 cb d2 bd 01 d3 f8 3d 1d f0 71 be
       -0.013137215 -0.10292726 0.12149621 -0.23626752
000180 f4 3d 3b be 7e 33 f7 bd 2c b7 60 3c 9f 05 6f be
       -0.18285352 -0.12070368 0.013715547 -0.23341988
000190 69 d3 98 bd b1 8b 21 be a2 23 80 bc 46 20 65 3d
       -0.07462198 -0.15775944 -0.015641991 0.05593898
0001a0 e4 5c 0b be 91 d2 fc bd fb 9d ec 3d 86 0e ae 3c
       -0.13609654 -0.1234485 0.1155357 0.02124716
0001b0 bc cb 7b bd ad f8 26 3e bf 11 01 3e 12 83 62 3d
       -0.061473593 0.163058 0.12604426 0.05530078
0001c0 1c e7 d9 3c 57 8f 96 bc 2a 24 c4 bd cf 1c f4 bb
       0.02659946 -0.018378897 -0.0957721 -0.0074497233
0001d0 31 f4 be bc f8 30 87 b7 4c d9 3f 3d df 2d 4a 3d
       -0.023309799 -1.6116057e-05 0.04683809 0.049360152
0001e0 28 29 8c bb 7c 01 20 be 9e ae 8d 3d 7a b9 3b bd
       -0.004277367 -0.15625566 0.06918071 -0.04583118
0001f0 8a f0 60 be 16 91 b0 bd 43 82 d7 bd 3c 56 da bc
       -0.21966758 -0.08621423 -0.10522892 -0.026652448
000200 0f 55 01 be f4 88 88 bd 4d a5 83 bd a5 98 34 3e
       -0.12630104 -0.06666747 -0.06428013 0.17636354
000210 ce 98 8c bd cb 26 10 be 05 b6 49 be e2 14 36 3e
       -0.06865083 -0.14077298 -0.19698341 0.17781404
000220 d5 64 90 bd d8 50 53 3d 33 dc fb 3d 43 a7 8a bc
       -0.07050482 0.05159077 0.12297859 -0.01692546
000230 1f 53 3b 3d 0a d7 2f 3e 6f cb 54 3d de 4c b5 bd
       0.045733567 0.17171875 0.051951822 -0.08852552
000240 d3 3d fa 3d 85 f2 40 3e 6f 6a 68 3e ce db 3f 3e
       0.12218823 0.18842514 0.22696851 0.18736193
000250 16 58 04 3d cd ba 6b 3c 0d 8d d8 3c 90 e8 e1 ba
       0.032310568 0.0143877985 0.026434446 -0.0017235447
000260 7c a2 6a 3e 74 51 2c be 41 88 16 be 41 25 02 3e
       0.22913545 -0.16827947 -0.14700414 0.12709524
000270 84 9a d6 bc 66 0a 44 3e dd 07 67 3e ee 51 3a 3d
       -0.026196726 0.19144592 0.22561593 0.04548829
000280 a3 0c 53 3e 4b cf 7b 3d d6 e3 4d 3e 2b 38 71 bd
       0.2061029 0.061476987 0.20106444 -0.058891457
000290 14 fd c5 3d ed 90 17 be 75 c6 a4 3d 34 f4 56 3e
       0.096674114 -0.14801379 0.08045665 0.20991594
0002a0 2b 71 63 3e 0f c8 f5 bd 7f 13 04 3a ac 61 9b 3c
       0.22211139 -0.12001049 0.00050383055 0.018967472
0002b0 25 f1 d3 bb 61 4d 2d 3e 08 b4 ed bd 82 b4 05 3e
       -0.0064679557 0.16924049 -0.11606604 0.1305714
0002c0 99 4e 8f bd 70 ce b3 bd b4 a3 4e 3e 2b 63 0a 3d
       -0.06997413 -0.08779609 0.20179635 0.03378598
0002d0 fa 61 41 3e 80 fd 87 bd b9 b0 5b 3e a5 a3 27 3e
       0.18885031 -0.06640148 0.21454133 0.16371019
0002e0 95 27 01 be 70 d7 1f 3e a7 8a 30 3d 9a ff fa 3d
       -0.12612756 0.15609527 0.04310098 0.122557834
0002f0 74 72 23 3e c9 ca 8c bd bd 40 39 3e d3 76 39 be
       0.15961629 -0.06874616 0.18091102 -0.18111734
000300 6c 18 11 be 12 eb 36 be ff 61 d1 3d ba 08 0a bd
       -0.14169472 -0.1786311 0.102237694 -0.03369973
000310 4a 22 5b be 38 d0 bd 3c 82 5c d1 bd 83 d6 16 be
       -0.21399799 0.023170575 -0.102227226 -0.14730267
000320 54 69 93 bd db e0 94 3d 83 fd f5 3c 68 25 3c 3e
       -0.07197824 0.0726945 0.03002811 0.18373644
000330 61 42 e8 bd 96 61 28 be e1 32 06 3d 07 b9 61 be
       -0.11340786 -0.16443476 0.032763366 -0.22043239
000340 1f 15 fd 3c 66 0b 84 bc 7e 25 2b be 4e 76 6e be
       0.03089386 -0.016118716 -0.16713521 -0.23287317
000350 44 29 f8 3c b6 3c 13 3e ca d0 9f bc 48 13 82 3d
       0.030293114 0.14378628 -0.019508738 0.06351334
000360 6f 13 3c bd 0e b8 39 bd 78 85 d9 3d 28 e5 40 3d
       -0.04591697 -0.045341544 0.1062116 0.04709354
000370 ea ca 4b 3d 71 aa 2e be 8a 76 15 3e ca c6 41 be
       0.04975406 -0.17057206 0.14596 -0.18923488
000380 cb 0c f0 bd d9 a3 d0 3d d0 eb 47 be 78 52 e7 3d
       -0.1172119 0.101875015 -0.19523549 0.112950265
000390 71 a5 3e be 9e dc 37 3c 84 2f fc bd fe 23 a2 bd
       -0.18617798 0.011222033 -0.123137504 -0.07917021
0003a0 83 82 0a be 2d 23 b6 3d cf 5c e0 3d 56 39 9c bd
       -0.13526349 0.08893428 0.10955202 -0.076281235
0003b0 be 95 83 bc a5 e6 c6 3d 17 ad 20 be 4b ff 14 3e
       -0.016062614 0.09711961 -0.15691029 0.14550512
0003c0 ea e0 97 3d 66 b9 61 be fa f9 2f 3e e9 92 07 be
       0.07415946 -0.2204338 0.17185202 -0.13239636
0003d0 87 02 9a bd 2f c2 13 3e 72 27 d8 3d 59 c5 a1 bd
       -0.07520013 0.14429544 0.105543986 -0.07898969
0003e0 d1 f0 ee 3d 5b d0 26 be 2b 0c 24 bc 56 c0 b1 bd
       0.11667026 -0.16290419 -0.010012667 -0.08679263
0003f0 db 38 38 be 93 a3 24 be ad ac 4e 3d 91 6c 87 bd
       -0.17990439 -0.16078024 0.050457645 -0.06612504

weight f4 [64, 64]
000000 72 b1 d3 bd 85 6f 64 3d d8 8e 7f 3c 9b bd fa bc
       -0.103365794 0.055770416 0.015598021 -0.030607989
000010 4e 1d a6 bd fb ab ff ba bc 0b 91 3d 08 56 5a be
       -0.08111058 -0.001950621 0.07082316 -0.21321881
000020 e9 3b 5d 3e 48 e6 52 bc dc 14 75 bd 55 83 99 3d
       0.21604885 -0.012872286 -0.059834346 0.07495753
000030 7b f2 3d be 96 cd 3b be e9 74 05 3e 2e 52 dd 3d
       -0.1854953 -0.18340144 0.13032879 0.1080669
000040 82 94 5a 3e 4d da ba bd 0c c4 5b 3e c8 de cc 3d
       0.21345714 -0.09123669 0.21461505 0.1000343
000050 eb 65 3a 3d 79 ca 31 be 81 9b 6c 3e 6c 74 dd 3d
       0.045507353 -0.17362393 0.23106195 0.10813221
000060 21 f8 28 bd fa 7c e3 bd ac bf 3b be 18 5c 64 3e
       -0.04125226 -0.11107822 -0.18334836 0.22300756
000070 21 53 38 3e 1b 12 54 3d 99 b6 84 bd 27 0f b0 3d
       0.18000461 0.05177508 -0.0648014 0.0859664
000080 01 b7 9b bd 19 8f 3e 3e ff 75 39 be 05 9a 9e 3d
       -0.076032646 0.18609275 -0.18111418 0.07744221
000090 8b a5 53 3e 83 52 97 3d 8f 40 4f 3e f6 1d a7 3d
       0.20668618 0.07388785 0.20239471 0.081600115
0000a0 11 a1 5a bd 6f f7 3e 3d 29 e3 39 3e 6e 7d 55 3e
       -0.05337626 0.04662269 0.18153061 0.20848629
0000b0 3c f9 87 3d bf a5 0c be 45 b6 dd 3d 05 b9 43 be
       0.066393346 -0.13735102 0.10825781 -0.19113548
0000c0 7e a4 1d be 7e de f8 3d 3f 28 a0 bd 27 f6 d8 bb
       -0.1539478 0.12151812 -0.07820176 -0.0066211405
0000d0 e5 fb 8c 3d 47 af 12 3e 66 3b 19 be 51 0e 0e be
       0.068839826 0.14324676 -0.14964065 -0.13872649
0000e0 0a 32 4f bd 84 b4 ab bc 81 04 31 be af 6f 65 3e
       -0.05058483 -0.0209601 -0.17286874 0.22405885
0000f0 7d c1 c0 bc 0c 96 49 3d 29 f6 33 bd cd c9 89 3d
       -0.023529762 0.04921536 -0.04393593 0.067279436
000100 b5 94 29 bd 78 b8 b1 3d 73 d8 d3 bd 0e 3b 40 3e
       -0.041401584 0.08677763 -0.10344019 0.18772528
000110 b6 12 f6 3d fd 0d 30 3e ea 60 b5 3d f2 97 e5 bd
       0.120152876 0.17192836 0.088563755 -0.11210622
000120 22 22 cc bd 5a a4 a1 bd ff 43 f0 3d 83 8c 02 3d
       -0.09967448 -0.07892676 0.11731719 0.031872284
000130 9a 26 3d 3e 64 65 14 bd 23 20 a8 3c 25 50 3f 3e
       0.18471757 -0.036229506 0.020523136 0.18682916
000140 92 62 13 be a6 39 85 3d ad 31 12 3e 26 7a 3d 3d
       -0.1439307 0.06505136 0.14276762 0.046259068
000150 60 84 aa 3d 0a 83 32 3d eb 67 0b 3d 13 5f 4b 3d
       0.0832603 0.043582 0.03403465 0.049651217
000160 40 ec 04 be 3e ff 98 3c c2 ea 35 bc 3b 64 69 3e
       -0.12980747 0.018676396 -0.011103334 0.22792141
000170 21 27 1c bc d3 45 41 3e 95 9c 26 bd ef 81 98 bd
       -0.009530813 0.18874292 -0.040676672 -0.07446658
000180 28 9c 47 3d 85 b5 30 be 93 13 56 3e 23 6e 67 3b
       0.048732907 -0.17256744 0.20905904 0.003531345
000190 db 10 89 bd 26 85 5c 3e 43 db 27 bc 55 5b 77 3d
       -0.06692668 0.21535167 -0.010245147 0.060389835
0001a0 0a d6 a5 bc 19 be 15 3e 60 90 63 bb 88 7c 20 be
       -0.020243663 0.14623298 -0.0034723505 -0.15672505
0001b0 7d 0b 63 3e da a7 32 be 6c e0 24 be d8 38 6e 3e
       0.22172351 -0.17446843 -0.16101235 0.23263872
0001c0 ad 8e 32 3e f4 c3 07 3d 49 2f eb bd 4c a5 eb 3d
       0.17437239 0.03314586 -0.11483628 0.11506137
0001d0 77 82 11 bc 72 03 1f bd a2 64 08 bb 27 00 a4 bd
       -0.008881203 -0.038821645 -0.0020811935 -0.080078416
0001e0 32 4b 53 bd c1 f2 fd bd ef 19 58 3e 81 b3 8f 3c
       -0.051585384 -0.12399817 0.21103643 0.017541649
0001f0 c3 c5 5f 3d eb 56 ce 3a a4 db 61 3e f5 51 33 3e
       0.05463196 0.0015742456 0.22056442 0.17511733
000200 1f 51 03 be e0 ba c7 3d 27 95 d6 3d a0 a5 4e bd
       -0.12823914 0.097524405 0.10477667 -0.05045092
000210 ef 60 3e be 6c 8a 76 3d ed 78 02 be 25 3f 99 3b
       -0.18591665 0.060190603 -0.12741442 0.004676717
000220 5b f0 56 bd 0e a7 06 be 6d 9b 7a 3c a7 71 3d 3d
       -0.052475315 -0.13149664 0.015295845 0.046250965
000230 0c 77 e0 3c 49 22 1d be 2f 3d a4 3d e5 73 71 3d
       0.027400516 -0.1534511 0.08019482 0.058948416
000240 2e 0c 5d bd 46 fa 09 3e bf 53 eb 3d e5 85 41 3d
       -0.053966694 0.13474378 0.11490583 0.047246832
000250 12 73 52 be 6a 5c 31 be da e2 2c 3e 59 43 8e bd
       -0.20551708 -0.1732041 0.16883412 -0.06946439
000260 b3 18 e5 3d c6 a4 9e 3b f1 4c 5f be a3 74 48 be
       0.111863516 0.00484142 -0.21806695 -0.19575743
000270 aa 43 9a bd 2c 8a 40 be cd c2 42 bc c7 bd 10 3e
       -0.07532437 -0.18802708 -0.011887264 0.14134894
000280 27 51 04 bd 33 07 10 3e 7a 16 1f bc f7 8f 53 be
       -0.032303955 0.14065246 -0.009709949 -0.20660387
000290 0a d6 9c bd 51 42 ac bd 65 e0 0f be 2e d4 58 be
       -0.07658012 -0.08411086 -0.14050443 -0.2117469
0002a0 1a e6 df 3d e5 11 d1 bc a1 6a 26 bd e2 88 87 bd
       0.1093256 -0.025521228 -0.040629033 -0.06617905
0002b0 cb b7 53 be 8a 50 05 be db d3 0e 3d 1a 5a 37 bc
       -0.2067558 -0.13019004 0.03487001 -0.0111909155
0002c0 3a 71 1a 3e 3e b1 c0 3a 56 9b 4f 3e 1d 93 51 be
       0.15082255 0.001470126 0.202741 -0.20466276
0002d0 88 09 cf bb d7 f6 e7 3d e7 90 12 3e 3e f2 f5 bd
       -0.006318275 0.11326378 0.14313088 -0.12009095
0002e0 99 d3 a0 bd 73 0a 04 3e 00 e2 48 be f8 6a ea bd
       -0.07852859 0.12894611 -0.19617462 -0.11446184
0002f0 1c be 7d bc 0a 1a f0 bc ae aa 51 3d 75 e6 de bd
       -0.01548722 -0.029309291 0.051188163 -0.108838
000300 15 16 d4 bc 08 55 97 bd 37 d0 37 3e 13 9d 21 be
       -0.025889436 -0.07389265 0.17950521 -0.15782575
000310 80 a1 c8 bc f0 85 0f 3c 32 1f b2 3d 4f 71 3d bd
       -0.024491072 0.0087599605 0.08697356 -0.046250638
000320 06 6c 3f bc 4c bf 14 be 7f 21 bc bd 16 91 6d 3d
       -0.01168347 -0.14526099 -0.091860764 0.057999693
000330 5d 7f 51 3e 21 c1 d5 bd 37 c2 f8 3d b5 bc e2 3d
       0.20458741 -0.10437227 0.121464185 0.11071149
000340 2c cf 9c bd 6b 67 03 bd f5 14 8e bd f0 ae 39 3c
       -0.076567024 -0.03208105 -0.06937591 0.011333212
000350 d3 72 51 be a4 32 b7 3d d5 dd 2e 3e e9 df b9 bd
       -0.20453958 0.08945206 0.1707681 -0.090759106
000360 5c 57 2d bd fd 85 07 be 2a fd 05 3d b6 f1 97 3d
       -0.04231964 -0.13234706 0.03271214 0.074191496
000370 03 1d 24 bb e5 9f dd bd 51 51 09 3d 3b c4 2a be
       -0.0025041706 -0.10821513 0.033524815 -0.16676418
000380 74 94 96 bd 99 f1 3d 3e 98 f8 8c bd 92 a5 3b 3d
       -0.07352534 0.18549193 -0.06883353 0.045812197
000390 bc 50 61 bd f6 e5 40 be 20 19 30 be ec 49 f8 3d
       -0.055008635 -0.18837723 -0.17197084 0.121234745
0003a0 de e1 98 3c cb 25 5b 3c a1 e2 52 3e 15 bd 12 3e
       0.01866239 0.01337571 0.20594265 0.14329942
0003b0 f1 de b2 bd 07 71 1d bd aa 0f df 3c 26 30 11 3d
       -0.08733929 -0.03843787 0.027229149 0.03544631
0003c0 82 d6 1e 3d 48 f1 9f 3d c4 60 45 3e d2 b4 9a bc
       0.03877879 0.078096926 0.19275194 -0.01888505
0003d0 1c 34 82 3d 95 61 d3 bd 4d 0b 03 3e c2 ae d3 3c
       0.06357595 -0.10321347 0.1279728 0.025840167
0003e0 40 22 57 bd f5 c6 6d 3d 61 72 45 be 0b 52 d4 3d
       -0.052522898 0.05805107 -0.19281913 0.10367211
0003f0 24 de 9d bd 36 f9 00 be f2 f1 70 bb 3b 8b 96 bd
       -0.077083856 -0.12595066 -0.0036765304 -0.07350775

weight f4 [64, 64]
000000 e6 09 be bd 87 33 2b 3e 9c f1 1b 3e e3 1e a8 bd
       -0.09279232 0.16718875 0.15228885 -0.08209016
000010 db 7b c7 3d b1 fb ff 3d 2b fb 11 be 83 ee 3d 3e
       0.097404204 0.12499178 -0.14255969 0.18548016
000020 08 a9 99 3d d9 2d 9c bd 02 d7 c7 bd df 67 0a 3e
       0.07502943 -0.07625932 -0.09757806 0.13516186
000030 88 57 a5 3d 45 cc ca 3d 8f 79 47 3e a8 81 03 3d
       0.08073336 0.099022426 0.19479965 0.03210607
000040 c8 bd 6d 3d 90 65 64 3d e7 80 12 be 34 8f ab 3c
       0.058042318 0.05576092 -0.14306985 0.020942308
000050 5d e3 fc bd 0c ef 93 bd e7 38 69 bd a5 0e 51 be
       -0.123480536 -0.07223329 -0.056939032 -0.20415743
000060 e1 c9 13 3c c9 42 e1 3c e3 20 45 be 65 6d e2 bc
       0.0090203 0.027497666 -0.19250827 -0.027640054
000070 6f 0e 26 3e 59 21 db bd db b5 11 be 96 cb 1d bd
       0.16216443 -0.1069972 -0.14229529 -0.038524233
000080 47 76 38 3d 29 7b 61 be 3f da 90 3b cc 2c 2c 3d
       0.045034673 -0.22019638 0.004420548 0.04203491
000090 cb a3 13 be cc d0 6d be 7a 6d d7 bd fe 06 74 3d
       -0.14417951 -0.23224181 -0.10518928 0.05957698
0000a0 7d 95 38 be 4c ca 23 be 5f 24 49 3e 2f df 74 3c
       -0.18025775 -0.15995139 0.1964278 0.014945789
0000b0 2c 68 1d 3e d5 b1 16 3e d3 55 fe 3d f7 92 4a bd
       0.1537177 0.14716275 0.124187134 -0.049456563
0000c0 9a e7 70 3b 5c 9d 09 3e 78 13 36 be 8c 61 19 be
       0.003675914 0.13438934 -0.17780864 -0.14978617
0000d0 5b aa 27 3e 5d 7f 38 be e8 f0 1f be b1 04 49 3e
       0.16373579 -0.18017335 -0.15619242 0.19630696
0000e0 8b cc 94 3d 99 03 3a be 27 fc 1e bc e1 3a 17 3d
       0.07265576 -0.18165435 -0.0097036725 0.036921386
0000f0 09 24 51 bd 83 18 90 3d f1 63 bc 3d 15 b8 46 3e
       -0.051059756 0.07035925 0.0919875 0.19406159
000100 9d 2c 0a be 6b e4 19 be 84 5d 10 bd 10 03 6b be
       -0.13493581 -0.15028541 -0.035245433 -0.22950387
000110 54 f1 12 be 38 6c a3 bd 95 30 e1 3b 90 8d 3c 3b
       -0.14349872 -0.079796255 0.0068722465 0.0028770901
000120 6a 1b 9d 3d e2 59 07 3e 53 f2 e8 bd 25 15 00 be
       0.076712444 0.13217881 -0.11374345 -0.12508066
000130 0d 5e 54 3e 83 74 05 3e 84 78 d4 39 ea d5 65 bd
       0.20739003 0.13032727 0.00040525582 -0.056112207
000140 82 2b 01 3e 00 f0 82 3d fe f3 f1 3c f4 a6 1a be
       0.12614253 0.063934326 0.02953529 -0.1510275
000150 52 84 69 bd 6d f7 35 bd 11 6e 03 be 98 31 f7 3d
       -0.057010956 -0.044425417 -0.12834956 0.12070006
000160 1a 84 ce bc e1 04 0f 3c 72 cf 08 be 9d 43 d7 3c
       -0.025209475 0.008729191 -0.13360384 0.026277358
000170 36 ba 0a 3e 9f 79 92 bd 86 62 d7 3c 9d f8 a5 bd
       0.13547596 -0.07152104 0.026292097 -0.0810406
000180 c8 45 1e 3e 8f cf a4 3d 9e 61 9f 3c 2a a8 23 be
       0.15456307 0.08047401 0.019455727 -0.15982118
000190 8f 5d 69 be a6 2d 81 bd c5 1d 41 be cd 84 65 be
       -0.22789596 -0.06307535 -0.18859012 -0.2241394
0001a0 0c b9 6a bd d0 83 88 bd d7 b8 27 be 8f 01 86 bd
       -0.05730538 -0.06665766 -0.16379105 -0.06543266
0001b0 eb 5d 42 3d a6 37 50 be ef ca 0c be 58 cd 79 be
       0.04745285 -0.20333728 -0.13749288 -0.24394739
0001c0 b3 e7 29 3e ea 74 55 be fb 3b 80 bc 54 44 5d be
       0.16592292 -0.2084538 -0.0156536 -0.21608096
0001d0 07 5a 2e 3e 4e 95 aa 3d 77 2a a7 3d 1a 8d 02 be
       0.1702653 0.08329259 0.081623964 -0.12749138
0001e0 15 a3 d3 3d 17 87 a3 bd 32 8b 40 be 03 15 7f be
       0.1033384 -0.07984751 -0.18803099 -0.24910359
0001f0 96 80 a8 bd d6 62 00 3e 33 8f 49 be 87 e2 17 be
       -0.08227651 0.12537703 -0.19683532 -0.14832507
000200 b1 aa 3a 3e 62 08 20 3e 8e 6f 6f 3d bc 31 bd bd
       0.18229176 0.15628198 0.058455996 -0.09238002
000210 b5 cd be 3d e0 ab e3 3d 36 c0 22 be 8c 78 f2 3d
       0.09316579 0.11116767 -0.15893635 0.11839399
000220 b8 37 13 3e c6 2e e7 bc 49 62 6a 3e b3 4c 2b be
       0.14376724 -0.028220546 0.22889055 -0.16728477
000230 4d 8c 31 3e 95 02 53 3d 60 09 1f be 71 2c 0f bd
       0.17338677 0.051516134 -0.1553092 -0.034954492
000240 e6 07 cb bd 2c 57 a9 3d 5c 1e 9d 3d 83 f8 68 3e
       -0.09913616 0.0826858 0.07671806 0.2275105
000250 4d c9 07 3d 38 97 74 3e 6f 23 31 3e d9 1c 77 3e
       0.03315096 0.2388581 0.17298673 0.24132098
000260 55 ec b5 3c 38 72 40 bd 07 e0 e9 bd 13 28 c8 bd
       0.022207418 -0.046983927 -0.11419683 -0.097732686
000270 f6 f4 06 be be c0 3a bd 40 1e 33 bd 5c 70 03 be
       -0.13179383 -0.04559397 -0.04373002 -0.1283583
000280 26 38 b6 bd b5 d7 da 3d 46 00 10 bd 19 50 19 be
       -0.08897428 0.10685674 -0.03515651 -0.14971961
000290 18 0b 39 be 49 c4 8f 3b c4 e4 d8 bc 0d 4d 70 3e
       -0.18070638 0.0043874127 -0.026476271 0.23466893
0002a0 db bb a7 bd ad fa d3 bd b4 5c 9d 3d af 66 3c 3e
       -0.081901275 -0.10350547 0.07683697 0.18398546
0002b0 2c 59 dd 3d f2 4a 12 be 64 34 0d be 14 dd 3d be
       0.10808024 -0.14286402 -0.13789517 -0.18541366
0002c0 cd fd 81 bd db d3 a3 3d 74 bb 45 be 5e 50 0a be
       -0.06347237 0.079993926 -0.19309789 -0.1350722
0002d0 58 33 46 3e 5c 2d 1c 3e e7 09 42 bd 60 54 39 be
       0.19355524 0.15251678 -0.047372725 -0.18098593
0002e0 8b c7 59 3c de 31 12 3e ac 41 2a 3e 07 ff 36 3e
       0.013292204 0.14276835 0.16626614 0.17870723
0002f0 4c 12 07 3e 48 6a 2f be 23 d0 28 3e 34 22 2b be
       0.13190573 -0.17130387 0.16485648 -0.16712266
000300 bb d8 1f be cb b4 14 3e 58 a6 ea bd 4b 67 1d be
       -0.1561002 0.14522092 -0.11457509 -0.15371434
000310 1d cb 08 3e 0e a6 7f bd b9 a8 60 3d b7 c7 56 be
       0.13358732 -0.06241422 0.054848406 -0.20974623
000320 3a 33 d8 bd 4a 06 35 3e 29 99 0d 3e 34 fb 1f be
       -0.10556646 0.1767818 0.13827957 -0.1562317
000330 40 66 49 be 6a a3 14 bb 78 61 46 3e b5 7f 99 bd
       -0.19667912 -0.002268041 0.19373119 -0.07495061
000340 48 f7 f8 3d 10 67 63 be 1e 0e 87 3c b3 42 fa 3d
       0.1215654 -0.22207284 0.016486224 0.12219753
000350 f6 02 5a 3d 41 ca f4 3c b5 58 d8 3d 70 5a f3 bd
       0.05322548 0.029881598 0.105637945 -0.11882484
000360 82 6c f8 bd 22 4d 48 bd 3a 05 08 be fe 3e 56 be
       -0.12130071 -0.048901685 -0.13283244 -0.20922467
000370 31 23 92 bc ea 13 8c 3d 87 c4 c9 3d 49 59 52 3d
       -0.017839046 0.06839736 0.09851938 0.05135468
000380 0a ee 84 39 fb d3 44 be 9b 41 e9 bd b3 de 59 3d
       0.00025354355 -0.19221489 -0.113894664 0.0531909
000390 18 76 df 3d 6a d8 16 be 94 7d 81 bd 60 e6 a7 bd
       0.109111965 -0.14730993 -0.0632278 -0.081982374
0003a0 31 7e 92 bc 87 91 0c 3e 2d 52 f4 3c be 22 ac bc
       -0.017882438 0.1372739 0.02982434 -0.02101266
0003b0 b3 28 d6 bd b7 4a 44 3e c3 c8 9e bd 0b e4 56 3a
       -0.104569815 0.19169126 -0.07753136 0.0008197433
0003c0 74 a8 ef bd 0e 37 53 3e f5 0b 42 3e 7f 92 e9 bd
       -0.11702052 0.2062647 0.18949874 -0.11404895
0003d0 f6 de ae bd e0 3c be 3d 87 23 55 be 17 d1 0d be
       -0.0853862 0.09288955 -0.20814334 -0.13849293
0003e0 39 bf 73 bc c5 02 37 3e 63 82 b1 3a eb 2c d3 bd
       -0.014877134 0.1787215 0.0013542887 -0.10311302
0003f0 21 e0 54 bc e0 78 00 3e b8 0f 08 be ae 14 bc bd
       -0.01299289 0.1254611 -0.13287246 -0.09183632

weight f4 [64, 64]
000000 82 62 db b9 fc 4f 9c 3d b6 a4 cf 3d 95 aa 2e be
       -0.0004184433 0.07632443 0.10138838 -0.1705726
000010 74 1e 52 3e 92 64 72 3c 0a 80 d1 bd b9 a9 57 be
       0.2051943 0.014794486 -0.102295 -0.21060838
000020 aa 7c 7f 3d d0 17 93 bc fe 9b 93 3d 1a e5 3e be
       0.06237475 -0.01795569 0.072074875 -0.18642083
000030 e9 ec 3a 3e 88 aa 59 3d 38 45 3e be 66 7f 0f be
       0.18254437 0.053141147 -0.18581092 -0.14013442
000040 45 7d 20 bb aa fc da bd 17 7c b3 bd 24 80 11 3c
       -0.002448873 -0.10692723 -0.08763903 0.008880649
000050 6c 0a d1 3d 89 6c c6 bd 2f ef 70 bd ba 33 59 3d
       0.10207066 -0.0968867 -0.058821853 0.053027846
000060 61 7d 01 3e c2 eb 0f be ee 56 fb 3d 7a 6c 96 bb
       0.12645485 -0.14054778 0.1227244 -0.004590568
000070 90 98 9f bc 52 5e 01 be c6 c2 48 be c0 07 12 be
       -0.019481927 -0.12633637 -0.1960555 -0.14260769
000080 0f 01 a2 3c e7 0d 74 3c d3 be 57 be ab 8c 2c bd
       0.019775895 0.014895893 -0.21068887 -0.04212634
000090 d0 6e d1 3c ee 06 40 3e 24 d7 0f be 28 15 6a bc
       0.025565535 0.18752643 -0.14046913 -0.014287271
0000a0 1a f9 8f bd ee 05 b9 bd 4d ef bc bd 68 5f b0 3d
       -0.07029934 -0.09034334 -0.092253305 0.08611947
0000b0 3f a0 21 bd 9a 12 39 3e 71 43 05 3e 59 1c 13 3e
       -0.039459463 0.18073502 0.13014008 0.14366283
0000c0 57 cd 33 3e 1c f0 15 be f9 8b 81 3d 7c cc 04 3b
       0.175588 -0.14642376 0.06325526 0.0020263484
0000d0 ad 1d ba 3b 79 88 fa 3d 98 ea 77 bd f4 62 64 3c
       0.005679807 0.12233061 -0.06052646 0.013939608
0000e0 79 33 35 be 3c cf 95 3d 58 35 d4 bd 69 5e bc bd
       -0.17695417 0.073149174 -0.10361737 -0.09197695
0000f0 98 bf 8e 3d 18 ae 6c bd e3 e2 42 3d 5f a4 4e 3d
       0.06970137 -0.057783216 0.047579657 0.050449725
000100 61 7c 38 be df ff 05 be a9 22 20 be 88 40 17 be
       -0.18016197 -0.13085888 -0.15638222 -0.1477071
000110 9f ed 41 bd 99 f7 1b bd 81 49 13 3e ab 28 53 3d
       -0.047345754 -0.038077924 0.14383508 0.051552456
000120 69 47 89 bd 66 21 9c 3c b8 b5 4c 3e e5 65 ad bd
       -0.067030735 0.019058894 0.19991195 -0.084667005
000130 34 af 8b 3d 40 df 7e 3e bc 2c 41 3e 00 90 c5 3d
       0.06820527 0.2488985 0.18864721 0.096466064
000140 7e 62 cb 3d 7e d2 0a be 39 b9 05 3e 5a 39 3a be
       0.09930895 -0.13556859 0.13058938 -0.1818594
000150 14 ae 07 be 62 70 f4 3d eb 80 8f bd 59 97 c7 3d
       -0.1325 0.11935498 -0.07007011 0.09745664
000160 a8 4c 3c be 6f 3d f4 bd b9 19 6e 3c c8 e6 53 3e
       -0.18388617 -0.1192578 0.0145325 0.20693505
000170 d4 7d 59 3e f5 ee 00 be c9 92 22 be e2 4e 90 bd
       0.21239406 -0.12591155 -0.15876307 -0.07046296
000180 c3 b2 95 3b 41 d8 16 3e fd fa b0 3d 36 0d 1a 3e
       0.004568429 0.14730932 0.08641622 0.15044102
000190 67 ac 29 be 97 21 78 3e 79 50 1b be 9d ec 5d bd
       -0.16569673 0.24231564 -0.15167417 -0.05418073
0001a0 b3 18 fc 3a 4d 7e 02 3e 96 ab 35 be e3 c8 dc 3d
       0.0019233435 0.12743492 -0.17741236 0.107805036
0001b0 15 37 b0 bc 60 80 22 be 29 6a 0d 3d 48 fb ac 3d
       -0.02151064 -0.15869284 0.03452507 0.084463656
0001c0 31 d9 15 be 61 15 06 be 58 07 ce 3d b4 9d 0f be
       -0.14633633 -0.13094093 0.100599945 -0.14025003
0001d0 14 6d b8 bd 60 5d 36 be 7e 27 ad 3d 20 2a c6 3c
       -0.0900518 -0.17809057 0.08454798 0.024190009
0001e0 af 8c 06 be 10 65 13 3e 54 d9 91 3d 89 b0 ce bd
       -0.13139604 0.14394021 0.0712153 -0.10092265
0001f0 db 1b 97 bc 37 aa ec 3d 2b e1 f9 3d 08 73 55 3e
       -0.0184459 0.115559034 0.122011505 0.20844662
000200 e6 e1 ad 3d 61 56 36 be e8 d5 9f bd 0a 30 1c be
       0.08490352 -0.17806388 -0.07804471 -0.152527
000210 b5 a3 3d 3b a5 dd be 3d 55 bd 21 be 09 a0 02 be
       0.0028936688 0.09319619 -0.1579488 -0.12756361
000220 ce 44 01 be cd a4 08 be 09 68 2e be 32 3a 0d 3e
       -0.12623903 -0.13344117 -0.17031874 0.13791731
000230 71 e0 0c 3d 57 d4 61 be 2d ae 11 bd 2f 0e 1a 3e
       0.03439373 -0.22053657 -0.035566498 0.15044473
000240 be 8b f0 3c 9b 4d 3c be 7d 12 64 bd 6f b4 42 3e
       0.02936351 -0.18388979 -0.055681694 0.19014142
000250 eb c0 33 3e c2 34 2b 3c 42 0f ea bd 13 73 48 be
       0.17554061 0.01044959 -0.114286914 -0.19575147
000260 94 4c ab 3d 05 9a 6c b9 09 f0 0a bd f8 2c fd 3d
       0.083642155 -0.0002256409 -0.03392032 0.12362093
000270 e7 ab 42 3e 31 7a 7a ba c7 fe 01 bc de cd ac 3d
       0.19010888 -0.0009554951 -0.007934279 0.084377035
000280 57 53 19 be d5 09 36 3d 15 37 a9 3d 3f 6f 13 3d
       -0.14973198 0.04444297 0.08262459 0.035994764
000290 cf 23 1e 3e c7 25 d8 bd 62 44 ab 3d 5e 31 8a 3d
       0.15443347 -0.105540805 0.08362652 0.06747697
0002a0 45 0d c6 ba 94 17 35 be af 7d e4 3d 2f ff c5 3d
       -0.0015110156 -0.17684776 0.11156785 0.09667813
0002b0 81 f0 ae 3d cf 3c 0f 3d 76 8e 1d 3c 5c 10 9b 3d
       0.08541966 0.0349701 0.009616485 0.0757148
0002c0 29 90 03 be 31 19 51 3e 83 4a 17 3e 35 ab 43 3e
       -0.12847961 0.20419766 0.14774518 0.19108279
0002d0 99 ce 2b 3e 21 63 34 3d da 5f 3a be 2b 1a 96 3b
       0.1677803 0.04403985 -0.18200627 0.004580756
0002e0 50 f3 5a be 93 e4 7d bd 60 8f 63 3d e0 0f f5 3d
       -0.21381879 -0.061985563 0.055556655 0.119659185
0002f0 97 78 44 3e 75 cc 39 be a5 93 0f 3e f0 b1 e8 bd
       0.19186626 -0.181444 0.14021166 -0.11362064
000300 5c a2 95 3d 80 4d 3c 3e a4 3d 6d 3e a0 07 91 3d
       0.07306358 0.18388939 0.23168045 0.070815325
000310 42 81 f0 bd 26 44 dc 3d cf 3b e9 bd 61 29 29 be
       -0.11743404 0.10755186 -0.11388361 -0.16519691
000320 86 b6 28 bd 79 b7 0a be 34 25 60 bc 09 f2 6f bc
       -0.041189693 -0.13546552 -0.013680745 -0.014645108
000330 b5 c9 f2 bd 1b 0d 27 be 6d 77 bb bb e9 36 07 3e
       -0.11854879 -0.16313593 -0.005721024 0.1320454
000340 6b bd 85 3d bf 6c 68 3e e0 f3 57 bd d8 06 9c bd
       0.06530269 0.22697733 -0.05272281 -0.07618493
000350 97 29 f3 bd 52 19 5e 3d c3 7c a7 bd bf 49 27 be
       -0.11873167 0.054223366 -0.08178093 -0.16336726
000360 1e 66 2c be 7a f5 48 3c 93 1d 32 3e 0c bd 29 3e
       -0.1683583 0.012265557 0.17394094 0.16576022
000370 4d 21 4f bd 78 11 bb 3d a5 1a f1 3d d5 4f a2 3d
       -0.050568867 0.09134191 0.1177266 0.07925383
000380 1f 64 ea 3d e8 a4 0b bc ce c8 81 bd 57 46 11 3e
       0.11444878 -0.008523203 -0.063371286 0.14186989
000390 9d 70 86 bc 05 72 32 3e 4e 69 27 3e 7e 92 52 3e
       -0.01641112 0.17426307 0.16348764 0.20563695
0003a0 9e 44 9e 3c b3 7b 4f 3e eb dc 0c be c0 90 2b 3e
       0.019319829 0.20262031 -0.13756149 0.16754436
0003b0 88 ed 38 bd c9 fa f6 3c c4 1d 58 bd c3 3a 47 3e
       -0.045148402 0.03014888 -0.05276276 0.1945601
0003c0 30 7d 49 3e 19 57 ac bd 30 dd ee 3c 87 43 11 3e
       0.19676661 -0.0841505 0.029158205 0.14185916
0003d0 6b 69 1e be 25 26 18 3d 2d 18 2e 3e 57 79 27 3e
       -0.15469901 0.037145752 0.1700141 0.16354881
0003e0 8b c2 0a be 24 32 68 3e 26 48 5b 3e 59 0b 66 3e
       -0.13550775 0.22675377 0.21414241 0.22465266
0003f0 c1 d2 b1 bb 7f a1 8e bc a7 68 eb bd 73 07 b6 bd
       -0.005426735 -0.017410992 -0.1149457 -0.088881396
