graph_classification_model_fold0.pth (torch, 98134 bytes, 10 tensors)

bias f4 [64]
000000 00 00 00 00 00 00 00 00 00 00 00 00 00 00 00 00
       0.0 0.0 0.0 0.0
000010 b8 5e 0d 3b 7f c7 d1 3c 09 06 10 3d df fb 24 3c
       0.002157135 0.025607822 0.035162006 0.010069816
000020 0d 73 b6 bb 89 20 2c 3d 00 00 00 00 97 ad 33 3d
       -0.0055679143 0.042023215 0.0 0.04386672
000030 00 00 00 00 33 5c 20 3d 00 00 00 00 00 00 00 00
       0.0 0.039150428 0.0 0.0
000040 00 00 00 00 eb f2 f5 bb 00 00 00 00 00 00 00 00
       0.0 -0.0075057647 0.0 0.0
000050 00 00 00 00 00 00 00 00 f3 83 c6 bb 00 00 00 00
       0.0 0.0 -0.00605821 0.0
000060 00 00 00 00 00 00 00 00 00 00 00 00 00 00 00 00
       0.0 0.0 0.0 0.0
000070 67 a6 32 bc 00 00 00 00 b6 8f c0 bb 3a d2 13 3d
       -0.010903931 0.0 -0.0058765067 0.03608916
000080 ed ba 09 bc b5 60 b7 bb 58 6f e6 3c 6d 10 03 3d
       -0.008406383 -0.005596245 0.028129265 0.031998087
000090 00 00 00 00 00 00 00 00 91 cd 13 3d 00 00 00 00
       0.0 0.0 0.036084715 0.0
0000a0 da 84 e5 3c 00 00 00 00 20 63 92 bb 00 00 00 00
       0.02801745 0.0 -0.004467383 0.0
0000b0 00 00 00 00 e5 95 d9 3c 00 00 00 00 00 00 00 00
       0.0 0.026560733 0.0 0.0
0000c0 00 00 00 00 63 ca 3d 3d f4 c0 0d 3d 00 00 00 00
       0.0 0.04633559 0.034607843 0.0
0000d0 00 00 00 00 00 00 00 00 00 00 00 00 b3 6c db bb
       0.0 0.0 0.0 -0.0066963076
0000e0 00 00 00 00 e5 b8 40 bc 9d f7 31 3d 66 8f 0d bc
       0.0 -0.011762832 0.043449033 -0.008640146
0000f0 10 71 3d 3d 37 71 1b 3d 00 00 00 00 00 00 00 00
       0.046250403 0.037949767 0.0 0.0

weight f4 [64, 1]
000000 e8 f8 b6 bd 1c 63 76 bd 80 99 e3 bd 04 4d 13 be
       -0.08934194 -0.06015311 -0.11113262 -0.14384848
000010 79 3c 6d 3e 09 3e 9b 3e 57 6b 2a 3e ca 07 8d 3e
       0.231676 0.30320767 0.1664251 0.27545005
000020 05 66 c8 3d 9d d7 9d 3d c0 7b f7 bd dd 04 a7 3e
       0.09785084 0.077071406 -0.1208415 0.32620898
000030 9a 2f 5e be bf f9 81 3e f8 ee 1e bd 34 d4 f5 bd
       -0.21697846 0.25385854 -0.038802117 -0.12003365
000040 00 d7 be ba 45 c2 5c 3e cf d0 89 be ed 30 71 be
       -0.0014559925 0.21558483 -0.2691712 -0.2355382
000050 94 c3 63 bd b5 2d 9a be 47 7e 0f 3d 52 47 5c be
       -0.05560644 -0.30112997 0.035032537 -0.21511582
000060 c0 9f 8b be 50 c2 fc bd 0b b5 26 be 00 5a cd ba
       -0.27270317 -0.1234175 -0.1628 -0.0015667081
000070 08 69 41 3e c6 86 97 bd 4e a1 48 3d fd a1 2b 3e
       0.18887722 -0.07398753 0.048981957 0.16761012
000080 80 9e 91 3d 4c 77 27 3c 29 6e 93 3d 1d b7 54 3e
       0.071103096 0.010221314 0.07198746 0.20772977
000090 f1 a2 8b be be ca f7 bd 79 61 97 3e 20 36 a3 bd
       -0.27272752 -0.12099217 0.29566553 -0.07969308
0000a0 10 92 5d 3e fb 8d 78 be a7 ac b3 3d e0 86 11 bc
       0.2163775 -0.24272911 0.08773165 -0.008882254
0000b0 30 1b 92 be 70 34 b7 3d 30 f9 03 bd 9f fb 96 be
       -0.28536367 0.089455485 -0.032220066 -0.29488847
0000c0 ca 97 c1 bd a6 cc 94 3e 64 26 a8 3d 63 fb 3d be
       -0.094527796 0.29062384 0.082104474 -0.18552928
0000d0 db 8e 20 be eb f3 0d be 63 39 21 be 18 5a 40 3d
       -0.15679495 -0.13862579 -0.15744548 0.04696092
0000e0 d5 0d 12 be e8 c4 55 3e a6 e7 51 3e 08 45 79 3e
       -0.14263089 0.20875895 0.20498523 0.2434274
0000f0 35 66 15 3d 37 73 9e 3e 12 3a 82 be 8b da 27 be
       0.036474425 0.30947277 -0.2543493 -0.16391961

bias f4 [64]
000000 00 00 00 00 8e 6d fc 3c 2c 0e 58 3c 00 00 00 00
       0.0 0.030813958 0.013186973 0.0
000010 6a 0c 3a 3d 00 00 00 00 0d 29 b5 3c f6 1e 46 3d
       0.045421995 0.0 0.022114301 0.04836937
000020 78 6b 95 3c 00 00 00 00 02 59 54 3d 18 1c 24 3d
       0.018239722 0.0 0.051842697 0.040065855
000030 00 00 00 00 90 75 1c bc 4d b4 d9 3c f1 68 fd b9
       0.0 -0.009549513 0.026575232 -0.00048334108
000040 b5 6f c8 bb 00 00 00 00 00 00 00 00 00 00 00 00
       -0.006116832 0.0 0.0 0.0
000050 00 00 00 00 d5 c9 c4 bb 3e 0f 45 3d 00 00 00 00
       0.0 -0.0060055056 0.04811024 0.0
000060 79 b1 14 3d 4c ac 01 3d 4e 31 af bb 00 00 00 00
       0.036302064 0.031658456 -0.0053464537 0.0
000070 09 3e 85 bb da 63 21 3d c9 c9 c4 bb 9d d8 29 3b
       -0.004066233 0.039401866 -0.0060055 0.0025916465
000080 0d c3 0e 3d 5f b4 18 3d 00 00 00 00 ae 1e 28 3d
       0.034853984 0.03728139 0.0 0.041044883
000090 d6 c9 c4 bb 16 82 17 bc c9 c9 c4 bb 31 5b 02 3d
       -0.006005506 -0.0092473235 -0.0060055 0.03182525
0000a0 f0 e8 bd bb 9e 66 00 3d c7 c9 c4 bb e3 d6 47 3d
       -0.0057955906 0.031347863 -0.006005499 0.048788916
0000b0 00 00 00 00 00 00 00 00 6e f2 c7 bb f4 ac 43 3d
       0.0 0.0 -0.006101898 0.047772363
0000c0 4c 5a b0 3b 2e 17 0b 3d 00 00 00 00 07 d1 07 bc
       0.005381858 0.033957653 0.0 -0.008289582
0000d0 b8 b9 0f 3d 00 00 00 00 00 00 00 00 5d 8f c7 bb
       0.035089225 0.0 0.0 -0.0060900883
0000e0 ea 95 c6 bb 31 2c 43 bc 74 a8 37 3d ae 4d 1c 3d
       -0.0060603516 -0.0119123915 0.044838384 0.03816002
0000f0 ee 6f fc 3c 7d 9d ad bb 00 00 00 00 1d 42 d5 3c
       0.030815091 -0.005298315 0.0 0.026032502

weight f4 [64, 64]
000000 82 94 46 be b8 a6 4c bd 48 f0 a3 3c af 68 41 3e
       -0.19392589 -0.049963683 0.020012036 0.1888759
000010 18 c8 be bc 7a 08 16 be 48 0c db bd e3 7b cb bd
       -0.023288772 -0.14651671 -0.10695702 -0.09935739
000020 fc 64 3c bd 98 9f 56 bd b9 29 2a 3e d0 5f 1d be
       -0.045994744 -0.052398294 0.16617478 -0.15368581
000030 7a 11 df 3d 7d d5 ee bd 6c 35 2c 3d 1e ee de 3d
       0.10892005 -0.116618134 0.042043135 0.10885261
000040 c2 20 db 3d 8c 5f 5a 3d ff b1 5c 3e d8 b3 08 3d
       0.106996074 0.053313777 0.21552275 0.033374637
000050 83 7f 00 3e e5 74 52 be 86 03 e4 3d 18 b1 1e be
       0.12548642 -0.20552404 0.111334845 -0.15497243
000060 98 e6 08 bd f0 cc 33 bc b1 51 58 3e eb 19 59 be
       -0.033423036 -0.010974154 0.21124913 -0.21201293
000070 40 cf 0d bc 6b 23 44 3e b3 f7 38 3e 26 15 2b be
       -0.008655369 0.19154136 0.1806324 -0.16707286
000080 34 29 a6 bd ae a4 9a 3d 6f 1c 23 3e 10 58 0e bc
       -0.081133276 0.075509414 0.15928815 -0.008687988
000090 86 6f 59 be d6 44 85 3d c0 ed 80 bb b8 36 26 be
       -0.21233949 0.0650727 -0.003934592 -0.16231811
0000a0 b4 d3 20 3d 88 b3 4d be 75 1b 02 3e 5c 12 31 be
       0.039264396 -0.20088017 0.12705787 -0.1729216
0000b0 fc a1 99 bd 1c ee 5b 3d a5 fe 09 3e fc ac 40 be
       -0.07501599 0.053693876 0.13476045 -0.18815988
0000c0 d6 11 36 be 49 8f 5d 3e 06 bd d7 bd f0 f7 4b be
       -0.17780241 0.2163669 -0.105341 -0.199188
0000d0 6c cf 43 be cd 36 4e 3e 40 0c 6b bd 25 8c 2f 3e
       -0.19122094 0.20138092 -0.05738473 0.17143305
0000e0 6a 11 4c be a0 dc 67 bd 27 c2 43 3e c0 a8 3e be
       -0.19928518 -0.05660689 0.19117032 -0.1861906
0000f0 c8 9b 8f bd 55 10 09 3e 9f 8c 23 3e 46 fc 92 3d
       -0.07012135 0.13385136 0.15971611 0.071770236
000100 15 3f 0c 3e 50 1f 97 bd 1a cd c3 bd 23 bd 19 3e
       0.13695939 -0.07379019 -0.095606044 0.15013556
000110 0f 0c 46 be 0e 23 75 3b 1f 1e 6a 3e 38 7b b7 3d
       -0.19340537 0.0037404927 0.22863053 0.08959049
000120 aa da bd bb 27 b1 15 bd 80 03 35 3c 7c 2d d1 bc
       -0.005793889 -0.0365459 0.011048198 -0.025534384
000130 8d 4b 24 be 17 cd 33 bd 4d 56 5a be 9d 55 48 3e
       -0.16044445 -0.04389676 -0.21321984 0.19563909
000140 57 ab 52 be 40 2b 20 bb 12 88 8b 3d 97 88 5a be
       -0.20573173 -0.0024439842 0.06813063 -0.21341167
000150 0a 93 f3 3d 80 c7 b3 bc f1 a6 9f 3b 10 ca 9f 3c
       0.1189328 -0.021945715 0.004872196 0.01950553
000160 58 ec c9 bc c4 c2 74 3d 8e 74 ac 3d 1f 72 2e be
       -0.02464883 0.059756055 0.084206685 -0.17035721
000170 ed 3a 15 bd d6 3f 39 be 07 ad f5 bd d7 e4 23 3e
       -0.03643315 -0.18090758 -0.11995893 0.16005264
000180 7b f5 2e be 63 97 1e bc 37 fb 9c 3d cb b9 05 3e
       -0.17085831 -0.009679648 0.07665103 0.13059156
000190 22 ec 9a 3d 65 84 51 be dd 55 73 3e 60 14 94 3b
       0.0756457 -0.20460661 0.23763223 0.0045190305
0001a0 e0 6a 0e 3e 3c 29 20 3d 98 54 3a 3e 28 40 ee 3c
       0.13907957 0.039101824 0.18196332 0.029083326
0001b0 dc f4 be bd ab 8d 3e 3e a0 35 ad 3c b7 a1 3c 3e
       -0.09324047 0.1860873 0.021143734 0.18421064
0001c0 ea f8 3a be 22 6e 44 3e 46 a9 26 bd 85 98 2f 3e
       -0.18259016 0.19182637 -0.040688775 0.17148025
0001d0 0c 41 41 be c6 38 b0 3d e3 69 33 3e 5a 93 90 3d
       -0.1887247 0.08604579 0.17520861 0.07059355
0001e0 3c d5 1c bd e1 bc 43 3e 32 b4 63 bd cc b8 42 bd
       -0.038289294 0.1911502 -0.05559177 -0.047539517
0001f0 b1 94 1a 3e de 2a 4c 3e 60 41 fc bd a3 71 59 be
       0.15095784 0.19938228 -0.12317157 -0.21234755
000200 86 9c 97 3d c8 8f a0 bc b7 e3 c6 bd 8e d9 3a be
       0.07402901 -0.01959981 -0.09711402 -0.18247053
000210 ec 91 42 3e c2 ec 71 bd b4 06 65 bc bb c5 ac ba
       0.19000977 -0.05906368 -0.013978649 -0.0013181487
000220 3c 4b 1e be 55 d5 24 3e 88 82 92 bd 9c 1e 86 3d
       -0.15458387 0.16097005 -0.07153803 0.06548807
000230 54 a9 1a 3d 8f 72 9c 3d eb 50 57 3e 8d fa 00 be
       0.03775914 0.07639038 0.21026962 -0.12595578
000240 64 74 ed bd bf 15 f4 3d 98 29 b4 bc 40 35 3f bc
       -0.115944654 0.1191821 -0.02199249 -0.011670411
000250 cc b4 04 bd 00 ba d8 3a 1b 1b 38 bd 0c d3 58 3d
       -0.032398984 0.0016534925 -0.044947725 0.052935645
000260 80 31 3c be a8 3a b7 bc 36 3f b9 3d b6 f2 22 be
       -0.18378258 -0.022366837 0.0904526 -0.159129
000270 48 95 a2 bd 0c f6 94 bd 72 f2 01 be a7 48 3c 3e
       -0.079386294 -0.07273492 -0.12690142 0.1838709
000280 4b 14 8d 3a 3b 4d fe bd 30 f4 15 3e aa f3 95 3c
       0.0010763494 -0.12417074 0.14643931 0.018304665
000290 94 8d cc bd 1d bc 54 be e6 c6 eb 3c 41 2f 44 3e
       -0.099879414 -0.20774885 0.028781366 0.19158651
0002a0 8b fa 28 be 35 c7 29 3e 1a 33 17 3e 8c 22 16 3d
       -0.16501825 0.16579898 0.14765587 0.03665404
0002b0 e2 7e 19 be a3 40 02 3e f7 bb 38 3e b4 d6 a0 bd
       -0.14989808 0.1271997 0.18040453 -0.07853451
0002c0 d4 40 02 be 40 d1 4f 3e 9f ae 45 3d 6c f7 f3 bd
       -0.12720042 0.20294666 0.048262235 -0.11912426
0002d0 80 cf 93 3b c0 96 77 3c 51 52 3f be fe 42 cd bd
       0.00451082 0.015111625 -0.18683745 -0.10022543
0002e0 c0 12 55 bd 72 06 e6 bc 24 cc 1b be fa 05 69 3e
       -0.052019835 -0.028079245 -0.15214592 0.22756186
0002f0 34 64 5d 3e f5 c5 5e bd 35 1d 28 be 82 1d d6 bd
       0.21620256 -0.054388005 -0.16417392 -0.10454847
000300 da 63 a6 bd 96 07 26 be dc 0c a4 bd 2e 77 a7 3d
       -0.08124514 -0.16213831 -0.08010265 0.081770286
000310 94 c8 16 be d8 16 f9 bd c6 d4 5a be 20 b6 7b bc
       -0.14724952 -0.1216256 -0.21370229 -0.015363246
000320 90 19 a9 bc 0f d5 09 3e e1 79 ee bd fc bb d5 bd
       -0.020642072 0.13460182 -0.1164434 -0.10436246
000330 c0 1f 02 bb a0 1b 41 3c d8 05 02 3d f0 7d cf bd
       -0.001985535 0.0117863715 0.031743854 -0.101314425
000340 9c 9d 06 3d 6e 81 a9 3d f0 62 44 be 24 8a 22 3d
       0.03286515 0.0827664 -0.19178367 0.039682522
000350 3f 64 1d 3e 00 a1 dc 3c bd 84 57 be 36 df 24 be
       0.15370272 0.02693224 -0.2104673 -0.16100773
000360 b4 9c 30 be 36 55 0f be ea 1a df 3d b2 7b a7 bd
       -0.17247277 -0.13997349 0.10893805 -0.0817789
000370 6c 3c 07 bd 9a e7 a7 3d b7 21 ed bd cb cc 3e be
       -0.033016607 0.08198471 -0.11578696 -0.1863281
000380 98 03 c0 bc 8a 6b cc 3d 02 7d d2 3d 20 e3 0b 3c
       -0.023439214 0.09981449 0.102777496 0.008538038
000390 04 58 1b bd 80 b6 30 be 07 64 4b 3e 64 98 70 3d
       -0.037925735 -0.17257118 0.19862376 0.05873908
0003a0 1a 15 cf 3d df 18 47 3e 64 65 34 be 82 e3 e4 bd
       0.10111447 0.19443081 -0.17616802 -0.11176206
0003b0 75 d0 4a 3e 48 a7 ec bc 02 13 fc 3d aa 25 f3 3d
       0.19806083 -0.02888836 0.12308313 0.11872418
0003c0 34 12 fc bd e5 c3 07 3e ca c9 05 be 98 fd 47 be
       -0.123081595 0.13258322 -0.13065258 -0.19530332
0003d0 ef d0 23 3e c2 66 38 be 35 a7 08 3e 50 40 e7 bc
       0.1599767 -0.18007949 0.13345034 -0.028228909
0003e0 20 71 3c bd c6 f8 c0 3d 12 e7 87 bd 5d d4 58 3e
       -0.046006322 0.0942245 -0.0663587 0.2117476
0003f0 74 11 25 3d 7f 19 fc bd bc f4 16 3d c8 89 ff 3c
       0.040299848 -0.123095505 0.03685449 0.031193629

bias f4 [64]
000000 69 62 f9 3c 00 00 00 00 eb fa b9 3c 47 21 25 bc
       0.030442433 0.0 0.022702655 -0.010078735
000010 02 bf 97 bc 00 00 00 00 66 68 ea 3c 00 00 00 00
       -0.018523697 0.0 0.028614234 0.0
000020 00 00 00 00 00 00 00 00 31 c5 1f bb 83 15 e1 bb
       0.0 0.0 -0.002437901 -0.0068690195
000030 61 49 0f 3d 00 00 00 00 56 27 b6 bb 00 00 00 00
       0.03498209 0.0 -0.0055588884 0.0
000040 17 df 2d 3d 26 3c 73 bb 2f 7c 46 3d 42 7e e7 3c
       0.042449083 -0.0037114709 0.048458274 0.028258447
000050 02 01 50 3d d2 c9 c4 bb 78 71 3b 3b db 0b 96 3d
       0.05078221 -0.006005504 0.0028601568 0.0732648
000060 55 63 4f 3c 00 00 00 00 c2 11 a5 3c be 25 1f 3d
       0.01265796 0.0 0.02015007 0.038854353
000070 6a 4e 1b 3d 03 a1 0a 3d 00 00 00 00 00 00 00 00
       0.03791658 0.03384496 0.0 0.0
000080 00 00 00 00 16 74 51 3d e1 44 32 3d 00 00 00 00
       0.0 0.0511361 0.04352272 0.0
000090 f0 87 93 bc 82 cc 8f 3c 00 00 00 00 00 00 00 00
       -0.018009156 0.017553572 0.0 0.0
0000a0 00 00 00 00 00 00 00 00 4a 4f 37 bc 45 8e a0 bc
       0.0 0.0 -0.011188338 -0.01959909
0000b0 f4 d9 db bb f4 b6 5c bc 0c 95 09 3d 53 4d 6b bc
       -0.0067093316 -0.013471354 0.033589408 -0.014361697
0000c0 ad ba 19 3d 26 25 1d bd 00 00 00 00 c8 c9 c4 bb
       0.037531544 -0.038365506 0.0 -0.0060054995
0000d0 00 00 00 00 6f 7c 91 bb 6d 73 21 3d ce c9 c4 bb
       0.0 -0.0044398825 0.03941672 -0.0060055023
0000e0 91 31 1e 3d 22 a6 a5 3b 1c 18 f0 bb c5 59 60 3c
       0.03862149 0.005055205 -0.007327093 0.013693278
0000f0 e2 27 b6 bb 00 00 00 00 d6 43 9f 3c af 4c 32 bc
       -0.0055589536 0.0 0.019441526 -0.010882541

weight f4 [64, 64]
000000 20 47 50 be 5b 34 e6 3d 0f 35 73 3e da 11 96 3d
       -0.20339632 0.11240455 0.23750709 0.07327624
000010 5a b4 fa bd 8c 4a 7f 3d 82 21 32 3e 49 8d 3d bd
       -0.122414306 0.062326953 0.17395595 -0.04627732
000020 bc 77 54 3d db fe 50 3e 29 8c 18 3d 5b f6 51 3e
       0.051872 0.2040972 0.037243042 0.20504133
000030 be 3d 1f be ff 83 e2 ba f9 b7 fd 3c 5f 1b 0f be
       -0.15550897 -0.001728177 0.030971514 -0.13975285
000040 27 9b 2c be b4 85 26 3d e2 22 46 be 44 9c 21 be
       -0.16856061 0.040654853 -0.19349244 -0.15782267
000050 a5 ca 04 3e 00 f3 ad bd 2a 9f cf 3d 7b 68 51 be
       0.12967928 -0.08493614 0.1013778 -0.20450012
000060 37 16 d0 bd 45 78 50 3e 58 3a 59 be 30 90 1d be
       -0.10160487 0.20358379 -0.21213663 -0.15387034
000070 a4 8c 1a 3d c3 88 27 3e 1f 27 27 3e f7 c6 81 3d
       0.03773178 0.16360764 0.16323517 0.06336778
000080 cb c6 2f be 85 b4 94 bd 36 9e b4 3d 5b 96 9a 3d
       -0.17165677 -0.07260994 0.08819239 0.07548209
000090 a8 7e 19 bd aa 1f 41 bd af 60 0c 3e 20 cf 5f 3e
       -0.037474304 -0.047149338 0.13708757 0.21856356
0000a0 a6 9d c7 3d c4 1f a9 3d 52 66 b0 bd 66 15 fc bd
       0.09746866 0.08258012 -0.08613266 -0.12308769
0000b0 78 a1 eb bd 3f 1a 4d 3e 71 ad 7b 3d 6d e4 5d bd
       -0.11505407 0.20029543 0.061444703 -0.054172922
0000c0 7f 94 9b bd 6f 3e 53 3e fd db 1f be d6 7b 49 be
       -0.07596683 0.20629285 -0.15611263 -0.19676146
0000d0 2b 5f 32 3e 8f 7f 2d be 10 b9 c8 bc 78 2a 53 3d
       0.17419116 -0.16943191 -0.024502307 0.051554173
0000e0 91 5c 3d 3e 32 b6 05 be 3c 85 22 3e 22 51 a3 bd
       0.18492343 -0.13057783 0.15871137 -0.07974459
0000f0 94 e0 9b 3d 19 0e 2b 3e f6 15 f3 3d 9d 26 0e 3e
       0.07611194 0.16704597 0.11869423 0.13881917
000100 18 16 4b be fb 06 17 be 6c 8e 40 be 80 03 af 3c
       -0.19832647 -0.14748757 -0.1880433 0.021363974
000110 12 67 04 be c8 a1 0f bd 5a f3 30 be 16 ec 09 be
       -0.12929943 -0.035066396 -0.17280331 -0.13468966
000120 c7 ed 0c 3e 05 b2 ee bd 00 0a f2 bc 74 96 a5 bd
       0.1376258 -0.11655048 -0.029545784 -0.08085337
000130 ee 18 07 be 20 a4 e5 3c 91 84 4b 3e 2b 84 22 3e
       -0.13193104 0.028032362 0.19874789 0.1587073
000140 0c 47 44 3d f7 bc eb bd 4c 6a 6a 3d 4c a8 06 bd
       0.047919318 -0.115106516 0.05723028 -0.032875344
000150 04 0d 22 3d b7 dc df bd e4 ed 73 3d 75 3e 18 be
       0.039563194 -0.1093077 0.059553042 -0.14867575
000160 a0 9f 4a be 12 83 da bd b4 33 6a bd fd 30 21 3e
       -0.19787455 -0.10669531 -0.057178214 0.15741344
000170 fa 1a f1 3d 67 9b d0 bd 70 43 43 be 7f 72 1c 3e
       0.117727235 -0.10185891 -0.19068694 0.15278052
000180 85 da 49 3e ac 10 91 bd a0 a6 f3 bb 66 a8 ed 3d
       0.19712265 -0.07083258 -0.0074356347 0.11604385
000190 f0 8c 1d bd 5a aa de 3d 3f 92 c9 bd f9 7c 02 3e
       -0.038464487 0.10872336 -0.09842347 0.12742986
0001a0 72 e0 c2 3d 2c 70 52 be 8f 54 55 3e 4b ec 16 3e
       0.09515466 -0.20550603 0.20833038 0.14738576
0001b0 14 5f 32 bd 32 ed b0 bd fe 43 15 be 60 10 ae 3c
       -0.043547705 -0.086389914 -0.14576718 0.021248043
0001c0 f0 dc 26 bc 70 15 26 bd f5 36 56 3e 7a 21 88 3d
       -0.010184512 -0.04054779 0.20919402 0.0664701
0001d0 68 dc 54 be bc b2 6a 3d d0 dd f2 3c 93 dc 0d 3e
       -0.20787203 0.05729936 0.029646784 0.13853674
0001e0 d0 c1 96 bd d6 4c f7 3d c2 43 8f bd 9c df 4c bd
       -0.073611856 0.12075202 -0.06995346 -0.050017938
0001f0 2c 18 f7 bd 06 bd 0e be e8 0b c2 3c 50 48 d0 3c
       -0.12065157 -0.13939294 0.023687318 0.025425106
000200 94 70 00 be a3 4c 41 3e b4 73 44 be 02 9f 98 bd
       -0.12542945 0.18876891 -0.19184762 -0.07452203
000210 48 c1 52 3e c0 87 7e bd 5a c6 0a be c2 d6 59 3c
       0.20581543 -0.06214118 -0.13552228 0.013295831
000220 44 8c 25 3d 86 65 ae 3d b4 72 b9 3d 6f bb 62 bd
       0.04041697 0.08515458 0.09055081 -0.05535453
000230 e0 45 30 bc 29 9d 40 bc 0e 5c 34 3e 36 eb 27 3e
       -0.010758847 -0.01175622 0.17613241 0.1639832
000240 f6 5e a3 bd 65 ce 3d 3e df 33 20 3e 1b 68 1a be
       -0.07977097 0.18535765 0.15644787 -0.15078776
000250 84 fb 1b be 5f 70 cf 3d 64 35 cb bc d8 71 82 bd
       -0.15232664 0.10128855 -0.024805732 -0.0636937
000260 f6 6e 2a 3c 4e 3c cb 3d 93 74 1c 3e 61 75 3c 3e
       0.010402432 0.099236116 0.15278845 0.18404151
000270 0d 9b a5 bc 03 f0 d1 bb 9d ec 44 be 99 64 1b 3e
       -0.020215536 -0.0064067855 -0.19230886 0.15175094
000280 f2 f5 a8 bd a3 ec 76 bb 64 1b 6b 3d 75 e8 aa 3d
       -0.08250035 -0.0037677668 0.05739917 0.08345119
000290 81 15 45 be 3f c3 e4 3d ed 38 d5 3d 90 f8 20 3e
       -0.19246484 0.11170053 0.10411248 0.15719819
0002a0 08 90 2a be 0f d8 3d be ac be 60 3e 24 d5 a8 bd
       -0.16656506 -0.18539451 0.21947736 -0.08243778
0002b0 14 96 c7 bd 1a 84 89 3d e0 39 87 bd d0 66 e5 3d
       -0.09745422 0.067146495 -0.06602836 0.112012506
0002c0 30 3f ae 3c 8f 1d 22 3e 40 58 da 3b 64 4d 47 be
       0.021270365 0.15831588 0.0066633523 -0.19463116
0002d0 87 d8 0f 3e b8 00 55 be b3 22 c6 bd af ba eb 3d
       0.14047442 -0.20801055 -0.09674587 0.115102164
0002e0 e7 3b 4d be f6 00 f5 3b 31 89 d2 bd 2c 53 84 3d
       -0.20042382 0.007476921 -0.102800734 0.06461176
0002f0 2c 5f 88 3d 94 dc 58 3e 66 0a f8 3d 48 5d e0 bd
       0.066587776 0.21177894 0.12111358 -0.10955292
000300 e5 b6 19 3e 5f 22 46 3e 3c a0 1e be f1 72 4f 3e
       0.15011175 0.19349049 -0.15490812 0.2025869
000310 bb eb 9b bd 3d e2 04 3e 0c 08 54 bb 98 22 27 3e
       -0.076133214 0.12976928 -0.003235343 0.1632179
000320 c7 7e 44 bd 91 8d 24 be f9 c4 3a be 42 e9 38 be
       -0.047972467 -0.16069628 -0.18239202 -0.18057731
000330 9e c1 bd 3d aa a0 82 bd cb 0e 22 be 2e 71 1f 3d
       0.09265445 -0.063783005 -0.15825956 0.038926296
000340 b0 c5 dd 3c 28 bb 81 bc 3c 8a 19 bd 55 70 05 3e
       0.027071804 -0.015836313 -0.037485346 0.13031133
000350 b5 1d 4e 3e 15 dd 50 3e 9d 54 81 3d ef fa 0a be
       0.2012852 0.20396836 0.06314967 -0.13572286
000360 f5 27 12 be fe 0d 67 bb f2 85 90 3d 78 3b 92 bc
       -0.14273055 -0.0035256143 0.07056798 -0.017850623
000370 d9 61 53 3e bb 09 47 3e 81 9d 22 3e 95 a2 08 be
       0.20642795 0.19437306 0.15880395 -0.1334327
000380 de 9d b2 3d 61 a8 d8 3c 00 94 79 39 92 d0 9b bd
       0.08721517 0.026447477 0.00023801625 -0.07608141
000390 00 77 70 3a cc 62 53 be ab 8d cb bd a8 08 40 be
       0.0009173006 -0.20643157 -0.099391304 -0.18753302
0003a0 1c 9f 5d bd 9b ce 11 be ca ca 4d be 0c be 60 bd
       -0.054106817 -0.1423897 -0.20096889 -0.054868743
0003b0 8e 5f b1 bd 7c fe 6e 3d 9b 23 4a 3e b5 68 10 bc
       -0.08660804 0.058348164 0.19740145 -0.008814027
0003c0 fb f8 3f bc 77 0a 8b 3d 66 f0 a9 3d 65 a3 33 3e
       -0.011717076 0.067891054 0.082978055 0.17542799
0003d0 b3 0d 28 3e 6f 3f 19 3e 70 f7 bf 3c bc ce 3c 3d
       0.16411476 0.14965604 0.023433417 0.046095595
0003e0 c9 8c 54 3e 61 7c 39 3e 1a 70 61 bd 1f 26 32 3e
       0.2075683 0.18113853 -0.05503855 0.17397355
0003f0 42 b5 52 bc fc fd ba bd 09 08 0e be 90 45 86 bd
       -0.012860598 -0.09130475 -0.13870253 -0.06556237

bias f4 [64]
000000 51 87 1f bc 00 00 00 00 00 00 00 00 00 00 00 00
       -0.009736852 0.0 0.0 0.0
000010 00 00 00 00 ee 4e 71 3d cb ca c6 bb 9b 7c 58 b9
       0.0 0.058913164 -0.0060666553 -0.00020645784
000020 22 aa 6f bc d2 c9 c4 bb 00 00 00 00 00 00 00 00
       -0.014627965 -0.006005504 0.0 0.0
000030 e9 17 55 3c df 7a 5e 3c 2e 8d 8e 3c 27 df c2 3b
       0.013006189 0.013579099 0.017401304 0.005947012
000040 2a fd fa 3a 00 00 00 00 9a 4c c5 bb 00 00 00 00
       0.0019148935 0.0 -0.0060210945 0.0
000050 45 b3 07 bc 00 00 00 00 00 00 00 00 53 27 b6 bb
       -0.008282487 0.0 0.0 -0.005558887
000060 00 00 00 00 5d f1 10 bc 2c 85 5a 3d 00 00 00 00
       0.0 -0.008846608 0.05334966 0.0
000070 ae 43 4a 3d 4e 9e 54 3a 99 7f 2e bc ea 6e ba bc
       0.04938095 0.00081107474 -0.010650539 -0.022757966
000080 00 00 00 00 07 d4 21 3d 2c 18 08 3d 00 00 00 00
       0.0 0.039508846 0.033226177 0.0
000090 27 3c 02 bc 00 00 00 00 00 00 00 00 00 00 00 00
       -0.007948912 0.0 0.0 0.0
0000a0 10 36 af bc 8c 8b 99 bc 43 e7 61 bc d6 c9 c4 bb
       -0.021388084 -0.018743299 -0.013788047 -0.006005506
0000b0 c2 29 68 3b 00 00 00 00 b7 c9 f8 3c 00 00 00 00
       0.003542528 0.0 0.030369623 0.0
0000c0 a2 58 78 3d 00 00 00 00 00 00 00 00 17 b5 ea bb
       0.0606314 0.0 0.0 -0.007162701
0000d0 00 00 00 00 98 27 93 3b 00 00 00 00 67 9e 25 bc
       0.0 0.004490804 0.0 -0.010108567
0000e0 24 9c a6 3c 70 02 5b bc 00 00 00 00 00 00 00 00
       0.020338126 -0.01336728 0.0 0.0
0000f0 dc 96 18 3d 79 5d 95 3d 00 00 00 00 00 00 00 00
       0.037253246 0.07293219 0.0 0.0

weight f4 [64, 64]
000000 00 5c 29 3e 0c 5d 50 3d bb a8 8e 3d da c8 f5 bd
       0.16539001 0.050869986 0.069657765 -0.120012
000010 b7 b3 88 bd 72 02 aa 3d e4 d8 05 be 82 5a 18 be
       -0.06674903 0.08301248 -0.13071018 -0.14878276
000020 50 d1 e5 bd 55 e8 fa bd b9 f3 1d 3d f1 75 50 3d
       -0.11221564 -0.12251345 0.03856251 0.050893728
000030 08 a2 16 3e 3d ee 58 3e 61 c6 90 bd dc aa 5b 3d
       0.14710248 0.2118463 -0.07069088 0.05362974
000040 46 76 dc bc 16 87 d8 3d 7c 4e 5a be 63 a6 20 3e
       -0.026911866 0.105726406 -0.21319002 0.15688471
000050 23 24 9e 3d 00 2c 8c b9 8a 87 04 3e 64 56 85 3c
       0.07721736 -0.00026735663 0.12942329 0.016276546
000060 d7 9b 45 3e 9f 7d 26 be ca 5a 46 be 91 60 35 be
       0.1929773 -0.16258858 -0.19370571 -0.17712618
000070 42 c3 af bd d5 c5 33 be 1f af f8 bd 57 98 55 3e
       -0.08582164 -0.17555936 -0.12142777 0.20858894
000080 f6 2e 12 be e3 a2 07 be ea b4 5e be 94 b2 62 3d
       -0.14275727 -0.1324573 -0.217487 0.055346087
000090 90 d2 6e bc 37 27 46 3e 82 60 15 be ac d5 34 be
       -0.014576569 0.19350897 -0.14587596 -0.17659634
0000a0 be f2 35 be a4 d6 4a 3d 52 c4 2f be 53 d8 5c be
       -0.1776838 0.049521104 -0.17164734 -0.21566896
0000b0 2e d2 07 bc d6 06 40 3d 4b 40 16 3e 63 ee 2a 3e
       -0.008289857 0.04688152 0.14672963 0.166925
0000c0 15 be 6d be 32 f3 c6 3d 8b 55 23 3e 04 4b 42 3d
       -0.23217042 0.097143546 0.15950601 0.04743482
0000d0 74 2d 30 be e9 ea d1 3d 07 84 29 bc dd e4 41 3e
       -0.17204839 0.10249884 -0.010346419 0.1893496
0000e0 68 ae 05 3e 4f 8d a4 3c 4c e7 50 3e 9f dd 0d bc
       0.13054812 0.020086912 0.20400733 -0.008658796
0000f0 1e da ac bd 4c c9 fb bd c6 dd 0a be 33 0f d0 bd
       -0.0844004 -0.12294254 -0.13561162 -0.10159149
000100 84 40 26 bd 00 02 50 bd 1a ea a9 3d a8 17 bb bc
       -0.04058887 -0.050783157 0.082966045 -0.022838429
000110 34 de 46 be f0 63 4c 3c 1c 8a 08 be 7f 4b 4a 3e
       -0.19420701 0.012474999 -0.13333935 0.19755362
000120 20 ce 4c bd 56 7e de 3d c2 31 ac bd a0 09 44 3c
       -0.050001264 0.108639404 -0.08407928 0.011965185
000130 07 31 4c be 3a dc ab 3d e0 fe e3 bb dd 7d 0b 3e
       -0.19940577 0.08391614 -0.0069578737 0.13622232
000140 cd c3 39 3e 89 08 21 be 4a aa 40 be d4 f0 2a bd
       0.18141098 -0.15725912 -0.1881496 -0.041733578
000150 00 80 2f bb 34 61 16 3d de 97 00 be e1 db 52 3e
       -0.0026779175 0.036713794 -0.12557933 0.2059169
000160 d6 e6 3c be e0 e4 a2 3b 7f 99 45 3e 7c 07 53 be
       -0.18447432 0.0049711317 0.19296835 -0.20608324
000170 03 19 07 3e 26 a6 e5 bd 28 f3 00 3d ac 3e 1a be
       0.13193135 -0.11213331 0.031481892 -0.1506297
000180 38 68 a8 bd 5c fd 4e bd 54 99 07 bd 04 68 93 bd
       -0.08223003 -0.05053459 -0.03310521 -0.07197574
000190 6a 98 ac 3d 64 58 0d be 9a bb de 3d 56 5f d9 3d
       0.08427508 -0.1380325 0.10875626 0.10613887
0001a0 c8 cb 99 bc 1e 59 dc 3d a7 b2 09 3e 09 ab 4c be
       -0.018773928 0.10759185 0.13447057 -0.1998712
0001b0 b6 cc e2 bd 21 c5 f6 bd 7a 5e 8c bd f6 2d a7 bd
       -0.11074202 -0.12049318 -0.068539575 -0.08163063
0001c0 58 bd 5a bd 14 77 2a be c3 ab 31 3e 80 42 ce ba
       -0.05340323 -0.16646987 0.17350678 -0.0015736371
0001d0 0a 37 b7 bd a0 04 c0 3b 64 4e 13 3d 78 17 b4 bc
       -0.08946045 0.0058599263 0.03596343 -0.021983847
0001e0 7c d6 02 bd fa 61 48 be 0a d3 91 3d a0 61 d8 3c
       -0.03194283 -0.19568625 0.07120331 0.026413739
0001f0 e2 5d 8c 3d bb 3d 1f be 45 35 15 3e 4a 91 f1 3d
       0.06853844 -0.15550892 0.14571102 0.1179529
000200 74 ee 5c 3d 14 74 63 bd 9a 87 dc 3d 5d e2 30 3e
       0.053938344 -0.055530623 0.107680514 0.1727385
000210 78 10 ea bc 73 12 05 3e c8 38 51 be 47 96 59 3e
       -0.028572306 0.12995319 -0.20431817 0.21248733
000220 aa 2c b7 bd 4c 99 58 be 35 ce f6 bd c0 83 ad 3b
       -0.08944066 -0.21152228 -0.120510496 0.005295247
000230 a2 52 43 be a5 ce 4c be 27 5e 54 3e 2e 38 f5 3d
       -0.1907449 -0.20000704 0.20739041 0.11973606
000240 36 19 8b 3d 72 42 8b 3d ea 3b 00 be 42 a1 3d be
       0.06791918 0.06799783 -0.12522855 -0.18518546
000250 e0 43 fb bd da dd 9c 3d 7b c0 3d be 56 66 31 be
       -0.122688055 0.07659502 -0.18530457 -0.17324194
000260 e5 99 2e 3e d0 7f 0e 3c 7a da 82 3d dc f9 64 3d
       0.17050894 0.008697465 0.06389327 0.055902347
000270 af b6 ed bd 18 bc ac bd a0 3e d2 bb 6a b7 b5 3d
       -0.1160711 -0.084343135 -0.006416157 0.08872874
000280 24 d2 00 bd 62 a2 25 be 2a d5 ed 3d 7c 1b 18 3d
       -0.031450406 -0.16175225 0.116129234 0.037135586
000290 a8 28 ed 3c 5d ee 53 3e 60 ef 0c be 8c 92 2e 3d
       0.02895005 0.20696397 -0.1376319 0.042620227
0002a0 c4 ff 11 3d ef 26 1e 3e a9 9a d8 bd 9c 9b 48 3d
       0.035644308 0.1544454 -0.10576374 0.048976526
0002b0 d8 6d 95 3c de 81 9d 3d 76 86 b2 3d ee cc 88 bd
       0.018240854 0.07690786 0.08717053 -0.06679712
0002c0 44 ac 17 3d 90 50 ac bd f2 21 21 be 22 15 aa bd
       0.03702952 -0.084138036 -0.15735605 -0.08304812
0002d0 6f 3f 5b 3e 97 c1 32 3e ec 1d 12 3d 43 f4 2c 3e
       0.21410917 0.17456661 0.035673067 0.16890053
0002e0 1e dc 46 be 30 48 2b bd 19 39 c9 bd a3 71 44 3e
       -0.19419906 -0.04181689 -0.09825344 0.19183974
0002f0 b0 1f 8e bd c4 91 02 bd 52 e1 b9 bd b8 ec ad bd
       -0.06939638 -0.031877294 -0.090761796 -0.08492416
000300 72 66 e4 3d 65 68 12 be ba 4b 35 be 28 a5 1d bd
       0.111523524 -0.14297636 -0.17704669 -0.038487583
000310 f5 f7 42 3e b6 65 89 3d 2a 9e be bd c0 c5 b8 bd
       0.190399 0.06708853 -0.09307511 -0.09022093
000320 b6 2b dd bd 91 57 4b 3e dd 8a e7 bd 6e 19 17 be
       -0.10799353 0.19857623 -0.11305783 -0.14755794
000330 bc 45 b7 bd 4a 8d b1 3d 06 fe f2 bd 92 bc a7 bd
       -0.08948848 0.08669527 -0.118648574 -0.08190264
000340 00 c2 36 ba f5 cb 08 3e a0 0b 6f bd 40 27 e1 3c
       -0.0006971657 0.13359053 -0.058360696 0.027484536
000350 f8 00 c1 bd d8 49 b6 bd c0 1e 0c be 54 9f aa bd
       -0.09424013 -0.08900803 -0.13683605 -0.08331171
000360 0d c0 50 3e cf 91 ff bd e9 00 3d 3e f0 b7 97 bd
       0.20385762 -0.12478983 0.18457378 -0.0740813
000370 e5 2f ea bd ce c7 09 be cd 65 1e 3e e9 a1 22 3e
       -0.114349164 -0.13455126 0.15468521 0.15882076
000380 80 54 cc bd b3 85 34 be 90 0c 2f bc 84 18 21 be
       -0.099770546 -0.17629127 -0.0106841475 -0.15732008
000390 16 09 c5 3d 26 05 ec 3d c0 a2 1c bb 03 c4 02 3e
       0.09620874 0.115244195 -0.0023900717 0.12770085
0003a0 7d 8a ef bd 8e 3a b4 bd d4 26 24 bd 70 40 07 bc
       -0.116963364 -0.08800231 -0.040076092 -0.008255109
0003b0 6f 4f be bd 05 66 59 3e d0 7c 71 bd 48 ec c8 3c
       -0.092924945 0.21230324 -0.05895692 0.02452673
0003c0 6f 5c 51 3e 1b 88 09 3e 70 41 40 3c 59 81 05 3e
       0.20445417 0.13430826 0.0117343515 0.13037623
0003d0 8e 39 dd bd 4a 75 8b 3d 9e 5b d1 3d 4d 7d 12 be
       -0.10801993 0.068094805 0.10222553 -0.14305611
0003e0 da 6c ff 3d 05 e7 11 3e b8 2b 2b be aa a4 07 be
       0.12471934 0.14248283 -0.16715896 -0.13246408
0003f0 31 fe 0e 3e c8 13 75 bd 94 73 5c bd e5 da 51 3e
       0.13964154 -0.059833318 -0.05382116 0.20493658

bias f4 [5]
000000 aa ea f7 3a 0b f2 5a bd 15 0c ac bc bf 9f d1 3c
       0.001891454 -0.053453486 -0.021001855 0.025588868
000010 b8 85 a2 bd
       -0.07935661

weight f4 [5, 64]
000000 86 a7 fb bd f8 00 09 3d 04 fe 6c 3e a8 e8 67 be
       -0.12287812 0.03344819 0.23143774 -0.22647345
000010 10 83 c3 bc ae f6 dc 3d 0e e8 fb bd 1f 83 c5 bd
       -0.023866206 0.10789238 -0.1230012 -0.0964415
000020 20 af 3f 3e 0a 98 58 3e d2 5c 45 be 40 00 73 3c
       0.18719149 0.21151748 -0.1927369 0.014831603
000030 ac 80 88 be d5 ee 80 be d9 a4 6d be 96 65 64 3e
       -0.2666067 -0.25182214 -0.23207416 0.22304377
000040 2d a8 48 be 2c 1b 66 3e 60 45 b8 3d c0 05 b1 bb
       -0.19595404 0.22471303 0.08997607 -0.005402297
000050 84 5c 45 3d f4 b4 7d 3e e2 7b 5a be e0 b8 32 be
       0.048183933 0.2477606 -0.2133632 -0.17453337
000060 ee 34 ab bd 41 17 76 3e 42 fc 21 be 1a ac 43 be
       -0.08359705 0.24032308 -0.15818885 -0.1910862
000070 5a 05 8a 3e 2a 56 cc 3d d7 10 e8 bd 0a 7f 51 3c
       0.26957208 0.09977372 -0.11331337 0.012786636
000080 90 aa 64 3e b9 40 36 3e ce 8e 19 3d 10 0c 75 3e
       0.2233069 0.17798127 0.037489705 0.23930383
000090 1c 90 e2 bd 00 13 a6 bb a8 df 59 3e 0b d3 25 be
       -0.11062643 -0.005068183 0.21276724 -0.16193788
0000a0 d2 f4 b5 bd b5 ae 54 be 0c 03 a7 3d 6f 3f 22 3d
       -0.088845864 -0.2076977 0.08154878 0.039611276
0000b0 a1 2a bd 3d 40 be 3b be 73 48 be 3d b4 d3 7e 3e
       0.092366464 -0.18334293 0.09291162 0.24885446
0000c0 e5 5a 9e bd f2 b2 88 bd a6 c3 32 3e c1 21 7d 3e
       -0.077321805 -0.06674756 0.17457446 0.24719907
0000d0 e2 12 60 be 62 2f 5a 3e 10 ae 8e be 16 25 44 bd
       -0.21882203 0.21307138 -0.27867174 -0.04788693
0000e0 18 b0 82 3e 09 ce 8c be d7 4d 59 be 90 10 e1 3d
       0.25524974 -0.27500942 -0.212211 0.10989487
0000f0 47 e1 a3 3d 94 aa cb 3d bc 6c 39 be a8 60 5f 3e
       0.080019526 0.099446446 -0.18107885 0.21814215
000100 86 47 20 3e 92 01 eb bd 80 09 a6 3d 3c 77 66 bd
       0.15652284 -0.11474909 0.08107281 -0.056266055
000110 00 de 0a 3c 0e 39 be bd aa 63 c7 bc b3 fd 84 be
       0.0084757805 -0.09288226 -0.024339516 -0.25974807
000120 ab c3 a2 bc ee ca 81 3b 69 4b 94 be 18 dd 2d be
       -0.019868692 0.0039609587 -0.28963783 -0.16978872
000130 be 48 6e 3e fa 0c a0 3d 8c 03 b7 3d c0 93 5f 3e
       0.23269936 0.07814975 0.089362234 0.21833706
000140 f9 7c 60 bd 78 ae 62 bd 9a d8 72 3e 25 ca 33 be
       -0.054806683 -0.055342168 0.2371544 -0.17557581
000150 78 5d 3b 3e fb 18 49 be ea de 48 be b6 63 95 3e
       0.18297374 -0.19638436 -0.19616285 0.29177636
000160 12 b2 6d be 5e 65 d1 3d 90 9c ae be e8 a3 70 bd
       -0.2321246 0.102244124 -0.34103823 -0.058750063
000170 6e c3 6e be 95 60 54 3e c4 e5 5d 3d 44 39 6e 3e
       -0.23316738 0.20739968 0.0541742 0.23264033
000180 68 d3 5e bd 47 77 71 3d 6c 13 25 3e d8 c0 50 3d
       -0.05440083 0.058951642 0.1612069 0.05096516
000190 5e 61 fd 3d b4 ee 54 3e 12 1d bb bd ff 04 75 be
       0.12372087 0.20794183 -0.09136404 -0.23927687
0001a0 dd 3e cf 3d 91 a2 0e 3e 9a b4 f2 3b cd 84 40 3e
       0.10119412 0.13929202 0.0074067833 0.1880066
0001b0 62 19 2d be d0 01 95 3d 86 a8 2d be 36 22 a9 bd
       -0.16904214 0.07275736 -0.16958818 -0.08258478
0001c0 d0 49 0c 3e da c6 86 bd e8 d4 dc 3d 2e 13 6b 3d
       0.13700032 -0.06580897 0.10782796 0.057391338
0001d0 20 93 5c bc cc f4 53 3e 10 07 8c bc c4 54 03 be
       -0.013462812 0.20698851 -0.017093211 -0.12825304
0001e0 11 5f 36 3e f3 dc 9f 3d 54 b5 69 3e 94 76 3f be
       0.17809702 0.078058146 0.22823077 -0.18697578
0001f0 54 19 08 3d da 65 0e be f0 17 66 bd 4c 0d 6d bd
       0.03322728 -0.13906041 -0.056175172 -0.05787401
000200 53 4e 93 3e 80 bc 8d 3b f8 29 18 be 1e 6d 19 3e
       0.28770694 0.0043254495 -0.1485976 0.14983031
000210 d7 fd 0b be 48 dd 82 3c 1d 86 01 be 2f 4f 04 3e
       -0.13671051 0.015974656 -0.12648816 0.12920831
000220 b4 1c f0 bd 90 e4 c4 3d c8 79 67 3d b6 5a 92 3e
       -0.11724225 0.09613907 0.056512624 0.28584832
000230 68 8f 0e bd 66 40 4d be 76 be 00 bd aa 63 f3 3d
       -0.03480473 -0.20044097 -0.031431638 0.11884244
000240 66 13 71 3e c0 eb 3c 3d 97 88 f0 3d d0 db a5 3c
       0.23542556 0.046123266 0.117448024 0.020246416
000250 80 07 38 be a0 88 e5 3c 62 a4 7b be 43 a8 46 be
       -0.17971611 0.02801925 -0.24574426 -0.19400124
000260 ce 6d c7 bd 7f bc 39 be 53 1b cc bd 56 61 66 be
       -0.097377405 -0.18138312 -0.09966149 -0.22498068
000270 d7 79 f3 bb 01 4b c2 3d 7b 1a fd bd 97 5f 6e 3e
       -0.007430296 0.09486962 -0.123585664 0.23278652
000280 54 db b2 bd 58 56 44 3e 07 b7 c1 3c 08 e6 f9 3d
       -0.0873324 0.19173563 0.023646845 0.12202078
000290 2f 7f 86 be 3c 5e 0b be d6 d8 c6 bd 68 a2 a9 3d
       -0.26268908 -0.13610166 -0.09709327 0.0828293
0002a0 24 c0 71 bc ea b8 01 be b8 2e 3d 3e 50 50 6f be
       -0.014755283 -0.12668195 0.18474853 -0.2337048
0002b0 48 03 3f be fc 49 d6 3d 04 1d 83 3e b0 ea 67 3e
       -0.18653595 0.1046333 0.25608075 0.2264812
0002c0 a0 e0 97 bd 0a a5 3c 3e 54 19 84 3e 4d 27 7c 3e
       -0.07415891 0.18422332 0.25800574 0.24624367
0002d0 e3 3a 14 be 9f 6d f3 3d 0c c8 32 be 86 54 17 3e
       -0.14475589 0.11886143 -0.17459124 0.14778337
0002e0 d3 79 52 bc ec 51 06 bc 5e 05 24 3e d5 b4 14 be
       -0.012846428 -0.008198243 0.16017672 -0.14522107
0002f0 47 4c 07 3e 8e c9 0b 3e 80 a4 bb bc 38 ed 3c 3e
       0.13212691 0.13651106 -0.022905588 0.18449867
000300 2b a3 7f bd 14 b7 b8 3d d6 3f 91 3e 80 ce 8f 3d
       -0.06241147 0.090192944 0.28369015 0.070218086
000310 43 20 0e be 7d 4f 76 3d c9 04 d2 3c 39 5d 6e 3e
       -0.13879494 0.0601344 0.025637047 0.23277749
000320 d4 50 8b 3d e2 54 71 be 80 ab cb bb 8c e7 b5 bd
       0.06802526 -0.23567536 -0.0062155128 -0.08882055
000330 8f 72 ee 3d df ac d7 3d 50 be 13 3e 93 51 a8 3e
       0.11642944 0.105310194 0.14428067 0.32874736
000340 f1 ec 29 bc ed da 80 be 5b f9 d1 bd f8 d4 9f 3d
       -0.010371433 -0.25167027 -0.10252639 0.078042924
000350 8c 82 84 be 5f 5b 43 be 90 64 d2 3c 11 33 89 be
       -0.2588085 -0.19077824 0.025682718 -0.26796773
000360 5b f7 79 be 40 62 8c 3e 7a ea 85 3e 72 18 46 3e
       -0.24410765 0.2741871 0.26155454 0.19345263
000370 b9 66 53 be 61 79 87 3e 46 15 fa bd 25 f9 e2 3c
       -0.20644654 0.26459792 -0.12211089 0.027706692
000380 41 b6 34 be fe de 9c 3c 87 72 77 3e a7 d2 30 be
       -0.1764765 0.0191493 0.24164782 -0.17267857
000390 c4 a0 dc bd 5e 3a 62 be 38 a6 7b 3d 78 2c 16 3e
       -0.10772851 -0.22092578 0.061437815 0.14665401
0003a0 06 9c 59 be 86 9f e6 bd 7e c2 53 be 53 34 8b be
       -0.21250924 -0.112608954 -0.20679662 -0.27188358
0003b0 1b 0f 92 3e 9d 01 1b be ec da 44 3e 74 bb b5 3d
       0.2852715 -0.15137334 0.19224137 0.088736445
0003c0 82 9a d1 3c 4a f6 86 3e 5c 60 8b 3e ef 8c ec 3d
       0.02558637 0.2635978 0.27221954 0.115503184
0003d0 3f c9 18 be 72 c0 a2 3e 20 ae c2 3c 63 73 88 be
       -0.1492052 0.3178745 0.02376467 -0.26650533
0003e0 9f 2a 8d 3e b4 e8 18 3e d0 78 42 3d a4 51 80 be
       0.2757158 0.14932519 0.047478497 -0.25062287
0003f0 af bd 14 3e c7 ac 26 be e4 aa 96 3e ac ea 89 bd
       0.14525484 -0.16276847 0.29427254 -0.06734213
