graph_classification_model.pt (torch, 64674 bytes, 12 tensors)

att_src f4 [1, 1, 32]
0.20362975 -0.78286856 -0.114417054 -0.16319278 0.021513982 0.5304652 0.34114924 0.71348804
-0.4608414 -0.46321723 -0.013810276 0.122943036 -0.0682011 -0.056409948 -0.35001558 0.356501
-0.6999302 0.7194682 0.51012087 0.64355123 0.13857685 0.255778 -0.32498798 0.69533324
-0.14788608 -0.3211575 -0.37738523 -0.6652004 -0.41340393 -0.029444085 -0.3936343 0.33912572
00000000: 5184 503e 136a 48bf 7d53 eabd 021c 27be
00000010: 173e b03c 91cc 073f 1dab ae3e 27a7 363f
00000020: 67f3 ebbe cf2a edbe 7f44 62bc 8fc9 fb3d
00000030: 05ad 8bbd 1e0e 67bd 3e35 b3be 4d87 b63e
00000040: a02e 33bf 112f 383f 4897 023f c6bf 243f
00000050: 17e7 0d3e 56f5 823e d364 a6be 5c01 323f
00000060: 736f 17be c16e a4be a338 c1be 934a 2abf
00000070: aea9 d3be b934 f1bc 6f8a c9be e3a1 ad3e

att_dst f4 [1, 1, 32]
-0.47077382 0.3223951 -0.4416582 0.19082122 0.39355075 -0.21965039 0.25643283 0.17614982
-0.35735828 -0.5070969 0.055372544 -0.30277047 0.12844945 0.107086316 0.17697987 0.05304547
-0.30128092 -0.009578786 -0.32557675 -0.25871962 0.1955294 -0.35978964 -0.35479766 0.06308974
-0.4612488 0.44787732 0.54063135 -0.2370799 0.51369756 -0.04458626 0.35186931 -0.015695162
00000000: 4409 f1be f810 a53e 0621 e2be a366 433e
00000010: 7c7f c93e 08ec 60be 2a4b 833e 9e60 343e
00000020: aaf7 b6be 1ad1 01bf 52ce 623d bb04 9bbe
00000030: 4188 033e 1250 db3d 363a 353e 3546 593d
00000040: 7e41 9abe 57f0 1cbc ffb1 a6be e676 84be
00000050: dc38 483e 5936 b8be 0aa8 b5be 3235 813d
00000060: cd28 ecbe 2d50 e53e d166 0a3f 13c5 72be
00000070: af81 033f 15a0 36bd 3728 b43e 2493 80bc

bias f4 [32]
0.031933166 0.009738848 0.020872802 -0.003518875 0.018096104 -0.02922663 0.025297362 5.3159514e-05
0.0416758 0.0014802902 -0.0027930532 0.0091438275 -0.01874651 -0.020644415 0.0047334894 -0.012339806
-0.03543475 0.069595836 -0.018656043 -0.021475004 0.0053245476 0.0014929957 0.06668444 0.022252282
-0.033409413 -0.002930737 0.016798932 -0.059224095 0.0032949455 0.073326 0.016401874 -0.015299244
00000000: 5acc 023d b08f 1f3c 70fd aa3c ed9c 66bb
00000010: 483e 943c b06c efbc 6a3c cf3c 98f7 5e38
00000020: 3eb4 2a3d 4c06 c23a a80b 37bb fecf 153c
00000030: 4892 99bc 7a1e a9bc 631b 9b3b e62c 4abc
00000040: 0724 11bd 4388 8e3d 8fd4 98bc 59ec afbc
00000050: 8b79 ae3b 9fb0 c33a da91 883d 6b4a b63c
00000060: 4fd8 08bd 9c11 40bb ea9d 893c f794 72bd
00000070: 03f0 573b f12b 963d 395d 863c aea9 7abc

weight f4 [32, 11]
-0.20208251 0.17845954 -0.47394714 0.59205294 0.07405938 0.043160584 -0.6745659 0.6239392
-0.19198434 0.2469581 -0.15965556 0.21055326 0.3794318 -0.045204338 -0.47182474 -0.13304587
0.28075957 0.0008232696 -0.38545203 0.2282137 0.11582618 0.39170724 -0.019685557 0.33376884
-0.16176005 -0.38067952 0.124501005 0.11542567 0.038896773 -0.3171635 -0.108312614 0.25150847
-0.15576127 0.25201246 -0.19516288 0.18499951 -0.45149603 0.12175616 -0.08872376 0.36755857
-0.4994291 0.37255576 0.30148983 0.17725213 0.3762866 -0.19960575 0.05674361 -0.45904467
0.26294616 0.057033513 0.33800256 -0.25182238 0.18258819 0.2861181 -0.24476245 0.2087195
-0.5852776 -0.00633652 -0.030329261 -0.1943117 0.36736238 -0.23362778 0.013612055 -0.0061148885
0.16119799 -0.26605242 0.33465785 0.16651955 -0.3804177 0.24256241 -0.2695352 0.07283118
-0.69357437 0.22653231 -0.22524661 0.1988803 -0.22824828 0.27546516 -0.12491204 -0.09305323
0.45345318 -0.10149134 -0.133113 -0.46068233 0.41243514 -0.16441832 0.37264377 -0.35420224
0.06092897 -0.13670282 0.21500161 -0.5679585 0.46178377 0.2465982 -0.096293986 -0.43586794
0.1092977 -0.5549546 0.2255721 -0.3525547 0.0073529817 -0.38402948 -0.21263857 0.2466761
0.52411455 -0.27116993 0.021842254 -0.039660536 -0.51412886 0.045389216 0.014924179 -0.18434604
0.29322937 -0.4125547 0.14293128 -0.18228638 -0.04774628 -0.31398872 0.18903388 0.29386958
-0.3457879 -0.20722744 -0.05598799 -0.17307492 0.5933592 0.13899003 -0.15316382 -0.5222953
0.39775327 -0.1073476 0.19075355 -0.16068007 -0.027989695 0.29149848 0.33845854 -0.33458707
-0.25855544 -0.14496224 0.0011630822 0.115433216 0.20538977 -0.045236744 -0.22036666 0.34598908
-0.22715694 -0.2899794 0.18531314 0.13070343 -0.019811822 -0.27699918 0.036301762 -0.13526726
0.2843017 0.09147046 0.19733012 0.07132526 0.2312515 -0.09335222 -0.14465567 -0.08359377
0.25721163 -0.1955262 0.29856756 0.1963127 0.26295835 -0.31561556 -0.45035768 0.19617619
-0.08783948 -0.36989132 -0.20185581 -0.21643637 -0.1277033 0.05873037 0.14655466 -0.26848114
-0.08255097 0.401097 0.15680519 -0.2528611 0.27045497 0.07178828 -0.19177906 -0.3837089
0.006264248 -0.5627893 0.325035 -0.029329926 -0.082034126 -0.5816457 0.43067795 -0.055594757
-0.49059975 -0.5978971 -0.031767633 -0.37343758 0.42667863 -0.2715374 -0.07059327 0.071828306
0.007457927 0.2536345 -0.068193235 -0.11598668 -0.102238506 0.017731078 -0.0008952482 0.19091174
-0.27482024 0.23319349 -0.12120481 -0.26177096 0.3524297 0.07962589 -0.02715698 -0.28155732
0.4969185 -0.050249852 0.3536241 -0.30210856 -0.1139854 0.106832445 0.049979787 0.20045829
-0.16832854 -0.041668486 0.32135132 -0.059381668 0.17883721 -0.32955936 0.19600382 0.4220011
-0.06518862 -0.32279843 0.5060332 -0.13324735 -0.015010588 -0.21004014 -0.0934028 -0.22725825
0.3156855 -0.11450208 0.2860126 0.3331238 -0.11665006 -0.41504827 0.34467018 -0.01846214
0.31613117 -0.49130243 0.0020010427 0.022141583 0.076667555 0.2330419 -0.18206719 0.09827609
00000000: b8ee 4ebe 19be 363e 33a9 f2be c890 173f
00000010: 72ac 973d 27c9 303d 5ab0 2cbf 7bba 1f3f
00000020: 8b97 44be 96e2 7c3e bf7c 23be 469b 573e
00000030: e344 c23e 2f28 39bd 0393 f1be 2d3d 08be
00000040: b8bf 8f3e b0d0 573a f859 c5be dab0 693e
00000050: 4736 ed3d da8d c83e 9b43 a1bc c0e3 aa3e
00000060: 6da4 25be 6de8 c2be 62fa fe3d 4b64 ec3d
00000070: 3952 1f3d 4163 a2be 01d3 ddbd b8c5 803e
00000080: e27f 1fbe c707 813e c7d8 47be 8370 3d3e
00000090: 7d2a e7be 4b5b f93d cdb4 b5bd a330 bc3e
000000a0: 2cb5 ffbe a1bf be3e e05c 9a3e 9581 353e
000000b0: a3a8 c03e 7365 4cbe fd6b 683d e707 ebbe
000000c0: e1a0 863e f99b 693d ac0e ad3e ddee 80be
000000d0: 66f8 3a3e 127e 923e 02a3 7abe 91ba 553e
000000e0: c1d4 15bf 95a2 cfbb 1275 f8bc a5f9 46be
000000f0: ec16 bc3e 1f3c 6fbe 1905 5f3c 675f c8bb
00000100: 1611 253e 0638 88be 4658 ab3e 1a84 2a3e
00000110: 1cc6 c2be 4862 783e 8500 8abe 8428 953d
00000120: 178e 31bf 16f8 673e 0ca7 66be 47a7 4b3e
00000130: ebb9 69be c509 8d3e e2d1 ffbd b192 bebd
00000140: 042b e83e b1da cfbd c64e 08be 8ede ebbe
00000150: b32a d33e 475d 28be 2acb be3e ff59 b5be
00000160: a890 793d d3fb 0bbe 6229 5c3e ba65 11bf
00000170: ec6e ec3e 3d84 7c3e c835 c5bd 152a dfbe
00000180: 79d7 df3d 8111 0ebf 5ffc 663e 0d82 b4be
00000190: 48f1 f03b 839f c4be edbd 59be a998 7c3e
000001a0: 5f2c 063f c9d6 8abe 87ee b23c 1673 22bd
000001b0: f39d 03bf 0bea 393d 8b84 743c 35c5 3cbe
000001c0: 2922 963e 5f3a d3be 945c 123e 48a9 3abe
000001d0: 9a91 43bd 21c3 a0be 1992 413e 1376 963e
000001e0: 1d0b b1be 6e33 54be aa53 65bd 8d3a 31be
000001f0: 63e6 173f 6753 0e3e fad6 1cbe 25b5 05bf
00000200: 51a6 cb3e 0fd9 dbbd e654 433e 5189 24be
00000210: a54a e5bc 4a3f 953e 704a ad3e ff4e abbe
00000220: 6161 84be fb70 14be 9072 983a 4068 ec3d
00000230: b251 523e 2a4a 39bd cca7 61be 7b25 b13e
00000240: d49b 68be 2e78 94be bac2 3d3e 1fd7 053e
00000250: 674c a2bc d6d2 8dbe 28b1 143d 8083 0abe
00000260: fe8f 913e dd54 bb3d e810 4a3e fa12 923d
00000270: 31cd 6c3e 732f bfbd 9e20 14be 3633 abbd
00000280: 3eb1 833e 0538 48be d9dd 983e 3206 493e
00000290: 7aa2 863e 5d98 a1be 4895 e6be 69e2 483e
000002a0: 2fe5 b3bd 6562 bdbe 4ab3 4ebe 7fa1 5dbe
000002b0: a7c4 02be 428f 703d 6d12 163e 5c76 89be
000002c0: 7c10 a9bd 965c cd3e 8a91 203e 0377 81be
000002d0: 1379 8a3e bc05 933d bb61 44be 7e75 c4be
000002e0: 5244 cd3b f612 10bf fd6a a63e 5045 f0bc
000002f0: 8201 a8bd bce6 14bf d281 dc3e 54b7 63bd
00000300: e42f fbbe c90f 19bf c71e 02bd 3633 bfbe
00000310: 9f75 da3e f306 8bbe 3493 90bd b81a 933d
00000320: a061 f43b 62dc 813e e5a8 8bbd 6d8a edbd
00000330: 6c62 d1bd c440 913c 17af 6aba 5e7e 433e
00000340: 3db5 8cbe 46ca 6e3e 3a3a f8bd d806 86be
00000350: aa71 b43e e612 a33d 5178 debc 4828 90be
00000360: 1a6c fe3e cad2 4dbd 380e b53e f9ad 9abe
00000370: 2d71 e9bd f8ca da3d 9bb7 4c3d f044 4d3e
00000380: 515e 2cbe 93ac 2abd 2988 a43e 313a 73bd
00000390: 1a21 373e 01bc a8be 3ab5 483e 8710 d83e
000003a0: 9c81 85bd d645 a5be 648b 013f fe71 08be
000003b0: f8ee 75bc c314 57be f849 bfbd 63b6 68be
000003c0: 88a1 a13e 1180 eabd 3e70 923e 348f aa3e
000003d0: 3ae6 eebd 3581 d4be 9c78 b03e ea3d 97bc
000003e0: f2db a13e fe8b fbbe ed23 033b 4462 b53c
000003f0: e103 9d3d 89a2 6e3e d26f 3abe fa44 c93d

att_src f4 [1, 1, 32]
-0.3265581 -0.41540995 -0.16378953 -0.12928928 -0.42180675 0.3116163 -0.46334133 0.26938367
0.48822924 0.10176105 0.3280487 -0.41242257 -0.33177724 -0.5550353 0.3912732 -0.46045813
0.25752124 0.14252393 -0.4554891 -0.5502604 0.4443463 -0.21921854 0.17492047 0.30044016
-0.00928324 -0.13525006 0.49002743 -0.5182261 0.43411958 -0.2664573 -0.40540698 -0.17253038
00000000: a032 a7be 9db0 d4be 71b8 27be 6964 04be
00000010: 0ef7 d7be 2c8c 9f3e 133b edbe a8ec 893e
00000020: 2ff9 f93e 1968 d03d 00f6 a73e 0d29 d3be
00000030: b5de a9be cb16 0ebf f654 c83e 2bc1 ebbe
00000040: d3d9 833e cbf1 113e de35 e9be dedd 0cbf
00000050: 5c81 e33e d37a 60be 5a1e 333e 4bd3 993e
00000060: bb18 18bc fe7e 0abe e0e4 fa3e 77aa 04bf
00000070: ec44 de3e 176d 88be 8191 cfbe ceab 30be

att_dst f4 [1, 1, 32]
-0.27631134 0.27292204 -0.38713768 0.17296813 -0.22516833 -0.17967102 0.0545928 -0.15480864
0.47578478 0.1665956 -0.018016666 -0.18703838 -0.40111092 -0.4230875 0.43983445 0.14930913
0.13654219 0.2959402 -0.39161825 0.34518194 -0.29624212 0.24407311 0.02837923 0.4254898
0.3256971 0.22211164 0.06816788 -0.016278856 -0.022034464 -0.012798332 0.3483437 -0.19815966
00000000: ae78 8dbe 70bc 8b3e e936 c6be 8f1e 313e
00000010: 8792 66be aefb 37be b39c 5f3d 2886 1ebe
00000020: 109a f33e 0998 2a3e b097 93bc fd86 3fbe
00000030: 695e cdbe ed9e d8be fb31 e13e 7ee4 183e
00000040: b7d1 0b3e 7985 973e 3082 c8be b0bb b03e
00000050: 0cad 97be 4dee 793e 8f7b e83c cdd9 d93e
00000060: c5c1 a63e 3c71 633e 9a9b 8b3d 3c5b 85bc
00000070: 9f81 b4bc 18b0 51bc 1b5a b23e 5eea 4abe

bias f4 [32]
0.05247619 -0.10478767 -0.0009703713 0.004594633 -0.009052915 0.029523294 -0.03083199 0.03114339
-0.021658214 -0.19519804 0.0069354563 0.004566713 0.044667475 -0.011219313 -0.0067423866 0.021698164
-0.31058583 0.027864978 0.030856851 -0.0051146448 -0.15818962 -0.056186717 -0.01424038 -0.0019946636
-0.008094686 0.019722342 -0.028026871 -0.0150457155 -0.02933646 -0.0071006035 0.026537383 0.07933661
00000000: 46f1 563d eb9a d6bd 8460 7eba 938e 963b
00000010: ad52 14bc d6da f13c 5f93 fcbc 6c20 ff3c
00000020: 916c b1bc ffe1 47be d342 e33b 5da4 953b
00000030: 3ef5 363d 36d1 37bc 3def dcbb 59c0 b13c
00000040: 1b05 9fbe 1845 e43c 82c7 fc3c c098 a7bb
00000050: 76fc 21be 0b24 66bd 7c50 69bc e7b8 02bb
00000060: 939f 04bc c090 a13c 9c98 e5bc 4e82 76bc
00000070: 0453 f0bc 2eac e8bb ed64 d93c 3c7b a23d

weight f4 [32, 32]
0.044775706 0.29947704 0.28956428 -0.05599497 0.4252583 0.09151421 -0.082285225 -0.45463362
0.26560068 0.30779988 -0.076669835 -0.13418746 -0.181286 -0.31755528 -0.12374915 -0.041970488
0.2045293 0.020641023 -0.111403845 -0.15829325 -0.049106605 0.0309845 0.13649358 -0.15553321
-0.0872487 -0.075283654 -0.036956187 0.21610352 0.04066982 0.067017 -0.011647799 0.22033776
-0.5158192 0.082137845 -0.063343614 0.19390166 0.20271716 0.14545263 -0.42507625 -0.23493093
0.28327858 -0.14197886 0.040964957 -0.23469588 0.3982739 -0.5032039 -0.14895372 0.049588025
0.040591065 -0.046255756 -0.10259184 -0.34502465 0.16305405 -0.48131734 0.5100252 -0.15448533
-0.044420913 -0.16755462 0.16714358 0.027728891 -0.050559014 0.09577784 0.031763285 -0.52286166
0.57555264 0.002527207 0.05635365 -0.2522324 -0.2048587 0.039249785 0.3054386 0.4513012
-0.2465427 0.022266066 -0.21993716 0.58467823 -0.15296727 0.10531097 -0.12065719 -0.43791148
-0.01124433 0.41924906 0.28820628 0.0067537148 0.03219512 0.28633416 -0.16321048 0.067832276
-0.18070257 0.17551138 -0.12529592 0.120798655 -0.13528107 -0.13452572 0.07670655 0.22119474
0.62913966 0.112677075 0.20668037 -0.12615013 -0.28972125 -0.048842613 0.10578245 0.3645043
0.071494594 0.22413522 0.15535063 0.17061654 -0.24871719 0.067054324 -0.070680305 -0.32264864
-0.051737886 0.52638584 -0.053862598 0.5346657 -0.22260383 0.22686969 -0.25611672 0.15937991
0.07987395 -0.2703296 -0.13304093 0.14153065 0.3038732 0.041402165 -0.11897865 0.30570263
0.0012209923 0.23594359 -0.2665107 0.030382656 -0.23810434 0.08526345 -0.090015784 -0.20420758
-0.05171772 -0.15714037 0.12088525 -0.18970944 0.22417845 0.11552275 -0.099782765 0.06083928
-0.047627483 0.033380102 -0.16223976 0.072785914 0.008070171 -0.12384388 0.28119525 0.19668871
-0.23321821 0.04967465 -0.24234593 -0.09205018 0.15298638 -0.27972975 0.19513905 0.09326132
0.3848274 -0.42590916 -0.07538151 -0.16388436 0.008405674 0.0080813365 0.23008631 0.2846968
0.19163074 0.18553053 0.2505232 0.22684349 -0.30499423 0.40108752 -0.054224227 -0.15554641
-0.2522964 0.026054895 -0.01576508 0.46000138 -0.38093066 0.07977571 -0.0592724 0.030818153
0.2534278 -0.29938096 -0.040822458 -0.13711832 -0.013264181 0.016159866 0.017377421 -0.049672775
-0.37150294 -0.10261181 -0.17267342 0.14504471 0.087924935 0.16847096 -0.41521806 -0.34084427
-0.1592252 -0.03629311 0.06816548 -0.16431727 0.36104938 -0.18304355 -0.21175826 -0.22803435
-0.22402793 -0.17741491 -0.41764313 -0.4756414 -0.09603604 -0.3531577 0.24349073 -0.41873282
0.16386539 -0.14452524 0.055422723 0.22174291 -0.04868137 0.19951378 0.3093636 -0.4867425
-0.05052027 0.28557074 0.24980624 0.16362266 0.20579429 -0.123580016 -0.33013722 -0.29351386
0.18073416 -0.13417605 0.24879351 0.0661441 -0.09401531 -0.05524372 -0.26144186 -0.16278628
-0.06991322 -0.029665928 -0.11027157 0.13524354 -0.112421714 -0.07461542 -0.10824161 0.24490434
0.055741612 0.13795336 -0.0634812 -0.23634873 -0.03857907 0.047378857 -0.1105351 0.12258467
00000000: bb66 373d 0e55 993e c541 943e fb5a 65bd
00000010: 75bb d93e cd6b bb3d 2885 a8bd bdc5 e8be
00000020: d0fc 873e f297 9d3e 1305 9dbd 7068 09be
00000030: 0aa3 39be 9b96 a2be 3270 fdbd 3fe9 2bbd
00000040: 2170 513e 5d17 a93c b327 e4bd a017 22be
00000050: 0224 49bd 35d3 fd3c f9c4 0b3e 1944 1fbe
00000060: 72af b2bd 512e 9abd 5f5f 17bd 3e4a 5d3e
00000070: 6695 263d 3540 893d 69d6 3ebc 39a0 613e
00000080: ba0c 04bf e337 a83d 4cba 81bd 288e 463e
00000090: 1695 4f3e 89f1 143e 98a3 d9be bc91 70be
000000a0: e409 913e e862 11be dfca 273d 1e54 70be
000000b0: 8eea cb3e f9d1 00bf 5387 18be d01c 4b3d
000000c0: d142 263d ad76 3dbd ac1b d2bd 12a7 b0be
000000d0: a4f7 263e 3a6f f6be 0391 023f 6731 1ebe
000000e0: b4f2 35bd 7093 2bbe b027 2b3e b327 e33c
000000f0: f816 4fbd 2c27 c43d 381a 023d 43da 05bf
00000100: 6b57 133f 7f9f 253b 16d3 663d 9b24 81be
00000110: 7bc6 51be 62c4 203d 7362 9c3e f310 e73e
00000120: b175 7cbe 5367 b63c 3537 61be 79ad 153f
00000130: 74a3 1cbe 47ad d73d 1e1b f7bd ef35 e0be
00000140: 233a 38bc d0a7 d63e c68f 933e 444e dd3b
00000150: 08df 033d 649a 923e a620 27be a6eb 8a3d
00000160: 180a 39be 41b9 333e 934d 00be 4965 f73d
00000170: 1f87 0abe 1cc1 09be 5318 9d3d e080 623e
00000180: 4c0f 213f 3dc3 e63d 05a4 533e 802d 01be
00000190: 5856 94be 310f 48bd 78a4 d83d 4fa0 ba3e
000001a0: c26b 923d b483 653e 3c14 1f3e 1ab6 2e3e
000001b0: b8af 7ebe c753 893d d6c0 90bd 3432 a5be
000001c0: 1beb 53bd 39c1 063f 079f 5cbd dadf 083f
000001d0: 42f2 63be 8750 683e bb21 83be 7d34 233e
000001e0: f494 a33d a468 8abe e23b 08be 69ed 103e
000001f0: 4595 9b3e 5195 293d 14ab f3bd 0e85 9c3e
00000200: b409 a03a 329b 713e 1774 88be 0ce5 f83c
00000210: a0d1 73be 9b9e ae3d 325a b8bd cb1b 51be
00000220: f6d5 53bd 68e9 20be b092 f73d 3143 42be
00000230: 098f 653e 3197 ec3d e85a ccbd 9c32 793d
00000240: 0915 43bd 93b9 083d 2e22 26be c810 953d
00000250: c038 043c dca1 fdbd d3f8 8f3e c468 493e
00000260: c1d0 6ebe a577 4b3d 8829 78be ce84 bcbd
00000270: 76a8 1c3e bd38 8fbe 88d2 473e caff be3d
00000280: 1908 c53e c410 dabe 9f61 9abd 4dd1 27be
00000290: f4b7 093c 9567 043c bf9b 6b3e c7c3 913e
000002a0: d93a 443e b7fb 3d3e 9444 803e a949 683e
000002b0: 3428 9cbe 585b cd3e 391a 5ebd 8f47 1fbe
000002c0: fe2c 81be 1371 d53c c525 81bc 4d85 eb3e
000002d0: 5809 c3be 7361 a33d 9ec7 72bd 5a76 fc3c
000002e0: 4ac1 813e 7648 99be 7335 27bd bf68 0cbe
000002f0: 0252 59bc b261 843c 185b 8e3c ae75 4bbd
00000300: a235 bebe 2426 d2bd 4dd1 30be 9a86 143e
00000310: fd11 b43d a783 2c3e 7697 d4be 2483 aebe
00000320: ee0b 23be 16a8 14bd 589a 8b3d c942 28be
00000330: 77db b83e c56f 3bbe 28d7 58be d681 69be
00000340: 9467 65be 41ac 35be 52d5 d5be 4587 f3be
00000350: 8bae c4bd 16d1 b4be a255 793e 2664 d6be
00000360: 54cc 273e 6dfe 13be f002 633d 9310 633e
00000370: 1e66 47bd 574d 4c3e e864 9e3e 5036 f9be
00000380: 58ee 4ebd 5436 923e 35cd 7f3e b38c 273e
00000390: bdbb 523e 8517 fdbd bf07 a9be 7347 96be
000003a0: 6012 393e 7265 09be bac3 7e3e 8f76 873d
000003b0: 198b c0bd 3d47 62bd b5db 85be 72b1 26be
000003c0: aa2e 8fbd f605 f3bc 10d6 e1bd 487d 0a3e
000003d0: 5b3d e6bd f8cf 98bd c7ad ddbd 34c8 7a3e
000003e0: 5151 643d a543 0d3e 6e02 82bd 6705 72be
000003f0: 1605 1ebd 5510 423d 3a60 e2bd ac0d fb3d

att_src f4 [1, 1, 4]
1.0738535 1.0416738 -0.49664354 -0.03499791
00000000: 0874 893f 9155 853f 1048 febe f859 0fbd

att_dst f4 [1, 1, 4]
-0.8830299 0.87829536 0.24333835 1.1604652
00000000: 3f0e 62bf f7d7 603f b02d 793e 208a 943f

bias f4 [4]
-0.014901539 -0.022834977 -0.021992227 -0.010594867
00000000: 9625 74bc 6b10 bbbc 0b29 b4bc 1896 2dbc

weight f4 [4, 32]
-0.16756462 0.41919103 0.09569689 -0.12330685 0.082796715 0.012632623 0.37063754 0.068495415
0.053889815 0.12674163 0.3849839 -0.40323594 -0.4686522 -0.14027436 -0.2898967 0.13451068
0.20149852 0.058284506 0.102101676 -0.23375359 -0.03284718 0.04311817 -0.3647283 -0.049593676
-0.1502519 -0.15752886 0.33495274 0.06750917 0.0034372483 -0.2767411 -0.41474298 -0.12811406
0.166713 0.063212804 0.15732688 -0.24105164 0.3222532 0.029788533 0.30754036 -0.36166865
0.16350283 0.11570251 -0.38574147 -0.08197238 -0.02494511 0.363266 -0.08564475 -0.28763154
-0.36139554 0.06336837 0.16982336 -0.3694498 0.23246007 0.39410412 0.3193273 0.16554108
-0.12738542 0.21353747 0.04392249 0.37109593 -0.008325228 0.12643918 0.24566042 -0.39643902
-0.32959184 0.022963267 0.7273773 0.6561859 -0.11837135 0.23716088 -0.16864201 -0.1019976
0.03987184 -0.2659709 0.12915954 0.08194559 -0.13003607 -0.14411476 0.41300982 0.0013373401
-0.20939738 0.37191188 -0.3006888 0.20537536 -0.008913609 0.2738177 0.42693114 0.060119323
0.34241915 -0.23233594 0.48064107 0.019065905 0.072081506 -0.18282089 -0.3015187 -0.5136075
-0.38233638 0.32134315 -0.002673708 -0.26057652 0.14279675 -0.3756591 0.038953774 -0.14571519
0.21242648 -0.058090977 -0.27497113 -0.2695863 -0.23530778 -0.28390187 -0.186843 -0.290251
0.31721053 -0.21736425 0.32593003 0.370283 0.31293637 0.3177529 0.20484689 -0.34625354
-0.06796891 -0.15063561 0.36289713 0.011918951 0.06832252 0.33359835 -0.17845759 -0.4049466
00000000: 0f96 2bbe 35a0 d63e bbfc c33d 4d88 fcbd
00000010: 5391 a93d 10f9 4e3c 34c4 bd3e 5347 8c3d
00000020: 91bb 5c3d 8fc8 013e 9c1c c53e f174 cebe
00000030: 2ef3 efbe 15a4 0fbe 576d 94be 2bbd 093e
00000040: a155 4e3e bcbb 6e3d af1a d13d 1a5d 6fbe
00000050: c48a 06bd ae9c 303d abbd babe bd22 4bbd
00000060: a2db 19be 3f4f 21be ed7e ab3e 3f42 8a3d
00000070: 7543 613b 02b1 8dbe 3159 d4be 5530 03be
00000080: d0b6 2a3e b775 813d 4c1a 213e 3ed6 76be
00000090: 5ffe a43e 1507 f43c ee75 9d3e a22c b9be
000000a0: 496d 273e 70f5 ec3d e87f c5be 23e1 a7bd
000000b0: b059 ccbc 00fe b93e 8466 afbd 7144 93be
000000c0: d608 b9be 47c7 813d 2de6 2d3e 8628 bdbe
000000d0: 030a 6e3e 04c8 c93e de7e a33e 9a83 293e
000000e0: 5371 02be 91a9 5a3e 12e8 333d 4900 be3e
000000f0: 8966 08bc 4679 013e 688e 7b3e 0efa cabe
00000100: 43c0 a8be 761d bc3c 6635 3a3f cdfb 273f
00000110: ae6c f2bd 4dda 723e 7eb0 2cbe 1ee4 d0bd
00000120: a850 233d 562d 88be 6642 043e 17d3 a73d
00000130: 2d28 05be d292 13be 0676 d33e b049 af3a
00000140: 446c 56be 3c6b be3e e2f3 99be eb4d 523e
00000150: 630a 12bc d531 8c3e b896 da3e ae3f 763d
00000160: 9051 af3e 79e9 6dbe 9616 f63e 1a30 9c3c
00000170: 789f 933d 6635 3bbe a960 9abe c87b 03bf
00000180: 98c1 c3be 1787 a43e 6039 2fbb 496a 85be
00000190: 5039 123e 6456 c0be fe8d 1f3d 5d36 15be
000001a0: 5486 593e cef0 6dbd 04c9 8cbe 3707 8abe
000001b0: 86f4 70be 965b 91be c553 3fbe c79b 94be
000001c0: 6b69 a23e bc94 5ebe 4de0 a63e bc95 bd3e
000001d0: 3239 a03e 82b0 a23e 62c3 513e 2548 b1be
000001e0: 4933 8bbd 3940 1abe a7cd b93e b447 433c
000001f0: adec 8b3d 67cd aa3e 96bd 36be 2955 cfbe
