graph_classification_model.pt (torch, 48070 bytes, 6 tensors)

bias f4 [64]
0	0xbc1c2936	-0.00953131
1	0x3b0b412b	0.002124856
2	0x3a988897	0.0011637387
3	0x3d0a6b8a	0.033793963
4	0xbc9059a6	-0.017620873
5	0x3cfadc35	0.030622581
6	0x3d28d40c	0.04121785
7	0x3ce6d187	0.028176082
8	0x3d84b93e	0.06480645
9	0x3ca7b476	0.020471793
10	0xbbf7f13a	-0.0075665982
11	0xbbddfe8f	-0.0067747305
12	0x3c7b7f70	0.015350208
13	0x3d3d160b	0.0461636
14	0xbc985cf9	-0.01859902
15	0x3d19c5bb	0.037542086
16	0x3db2db73	0.08733263
17	0x3b1487ac	0.0022663875
18	0x3cf5a19c	0.029984288
19	0x3d12e5c3	0.03586365
20	0x3cb633fb	0.022241583
21	0x3c287c67	0.010283566
22	0x3d4acbd7	0.049510803
23	0x3d71d256	0.059038483
24	0x3d5f1af5	0.054469068
25	0x3d490486	0.04907658
26	0x3d633e90	0.055479586
27	0x3c75717b	0.014980669
28	0x3dad79fb	0.084705316
29	0xbc40df23	-0.01177195
30	0x3cc35fd6	0.02384941
31	0xbc41ac11	-0.011820809
32	0x3b5e824d	0.0033952177
33	0x3dd26636	0.102734014
34	0xbc4e3e25	-0.012588059
35	0x3c7ec4ab	0.015549819
36	0x3cc79507	0.024363054
37	0x3ca154a0	0.019693673
38	0x3ac420fa	0.0014963441
39	0x3aeb1773	0.0017936066
40	0x00000000	0.0
41	0x3cb703ef	0.022340743
42	0x3b86a280	0.004108727
43	0x3cfe0472	0.031007979
44	0x3c53afdb	0.012920345
45	0x3dc6beed	0.09704385
46	0x3d3ac756	0.045600258
47	0x3cf44072	0.029815886
48	0x3cde36f7	0.027125819
49	0x3a1aa040	0.0005898513
50	0x3cb8a204	0.022538193
51	0xbc520d48	-0.012820549
52	0x3c0d400d	0.008621228
53	0x3d6c4763	0.057685267
54	0x3d00d591	0.031453673
55	0x3e007c85	0.125475
56	0x3c76ff6a	0.015075544
57	0x3c5ecf9c	0.013599303
58	0xbc2955ff	-0.0103354445
59	0x3d95550f	0.07291614
60	0x3d8dcd19	0.06923885
61	0x3b9809db	0.0046398467
62	0x3c854a26	0.016270708
63	0x3cdefa98	0.027219102

weight f4 [64, 7]
0	0xbd9ce025	-0.0765994
1	0xbe5403d2	-0.20704582
2	0x3d5bed32	0.053693004
3	0xbe8b7681	-0.2723885
4	0xbe0150ca	-0.12628475
5	0xbe4d560b	-0.20052354
6	0x3e20fae0	0.15720701
7	0x3df468c3	0.11934044
8	0x3e34f72a	0.1767241
9	0xbd8b11f7	-0.06790536
10	0x3dcad2e7	0.09903508
11	0xbe0b4f45	-0.13604458
12	0xbe936c36	-0.28793496
13	0xbe531f1b	-0.20617335
14	0xbbb583ab	-0.0055393777
15	0xbe773b37	-0.24143682
16	0x3ea028aa	0.31281024
17	0xbe68e61a	-0.22744027
18	0x3c8c4555	0.017122904
19	0xbe02a658	-0.12758768
20	0xbbd9e417	-0.006649505
21	0xbd20043d	-0.039066542
22	0x3e964b6a	0.2935441
23	0x3eae7a20	0.3407755
24	0xbe92b88e	-0.2865643
25	0xbe7f383c	-0.24923795
26	0x3e81578b	0.25262102
27	0xbc063287	-0.008190758
28	0x3e8115e8	0.25212026
29	0x3e33cd50	0.17558789
30	0x3c2ba9bb	0.010477479
31	0xbeba4644	-0.36381733
32	0x3d830200	0.06396866
33	0xbe3c7ee5	-0.18407781
34	0x3d86973a	0.06571813
35	0xbe5a009e	-0.21289298
36	0x3dd263eb	0.10272964
37	0x3e8d9aea	0.27657253
38	0x3e3a76dc	0.18209404
39	0xbe82f68c	-0.25578725
40	0xbe346e2e	-0.17620155
41	0xbde4f54e	-0.11179601
42	0xbc177d05	-0.009246116
43	0x3ec73aab	0.38911948
44	0x3e99938a	0.29995376
45	0x3e439910	0.19101357
46	0xbe22bfee	-0.15893528
47	0x3ebab580	0.364666
48	0xbde67e15	-0.11254517
49	0xbe5cc5ba	-0.21559802
50	0x3e2a0dd7	0.16606842
51	0x3e82b983	0.2553216
52	0x3dd05374	0.101721674
53	0xbd8e077e	-0.06935023
54	0xbdeada88	-0.11467463
55	0xbdad8e18	-0.08474368
56	0x3e84bb33	0.25924072
57	0x3e826ff0	0.25476027
58	0x3e12c591	0.14333178
59	0x3de67e65	0.112545766
60	0x3d842e80	0.06454182
61	0x3ead5eeb	0.3386148
62	0xbdd52533	-0.10407486
63	0xbe26b119	-0.16278495
64	0x3e12c567	0.14333116
65	0x3d8c76ee	0.068586215
66	0x3ea60dda	0.32432443
67	0x3e1d1f03	0.15343861
68	0x3d834a20	0.064106226
69	0xbe641c7c	-0.22276491
70	0xbe99cfd8	-0.30041385
71	0x3e025ab1	0.12729909
72	0xbcb88160	-0.022522628
73	0xbe934d87	-0.28770086
74	0xbe011d1d	-0.12608762
75	0xbe0dd7aa	-0.138518
76	0xbe3ecd9c	-0.18633121
77	0x3cb066a2	0.021533314
78	0x3e85acbc	0.26108348
79	0xbe90b76b	-0.28264937
80	0xbe7e8572	-0.24855593
81	0x3db89461	0.09012676
82	0x3ee2c0a2	0.44287592
83	0x3e00990e	0.12558386
84	0x3e14bbbb	0.14524738
85	0xbe47e196	-0.19519648
86	0xbe22c360	-0.15894842
87	0xbe5e2555	-0.21693929
88	0xbd76cab3	-0.060251903
89	0xbe6b09d9	-0.22952975
90	0x3e6246ce	0.22097322
91	0xbd12e3f5	-0.035861928
92	0x3e5a0c5b	0.21293776
93	0xbe9082a7	-0.2822468
94	0x3e75678f	0.23965286
95	0xbd3ce6c9	-0.04611853
96	0xbe52a9e7	-0.20572625
97	0xbe7d4f12	-0.24737194
98	0xbe81dbab	-0.25362906
99	0xbe96eb3d	-0.29476348
100	0x3e5b53b5	0.2141865
101	0xbe0f8f06	-0.14019403
102	0xbd7edd08	-0.06222251
103	0x3e3f04f7	0.18654238
104	0x3d9bb27c	0.076024026
105	0x3d014bb8	0.03156635
106	0x3dd87807	0.105697684
107	0x3c6e97dd	0.014562574
108	0x3e7c1f9a	0.2462143
109	0xbe3217b7	-0.17391859
110	0x3ea08626	0.31352347
111	0x3e1a62f1	0.15076806
112	0xbda59fe1	-0.08087135
113	0x3edc3aea	0.43013698
114	0x3e496be3	0.19670062
115	0x3e263126	0.16229686
116	0xbc88676a	-0.016650874
117	0x3eaaf30d	0.33388558
118	0x3dbe4689	0.09290797
119	0xbc4ae847	-0.012384481
120	0x3e81697b	0.25275788
121	0xbdee4938	-0.11635059
122	0x3efc3754	0.49260962
123	0xbdca153c	-0.098673314
124	0xbdc2afa8	-0.0950616
125	0x3da5689d	0.08076594
126	0x3dc52602	0.0962639
127	0xbd872f67	-0.06600838
128	0xbea23ba7	-0.31686136
129	0xbe4574f5	-0.19282897
130	0x3ec6d883	0.3883706
131	0xbe99280a	-0.2991336
132	0x3e07c48c	0.1325857
133	0xbe938ce0	-0.28818417
134	0x3e502876	0.20327935
135	0x3e90eb53	0.28304538
136	0x3b0d4200	0.0021554232
137	0xbd699cd8	-0.057034343
138	0x3dbe6ed8	0.092984855
139	0x3d7972f0	0.06090063
140	0x3e0d810b	0.13818757
141	0x3e30b1c4	0.17255312
142	0xbdf7e9dc	-0.12105152
143	0x3d1a9e24	0.03774847
144	0x3dd4889e	0.1037762
145	0x3e91d204	0.28480542
146	0x3e80b66f	0.25139186
147	0x3e33719f	0.17523812
148	0xbea58ebb	-0.32335457
149	0xbe80b418	-0.251374
150	0x3e165e58	0.14684427
151	0xbd817db9	-0.06322808
152	0x3e8b1319	0.27163008
153	0xbdd0513b	-0.101717435
154	0xbd1ced64	-0.03831233
155	0x3e5643e1	0.20924331
156	0x3d64842d	0.055790115
157	0x3ef9b8db	0.48773846
158	0xbd9c177e	-0.07621668
159	0x3eb9be59	0.36278036
160	0x3e5c93b4	0.2154072
161	0xbe9b57bc	-0.30340374
162	0x3e1c8ff8	0.15289295
163	0x3e99d1cf	0.30042884
164	0xbd301fa4	-0.042998925
165	0x3d2ece78	0.042677373
166	0x3d7a5ef1	0.0611257
167	0x3db7b8e8	0.08970815
168	0xbd7150d2	-0.058914967
169	0x3ed8e7ed	0.42364445
170	0xbe673083	-0.225771
171	0x3ef24239	0.4731615
172	0x3e210704	0.15725332
173	0x3f02875f	0.5098781
174	0x3daeaf9c	0.085295886
175	0xbd4f6c5b	-0.050640445
176	0x3ead3cbd	0.33835402
177	0xbe282b03	-0.16422658
178	0xbe6dc407	-0.2321931
179	0x3d21eb20	0.039530873
180	0x3eb97242	0.36219984
181	0x3e4f1174	0.20221502
182	0xbd6f0f7b	-0.058364373
183	0x3e51bf45	0.2048312
184	0x3e1792b9	0.14802064
185	0xbe189fc7	-0.149047
186	0xbd3c9049	-0.04603604
187	0x3eea7245	0.45790306
188	0x3e4d92d4	0.20075542
189	0x3e0fce54	0.14043552
190	0x3dbed3bb	0.09317728
191	0xbdc326d3	-0.095288895
192	0xbe2d1359	-0.16901912
193	0xbc55fd32	-0.013060855
194	0x3e1a42ff	0.1506462
195	0xbdaed21d	-0.0853617
196	0xbda57d1c	-0.08080503
197	0x3e6da43d	0.23207183
198	0x3c8a5491	0.016886028
199	0xbe2fd8d7	-0.17172562
200	0xbe5ec5fa	-0.2175521
201	0x3f0cf134	0.55055547
202	0x3daf4756	0.08558528
203	0x3e864faf	0.2623267
204	0xbeb0f710	-0.34563494
205	0x3e294a4f	0.16532253
206	0xbdf87755	-0.12132136
207	0x3d5f4d1b	0.054516893
208	0x3e3cdde7	0.18444024
209	0xbdacf2c4	-0.08444741
210	0xbcd46c62	-0.025930587
211	0xbd2aa76c	-0.041663572
212	0x3e7f0d14	0.24907333
213	0xbe53f4b6	-0.20698819
214	0x3c81a051	0.015823515
215	0xbe673ffe	-0.22583005
216	0xbdc5c74a	-0.09657152
217	0xbded29e4	-0.11580256
218	0xbe003751	-0.12521102
219	0xbdf006b6	-0.1172003
220	0x3d7daf1b	0.06193457
221	0xbe358fcb	-0.17730634
222	0xbdc1c9a0	-0.09462285
223	0xbe225018	-0.15850866
224	0xbbacb23e	-0.0052702716
225	0x3e6f2cb2	0.23356894
226	0xbe4fda55	-0.20298131
227	0x3e5f2e9b	0.21795122
228	0x3e3960a9	0.18103279
229	0x3e3d0ff7	0.18463121
230	0xbe420c50	-0.1895001
231	0xbdd5a6a3	-0.10432174
232	0x3ec0f29f	0.37685105
233	0x3e41b174	0.18915349
234	0x3ee39b08	0.44454217
235	0x3dd7fe23	0.105465196
236	0xbe2463b5	-0.1605366
237	0xbd8cb0fb	-0.06869694
238	0x3bd740f3	0.006569022
239	0x3ea1b542	0.315836
240	0xbe851bfa	-0.25997907
241	0xbe920395	-0.28518358
242	0x3e265c5e	0.16246173
243	0x3edcca9c	0.4312333
244	0xbc6dc104	-0.014511351
245	0x3e7895c0	0.24275875
246	0xbe8ede31	-0.27903894
247	0xbedf0d33	-0.43564758
248	0xbe39c22e	-0.1814048
249	0xbdefa21b	-0.11700841
250	0xbe9beb65	-0.3045303
251	0x3e77473c	0.24148268
252	0xbe695e61	-0.22789909
253	0x3e4131ab	0.18866603
254	0x3e99046c	0.29886186
255	0xbe57854c	-0.21046942

bias f4 [64]
0	0x3d41d3b7	0.047321048
1	0x3a67224d	0.0008817062
2	0x3b964860	0.0045862645
3	0x3d1b2445	0.037876386
4	0x3d72a680	0.059240818
5	0x3d10b560	0.035329223
6	0x3ca13335	0.019677738
7	0x00000000	0.0
8	0x3d62bc22	0.0553552
9	0x3a9db035	0.0012030663
10	0xb8f1044c	-0.00011492576
11	0xbc44277e	-0.011972306
12	0x3c8d02e3	0.01721329
13	0x00000000	0.0
14	0xbc67de44	-0.014152113
15	0x3d2c1dc3	0.04202057
16	0x3c75173d	0.014959154
17	0x3cd1bf74	0.025603987
18	0xbc9db60d	-0.019251848
19	0x3c3f8ebb	0.011691744
20	0x3c37f37f	0.011227488
21	0xbcb192e7	-0.021676494
22	0x00000000	0.0
23	0x00000000	0.0
24	0x3c9c0768	0.0190465
25	0xbce7ba68	-0.028287128
26	0xbc6608cf	-0.014040186
27	0x00000000	0.0
28	0xbc0be977	-0.008539549
29	0x3d21b026	0.03947463
30	0x3ca506e3	0.020144885
31	0xbbf7afca	-0.0075587975
32	0x3c302d11	0.010752932
33	0x3c6ae688	0.0143371895
34	0xbc522413	-0.012825984
35	0xbc83f8e5	-0.016109893
36	0x3c3473a1	0.011013896
37	0x3be629cb	0.007024025
38	0x00000000	0.0
39	0xbc89bac2	-0.016812686
40	0xbbebb3d7	-0.0071930694
41	0x3cb645e0	0.022250116
42	0x3d072f73	0.033004235
43	0x3cb6f618	0.022334144
44	0x3b960e6f	0.0045793573
45	0x3ba3c56d	0.0049979
46	0xbc9f5dd7	-0.019453926
47	0xbd52e342	-0.05148626
48	0xbc371421	-0.011174233
49	0x3c68e316	0.014214298
50	0xbcdaeb9b	-0.026723674
51	0xbc4a8eff	-0.0123631945
52	0x3ccc57c4	0.024944194
53	0xbc92d0cf	-0.017921833
54	0x3c3ed05a	0.011646355
55	0x3bc4244c	0.0059857722
56	0xbc32fff4	-0.010925282
57	0x00000000	0.0
58	0x3c9509b4	0.018193103
59	0xbd416ed3	-0.04722483
60	0x3c5b6818	0.013391517
61	0x3c24ac18	0.010050796
62	0x3c7348ed	0.01484893
63	0x3d553925	0.05205645

weight f4 [64, 64]
0	0xbd87ec07	-0.066368155
1	0xbd116ae3	-0.035502326
2	0x3e081caf	0.13292192
3	0xbdbfac66	-0.09359054
4	0xbd4ecfd4	-0.05049117
5	0xbe0be6d5	-0.13662274
6	0x3e8bf5d5	0.27335992
7	0xbd1a6423	-0.037693154
8	0x3dba298f	0.09089958
9	0x3d8668c6	0.06562953
10	0x3e17363a	0.1476678
11	0x3e9b3b0c	0.30318487
12	0x3dee6145	0.116396464
13	0x3e1b71a9	0.15180077
14	0xbe5d122b	-0.21588962
15	0x3e71a55a	0.23598233
16	0xbb185b37	-0.0023247728
17	0x3e8d8672	0.27641636
18	0x3e21cf67	0.15801774
19	0x3d56a89f	0.052406903
20	0xbb8d4195	-0.0043107965
21	0xbdf6479a	-0.12025376
22	0x3cd8d0ce	0.026466753
23	0xbe40f5ed	-0.18843813
24	0x3e6564e6	0.22401771
25	0x3ede8030	0.43457174
26	0xbcbd048a	-0.023073453
27	0x3d68453b	0.05670665
28	0x3d5d2eac	0.053999588
29	0xbd27e4a8	-0.040989548
30	0x3c7e5c0f	0.015524878
31	0xbd171c4e	-0.036892228
32	0x3ec489ba	0.38386327
33	0x3e58581a	0.21127358
34	0x3e5672e5	0.20942266
35	0xbdd5d699	-0.10441322
36	0x3e2a24b3	0.16615562
37	0x3e556470	0.20839095
38	0x3d2071c1	0.039170984
39	0x3c98ef1d	0.018668706
40	0x3e3e08e5	0.1855808
41	0x3ec6cfb5	0.38830343
42	0x3d7dd790	0.061973155
43	0x3e151ed7	0.14562546
44	0x3e906df2	0.28208882
45	0xbc4670c6	-0.012111848
46	0x3f08f5fe	0.53500354
47	0x3c4901a6	0.012268459
48	0xbe3da824	-0.18521172
49	0x3d354c2d	0.0442621
50	0xbe13bb07	-0.14426814
51	0x3e8adbd1	0.27120832
52	0xbc411feb	-0.011787395
53	0x3dc8046c	0.097664684
54	0x3e308485	0.17238052
55	0x3e86d1de	0.2633199
56	0x3e182776	0.14858803
57	0xbe2abda3	-0.16673903
58	0xbe3ccf22	-0.1843839
59	0x3e02f601	0.12789156
60	0x3e52f5dd	0.20601602
61	0xbe4f97bd	-0.20272727
62	0x3e44dced	0.19224901
63	0x3e86d6f1	0.26335862
64	0x3d293485	0.041309852
65	0xbdfcf773	-0.12351885
66	0x3d0fd8f4	0.035119012
67	0x3e411e14	0.1885913
68	0x3e2775ae	0.16353485
69	0xbd38a1f6	-0.045076333
70	0xbe131372	-0.14362887
71	0xbbbe7cc0	-0.005813211
72	0xbd3dd935	-0.046349723
73	0xbe31973f	-0.17342852
74	0x3e022c7c	0.12712282
75	0x3e287d3d	0.16454025
76	0x3dccd472	0.10001458
77	0x3e994195	0.29932848
78	0xbe2b760e	-0.16744253
79	0xbd0e9e5e	-0.034819
80	0xbe350543	-0.17677788
81	0x3e008640	0.12551212
82	0x3de078b6	0.10960524
83	0x3d803901	0.06260873
84	0x3e5dcd5d	0.21660371
85	0x3df8128e	0.12112914
86	0x3e76be43	0.24096017
87	0xbea1f852	-0.31634766
88	0xbc06a075	-0.008216967
89	0x3e1a65e8	0.15077937
90	0x3e6e3329	0.23261704
91	0xbe06a0f8	-0.13147342
92	0x3e82eef8	0.25572944
93	0xbe316955	-0.17325337
94	0x3e3c7a75	0.18406089
95	0xbe14100f	-0.14459251
96	0xbdfae19e	-0.12250064
97	0xbd457870	-0.04821056
98	0x3e7c5de7	0.24645196
99	0xbb8c02eb	-0.004272809
100	0x3d740644	0.059576288
101	0x3e235883	0.15951733
102	0x3e12017f	0.14258383
103	0x3e0fa059	0.14026012
104	0x3d8abaae	0.067738876
105	0x3eab1855	0.33417
106	0x3ddd9b7e	0.108206734
107	0xbdb147de	-0.08656286
108	0x3ec92088	0.39282632
109	0xbc453fdb	-0.01203915
110	0x3eddfeee	0.43358558
111	0xbe066288	-0.13123524
112	0xbde97ed9	-0.114011474
113	0xbca5ceab	-0.020240149
114	0xbdb852a9	-0.09000141
115	0x3d84210d	0.064516164
116	0x3e010498	0.12599409
117	0x3bf96bcd	0.007611728
118	0xbe2a68c2	-0.16641524
119	0x3eb1372e	0.3461241
120	0x3bde9ab2	0.0067933435
121	0xbdcfb5c1	-0.10142089
122	0xbd79bb76	-0.060969792
123	0xbe09c4cc	-0.13453978
124	0x3e4d3c96	0.20042643
125	0xbe3856d1	-0.18001868
126	0xbd583d43	-0.0527928
127	0x3dbcf88c	0.09227094
128	0x3e51b3aa	0.20478693
129	0x3d156c9b	0.036480527
130	0xbdfb9cdf	-0.1228578
131	0xbd8a0f0d	-0.06741152
132	0xbe6220eb	-0.2208287
133	0xbcaaf3a3	-0.020868128
134	0xbe050cdc	-0.12993187
135	0x3e407447	0.18794356
136	0x3d48813b	0.04895137
137	0x3df24d7e	0.11831187
138	0xbe444456	-0.19166693
139	0xbdb235e6	-0.087016866
140	0xbe58dc8e	-0.21177885
141	0x3dd24d06	0.10268597
142	0x3dcb6fee	0.09933458
143	0x3d7220c5	0.059113283
144	0xbda213c2	-0.07913925
145	0x3e4c279a	0.19936982
146	0x3d4f9c11	0.050685946
147	0x3e5076fb	0.20357887
148	0xbda978cf	-0.082749955
149	0xbe0e0a04	-0.13871008
150	0xbd203944	-0.039117113
151	0x3e02fb4b	0.12791173
152	0xbe22e392	-0.15907124
153	0xbdeac179	-0.11462683
154	0x3ddf99d1	0.1091801
155	0xbc2aae51	-0.010417537
156	0xbe03407e	-0.1281757
157	0x3e2dc2a8	0.16968787
158	0xbc76d130	-0.015064523
159	0x3c40f9c0	0.011778295
160	0x3cd55fef	0.026046721
161	0xbd2ad6f1	-0.04170889
162	0xbe4b44ff	-0.19850539
163	0xbe1cfa09	-0.15329756
164	0x3c3e68dd	0.011621681
165	0xbd386fc6	-0.04502847
166	0x3db6aa02	0.08919145
167	0x3da5fab7	0.08104461
168	0x3e560fbd	0.20904441
169	0x3d8ef6c1	0.06980658
170	0xbdcd16a5	-0.10014085
171	0xbd53297f	-0.051553246
172	0x3d79abca	0.060954846
173	0xbdb535e6	-0.08848171
174	0x3e3de241	0.1854334
175	0x3e0f8907	0.14017116
176	0xbdcb86bf	-0.0993781
177	0x3e048529	0.12941422
178	0x3d895a78	0.06706709
179	0xbc1814f0	-0.009282336
180	0xbd9360b2	-0.071961775
181	0xbe0875db	-0.13326208
182	0xbe0f80dc	-0.14014
183	0x3cbf53b1	0.023355337
184	0xbe0c4a52	-0.13700226
185	0x3d606dfe	0.054792397
186	0x3e3e9a1c	0.18613476
187	0x3e14b084	0.1452046
188	0x3dc2ee97	0.09518164
189	0x3e3dda49	0.185403
190	0xbe1a6bc4	-0.15080172
191	0x3e1e8f92	0.15484455
192	0x3da74cd7	0.08168953
193	0xbdc0bc3b	-0.09410902
194	0xbd64542c	-0.055744335
195	0x3e4aa31b	0.19788782
196	0x3ad0cdf6	0.0015930522
197	0x3d16523d	0.036699522
198	0x3debf0f4	0.115205675
199	0x3df90482	0.12159063
200	0xbe2f79ff	-0.17136382
201	0xbb2cef87	-0.0026387887
202	0xbd1fb6cf	-0.0389927
203	0x3d678dd9	0.05653176
204	0xbe3499a1	-0.1763673
205	0x3dfa1548	0.1221109
206	0x3d2def46	0.042464517
207	0x3e8949bf	0.26814076
208	0x3bff8f41	0.0077990596
209	0x3e97ff2c	0.29686868
210	0x3d42b58c	0.047536418
211	0x3e1eba0c	0.15500659
212	0xbe3ceb96	-0.18449244
213	0xbdb7b314	-0.08969703
214	0x3e57c969	0.21072926
215	0x3e35b33d	0.17744155
216	0x3ebb3166	0.36561126
217	0x3e08fc1b	0.1337742
218	0x3d47e1e2	0.048799403
219	0xbe3bc272	-0.18335894
220	0x3e80d16a	0.2515977
221	0xbd6af156	-0.057359062
222	0xbd48ee2c	-0.049055263
223	0xbe6201e5	-0.22071035
224	0x3e6f0dc2	0.23345092
225	0x3e20112f	0.15631555
226	0x3d9a9294	0.07547489
227	0x3d98603b	0.074402295
228	0x3e010de4	0.12602955
229	0x3e2c47b6	0.1682423
230	0x3e2c4095	0.16821511
231	0x3e473e5b	0.1945738
232	0x3e02087f	0.12698554
233	0xbc24425c	-0.010025587
234	0xbe00a373	-0.12562351
235	0x3e52c46a	0.20582739
236	0x3bcd18ec	0.0062590744
237	0x3de40e2d	0.11135516
238	0x3df181f3	0.11792364
239	0x3d8bf95f	0.06834673
240	0xbda57e8c	-0.080807775
241	0x3df50396	0.119635746
242	0xbd2dd61f	-0.04244053
243	0x3e1e06e4	0.15432316
244	0x3e248a7f	0.16068457
245	0x3cf45055	0.029823462
246	0xbd3f5a2b	-0.04671685
247	0x3d0ef76d	0.034903932
248	0xbe726daa	-0.23674646
249	0xbe3a3ebf	-0.18187998
250	0xbdc7eb86	-0.097617194
251	0x3dbd0b52	0.09230675
252	0x3db13b35	0.08653871
253	0x3e471792	0.19442585
254	0x3ddcee4c	0.10787639
255	0x3dbc7d83	0.09203627

bias f4 [2]
0	0x3c78e33d	0.015190897
1	0x3bed4013	0.0072403043

weight f4 [2, 64]
0	0x3dd48151	0.10376228
1	0x3e9a5bca	0.30148154
2	0xbd9f18ff	-0.077684395
3	0xbcd9a04a	-0.02656569
4	0x3e74138f	0.23835586
5	0xbe7475fa	-0.2387313
6	0xbeba2109	-0.3635333
7	0x3e79bf3c	0.24389356
8	0x3eb821a4	0.35963166
9	0x3e463a4d	0.19358177
10	0x3e98d1ec	0.29847658
11	0xbed6fbfb	-0.4198912
12	0xbde2f40d	-0.11081705
13	0x3e30773a	0.17232981
14	0x3ca1fb91	0.019773277
15	0xbe228fd3	-0.15875177
16	0xbea5828e	-0.32326168
17	0xbe1065be	-0.14101312
18	0xbe047b79	-0.12937726
19	0xbe8a7a37	-0.27046368
20	0xbd4e6f98	-0.050399393
21	0x3e801730	0.2501769
22	0x3d067b58	0.032832474
23	0x3c167d40	0.009185135
24	0x3e7ee50a	0.24892059
25	0x3e78eb5d	0.24308534
26	0xbe73fe8f	-0.23827575
27	0x3dcba780	0.099440575
28	0xbe9912dd	-0.29897204
29	0xbe8ea5bb	-0.27860817
30	0x3e93cfbe	0.28869432
31	0xbe701c00	-0.23448181
32	0xbd72aa06	-0.05924418
33	0xbd4f2b5a	-0.050578453
34	0xbe81afbc	-0.25329387
35	0x3e7c8772	0.24661043
36	0xbe58ae51	-0.21160246
37	0xbd33ac73	-0.043865632
38	0x3e87e912	0.26545006
39	0xbdd923a6	-0.106025025
40	0xbe3048fd	-0.17215343
41	0x3d748836	0.059700213
42	0x3eae9d77	0.3410451
43	0xbe97bbaa	-0.29635364
44	0xbe42883b	-0.1899728
45	0x3d97061a	0.07374211
46	0x3df77bbb	0.120841466
47	0xbeb19f36	-0.3469178
48	0x3e76f50f	0.2411692
49	0x3eb8031b	0.3593987
50	0x39f16826	0.000460447
51	0x3e735331	0.23762204
52	0xbe402e76	-0.18767723
53	0x3e5af4b9	0.21382417
54	0xbd5d91e1	-0.0540942
55	0x3e41109c	0.18853992
56	0x3e6b60ce	0.22986147
57	0xbe693dec	-0.22777528
58	0x3ec391a6	0.38197058
59	0xbe81f7c2	-0.25384337
60	0xbebd22a5	-0.36940494
61	0x3e01bb5d	0.1266913
62	0x3e414107	0.18872462
63	0x3f040e2d	0.5158413
64	0xbeaeb6c9	-0.3412383
65	0xbe7b34d2	-0.24531868
66	0xbc044aab	-0.008074443
67	0xbe9436fa	-0.28948194
68	0xbee6f532	-0.45108944
69	0x3e41a4b6	0.18910488
70	0x3e21b6c3	0.15792374
71	0x3e25d3e0	0.16194105
72	0xbf08372f	-0.53209203
73	0xbe639a4c	-0.22226828
74	0x3e640b2a	0.22269884
75	0x3e922cda	0.28549844
76	0xbede3abe	-0.43404192
77	0xbcf2f700	-0.029658794
78	0xbda3ae7a	-0.07992263
79	0xbeceb19b	-0.40369877
80	0x3c1b52b0	0.009480163
81	0xbe6a9863	-0.22909693
82	0x3e894e98	0.26817775
83	0x3e803385	0.25039306
84	0x3e4ffbe3	0.20310931
85	0x3e80030a	0.2500232
86	0x3e02f562	0.12788919
87	0xbbaaf540	-0.0052172244
88	0xbebd7233	-0.3700119
89	0xbdae4555	-0.08509318
90	0xbe225bf9	-0.15855397
91	0xbd7e9d70	-0.062161863
92	0xbe33e658	-0.17568338
93	0x3e8b66b4	0.27226794
94	0x3e467336	0.19379887
95	0xbe51c8e2	-0.20486787
96	0x3e502d95	0.20329888
97	0x3e350836	0.17678913
98	0xbdefdb96	-0.117118046
99	0x3e8391ac	0.25697076
100	0x3e0fbd8c	0.1403715
101	0xbe4aa1b1	-0.19788243
102	0xbdf0c692	-0.11756624
103	0xbd40a4e2	-0.047032245
104	0xbcc4cc19	-0.024023103
105	0x3eac1633	0.33610687
106	0xbed66a8f	-0.41878173
107	0x3e5775a6	0.21040973
108	0xbea3d27f	-0.31996533
109	0x3e757c73	0.23973255
110	0x3da7c368	0.08191568
111	0x3de5c453	0.112190865
112	0x3dd2b8e3	0.102891706
113	0x3c9052b7	0.017617567
114	0x3e2049fc	0.15653223
115	0x3d8c4c90	0.06850541
116	0x3e8060ae	0.2507376
117	0xbe3deee7	-0.18548165
118	0x3eb8e6fd	0.3611373
119	0x3e7ac9b9	0.24491014
120	0x3db2905b	0.0871894
121	0xbd96f256	-0.07370441
122	0xbee44a0e	-0.4458775
123	0x3d8fe1bc	0.07025477
124	0x3e4ee7fe	0.20205685
125	0x3e95e426	0.29275626
126	0x3eb7320e	0.35780376
127	0x3c6ce790	0.014459506
