graph_classification_model.pt (torch, 98050 bytes, 10 tensors)

bias f4 [64]
00000000: 0000 0000 0000 0000 0000 0000 0000 0000
00000010: 850f 513b ba31 583b e22c 3e3b f7c3 3bbb
00000020: 3b50 36bb 3181 793b 0000 0000 600d 773b
00000030: 0000 0000 e5af 533b 0000 0000 0000 0000
00000040: 0000 0000 5244 60bb 0000 0000 0000 0000
00000050: 0000 0000 0000 0000 3364 54bb 0000 0000
00000060: 0000 0000 0000 0000 0000 0000 0000 0000
00000070: fbbc 3abb 0000 0000 2697 2dbb c153 16ba
00000080: 6e99 8a3a 5313 eb3a 3283 273b 0408 5a3b
00000090: 0000 0000 0000 0000 eaed 263b 0000 0000
000000a0: 45b6 69bb 0000 0000 7774 16bb 0000 0000
000000b0: 0000 0000 702e 383b 0000 0000 0000 0000
000000c0: 0000 0000 28d9 4e3b 3a64 6b3b 0000 0000
000000d0: 0000 0000 0000 0000 0000 0000 db58 243b
000000e0: 0000 0000 6cd8 2fbb 084e 643b ac8a 64bb
000000f0: 2b14 243b 06a5 523b 0000 0000 0000 0000
0.0 0.0 0.0 0.0 0.003190012 0.0032988624 0.0029018451 -0.002865074
-0.0027818817 0.003807139 0.0 0.003769718 0.0 0.0032300886 0.0 0.0
0.0 -0.003422041 0.0 0.0 0.0 0.0 -0.0032408356 0.0
0.0 0.0 0.0 0.0 -0.0028493989 0.0 -0.0026487797 -0.0005734526
0.001057429 0.0017934836 0.0025560376 0.0033268938 0.0 0.0 0.0025471398 0.0
-0.003566162 0.0 -0.0022957602 0.0 0.0 0.002810385 0.0 0.0
0.0 0.003156254 0.0035917894 0.0 0.0 0.0 0.0 0.0025077376
0.0 -0.0026831878 0.003483655 -0.0034872694 0.0025036435 0.0032141819 0.0 0.0

weight f4 [64, 1]
00000000: e8f8 b6bd 1c63 76bd 8099 e3bd 044d 13be
00000010: cf43 743e 97bc 923e 35af 0c3e e746 8a3e
00000020: ea7c cd3d 396f 513d c07b f7bd d919 933e
00000030: 9a2f 5ebe 0c1d 693e f8ee 1ebd 34d4 f5bd
00000040: 00d7 beba 4cb6 3b3e cfd0 89be ed30 71be
00000050: 94c3 63bd b52d 9abe d3d1 1b3d 5247 5cbe
00000060: c09f 8bbe 50c2 fcbd 0bb5 26be 005a cdba
00000070: 3f93 4d3e c686 97bd 07e5 6c3d 88f3 0b3e
00000080: a58b a93d a606 893c 1e7a 553d 248d 3a3e
00000090: f1a2 8bbe beca f7bd 48d1 8a3e 2036 a3bd
000000a0: 0e33 413e fb8d 78be bb42 863d e086 11bc
000000b0: 301b 92be 9435 913d 30f9 03bd 9ffb 96be
000000c0: ca97 c1bd cfc6 813e 962f 843d 63fb 3dbe
000000d0: db8e 20be ebf3 0dbe 6339 21be a49f 743d
000000e0: d50d 12be d1a6 5a3e 26ad 293e 758c 603e
000000f0: 11ad 013c 7b34 8e3e 123a 82be 8bda 27be
-0.08934194 -0.06015311 -0.11113262 -0.14384848 0.23853992 0.28659508 0.13738711 0.2700722
0.10033591 0.05113146 -0.1208415 0.28730658 -0.21697846 0.22764987 -0.038802117 -0.12003365
-0.0014559925 0.1833126 -0.2691712 -0.2355382 -0.05560644 -0.30112997 0.0380419 -0.21511582
-0.27270317 -0.1234175 -0.1628 -0.0015667081 0.20075701 -0.07398753 0.057835605 0.13667119
0.08278588 0.016726803 0.052118413 0.18217903 -0.27272752 -0.12099217 0.27112794 -0.07969308
0.18867132 -0.24272911 0.065556966 -0.008882254 -0.28536367 0.07090297 -0.032220066 -0.29488847
-0.094527796 0.2534699 0.06454389 -0.18552928 -0.15679495 -0.13862579 -0.15744548 0.059722558
-0.14263089 0.21352698 0.16569957 0.2192858 0.007914797 0.27774414 -0.2543493 -0.16391961

bias f4 [64]
00000000: 0000 0000 9604 393b 02da 3ebb 0000 0000
00000010: b3bb 7f3b 0000 0000 55ad 57bb 0000 0000
00000020: efee 03ba 0000 0000 0000 0000 c2f6 813b
00000030: 0000 0000 45bb 35bb 0654 4bb9 4b3c 163b
00000040: 847d 9bb9 0000 0000 0000 0000 0000 0000
00000050: 0000 0000 c784 5ebb b30b 303b 0000 0000
00000060: ef11 443b ab09 41bb 0000 0000 0000 0000
00000070: 0000 0000 a925 433b b73d 82bb 0000 0000
00000080: 5a8b c338 1eb2 243b 0000 0000 2b3f 14bb
00000090: 0a1f 73bb 570f 493b 5433 36bb c10d 513a
000000a0: 0000 0000 ec75 6bbb 8dbf ebba c488 7e3b
000000b0: 0000 0000 0000 0000 e90f 47bb 0000 0000
000000c0: f584 243b 5b08 493b 0000 0000 0000 0000
000000d0: 0000 0000 0000 0000 0000 0000 cc92 58bb
000000e0: 0c53 75bb 0000 0000 233f 723b 2be0 643b
000000f0: 1b86 603b 95f4 63bb 0000 0000 0000 0000
0.0 0.0028231493 -0.0029121642 0.0 0.003902179 0.0 -0.003290971 0.0
-0.00050328573 0.0 0.0 0.0039661834 0.0 -0.002773003 -0.0001939089 0.002292412
-0.0002965742 0.0 0.0 0.0 0.0 -0.0033953653 0.0026862442 0.0
0.0029917916 -0.0029455225 0.0 0.0 0.0 0.0029777086 -0.003974642 0.0
9.324281e-05 0.002513058 0.0 -0.002262066 -0.0037097358 0.003067931 -0.002780159 0.0007974767
0.0 -0.0035928441 -0.0017986164 0.0038838843 0.0 0.0 -0.0030374473 0.0
0.0025103663 0.0030675146 0.0 0.0 0.0 0.0 0.0 -0.0033046482
-0.0037433533 0.0 0.0036963902 0.0034923654 0.003425962 -0.0034783233 0.0 0.0

weight f4 [64, 64]
00000000: 8294 46be b8a6 4cbd 48f0 a33c af68 413e
00000010: 18c8 bebc 7a08 16be 480c dbbd e37b cbbd
00000020: fc64 3cbd 989f 56bd b929 2a3e d05f 1dbe
00000030: 7a11 df3d 7dd5 eebd 6c35 2c3d 1eee de3d
00000040: c220 db3d 8c5f 5a3d ffb1 5c3e d8b3 083d
00000050: 837f 003e e574 52be 8603 e43d 18b1 1ebe
00000060: 98e6 08bd f0cc 33bc b151 583e eb19 59be
00000070: 40cf 0dbc 6b23 443e b3f7 383e 2615 2bbe
00000080: 3429 a6bd aea4 9a3d 6f1c 233e 1058 0ebc
00000090: 866f 59be d644 853d c0ed 80bb b836 26be
000000a0: b4d3 203d 88b3 4dbe 751b 023e 5c12 31be
000000b0: fca1 99bd 1cee 5b3d a5fe 093e fcac 40be
000000c0: d611 36be 498f 5d3e 06bd d7bd f0f7 4bbe
000000d0: 6ccf 43be cd36 4e3e 400c 6bbd 258c 2f3e
000000e0: 6a11 4cbe a0dc 67bd 27c2 433e c0a8 3ebe
000000f0: c89b 8fbd 5510 093e 9f8c 233e 46fc 923d
00000100: 153f 0c3e 501f 97bd 1acd c3bd 23bd 193e
00000110: 5217 4fbe 2f3c 95bc cc0d 533e 1928 b33d
00000120: e71b 40bb fba6 73bd 8003 353c da40 47bd
00000130: 8d4b 24be 2531 89bd 4d56 5abe 9d55 483e
00000140: 57ab 52be d41d f93a 1288 8b3d 9788 5abe
00000150: 0a93 f33d 80c7 b3bc 1220 e23a 10ca 9f3c
00000160: 58ec c9bc c4c2 743d 8e74 ac3d 1f72 2ebe
00000170: 877c 16bd d63f 39be 495a fbbd 55ec 0c3e
00000180: 65bc 40be 5fae adbc 3583 643d a8c1 d83d
00000190: 22ec 9a3d 6584 51be 0384 5c3e 6014 943b
000001a0: 2fbd f73d 3c29 203d eb95 3f3e 2840 ee3c
000001b0: dcf4 bebd 984c 283e a035 ad3c b7a1 3c3e
000001c0: eaf8 3abe 0bf1 2b3e 6402 7fbd 8598 2f3e
000001d0: 0c41 41be c638 b03d e369 333e 18f7 5e3d
000001e0: 3cd5 1cbd ef73 343e 3e4d a1bd ac2f 99bd
000001f0: 2edb 023e b39b 343e 6041 fcbd a371 59be
00000200: 869c 973d c88f a0bc b7e3 c6bd 8ed9 3abe
00000210: a171 403e 6f58 96bd 4c8c febc 43c2 113b
00000220: e353 19be 08dd 113e 8882 92bd 8e5c 483d
00000230: 54a9 1a3d 5f8d 743d eb50 573e 8dfa 00be
00000240: 6474 edbd 83e6 f23d 9829 b4bc 4035 3fbc
00000250: ccb4 04bd 00ba d83a d8fc 2bbd 0cd3 583d
00000260: 8031 3cbe a83a b7bc 363f b93d b6f2 22be
00000270: 44a8 97bd 0cf6 94bd 541a febd 334e 2b3e
00000280: 06f5 54bb 7345 febd e1b2 043e eeae 9a3b
00000290: 948d ccbd 1dbc 54be c9ac 703c 412f 443e
000002a0: 7e0f 38be 35c7 293e 6fc9 1c3e 8c22 163d
000002b0: e27e 19be 17b6 e23d f7bb 383e b4d6 a0bd
000002c0: d440 02be 0e36 3e3e 0002 ff3c 6cf7 f3bd
000002d0: 80cf 933b c096 773c 5152 3fbe 8dab d3bd
000002e0: c012 55bd cef5 0bbd a2d0 2dbe 70dc 473e
000002f0: 2672 493e 0f51 90bd 351d 28be 821d d6bd
00000300: da63 a6bd 9607 26be dc0c a4bd 2e77 a73d
00000310: 94c8 16be d816 f9bd c6d4 5abe 20b6 7bbc
00000320: 9019 a9bc 0fd5 093e e179 eebd fcbb d5bd
00000330: c01f 02bb a01b 413c d805 023d f07d cfbd
00000340: 9c9d 063d 6e81 a93d f062 44be 248a 223d
00000350: 3f64 1d3e 00a1 dc3c bd84 57be 36df 24be
00000360: b49c 30be 3655 0fbe ea1a df3d b27b a7bd
00000370: 6c3c 07bd 9ae7 a73d b721 edbd cbcc 3ebe
00000380: 9803 c0bc 8a6b cc3d 027d d23d 20e3 0b3c
00000390: 0458 1bbd 80b6 30be 0764 4b3e 6498 703d
000003a0: 1a15 cf3d df18 473e 6465 34be 82e3 e4bd
000003b0: 75d0 4a3e 48a7 ecbc 0213 fc3d aa25 f33d
000003c0: 3412 fcbd e5c3 073e cac9 05be 98fd 47be
000003d0: efd0 233e c266 38be 35a7 083e 5040 e7bc
000003e0: 2071 3cbd c6f8 c03d 12e7 87bd 5dd4 583e
000003f0: 7411 253d 7f19 fcbd bcf4 163d c889 ff3c
-0.19392589 -0.049963683 0.020012036 0.1888759 -0.023288772 -0.14651671 -0.10695702 -0.09935739
-0.045994744 -0.052398294 0.16617478 -0.15368581 0.10892005 -0.116618134 0.042043135 0.10885261
0.106996074 0.053313777 0.21552275 0.033374637 0.12548642 -0.20552404 0.111334845 -0.15497243
-0.033423036 -0.010974154 0.21124913 -0.21201293 -0.008655369 0.19154136 0.1806324 -0.16707286
-0.081133276 0.075509414 0.15928815 -0.008687988 -0.21233949 0.0650727 -0.003934592 -0.16231811
0.039264396 -0.20088017 0.12705787 -0.1729216 -0.07501599 0.053693876 0.13476045 -0.18815988
-0.17780241 0.2163669 -0.105341 -0.199188 -0.19122094 0.20138092 -0.05738473 0.17143305
-0.19928518 -0.05660689 0.19117032 -0.1861906 -0.07012135 0.13385136 0.15971611 0.071770236
0.13695939 -0.07379019 -0.095606044 0.15013556 -0.2022374 -0.018217174 0.20610732 0.087478824
-0.0029313506 -0.059485417 0.011048198 -0.04864583 -0.16044445 -0.06698827 -0.21321984 0.19563909
-0.20573173 0.0019006082 0.06813063 -0.21341167 0.1189328 -0.021945715 0.0017251989 0.01950553
-0.02464883 0.059756055 0.084206685 -0.17035721 -0.036739852 -0.18090758 -0.1227308 0.13762029
-0.18821867 -0.02120131 0.05578919 0.10583812 0.0756457 -0.20460661 0.21534733 0.0045190305
0.12096631 0.039101824 0.18709533 0.029083326 -0.09324047 0.16435468 0.021143734 0.18421064
-0.18259016 0.1679117 -0.06225814 0.17148025 -0.1887247 0.08604579 0.17520861 0.054434866
-0.038289294 0.1762235 -0.07876061 -0.07479796 0.12778923 0.1763752 -0.12317157 -0.21234755
0.07402901 -0.01959981 -0.09711402 -0.18247053 0.18793346 -0.07341086 -0.031072758 0.0022241033
-0.14973406 0.14244473 -0.07153803 0.048916392 0.03775914 0.059705134 0.21026962 -0.12595578
-0.115944654 0.11860373 -0.02199249 -0.011670411 -0.032398984 0.0016534925 -0.041989177 0.052935645
-0.18378258 -0.022366837 0.0904526 -0.159129 -0.07405141 -0.07273492 -0.124073654 0.1672905
-0.0032494678 -0.1241559 0.12958862 0.0047205603 -0.099879414 -0.20774885 0.014689633 0.19158651
-0.1797466 0.16579898 0.15311216 0.03665404 -0.14989808 0.11069887 0.18040453 -0.07853451
-0.12720042 0.18575308 0.031128883 -0.11912426 0.00451082 0.015111625 -0.18683745 -0.10335455
-0.052019835 -0.034169964 -0.16974118 0.19517684 0.1967245 -0.07046711 -0.16417392 -0.10454847
-0.08124514 -0.16213831 -0.08010265 0.081770286 -0.14724952 -0.1216256 -0.21370229 -0.015363246
-0.020642072 0.13460182 -0.1164434 -0.10436246 -0.001985535 0.0117863715 0.031743854 -0.101314425
0.03286515 0.0827664 -0.19178367 0.039682522 0.15370272 0.02693224 -0.2104673 -0.16100773
-0.17247277 -0.13997349 0.10893805 -0.0817789 -0.033016607 0.08198471 -0.11578696 -0.1863281
-0.023439214 0.09981449 0.102777496 0.008538038 -0.037925735 -0.17257118 0.19862376 0.05873908
0.10111447 0.19443081 -0.17616802 -0.11176206 0.19806083 -0.02888836 0.12308313 0.11872418
-0.123081595 0.13258322 -0.13065258 -0.19530332 0.1599767 -0.18007949 0.13345034 -0.028228909
-0.046006322 0.0942245 -0.0663587 0.2117476 0.040299848 -0.123095505 0.03685449 0.031193629

bias f4 [64]
00000000: 823e 8c3a 0000 0000 64f9 813b 0000 0000
00000010: 2f31 12ba 0000 0000 f09f 07bb 0000 0000
00000020: 0000 0000 0000 0000 0000 0000 56b7 153b
00000030: 3d01 6d3b 0000 0000 0000 0000 0000 0000
00000040: 087c 23bb 0000 0000 93b3 593b 9b3c 53bb
00000050: 5f47 7f3b 381b 4bbb 4182 203b a0fc 2b3b
00000060: 2405 623b 0000 0000 0000 0000 0b77 b93a
00000070: 0142 6638 693d 1cb8 0000 0000 0000 0000
00000080: 0000 0000 975b e8b9 fe7a 3f3b 0000 0000
00000090: 8bd4 4bbb 1424 713b 0000 0000 0000 0000
000000a0: 0000 0000 0000 0000 4ba7 5fbb 0000 0000
000000b0: 6162 803a 0000 0000 22d7 693b 1c2a 72bb
000000c0: d4e8 763b dd91 61bb 0000 0000 ff32 2bbb
000000d0: 0000 0000 0000 0000 5a10 523b 69a7 c8ba
000000e0: edff 6e3b c038 20ba 0000 0000 0f0a 743b
000000f0: 7765 c6ba 0000 0000 4d25 daba 0000 0000
0.0010699781 0.0 0.0039664973 0.0 -0.0005576787 0.0 -0.0020694695 0.0
0.0 0.0 0.0 0.0022844872 0.0036164068 0.0 0.0 0.0
-0.0024945755 0.0 0.0033218607 -0.0032232169 0.0038952453 -0.0030991565 0.00244917 0.0026243106
0.0034487927 0.0 0.0 0.0014149857 5.4897744e-05 -3.725049e-05 0.0 0.0
0.0 -0.00044318728 0.0029217596 0.0 -0.0031102027 0.0036795186 0.0 0.0
0.0 0.0 -0.0034126814 0.0 0.0009794944 0.0 0.0035681208 -0.0036951369
0.0037675397 -0.0034419217 0.0 -0.0026122925 0.0 0.0 0.0032053203 -0.0015308681
0.0036468462 -0.0006111972 0.0 0.003723744 -0.001513644 0.0 -0.0016643197 0.0

weight f4 [64, 64]
00000000: 2047 50be 3464 ac3d e27a 583e da11 963d
00000010: 760d 1dbe 8c4a 7f3d 2da5 153e aa64 94bd
00000020: e5c8 7e3c dbfe 503e 2085 d53b 70e7 333e
00000030: be3d 1fbe 0452 4fbc b333 853a aada 15be
00000040: cc0e 34be b485 263d e222 46be 449c 21be
00000050: a5ca 043e 6bb1 b7bd ae7a 943d 7b68 51be
00000060: 6c16 05be 38ee 323e 84b9 59be 3090 1dbe
00000070: 1c7a 263d b3e6 093e 2675 223e fc28 203d
00000080: 3440 4dbe e466 d0bd 369e b43d d43b 343d
00000090: 81b4 2cbd 50cd 8fbd 418c 073e abb9 423e
000000a0: 868d c93d 34df 5c3d 5b91 b9bd 0a0f 1dbe
000000b0: 78a1 ebbd 3f1a 4d3e 7806 663d 7c92 b1bd
000000c0: ff6f d3bd d452 363e fddb 1fbe 1975 3fbe
000000d0: 5b57 163e 8f7f 2dbe 10b9 c8bc f3e0 393d
000000e0: f627 2c3e 7688 0cbe 41f8 033e ece6 ddbd
000000f0: 73f7 443d fea7 1a3e f615 f33d fe42 e33d
00000100: 1816 4bbe fb06 17be 6c8e 40be 8003 af3c
00000110: 1267 04be c8a1 0fbd 5af3 30be 16ec 09be
00000120: c7ed 0c3e 05b2 eebd 000a f2bc 7496 a5bd
00000130: ee18 07be 20a4 e53c 9184 4b3e 2b84 223e
00000140: 0c47 443d f7bc ebbd 4c6a 6a3d 4ca8 06bd
00000150: 040d 223d b7dc dfbd e4ed 733d 753e 18be
00000160: a09f 4abe 1283 dabd b433 6abd fd30 213e
00000170: fa1a f13d 679b d0bd 7043 43be 7f72 1c3e
00000180: 85da 493e ac10 91bd a0a6 f3bb 66a8 ed3d
00000190: f08c 1dbd 5aaa de3d 3f92 c9bd f97c 023e
000001a0: 72e0 c23d 2c70 52be 8f54 553e 4bec 163e
000001b0: 145f 32bd 32ed b0bd fe43 15be 6010 ae3c
000001c0: f0dc 26bc 7015 26bd f536 563e 7a21 883d
000001d0: 68dc 54be bcb2 6a3d d0dd f23c 93dc 0d3e
000001e0: d0c1 96bd d64c f73d c243 8fbd 9cdf 4cbd
000001f0: 2c18 f7bd 06bd 0ebe e80b c23c 5048 d03c
00000200: 9470 00be dd88 303e 32ff 53be 029f 98bd
00000210: 6a7c 423e c087 7ebd 223a 18be e03d dd3b
00000220: b9c3 373d 8665 ae3d 6ec0 b23d eff7 90bd
00000230: e045 30bc c02e 6bbc c79b 2e3e 33ff 213e
00000240: 0991 acbd 65ce 3d3e df33 203e 1b68 1abe
00000250: 84fb 1bbe f41a cb3d 82b0 2ebd d871 82bd
00000260: 77f5 bcbb d26d b33d b974 1c3e 6175 3c3e
00000270: 40b6 bfbc 7b33 cebc 482e 47be b36d 103e
00000280: c88e c6bd 5d52 9ebc 641b 6b3d 5e4f 963d
00000290: 3a47 47be e6bf d33d deda d03d de1a 113e
000002a0: b909 2bbe 1ce6 4bbe 8c56 5e3e e0d3 c8bd
000002b0: 1496 c7bd 1a84 893d 6c77 8bbd 2a7c c33d
000002c0: 02d9 023c 4d66 113e 4058 da3b 684f 5bbe
000002d0: 3e89 ff3d b800 55be b322 c6bd 454e e73d
000002e0: 4d3f 50be 502f 2e3c 6b5f f3bd b8c2 473d
000002f0: b406 533d e785 563e 660a f83d 12c6 00be
00000300: e5b6 193e af3b 4d3e c67a 1ebe f172 4f3e
00000310: 6049 8fbd 3de2 043e 802c 33bb c350 273e
00000320: 907c 44bd 918d 24be 54c4 3abe bddb 31be
00000330: 9ec1 bd3d aaa0 82bd f00c 22be 74a4 1f3d
00000340: b0c5 dd3c 28bb 81bc 3c8a 19bd 5570 053e
00000350: b51d 4e3e 15dd 503e 3a1b 8e3d effa 0abe
00000360: ba4a 0bbe 0035 58bb f285 903d 783b 92bc
00000370: d961 533e 7763 4d3e 819d 223e 3ed9 03be
00000380: 9e4c bf3d bc81 063d 0094 7939 7cc7 9bbd
00000390: 0077 703a c3f6 4fbe ab8d cbbd c64e 3abe
000003a0: 1c9f 5dbd 376e 0dbe caca 4dbe 0083 45bd
000003b0: 8e5f b1bd 7cfe 6e3d 9b23 4a3e 4022 82bb
000003c0: a0f0 b4bb 9e7a 983d 66f0 a93d 65a3 333e
000003d0: d983 2c3e 6f3f 193e 70f7 bf3c bcce 3c3d
000003e0: c98c 543e 617c 393e 7862 45bd 4f78 383e
000003f0: a004 cbbb fcfd babd 0908 0ebe 2408 7cbd
-0.20339632 0.0841755 0.21140626 0.07327624 -0.15337166 0.062326953 0.14613791 -0.07245763
0.015550827 0.2040972 0.006516114 0.17568755 -0.15550897 -0.012653831 0.0010162502 -0.14634195
-0.1758377 0.040654853 -0.19349244 -0.15782267 0.12967928 -0.08969387 0.07249962 -0.20450012
-0.12996835 0.17473686 -0.21262175 -0.15387034 0.040643796 0.13466911 0.15865001 0.039101586
-0.20044023 -0.10175875 0.08819239 0.04400237 -0.04216433 -0.07021582 0.13237096 0.19016139
0.098414466 0.0539238 -0.090609275 -0.15337768 -0.11505407 0.20029543 0.056158513 -0.08670518
-0.10324096 0.17805034 -0.15611263 -0.18697013 0.14681761 -0.16943191 -0.024502307 0.045380544
0.16812119 -0.1372393 0.1288767 -0.108350605 0.04808755 0.15103146 0.11869423 0.11096762
-0.19832647 -0.14748757 -0.1880433 0.021363974 -0.12929943 -0.035066396 -0.17280331 -0.13468966
0.1376258 -0.11655048 -0.029545784 -0.08085337 -0.13193104 0.028032362 0.19874789 0.1587073
0.047919318 -0.115106516 0.05723028 -0.032875344 0.039563194 -0.1093077 0.059553042 -0.14867575
-0.19787455 -0.10669531 -0.057178214 0.15741344 0.117727235 -0.10185891 -0.19068694 0.15278052
0.19712265 -0.07083258 -0.0074356347 0.11604385 -0.038464487 0.10872336 -0.09842347 0.12742986
0.09515466 -0.20550603 0.20833038 0.14738576 -0.043547705 -0.086389914 -0.14576718 0.021248043
-0.010184512 -0.04054779 0.20919402 0.0664701 -0.20787203 0.05729936 0.029646784 0.13853674
-0.073611856 0.12075202 -0.06995346 -0.050017938 -0.12065157 -0.13939294 0.023687318 0.025425106
-0.12542945 0.17239709 -0.20702818 -0.07452203 0.18992773 -0.06214118 -0.14865926 0.006751761
0.04486439 0.08515458 0.08728109 -0.070785396 -0.010758847 -0.014354408 0.17051612 0.15820007
-0.08426101 0.18535765 0.15644787 -0.15078776 -0.15232664 0.0991725 -0.0426488 -0.0636937
-0.0057665664 0.08761181 0.15278901 0.18404151 -0.023402333 -0.025171032 -0.19451249 0.14104347
-0.09695202 -0.019326383 0.05739917 0.07339357 -0.19460765 0.10339336 0.101979956 0.14170405
-0.16702928 -0.19911999 0.21712703 -0.09806037 -0.09745422 0.067146495 -0.06809887 0.09545167
0.007986309 0.14199181 0.0066633523 -0.2141701 0.12477349 -0.20801055 -0.09674587 0.112942256
-0.20336647 0.010631397 -0.11883434 0.048769683 0.051520064 0.20949517 0.12111358 -0.12575558
0.15011175 0.20042299 -0.15476522 0.2025869 -0.06996417 0.12976928 -0.0027339756 0.16339402
-0.047970355 -0.16069628 -0.18238956 -0.1736898 0.09265445 -0.063783005 -0.15825248 0.038975194
0.027071804 -0.015836313 -0.037485346 0.13031133 0.2012852 0.20396836 0.06938787 -0.13572286
-0.13602725 -0.0032990575 0.07056798 -0.017850623 0.20642795 0.20057474 0.15880395 -0.1287584
0.093407854 0.032838568 0.00023801625 -0.07606408 0.0009173006 -0.20308976 -0.099391304 -0.18194112
-0.054106817 -0.13811575 -0.20096889 -0.048220634 -0.08660804 0.058348164 0.19740145 -0.003971368
-0.005521849 0.07445262 0.082978055 0.17542799 0.16847171 0.14965604 0.023433417 0.046095595
0.2075683 0.18113853 -0.04818961 0.18014644 -0.0061956197 -0.09130475 -0.13870253 -0.0615312

bias f4 [64]
00000000: 38b7 7fba 0000 0000 0000 0000 0000 0000
00000010: 0000 0000 bf21 803b 640c 80bb 7f2a 283b
00000020: 0000 0000 0133 2bbb 0000 0000 0000 0000
00000030: d092 203b d624 40bb 4688 373b 090e 5c3b
00000040: e07b 323b 0000 0000 0333 2bbb 0000 0000
00000050: 3e21 72bb 0000 0000 0000 0000 0000 0000
00000060: 0000 0000 0000 0000 da56 183a 0000 0000
00000070: 776c 333a 0000 0000 d2d3 24bb c77c f0ba
00000080: 0000 0000 fd3e 753b 9192 6f3b 0000 0000
00000090: 4095 79bb 0000 0000 0000 0000 0000 0000
000000a0: 5c15 e8ba b152 8e37 c7ce acba 6a76 7abb
000000b0: c1f6 0a3a 0000 0000 9725 823b 0000 0000
000000c0: 3590 353b 0000 0000 0000 0000 9a84 6e3b
000000d0: 0000 0000 045f 6e3b 0000 0000 0000 0000
000000e0: 1930 763b 0000 0000 0000 0000 0000 0000
000000f0: f75c 7b3b 8949 773b 0000 0000 0000 0000
-0.000975478 0.0 0.0 0.0 0.0 0.003910273 -0.003907727 0.0025660095
0.0 -0.002612293 0.0 0.0 0.002450157 -0.002931883 0.002800481 0.0033577702
0.002723448 0.0 -0.0026122935 0.0 -0.0036946083 0.0 0.0 0.0
0.0 0.0 0.0005811282 0.0 0.00068444706 0.0 -0.0025150669 -0.0018347733
0.0 0.0037421577 0.0036555866 0.0 -0.0038083345 0.0 0.0 0.0
-0.0017706561 1.6966225e-05 -0.0013184183 -0.0038217553 0.00053010514 0.0 0.003971766 0.0
0.0027704362 0.0 0.0 0.0036394955 0.0 0.0036372552 0.0 0.0
0.003756529 0.0 0.0 0.0 0.0038354972 0.003773304 0.0 0.0

weight f4 [64, 64]
00000000: 1741 3a3e 0c5d 503d be77 ae3d c781 f5bd
00000010: 10d8 57bd 7202 aa3d 3afc e8bd 825a 18be
00000020: 50d1 e5bd 55e8 fabd 8c19 383d 0af3 7c3d
00000030: a62b 273e 3dee 583e b622 9cbd dcaa 5b3d
00000040: 571b c3bb 1687 d83d d2cd 49be 909b 323e
00000050: 691b bf3d ac7e 1eba 48f4 143e 8704 063d
00000060: 94fb 553e 9f7d 26be b19b 3ebe 107b 24be
00000070: c4d2 8ebd db14 2abe 1faf f8bd 5798 553e
00000080: f62e 12be 3c0a edbd 92a1 4dbe 94b2 623d
00000090: c9b4 70bc 22ca 553e 8260 15be acd5 34be
000000a0: bef2 35be a4d6 4a3d 4fb4 1ebe 53d8 5cbe
000000b0: 9816 b2bb 3407 403d 07ec 263e aeb1 3c3e
000000c0: 6f2e 5dbe 20d3 e03d 8b55 233e 044b 423d
000000d0: 742d 30be 0249 de3d 4364 bb3b b6b4 413e
000000e0: eac5 153e 1f20 173d 573a 4d3e 5f0a ef3b
000000f0: c038 b8bd 4cc9 fbbd c5ed f6bd 330f d0bd
00000100: 8440 26bd 0002 50bd 1aea a93d a817 bbbc
00000110: 34de 46be f063 4c3c 1c8a 08be 7f4b 4a3e
00000120: 20ce 4cbd 567e de3d c231 acbd a009 443c
00000130: 0731 4cbe 3adc ab3d e0fe e3bb dd7d 0b3e
00000140: cdc3 393e 8908 21be 4aaa 40be d4f0 2abd
00000150: 0080 2fbb 3461 163d de97 00be e1db 523e
00000160: d6e6 3cbe e0e4 a23b 7f99 453e 7c07 53be
00000170: 0319 073e 26a6 e5bd 28f3 003d ac3e 1abe
00000180: 3868 a8bd 5cfd 4ebd 5499 07bd 0468 93bd
00000190: 6a98 ac3d 6458 0dbe 9abb de3d 565f d93d
000001a0: c8cb 99bc 1e59 dc3d a7b2 093e 09ab 4cbe
000001b0: b6cc e2bd 21c5 f6bd 7a5e 8cbd f62d a7bd
000001c0: 58bd 5abd 1477 2abe c3ab 313e 8042 ceba
000001d0: 0a37 b7bd a004 c03b 644e 133d 7817 b4bc
000001e0: 7cd6 02bd fa61 48be 0ad3 913d a061 d83c
000001f0: e25d 8c3d bb3d 1fbe 4535 153e 4a91 f13d
00000200: 74ee 5c3d 1474 63bd 9a87 dc3d 5de2 303e
00000210: 7810 eabc 7312 053e c838 51be 4796 593e
00000220: aa2c b7bd 4c99 58be 35ce f6bd c083 ad3b
00000230: a252 43be a5ce 4cbe 275e 543e 2e38 f53d
00000240: 3619 8b3d 7242 8b3d ea3b 00be 42a1 3dbe
00000250: e043 fbbd dadd 9c3d 7bc0 3dbe 5666 31be
00000260: e599 2e3e d07f 0e3c 7ada 823d dcf9 643d
00000270: afb6 edbd 18bc acbd a03e d2bb 6ab7 b53d
00000280: 24d2 00bd 62a2 25be 2ad5 ed3d 7c1b 183d
00000290: a828 ed3c 5dee 533e 60ef 0cbe 8c92 2e3d
000002a0: c4ff 113d ef26 1e3e a99a d8bd 9c9b 483d
000002b0: d86d 953c de81 9d3d 7686 b23d eecc 88bd
000002c0: 44ac 173d 9050 acbd f221 21be 2215 aabd
000002d0: 6f3f 5b3e 97c1 323e ec1d 123d 43f4 2c3e
000002e0: 1edc 46be 3048 2bbd 1939 c9bd a371 443e
000002f0: b01f 8ebd c491 02bd 52e1 b9bd b8ec adbd
00000300: 7266 e43d 6568 12be ba4b 35be 28a5 1dbd
00000310: f5f7 423e b665 893d 2a9e bebd c0c5 b8bd
00000320: b62b ddbd 9157 4b3e dd8a e7bd 6e19 17be
00000330: bc45 b7bd 4a8d b13d 06fe f2bd 92bc a7bd
00000340: 00c2 36ba f5cb 083e a00b 6fbd 4027 e13c
00000350: f800 c1bd d849 b6bd c01e 0cbe 549f aabd
00000360: 0dc0 503e cf91 ffbd e900 3d3e f0b7 97bd
00000370: e52f eabd cec7 09be cd65 1e3e e9a1 223e
00000380: 8054 ccbd b385 34be 900c 2fbc 8418 21be
00000390: 1609 c53d 2605 ec3d c0a2 1cbb 03c4 023e
000003a0: 7d8a efbd 8e3a b4bd d426 24bd 7040 07bc
000003b0: 6f4f bebd 0566 593e d07c 71bd 48ec c83c
000003c0: 6f5c 513e 1b88 093e 7041 403c 5981 053e
000003d0: 8e39 ddbd 4a75 8b3d 9e5b d13d 4d7d 12be
000003e0: da6c ff3d 05e7 113e b82b 2bbe aaa4 07be
000003f0: 31fe 0e3e c813 75bd 9473 5cbd e5da 513e
0.18188892 0.050869986 0.08518933 -0.11987644 -0.052696288 0.08301248 -0.113762334 -0.14878276
-0.11221564 -0.12251345 0.04494624 0.061755218 0.16325244 0.2118463 -0.07623808 0.05362974
-0.005954187 0.105726406 -0.1970742 0.17442155 0.093314 -0.0006046097 0.14546311 0.03271916
0.2089675 -0.16258858 -0.18614079 -0.1606257 -0.06973794 -0.16609518 -0.12142777 0.20858894
-0.14275727 -0.11574218 -0.20081165 0.055346087 -0.01469154 0.20877889 -0.14587596 -0.17659634
-0.1776838 0.049521104 -0.1549847 -0.21566896 -0.0054348223 0.04688187 0.16300975 0.18427154
-0.21599744 0.10977769 0.15950601 0.04743482 -0.17204839 0.10853769 0.0057187392 0.18916592
0.1462628 0.036895867 0.20041786 0.0072949375 -0.08995199 -0.12294254 -0.1205707 -0.10159149
-0.04058887 -0.050783157 0.082966045 -0.022838429 -0.19420701 0.012474999 -0.13333935 0.19755362
-0.050001264 0.108639404 -0.08407928 0.011965185 -0.19940577 0.08391614 -0.0069578737 0.13622232
0.18141098 -0.15725912 -0.1881496 -0.041733578 -0.0026779175 0.036713794 -0.12557933 0.2059169
-0.18447432 0.0049711317 0.19296835 -0.20608324 0.13193135 -0.11213331 0.031481892 -0.1506297
-0.08223003 -0.05053459 -0.03310521 -0.07197574 0.08427508 -0.1380325 0.10875626 0.10613887
-0.018773928 0.10759185 0.13447057 -0.1998712 -0.11074202 -0.12049318 -0.068539575 -0.08163063
-0.05340323 -0.16646987 0.17350678 -0.0015736371 -0.08946045 0.0058599263 0.03596343 -0.021983847
-0.03194283 -0.19568625 0.07120331 0.026413739 0.06853844 -0.15550892 0.14571102 0.1179529
0.053938344 -0.055530623 0.107680514 0.1727385 -0.028572306 0.12995319 -0.20431817 0.21248733
-0.08944066 -0.21152228 -0.120510496 0.005295247 -0.1907449 -0.20000704 0.20739041 0.11973606
0.06791918 0.06799783 -0.12522855 -0.18518546 -0.122688055 0.07659502 -0.18530457 -0.17324194
0.17050894 0.008697465 0.06389327 0.055902347 -0.1160711 -0.084343135 -0.006416157 0.08872874
-0.031450406 -0.16175225 0.116129234 0.037135586 0.02895005 0.20696397 -0.1376319 0.042620227
0.035644308 0.1544454 -0.10576374 0.048976526 0.018240854 0.07690786 0.08717053 -0.06679712
0.03702952 -0.084138036 -0.15735605 -0.08304812 0.21410917 0.17456661 0.035673067 0.16890053
-0.19419906 -0.04181689 -0.09825344 0.19183974 -0.06939638 -0.031877294 -0.090761796 -0.08492416
0.111523524 -0.14297636 -0.17704669 -0.038487583 0.190399 0.06708853 -0.09307511 -0.09022093
-0.10799353 0.19857623 -0.11305783 -0.14755794 -0.08948848 0.08669527 -0.118648574 -0.08190264
-0.0006971657 0.13359053 -0.058360696 0.027484536 -0.09424013 -0.08900803 -0.13683605 -0.08331171
0.20385762 -0.12478983 0.18457378 -0.0740813 -0.114349164 -0.13455126 0.15468521 0.15882076
-0.099770546 -0.17629127 -0.0106841475 -0.15732008 0.09620874 0.115244195 -0.0023900717 0.12770085
-0.116963364 -0.08800231 -0.040076092 -0.008255109 -0.092924945 0.21230324 -0.05895692 0.02452673
0.20445417 0.13430826 0.0117343515 0.13037623 -0.10801993 0.068094805 0.10222553 -0.14305611
0.12471934 0.14248283 -0.16715896 -0.13246408 0.13964154 -0.059833318 -0.05382116 0.20493658

bias f4 [5]
00000000: b497 0e3a 46b3 43bb ad06 503b cec1 6a3b
00000010: 4ad6 7fbb
0.00054394756 -0.0029861494 0.003174226 0.0035821083 -0.0039037638

weight f4 [5, 64]
00000000: 9013 09be f800 093d 04fe 6c3e a8e8 67be
00000010: 1083 c3bc 2924 dd3d d7a5 03be bc3d bbbd
00000020: 3254 3d3e 8e3d 553e d25c 45be 4000 733c
00000030: 4883 8bbe f890 80be 5c2a 73be 7e51 553e
00000040: eb10 4ebe 2c1b 663e d1f3 b33d c005 b1bb
00000050: d244 1e3d f4b4 7d3e e27b 5abe 300c 2dbe
00000060: ee34 abbd 74dc 7c3e fe68 21be 1aac 43be
00000070: 5eff 8b3e 3082 bc3d 187b ecbd a2d3 3abb
00000080: 90aa 643e fdd5 343e 201a 173d 100c 753e
00000090: 4cc2 e0bd 0013 a6bb a8df 593e 0bd3 25be
000000a0: fc36 dbbd 9fd0 61be 73ca a33d da1a 0c3d
000000b0: 1b15 c03d 40be 3bbe 692c bd3d b4d3 7e3e
000000c0: 1111 a7bd f2b2 88bd a6c3 323e 033a 783e
000000d0: e212 60be 4bcf 503e 10ae 8ebe 34b7 39bd
000000e0: 7d1d 823e faee 8cbe d74d 59be 9010 e13d
000000f0: a0e3 a13d 4d5b c63d bc6c 39be a860 5f3e
00000100: 6d99 2f3e 9201 ebbd 8009 a63d 3c77 66bd
00000110: 00de 0a3c 52b8 08bd d994 adbc 085a 88be
00000120: 2064 0d3c af17 f03b 694b 94be 18dd 2dbe
00000130: 12ed 943e 39d0 123e fa0f 173e fc94 843e
00000140: de51 98ba 78ae 62bd 537d 7b3e 25ca 33be
00000150: 4be9 483e fb18 49be eade 48be f28d 923e
00000160: 12b2 6dbe f4b1 df3d 8a27 8fbe e8a3 70bd
00000170: 51f4 30be fcd2 803e 5704 703d 3d2c 823e
00000180: 68d3 5ebd 1de3 ed3d c139 633e d8c0 503d
00000190: 539f 0b3e b4ee 543e 121d bbbd ff04 75be
000001a0: fa9e 053e 02bc 2a3e e4b4 673c 0ff8 433e
000001b0: 7e5c e3bd d001 953d d0b3 e9bd 3622 a9bd
000001c0: 1d72 4b3e dac6 86bd e8d4 dc3d 23fb d23d
000001d0: 2093 5cbc ff3a 7e3e 1007 8cbc c454 03be
000001e0: 3ab9 6f3e f843 aa3d 54b5 693e 9476 3fbe
000001f0: e446 ba3d db4e a2bd f017 66bd 4c0d 6dbd
00000200: 671b 8e3e 80bc 8d3b f829 18be 1e6d 193e
00000210: d7fd 0bbe 4186 633d 7b51 04be 7484 003e
00000220: f27d d2bd 23fb bd3d c879 673d b65a 923e
00000230: 7714 b239 0735 23be 7644 903b dd60 023e
00000240: aba5 8a3e c0eb 3c3d f8c6 f93d d0db a53c
00000250: 3cf8 36be a088 e53c 62a4 7bbe 8057 4cbe
00000260: ce6d c7bd 75b7 3cbe 9219 84bd 5661 66be
00000270: 68d3 2b3d b865 dc3d 4423 04be 1001 6b3e
00000280: 54db b2bd 8dbb 693e d970 753d 08e6 f93d
00000290: 9daa 88be 3c5e 0bbe d6d8 c6bd 68a2 a93d
000002a0: 168d 6abc 5a35 f8bd 5e6e 343e 5b0a 72be
000002b0: dc34 1cbe fc49 d63d 87b5 943e b0ea 673e
000002c0: 669f 0cbd 0aa5 3c3e 5419 843e 139e 863e
000002d0: e33a 14be 9101 073e 0cc8 32be 8654 173e
000002e0: 14e2 8d3c 806f 79bc 5e05 243e d5b4 14be
000002f0: df8d 2b3e 88c3 343e 80a4 bbbc 38ed 3c3e
00000300: af84 b2bd 14b7 b83d d63f 913e 80ce 8f3d
00000310: 4320 0ebe b223 773d 45a3 bc3c 7657 693e
00000320: 18ce 223d 7fcc 74be 80ab cbbb 8ce7 b5bd
00000330: 758d e83d 3e20 e73d 8a19 123e ef6b 953e
00000340: 2ab7 88bc edda 80be 119c d2bd f8d4 9f3d
00000350: 6a05 90be 5f5b 43be 9064 d23c 9b05 8cbe
00000360: 5bf7 79be 50ad 8b3e f0f7 853e 7218 463e
00000370: f914 47be a0ce 6c3e 9b90 05be 33a1 e93a
00000380: 41b6 34be e046 5a3c e6f4 763e a7d2 30be
00000390: 72a1 f0bd 5e3a 62be 38a6 7b3d 782c 163e
000003a0: 2556 76be 7af3 10be 03c7 63be 49b1 8cbe
000003b0: 400e 913e 9d01 1bbe a136 3f3e 74bb b53d
000003c0: a843 de3c 4af6 863e 5c60 8b3e 5039 b23d
000003d0: 3fc9 18be f6d2 923e 20ae c23c 1d14 8bbe
000003e0: c4c5 893e 46c6 0b3e d078 423d a451 80be
000003f0: 60e9 103e 2c63 28be e4aa 963e acea 89bd
-0.13386369 0.03344819 0.23143774 -0.22647345 -0.023866206 0.107979126 -0.12856232 -0.09142634
0.18489149 0.20824262 -0.1927369 0.014831603 -0.27248597 -0.25110602 -0.23746628 0.20831868
-0.20123641 0.22471303 0.08786739 -0.005402297 0.03863985 0.2477606 -0.2133632 -0.1689918
-0.08359705 0.24693471 -0.15762708 -0.1910862 0.27343267 0.09204519 -0.11546916 -0.002850749
0.2233069 0.17659755 0.03689015 0.23930383 -0.10974559 -0.005068183 0.21276724 -0.16193788
-0.10703847 -0.22052239 0.079975985 0.034205295 0.093790255 -0.18334293 0.09236986 0.24885446
-0.08157552 -0.06674756 0.17457446 0.2424088 -0.21882203 0.20391576 -0.27867174 -0.04534073
0.25413123 -0.27526075 -0.212211 0.10989487 0.07904744 0.09685383 -0.18107885 0.21814215
0.17148371 -0.11474909 0.08107281 -0.056266055 0.0084757805 -0.033378907 -0.02118914 -0.26631188
0.008629829 0.007327042 -0.28963783 -0.16978872 0.2908712 0.14337243 0.14752188 0.25894916
-0.0011621078 -0.055342168 0.24559526 -0.17557581 0.19620244 -0.19638436 -0.19616285 0.2862392
-0.2321246 0.10922614 -0.27959853 -0.058750063 -0.172807 0.25160968 0.05859789 0.25424376
-0.05440083 0.11615584 0.2219 0.05096516 0.13634996 0.20794183 -0.09136404 -0.23927687
0.13048926 0.16673282 0.014142249 0.19137596 -0.11101626 0.07275736 -0.1141125 -0.08258478
0.1986775 -0.06580897 0.10782796 0.10301807 -0.013462812 0.24827193 -0.017093211 -0.12825304
0.23410502 0.08313745 0.22823077 -0.18697578 0.090955526 -0.07925197 -0.056175172 -0.05787401
0.2775528 0.0043254495 -0.1485976 0.14983031 -0.13671051 0.055547956 -0.12921707 0.12550527
-0.102779284 0.09276416 0.056512624 0.28584832 0.00033966053 -0.15938197 0.0044026924 0.12732263
0.2707952 0.046123266 0.121961534 0.020246416 -0.17868131 0.02801925 -0.24574426 -0.19955254
-0.097377405 -0.18429358 -0.0645019 -0.22498068 0.04194966 0.10761589 -0.12904078 0.22949624
-0.0873324 0.22825451 0.059922073 0.12202078 -0.26692668 -0.13610166 -0.09709327 0.0828293
-0.014315864 -0.12119551 0.17620227 -0.23636763 -0.15254539 0.1046333 0.29044744 0.2264812
-0.0343317 0.18422332 0.25800574 0.26292476 -0.14475589 0.13184191 -0.17459124 0.14778337
0.017319717 -0.015224338 0.16017672 -0.14522107 0.16753338 0.17652714 -0.022905588 0.18449867
-0.08716714 0.090192944 0.28369015 0.070218086 -0.13879494 0.060336776 0.023027072 0.2278727
0.039747328 -0.23906134 -0.0062155128 -0.08882055 0.11355106 0.112854466 0.14267555 0.2918391
-0.016688902 -0.25167027 -0.102836736 0.078042924 -0.2812913 -0.19077824 0.025682718 -0.27348027
-0.24410765 0.27280664 0.26165724 0.19345263 -0.19441594 0.23125696 -0.13043444 0.001782453
-0.1764765 0.013322562 0.24116859 -0.17267857 -0.11749543 -0.22092578 0.061437815 0.14665401
-0.24056299 -0.14155379 -0.22243886 -0.27479008 0.28331184 -0.15137334 0.18673183 0.088736445
0.02713187 0.2635978 0.27221954 0.08702338 -0.1492052 0.28676575 0.02376467 -0.27163783
0.26908696 0.13649854 0.047478497 -0.25062287 0.14151525 -0.16444081 0.29427254 -0.06734213
