graph_classification_model.pt (torch, 225106 bytes, 23 tensors)

bias f4 [64]
000000 a7 c8 2d bb 15 2d 2e 3b 61 92 3f 3c e4 b8 3b 3c
       -0.0026517303 0.0026577164 0.011692614 0.011457656
000010 b5 61 41 3b ce a7 31 bb a8 ee e7 3b 7c 59 7e 3b
       0.00295077 -0.0027108076 0.0070780106 0.003881066
000020 c0 14 33 3c 3b e7 3d 3c 5f 82 3b 3c a4 62 2f 3c
       0.01093024 0.011590774 0.011444657 0.01070467
000030 e3 0e ab 39 a3 b1 36 3c 9f e3 21 bc 60 0a 5c bb
       0.00032626753 0.01115075 -0.009880929 -0.003357552
000040 db c8 0b bc 98 c4 28 ba e2 98 eb bb 57 d7 07 3b
       -0.008531774 -0.0006437986 -0.007189856 0.0020727718
000050 59 9f 23 3c 07 dc 05 ba c0 4a de 3a 6d bd c5 bb
       0.009986722 -0.0005106334 0.0016959533 -0.006034544
000060 79 dc 40 3c 58 b9 36 3c e8 8c 22 3c c7 11 1c 3b
       0.011771315 0.011152588 0.00992129 0.0023814307
000070 cd 0a 00 bc d0 a5 0d bb 07 95 f7 bb 4b dd 04 bb
       -0.007815075 -0.0021613725 -0.0075556072 -0.0020273502
000080 93 35 3c 3c d6 69 11 bc 3c 82 0a bc 45 fb 3f bb
       0.011487382 -0.008875331 -0.008453902 -0.0029294055
000090 4d c5 13 bc 44 ae 38 3c 12 c2 a8 3a 14 12 d4 3b
       -0.009019208 0.011272017 0.001287522 0.0064718816
0000a0 f2 90 1e bc be ba 3b 3c 53 89 d2 bb 48 2b ee 3b
       -0.009678112 0.011458097 -0.0064250617 0.007268343
0000b0 60 02 b2 3b 0c 4c 16 3c c6 30 e1 bb a7 8b 85 3b
       0.005432412 0.009173404 -0.0068722693 0.0040754857
0000c0 2c 15 a8 3b 63 fd 92 bb ef 62 2d 3c 37 33 19 3c
       0.005129477 -0.0044857725 0.01058267 0.0093505895
0000d0 40 26 04 3b aa 02 44 3c 5e 34 3d 3c 24 66 63 3b
       0.00201644 0.011963526 0.01154813 0.0034698332
0000e0 c8 7a 3b 3c 69 f5 8a 3b c2 72 16 bc 0e 3e 8e 3a
       0.011442848 0.004240681 -0.009182634 0.0010852234
0000f0 4a c6 2c 3c 8c da 08 3c d0 32 01 3c 65 c8 37 3c
       0.010545323 0.008352887 0.00788565 0.011217211

weight f4 [64, 1]
000000 8d 12 03 be d7 6e 56 3e e0 48 80 be 0c cb ef 3d
       -0.12800045 0.2094072 -0.250556 0.1170865
000010 50 fc 7c be 84 aa ca 3d 14 59 0e be f0 23 61 3e
       -0.24705625 0.098958045 -0.13901168 0.21986365
000020 2e eb 63 be 52 0f a0 3e ba 28 94 3e 17 43 f3 3d
       -0.22257683 0.31261688 0.28937322 0.11878031
000030 90 53 98 3e 5b 10 8f be 9b 1f b2 bc d6 20 7d be
       0.29751253 -0.27942166 -0.021743586 -0.24719557
000040 ac 3b 3c 3e 65 19 f5 bc 09 c3 2e 3e 9c 07 89 bd
       0.18382138 -0.029919336 0.17066588 -0.066909045
000050 e6 2f 0b 3e bc 40 78 3e 89 2a 59 be e5 f7 8a 3e
       0.1359249 0.24243444 -0.21207632 0.27142254
000060 04 96 92 be 85 53 89 bc a0 3c 82 bd b9 3e b6 bd
       -0.28630078 -0.016763458 -0.063592196 -0.08898682
000070 ce 31 96 3e a6 04 48 be 49 2e 8a 3b 15 13 7b 3c
       0.29334873 -0.19533023 0.0042169434 0.015324374
000080 93 dd ef 3d e7 87 94 bd 66 d6 65 3e 9f 5b 8e 3e
       0.11712184 -0.07252484 0.22445068 0.27804276
000090 61 d4 3e be ad 38 ac bd 57 1c 59 be cc f1 3f 3e
       -0.18635704 -0.084092475 -0.21202217 0.18744582
0000a0 97 45 95 be d8 7e b9 bd 86 a4 17 be 72 54 0b 3d
       -0.29154655 -0.09057397 -0.14808854 0.03401608
0000b0 d9 fb c2 bd 8e fb 76 3e b8 fe ad 3d fb b5 94 3d
       -0.095206924 0.24119398 0.08495849 0.072612725
0000c0 7f f7 3f 3e 8a 14 e4 bc 23 e3 a1 3d 5e 62 0d be
       0.18746756 -0.027841825 0.07904651 -0.13807055
0000d0 31 9e 04 3e 27 3b a7 bd 64 0c 77 3e 91 ea f4 bd
       0.1295097 -0.08165579 0.2412582 -0.119588025
0000e0 0a ca 1e bd c4 ce 88 be 56 c3 33 3e 18 9f 3d be
       -0.0387669 -0.2672025 0.17554983 -0.1851772
0000f0 7c bd 8c 3e fe 79 d1 3d fb 31 0e bc 15 bb d2 bd
       0.27488315 0.10228346 -0.008678908 -0.10289589

weight f4 [64, 1]
000000 17 b9 8e bd 9f a1 61 be bd 4c a4 3d cf 3d 96 be
       -0.06968897 -0.2203431 0.08022449 -0.2934403
000010 3f 9b 0d be 1c aa 55 be da a0 cb 3d 7e d0 c9 3d
       -0.13828753 -0.20865673 0.099427894 0.0985422
000020 80 e0 85 3e 41 aa 68 bd 7d 90 7b 3e 98 61 5d be
       0.26147842 -0.05680299 0.24566837 -0.2161926
000030 0b 1c 51 be 16 3d 6c be c7 65 96 3c 6f c2 8c be
       -0.20420854 -0.23070177 0.018359078 -0.2749209
000040 c0 9c 59 3e d3 bf 76 be d7 33 0c 3e 50 75 11 be
       0.21251202 -0.24096613 0.1369165 -0.14204907
000050 42 b3 07 bb 35 b9 b2 bd e9 cb 18 3e 02 ee 8f 3e
       -0.0020706211 -0.08726732 0.14921536 0.28111273
000060 23 dd 9e be d6 a0 88 be b9 0a 07 bd 1b 9f 07 3c
       -0.3102809 -0.26685208 -0.03296921 0.00827768
000070 fe 8b 98 3e f6 53 08 3e 79 54 f2 3b 36 93 86 be
       0.29794306 0.13313279 0.007395324 -0.26284188
000080 a3 15 67 3d 72 30 e5 bd 37 0e ea 3d db b9 d9 bd
       0.05641712 -0.11190881 0.114284925 -0.10631152
000090 75 e7 c5 bb 46 da 57 3e 83 75 88 3e 9c 25 8e be
       -0.0060395547 0.21079358 0.26652154 -0.2776307
0000a0 7a 02 32 be bf c0 02 be c2 a0 25 bb bb e5 5a 3e
       -0.17383757 -0.1276884 -0.002527282 0.21376698
0000b0 75 5e 35 3e bc 41 f8 bc 71 53 23 be df ee 85 3e
       0.17711814 -0.030304782 -0.15949799 0.26158807
0000c0 8e 8e ee bd 7c 1c 09 be d0 91 03 3e 2b 9a 22 3e
       -0.11648284 -0.13389772 0.12848592 0.15879123
0000d0 8c 71 b7 3d 0b 94 ac bd 2d b2 06 be bc b7 c4 bd
       0.08957204 -0.084266745 -0.13153906 -0.09605357
0000e0 6c eb 58 3e f5 e0 25 3e 88 a5 0e 3e d2 53 f0 bc
       0.21183556 0.16199096 0.13930333 -0.029336844
0000f0 ef 6b 11 3e ac c3 ed 3c 77 ae fe bd 1d 86 04 be
       0.1420133 0.029023968 -0.1243562 -0.12941785

weight f4 [64, 1]
000000 7f 3c 09 3e 3a 86 dc ba 75 c5 79 3e 91 00 5b 3e
       0.13401984 -0.0016824671 0.2439173 0.21386935
000010 4e 3e 33 3e 43 16 70 be 6a 64 92 be c4 b5 07 3e
       0.17504236 -0.23445992 -0.28592235 0.13252932
000020 aa 89 34 bc f0 41 94 be 0f 42 06 be 76 2a 0e be
       -0.01101915 -0.28956556 -0.13111137 -0.13883385
000030 3c ca 4c be df 52 98 3d 98 6e b7 3d 06 f5 38 be
       -0.19999021 0.074376814 0.08956641 -0.18062219
000040 86 84 7f be e9 69 4f 3e a9 0c 27 3e 42 d9 d5 3d
       -0.24952897 0.20255245 0.16313423 0.10441829
000050 09 86 ed 3d 0f 6d 2f bd 63 e8 1d bd c7 cb 85 bd
       0.11597831 -0.042828616 -0.0385517 -0.06533008
000060 46 20 1c be e7 fd 5a be 6f 29 46 3e e1 06 46 bd
       -0.15246686 -0.21385919 0.19351743 -0.048346404
000070 6b fc 03 3c 43 40 7e be bb 0a 64 3b 60 93 3b bb
       0.008055787 -0.24829201 0.0034796435 -0.0028621778
000080 dc 04 62 be 05 8e 87 be f3 fb 73 be 3b ce 91 be
       -0.22072166 -0.2647554 -0.2382658 -0.28477654
000090 56 5c 6f 3e 42 39 1d be ea 22 82 bd 83 74 4d 3e
       0.23375067 -0.15353873 -0.063543156 0.20063977
0000a0 1d 55 8d 3d 8f fb 27 3d 55 ba 08 bc 6c 81 b5 39
       0.06901 0.04101139 -0.008345206 0.00034619437
0000b0 c6 cd d6 bb 70 55 eb bd 87 7d b6 3c 4b 20 07 3e
       -0.006555292 -0.11490905 0.022276653 0.13195913
0000c0 96 5b 1e be 43 58 6a 3e 6d 1c 9f 3d 3b be a5 bd
       -0.15464625 0.22885232 0.07769094 -0.08092924
0000d0 6a a1 f4 3d 17 94 f9 3d b4 85 02 3e 6f fe 9e bd
       0.1194485 0.12186449 0.12746316 -0.07763373
0000e0 8d 5c 59 3e ce b6 fb 3b a3 44 55 3e f8 d1 d8 bd
       0.21226712 0.007681704 0.20826964 -0.10586923
0000f0 a6 41 cf bd a0 2f 0c 3e 01 07 10 3d 0b 67 e7 3d
       -0.10119943 0.13690042 0.03516293 0.11298951

weight f4 [64, 1]
000000 56 1d 1f be 59 a1 ac bc 6b 61 8e 3e 03 66 0a be
       -0.15538535 -0.02107303 0.278087 -0.13515477
000010 75 fd 15 3e 58 10 96 be 38 38 2f 3e 64 dd 60 3e
       0.14647467 -0.29309344 0.1711129 0.21959454
000020 88 cf 33 3c fc 19 90 bd d8 61 d8 3d ab 8d 59 3d
       0.010974772 -0.07036206 0.10565537 0.05311362
000030 a5 00 28 3e 18 54 f8 3c 1e 27 6a be ce 6e 6e be
       0.16406496 0.030313537 -0.22866485 -0.23284456
000040 15 55 53 3e 1a 05 bb bb 69 6c 63 3e 1e 0c 1a 3e
       0.20637925 -0.0057073953 0.22209324 0.15043685
000050 29 5d 33 be 92 37 58 be e3 3f 4f 3e 07 7c ce bd
       -0.17516007 -0.21114948 0.20239215 -0.1008225
000060 d5 1d 32 3e 77 af 4d be c3 b9 5f bd ec e0 41 3d
       0.17394193 -0.20086466 -0.054620516 0.047333643
000070 86 c3 84 bc 14 c7 77 3e e2 a9 74 bc a8 6d 9a 3d
       -0.016206514 0.24197036 -0.014933081 0.075404465
000080 32 eb 70 3e b5 6e 92 be 2e 79 8c 3d 0f a0 4b 3e
       0.2352722 -0.28600088 0.06859051 0.19885276
000090 e3 a3 0e bd 6d 0c 16 3d 40 0f 44 3e 0f d0 d8 3d
       -0.034824263 0.036632944 0.19146442 0.10586559
0000a0 32 dc 97 bd c4 50 73 3e bf 10 1b be f4 40 57 3e
       -0.07415046 0.23761278 -0.15143107 0.21020871
0000b0 c1 99 98 3e 32 46 4e 3e 36 25 b7 3d 0f 66 2a be
       0.29804805 0.20143965 0.08942644 -0.16640495
0000c0 28 c9 66 3e e8 b7 b2 bc e5 96 80 be cf a3 37 3e
       0.22537673 -0.021816209 -0.25115123 0.17933582
0000d0 e5 ed 1f 3d ea d4 40 3e aa 63 b9 bd 2a 45 1c 3d
       0.039045233 0.1883122 -0.090522125 0.038151897
0000e0 40 35 8e 3d f9 6c 1b be 99 11 b0 3d 46 82 5a 3e
       0.069437504 -0.15178289 0.085971065 0.21338758
0000f0 7c ab 5d 3e 37 f4 d3 3d 54 c2 4f 3e 2e 2f c7 bd
       0.21647447 0.10349315 0.20288974 -0.09725796

weight f4 [64, 1]
000000 47 5d d3 bd 26 9a 1e bd 02 3e 98 3e ab 70 d7 bd
       -0.103205256 -0.038721226 0.29734808 -0.105195366
000010 50 9d 46 be 40 33 14 3e 12 6c 2a 3c c5 f1 37 be
       -0.19395947 0.14472675 0.0104017425 -0.17963322
000020 34 8b 67 be b8 7f 74 3e 37 02 b1 3d 30 10 88 3e
       -0.22611696 0.23876846 0.086430006 0.2657485
000030 20 03 45 be 4d 98 91 3e 83 97 90 bd 02 66 24 bc
       -0.19239473 0.2843651 -0.070601486 -0.010034086
000040 e2 7b d4 3d 14 5b 2c be 35 61 8e bd 19 10 b4 bd
       0.10375191 -0.16831619 -0.069521345 -0.08792133
000050 a9 91 3f 3e d1 52 56 be fd 87 8f 3d 6c ae 78 be
       0.18707909 -0.2093003 0.070083596 -0.24285287
000060 04 d0 b7 bd 5b 88 d0 bd 0a 19 fd bd 3e 01 f5 bd
       -0.08975223 -0.10182258 -0.123582914 -0.119631276
000070 17 4a 90 3d 9f 6e 42 be 48 12 d3 bd 55 e0 27 be
       0.070453815 -0.18987511 -0.10306221 -0.1639417
000080 da 77 2d 3d c7 97 04 3d 8f 48 15 be 37 ff 79 3c
       0.042350627 0.03237131 -0.1457846 0.015258602
000090 ec c8 7f 3e 3c d2 57 bc be a1 50 be 49 9a 8b be
       0.2497899 -0.013172682 -0.203742 -0.27266148
0000a0 f6 82 7b 3e b6 30 06 3e b7 bf 59 3e 32 3d 4d 3e
       0.24561676 0.13104519 0.2126454 0.20042875
0000b0 19 74 80 bd 11 c1 2e 3d 17 3b 67 3d f4 22 ef 3d
       -0.06272144 0.04266459 0.056452837 0.11676589
0000c0 35 fb c8 bd 23 79 94 be 7e 3e 9a 3e f4 fb 2e 3e
       -0.09813539 -0.2899867 0.30125803 0.170883
0000d0 34 f2 ce bb c9 82 5b 3e 28 87 b8 bd 45 a5 8e be
       -0.006315494 0.2143661 -0.09010154 -0.27860466
0000e0 4b 5c 12 3d a1 ab 64 be 9e 8e 41 be 5d a0 6d 3e
       0.03573255 -0.22331096 -0.1890206 0.23205705
0000f0 b4 43 24 be 9f ce 28 3e 63 03 6d 3e e3 a8 56 be
       -0.16041452 0.1648507 0.23145823 -0.20962863

weight f4 [64, 1]
000000 00 c2 6d bd 8c 29 98 be 59 86 76 be 30 26 41 3d
       -0.05804634 -0.29719198 -0.24074687 0.04715556
000010 8a 50 02 3e 71 9b 39 3e eb 9f 8a 3d 35 6e 98 3e
       0.12726036 0.18125702 0.06768783 0.2977158
000020 ab b3 c7 bd ae fd 71 be 80 75 8f 36 85 4e 17 be
       -0.09751066 -0.23631927 4.275411e-06 -0.14776047
000030 76 2c df 3d e4 12 5d be 58 e7 c7 bd 49 6a 6d bd
       0.10897152 -0.21589237 -0.09760922 -0.05796269
000040 fb 28 8f be 12 76 99 3e 7c b7 f0 3d 37 6c 74 3e
       -0.27960953 0.29972893 0.11753747 0.23869406
000050 3c 61 93 3e cc 1e 03 3b b8 2d ec 3a a7 c9 8e 3e
       0.2878512 0.002000737 0.0018018996 0.27888224
000060 fb aa 95 bd e0 8c b5 bd a0 47 aa bd 94 9a 8b be
       -0.073080026 -0.088647604 -0.08314443 -0.2726637
000070 f0 ea af bd 73 81 f7 bd df 4a c6 bd 97 02 3c bd
       -0.08589733 -0.12085237 -0.09682249 -0.045900907
000080 76 24 42 be 5f 3c 31 3e 0f 70 25 be 1f c8 9c 3d
       -0.18959221 0.17308186 -0.16156028 0.076553576
000090 74 ba 67 3e cf d9 78 be a4 c0 88 3e 35 e5 2b 3e
       0.2262972 -0.24301837 0.26709473 0.16786654
0000a0 3c d8 62 be 3f e2 96 be a4 90 ea 3c 47 e9 42 bd
       -0.221528 -0.29469487 0.028633423 -0.04758575
0000b0 5c 14 91 bc 94 60 cc 3c 6f 58 3b 3d 8d 8c 20 3e
       -0.017709903 0.024948396 0.045738634 0.15678616
0000c0 78 2b 3e be 6c 36 ec 3d 56 2c f5 3c 91 3b 5b be
       -0.1857127 0.11533818 0.029928368 -0.21409442
0000d0 d2 f0 91 3c 4b 00 4c be bf a5 6b be 57 0c 2c bd
       0.017815027 -0.19921987 -0.23012446 -0.042003956
0000e0 09 1d 9f be ea 6e 71 3e 58 52 85 3e 7c f7 63 be
       -0.3107684 0.23577467 0.26039386 -0.22262377
0000f0 88 9a 59 3e a3 85 d2 3d d0 c5 4e 3e 0b 05 c2 bd
       0.21250355 0.102793954 0.20192647 -0.09473618

bias f4 [64]
000000 9c 18 ab bb f7 ba 5b bb 17 3a f3 bb 2f 5a f1 3b
       -0.0052214395 -0.0033528188 -0.0074226963 0.007365487
000010 5c 03 f7 39 70 b8 ff bb 48 14 41 3c e8 29 fe 3a
       0.00047114014 -0.007803969 0.011784621 0.0019391151
000020 02 6c 14 3c 2f 61 0f 3c f0 fd ae bb 83 83 53 ba
       0.009058954 0.008751198 -0.0053403303 -0.0008068608
000030 44 90 92 bb 04 cf 34 3c 26 0f 44 ba 79 4b 18 3c
       -0.004472764 0.0110356845 -0.0007479064 0.009295338
000040 a6 18 32 3c 6a ad 39 3c 4b 0d 12 bc 98 c5 94 bb
       0.010870134 0.011332849 -0.008914302 -0.0045401566
000050 66 a2 36 3c 41 26 e5 bb 44 da 34 3c e0 00 ff 3a
       0.011147117 -0.0069930856 0.011038367 0.0019455217
000060 cd 78 fc b9 1a 67 24 3c 74 1b 4a bb 70 00 f0 bb
       -0.0004815519 0.010034347 -0.0030839117 -0.007324271
000070 19 bd 3a 3c 2f 7c b6 3b 38 48 26 3c eb 81 25 3c
       0.011397623 0.005569003 0.010149054 0.010101776
000080 90 ee 08 bc cd a0 13 3c 33 a5 83 bb 65 72 1b bc
       -0.008357659 0.009010506 -0.004017496 -0.009487723
000090 38 f0 38 3c da be 99 3b ca d1 3a 3c f0 0b 3f 3c
       0.011287741 0.0046919407 0.011402557 0.011660561
0000a0 be 1b ef bb d6 5a 74 bb b3 0c 2e 3c 2f 62 3e 3c
       -0.0072970083 -0.0037285588 0.010623145 0.0116200885
0000b0 ce fa a2 bb 55 12 22 bc 03 c0 1c bb d0 29 b6 bb
       -0.004973746 -0.009892066 -0.002391816 -0.0055591837
0000c0 01 2e 0f 3c 96 34 80 3a 71 22 d1 bb d2 69 3a 3c
       0.0087389955 0.0009781297 -0.0063822796 0.011377769
0000d0 02 e0 24 3c 8f 48 e2 3b 51 68 2f 3c 3c ed 1d 3c
       0.010063173 0.0069056223 0.010706023 0.009639081
0000e0 23 6e 42 3c 68 43 0f 3b 17 1f 2d 3c 47 11 00 bc
       0.011867079 0.0021860246 0.010566494 -0.007816619
0000f0 9d 6b db 3b 9c 6a 7c 3b ca 61 e2 bb 84 8b 47 3b
       0.006696178 0.0038515693 -0.00690863 0.0030448148

weight f4 [64, 64]
000000 20 75 2f 3d 5b 02 4e be eb d5 4f 3d 3c e8 fc 3d
       0.04283631 -0.20118086 0.050741117 0.12348983
000010 9e 21 3e bc 55 fe 4f 3d 4d 5d 15 3e f9 a8 f4 3d
       -0.011604695 0.05077966 0.14586373 0.119462915
000020 3f 1d 0a be 63 27 5a be e2 30 04 bd aa a3 01 bc
       -0.13487719 -0.21304087 -0.03227318 -0.007912556
000030 62 eb 3e 3e 34 7b 50 3e cf 9e 1f be a8 83 bc 3d
       0.18644479 0.20359498 -0.15587924 0.09204799
000040 23 63 3e be 7a 4f 57 be b9 a1 3d bd 42 f4 8e 3d
       -0.18592505 -0.21026412 -0.04629681 0.06980182
000050 bf 00 56 be 5a e8 0c be 72 43 df bd 96 f6 33 3e
       -0.20898722 -0.1376051 -0.10901536 0.17574534
000060 ef 6a 3f 3e e6 83 7e bd 29 74 e4 3c 0e c1 32 be
       0.18693136 -0.062137507 0.02788742 -0.17456457
000070 21 ca b3 bc 69 d5 aa bd d7 0a 17 3d ec d3 07 3e
       -0.021946969 -0.08341486 0.036875572 0.13264436
000080 6c 6e bd bd f4 da 06 be 42 84 e8 3d a1 c2 2e be
       -0.09249577 -0.13169461 0.11353351 -0.17066433
000090 2b 3a 30 3e cc 18 11 be 65 8e d9 3d 68 cf 1e be
       0.1720969 -0.14169616 0.10622863 -0.15508807
0000a0 98 fe 59 be e6 7e 33 3d 94 c0 88 bc f5 45 bb 3d
       -0.21288526 0.04382219 -0.01669339 0.091442026
0000b0 10 30 8a bd 1e 15 75 3d d3 36 cd 3c c1 5c 19 be
       -0.067474484 0.059834592 0.025050556 -0.14976789
0000c0 7d 20 f2 bd 62 a0 c4 3d 97 97 d9 3b 89 c9 16 3e
       -0.11822603 0.09600903 0.0066403854 0.14725317
0000d0 72 ef 8d 3d 22 6c 87 bd 59 94 16 3e 60 21 d8 3d
       0.06930436 -0.066124216 0.14705028 0.10553241
0000e0 0e 38 23 3e 7e 14 2c bd de ea 16 be cd 16 28 3e
       0.15939352 -0.04201173 -0.14738032 0.16414948
0000f0 bc 18 a4 3d 88 68 f7 bd 36 a5 68 bd d7 23 10 be
       0.0801253 -0.12080485 -0.056798182 -0.14076172
000100 55 d5 c6 bc 40 fc 1b 3e 72 b5 a6 bc af bc 8a bd
       -0.024271647 0.15232944 -0.020350192 -0.0677427
000110 fa 0c cc 3d 07 bc f9 3c c2 63 89 bd 59 3b 25 3e
       0.099634126 0.030485166 -0.067084804 0.1613592
000120 9e 14 17 be 92 ba 62 3a 66 b2 dc bd 48 5b 0f be
       -0.14753959 0.0008649017 -0.10776214 -0.13999665
000130 de 1c d6 bd 5a 16 1f be ad d9 8f bd b6 02 20 3d
       -0.10454725 -0.1553587 -0.0702394 0.039065085
000140 07 94 79 3d 71 38 d2 3c 70 53 09 bd 6a bb 08 be
       0.060932186 0.025661679 -0.033526838 -0.13352743
000150 78 2e 37 3e 77 f7 31 be 05 e9 c0 3d 55 c3 2c 3e
       0.1788882 -0.17379557 0.09419445 0.16871388
000160 86 8a 26 3e e9 88 33 bd e6 6b 88 bd 9f af 49 be
       0.1626378 -0.04383174 -0.06661205 -0.196959
000170 88 a9 99 bd 19 5a ee 3d 09 e6 10 3c e7 e2 06 3b
       -0.07503039 0.116382785 0.008843907 0.0020582022
000180 56 2a 66 3d 7c 1a 96 3d 51 32 dd 3d 1a f7 50 3e
       0.05619272 0.0732927 0.10800613 0.20406762
000190 38 08 f8 3d 06 9e 5c be 44 74 65 be fc 54 36 3e
       0.121109426 -0.21544656 -0.22407633 0.17805856
0001a0 56 a5 a9 bd 2d e6 0f 3e ca 7a bb bc a0 22 61 be
       -0.082834885 0.14052649 -0.022885699 -0.21985865
0001b0 e9 ec 8a bd 47 3d f8 3d 40 cd 46 3e 35 cd 4b 3e
       -0.06783468 0.12121063 0.19414234 0.19902499
0001c0 81 be 90 3c 30 a2 47 3e 0b 15 74 3d 5a 6f 38 3e
       0.017668964 0.19495463 0.05959038 0.18011227
0001d0 41 59 8a bd 1e 51 2b 3e 17 29 20 3d 72 53 46 3e
       -0.06755305 0.16730163 0.039101686 0.1936777
0001e0 2b cf 06 be 65 cf 36 be 08 be ba 3d 96 8d e2 bc
       -0.13164966 -0.17852552 0.09118277 -0.027655404
0001f0 97 01 31 be 69 cd 21 be 8f 0f 4b 3e 9d e2 c1 bd
       -0.17285763 -0.15801014 0.19830154 -0.09467051
000200 d6 55 bf 3d c8 ff 0b 3e a4 11 0f 3d 6f 5a 35 bd
       0.09342544 0.13671792 0.034928933 -0.044275697
000210 2a 2f 22 3e 29 e4 77 3d 2f c0 0c be 50 2e 41 3d
       0.15838304 0.060520325 -0.13745187 0.047163308
000220 2c 94 d2 3d e1 49 2f 3d 6c 83 5e be 65 0e 01 3e
       0.10282168 0.042795066 -0.21729821 0.12603147
000230 e6 8b 09 be 4d ef 07 be 80 53 56 3e e9 23 00 3d
       -0.13432273 -0.1327488 0.2093029 0.031284247
000240 84 7e 5b bd 8d 30 bc 39 63 a3 5c be 5e 0b 2a be
       -0.05358745 0.00035894327 -0.21546702 -0.16605899
000250 04 c9 d7 3d d6 e8 a7 3c 6f 0d 40 bd 27 af 0b 3e
       0.105363876 0.020496767 -0.04688781 0.13641034
000260 ff 97 37 be ad 1e cd bd 1a ed 14 be 17 98 be 3d
       -0.17929076 -0.100156166 -0.14543572 0.093063526
000270 d6 92 1f bd 7e a1 ea bd 4a 06 f0 bd bf 84 b9 3d
       -0.038958393 -0.114565834 -0.117199495 0.090585224
000280 2c 74 fc 3d ba 78 08 3e 5f 33 25 be 87 12 80 3d
       0.123268455 0.13327304 -0.16132878 0.06253534
000290 85 e5 af bd fe 35 1a 3e af fc cd 3d 63 33 ad 3c
       -0.08588699 0.15059659 0.10057961 0.021142667
0002a0 95 2c 16 3c ee a4 56 be 2c 8a 40 be aa a0 8e bd
       0.009165903 -0.20961353 -0.18802708 -0.06964238
0002b0 bd c4 6e 3d 7b 98 7f 3d 2e 35 aa bd 94 bc 49 be
       0.058293093 0.062401276 -0.083109245 -0.19700843
0002c0 18 78 21 bd ac 6d 58 be 3d 24 1d 3e 6b c3 f3 bd
       -0.03942117 -0.21135587 0.15345855 -0.119025074
0002d0 1b 05 65 3d f1 84 54 be e1 ec 11 3d 06 9b 40 be
       0.055913072 -0.20753838 0.035626296 -0.18809137
0002e0 d1 36 ae bd 9b cc 9c 3c 3a dc 9f 3d ca 6a 49 bd
       -0.08506549 0.019140532 0.07805677 -0.049174108
0002f0 4c 53 8e 3d f0 61 3a be d4 06 e1 3c ab 78 56 bd
       0.06949481 -0.18201423 0.027469076 -0.05236117
000300 6b 02 1c 3e 84 2b a6 bd 99 37 c4 3d 3c 1e 43 3d
       0.15235297 -0.08113769 0.09580917 0.047636256
000310 3c 1e 0b 3e 8b 9d 51 be 18 a5 3d be 8f 48 d1 3d
       0.13585752 -0.20470254 -0.1852001 0.102189176
000320 51 53 80 bd c2 8d 46 3e 31 e2 8a 3d 26 88 ac bd
       -0.06265891 0.19390014 0.06781424 -0.08424406
000330 ed ff 24 3e b4 fd 4a bc 37 b1 b3 bd 00 b1 ce 3d
       0.16113253 -0.012389589 -0.087740354 0.10092354
000340 a8 53 2f 3e 75 7f 31 be 5d 37 09 be 4f 13 4f bc
       0.17121756 -0.17333777 -0.13400026 -0.012638881
000350 11 f1 3b 3c 74 43 43 bd ce 86 b2 bd 0c 47 ff 3c
       0.011471049 -0.04767175 -0.08717118 0.031161807
000360 e9 fc f8 3d d4 53 b5 bd f6 ce 53 be c1 a1 1a be
       0.12157614 -0.088538796 -0.20684418 -0.15100767
000370 ae 84 48 bd 2f 4e 04 be d1 13 c5 bc bd 46 10 3e
       -0.04895466 -0.1292045 -0.0240573 0.14089485
000380 a7 af 09 be a6 9e 1f be 1a 42 6d 3d 5e b7 f3 bd
       -0.13445912 -0.15587863 0.057924367 -0.11900209
000390 fc 9f 56 3e 0b 77 83 3d b3 9c 36 3e 46 54 b8 3d
       0.20959467 0.0641919 0.17833214 0.09000449
0003a0 2b a9 95 3d 26 f7 59 3e 2e cf 8a 3d d4 d8 23 3d
       0.07307657 0.21285686 0.06777798 0.040001705
0003b0 34 d8 32 3e ec 24 01 be b7 7d 31 3e 19 1d 38 3e
       0.17465287 -0.12611741 0.17333113 0.1797985
0003c0 ea 64 54 be 80 ea 05 bd 47 18 b0 3d ed 63 39 bd
       -0.2074162 -0.03269434 0.085983805 -0.045261312
0003d0 5a ff ea 3b 55 fd f7 3d 7e c6 b7 bd 5a 2d 86 bc
       0.0071715536 0.12108866 -0.08973406 -0.016379047
0003e0 d2 80 1f bc 20 b8 31 be 5f 24 23 bc 21 e0 7c 3b
       -0.009735303 -0.17355394 -0.009957402 0.003858574
0003f0 d8 ec 54 3e 22 59 4b be 78 94 df bc 9b fb 35 be
       0.20793474 -0.1985822 -0.027292475 -0.17771761

weight f4 [64, 64]
000000 fb dc f2 3d e8 b3 2f be 8c a1 69 bd 9f 94 5e 3e
       0.11858555 -0.17158473 -0.05703883 0.21736382
000010 88 82 bc 3d 6e 39 d1 3c 42 70 c9 bd f9 a8 a6 bd
       0.09204584 0.02554008 -0.098358646 -0.08137698
000020 2c 60 2a 3d e8 1f 53 be 25 1d 27 be f9 dc b6 3d
       0.041595623 -0.2061764 -0.16319712 0.08928866
000030 10 b4 44 3d 70 17 fc bd 17 97 9a bd ff f6 cd 3d
       0.048023283 -0.12309158 -0.07548349 0.100568764
000040 43 e5 ec 3d 86 05 5d be 0a 30 5c 3d 14 a5 08 be
       0.11567166 -0.21584138 0.05375675 -0.13344222
000050 0f 40 dd bd 1c 1c 07 3d 7a 62 35 3d 4a d7 04 be
       -0.10803234 0.03298579 0.044283368 -0.12972751
000060 24 bf 49 bc 2a 05 42 3d d2 e9 c3 3a ba dc 6b bd
       -0.012313638 0.047368206 0.0014947003 -0.057583548
000070 f3 68 80 3d 6a 38 0e be a6 28 d4 bd b4 a6 f4 3c
       0.062700175 -0.13888708 -0.103593156 0.029864646
000080 bb b9 44 3e f5 63 8b bc 65 e4 fd 3c 59 b6 a8 bc
       0.19211476 -0.017015437 0.030992696 -0.020594763
000090 58 7d f1 3c 85 1c 1d 3e 00 0e 09 be bc bc ae bd
       0.029478714 0.1534291 -0.13384247 -0.08532092
0000a0 ea 6d 34 be f4 d2 ce bc 68 21 4c 3e c9 3c f4 bd
       -0.17620054 -0.025247075 0.19934618 -0.11925656
0000b0 c4 19 14 bc 83 94 c9 3d 02 eb 3a 3e 93 29 23 3d
       -0.009039346 0.098427795 0.18253711 0.03983457
0000c0 b4 05 fe 3d 7d 79 f1 bd 3b 64 c9 bd e1 b5 75 bc
       0.124034315 -0.1179075 -0.098335706 -0.014996977
0000d0 8e 49 20 3e d2 d4 2d be 91 77 e4 3d f1 84 4c be
       0.15653059 -0.16975716 0.11155618 -0.19972588
0000e0 76 ba d5 3d 54 7a 3e be 46 ef cb bd 3c fb 4e 3e
       0.10435955 -0.18601352 -0.09957747 0.20213026
0000f0 a9 f1 00 be 34 79 b5 bd 90 a5 c6 3d 03 86 f8 bd
       -0.12592186 -0.08861008 0.09699547 -0.12134936
000100 e9 2d 98 bd ca aa 26 3e 74 f8 33 3d 8f c7 0f be
       -0.07430632 0.16276088 0.043938115 -0.1404097
000110 13 5b 4c 3e 65 af 50 3c 4b 9d 16 bc 56 00 0d be
       0.19956617 0.01273713 -0.009192775 -0.1376966
000120 c5 50 08 3e 30 1b 10 3e f1 36 4f 3c bc 4c 3e 3e
       0.13312061 0.14072871 0.012647376 0.1858396
000130 23 7e e1 3d f9 46 4a 3e 0d 8c 10 be 31 80 bd 3d
       0.11010387 0.19753636 -0.14115925 0.09252966
000140 92 3e 15 3e 65 25 9c bd 72 3b 41 3e 53 6f dc bd
       0.1457465 -0.0762432 0.18870333 -0.10763421
000150 ad 78 4d bd 94 79 8f bd 4e b7 71 3d 11 32 89 3d
       -0.050163914 -0.07005611 0.059012704 0.066990025
000160 3e a1 a2 bd 67 49 0c be ba f1 17 be cb 2a 3c 3e
       -0.07940911 -0.13699876 -0.14838305 0.18375699
000170 87 05 05 3d 5e f2 77 bd 65 08 1a 3e c9 b8 40 be
       0.032475974 -0.060533874 0.15042265 -0.1882049
000180 0e 37 0b be 08 e7 ab bd 9e 07 28 3d 3c c1 50 be
       -0.1359522 -0.08393675 0.04102289 -0.20386213
000190 8f 3e f1 bc 54 9c e7 bd 00 f8 83 3c 7a 0e d8 3d
       -0.029448776 -0.11309114 0.016109467 0.10549636
0001a0 b0 87 ca bd d5 0d 9c bd 4a 38 1e 3e 7e 96 89 3d
       -0.098891616 -0.07619826 0.1545116 0.06718157
0001b0 83 c3 fd bc 0b 5e 58 3e 21 93 2f 3e b9 d7 c8 3d
       -0.030977016 0.21129625 0.17145969 0.09806771
0001c0 99 79 92 3d 49 2b 9c 3c dd 0e 6f bd 21 85 0f 3d
       0.07152099 0.019063609 -0.058363784 0.03503907
0001d0 64 65 a3 3b 4f 6e 15 3d e6 28 af 3d 1b 9b c5 3d
       0.004986452 0.03648215 0.08552723 0.09648725
0001e0 26 63 e0 3c 44 58 e9 bd e9 4b e0 3d da a3 f2 ba
       0.027391028 -0.113937885 0.10951979 -0.0018511966
0001f0 23 b8 3b be 9b 3f 1d bd d3 dc 6d bd 12 92 ad 3c
       -0.18331961 -0.038390737 -0.058071923 0.021187816
000200 e8 44 08 be 5b 56 8f bd 37 7a a4 bd bd 87 2c 3e
       -0.13307536 -0.06998893 -0.08031123 0.16848655
000210 fd 97 bc bd 54 dc 13 be 31 be 4c be 42 82 21 3e
       -0.09208677 -0.14439517 -0.19994427 0.15772346
000220 0c 4d c8 bd 59 85 3a 3d 07 d4 e6 3d 63 0f ae bc
       -0.097803205 0.045537326 0.1127091 -0.021247571
000230 7a 30 32 3d 66 b3 27 3e 8c 1d 36 3d 4b aa b9 bd
       0.043503262 0.16377029 0.04446177 -0.09065684
000240 fd 33 e8 3d 5e 0a 3b 3e a0 ac 5b 3e c0 e7 21 3e
       0.11338041 0.18265674 0.2145257 0.15811062
000250 15 47 d4 3c e9 fe d2 3b 77 60 26 3c 38 e6 96 bc
       0.0259128 0.006439079 0.010154835 -0.018420324
000260 a7 63 4f 3e be f7 30 be 5a a5 1c be 30 58 e7 3d
       0.20252858 -0.17282006 -0.15297452 0.11296117
000270 5d 78 0b bd c4 7b 3a 3e 83 a9 5d 3e 5e 3a 06 3d
       -0.034050334 0.18211275 0.21646695 0.032770507
000280 31 8c 4b 3e 47 0d 67 3d fb 61 4c 3e b6 e1 77 bd
       0.19877698 0.056409147 0.19959252 -0.06051799
000290 e2 57 bb 3d 74 45 30 be fa 02 88 3d a2 1a 48 3e
       0.09147622 -0.17213994 0.06641193 0.1954141
0002a0 fc d1 60 3e e0 f9 06 be 26 95 fc ba e9 a5 2f 3c
       0.21955103 -0.13181257 -0.0019270524 0.010720708
0002b0 f8 9e 6c bc a0 4e 22 3e b5 af 00 be 15 97 f3 3d
       -0.014442198 0.15850306 -0.12567027 0.11894051
0002c0 4d dd 96 bd ee ef bf bd 91 27 4a 3e 94 19 d7 3c
       -0.073664285 -0.09371935 0.19741656 0.026257314
0002d0 e2 b3 39 3e 18 3c 97 bd 19 c6 57 3e c2 d0 11 3e
       0.18135026 -0.07384509 0.21071662 0.14239791
0002e0 de d2 07 be 9b 8c 09 3e 72 43 02 3d 23 2b e0 3d
       -0.13264033 0.13432543 0.031802602 0.10945728
0002f0 2a 32 1a 3e 46 3a a8 bd 75 0d 27 3e 75 5f 47 be
       0.15058199 -0.0821424 0.16313727 -0.19470008
000300 66 22 f5 bd df f4 20 be 8e f4 fe 3d 79 10 24 bc
       -0.119694516 -0.15718411 0.12448989 -0.010013693
000310 7a b3 43 be c1 aa 3a 3d 7f 67 c4 bd 28 09 f7 bd
       -0.19111434 0.045573 -0.09590053 -0.12062293
000320 72 03 91 bd 17 59 c4 3d a6 9e 54 3d be 82 53 3e
       -0.07080735 0.09587305 0.05190911 0.20655343
000330 93 62 b9 bd c0 1c 10 be 3a 51 63 3d e4 6f 4e be
       -0.09052005 -0.14073467 0.055497386 -0.2015987
000340 92 cc 5b 3d af d1 52 3c cc 9e 10 be 35 52 55 be
       0.05366189 0.012867375 -0.14123076 -0.2083214
000350 8a 9e 4d 3d 28 d7 2a 3e 3a 2f 54 3c 1a 72 b2 3d
       0.050200023 0.16683638 0.012950713 0.087131694
000360 5f 90 b4 bc f5 00 7f bc 35 5d 06 3e f5 ee 8f 3d
       -0.022041498 -0.015564193 0.13121493 0.07027999
000370 29 81 91 3d d2 dd 16 be 68 b0 2f 3e 99 fd 28 be
       0.071047135 -0.14733055 0.17157137 -0.1650299
000380 34 4c c1 bd df d8 08 3e 7d c2 27 be d3 d6 07 3e
       -0.09438363 0.1336398 -0.16382785 0.13265543
000390 2c b9 28 be 35 8f 0c 3d 6b 33 ab bd 29 04 61 bd
       -0.16476887 0.03431626 -0.083594166 -0.054935608
0003a0 8b 26 db bd 80 91 e7 3d 83 44 0d 3e fd f4 63 bd
       -0.10700711 0.11307049 0.13795666 -0.05565356
0003b0 83 48 93 3c 78 4b f7 3d c6 91 09 be 31 7a 2a 3e
       0.017978912 0.120749414 -0.13434514 0.16648175
0003c0 2c c1 c4 3d 1b a0 43 be 18 ca 3c 3e e7 f6 ea bd
       0.09607157 -0.19104044 0.18436468 -0.11472874
0003d0 ae e9 62 bd 11 5d 2e 3e 9a ed f5 3d 50 38 6c bd
       -0.055398636 0.1702769 0.120082095 -0.05767089
0003e0 8f 9c 09 3e 62 f2 0e be 9f 2a 1e 3c 97 2c 81 bd
       0.13438629 -0.13959649 0.009653716 -0.06307333
0003f0 5a 79 20 be 08 54 0d be 5f 89 94 3d cd ba 2d bd
       -0.15671292 -0.13801587 0.07252764 -0.042414475

weight f4 [64, 64]
000000 44 3b f3 bd 33 30 32 3d f4 21 19 bb 08 d6 40 bd
       -0.118765384 0.043502998 -0.0023366185 -0.047079116
000010 ee 1d ce bd 56 f0 1f bc 72 ad 8a 3d b1 33 4f be
       -0.100643024 -0.00976189 0.06771363 -0.20234562
000020 f9 3c 4d 3e db d5 c9 bc 5e c4 96 bd 1a a6 88 3d
       0.2004279 -0.024638107 -0.07361673 0.06672306
000030 50 e7 2e be 46 2e 4b be 37 85 ea 3d 89 dd ca 3d
       -0.17080426 -0.1984187 0.1145119 0.09905536
000040 35 43 4a 3e df 8c ac bd c6 53 48 3e 8d 4c b6 3d
       0.197522 -0.084253065 0.19563207 0.0890132
000050 4a c5 3c 3d 59 04 44 be 76 e6 5c 3e f8 4c b5 3d
       0.046086587 -0.19142283 0.21572289 0.08852571
000060 de 69 7a bd e5 c3 f9 bd 2e 42 3b be 4c a6 51 3e
       -0.06113612 -0.12195567 -0.18286964 0.20473593
000070 41 08 26 3e cf f3 09 3d 8f fc a4 bd 01 5b 85 3d
       0.16214086 0.03367978 -0.08055984 0.06511498
000080 1a f3 b1 bd da 9b 36 3e aa 4a 28 be bf 32 b1 3d
       -0.08688946 0.1783289 -0.16434732 0.08652257
000090 c5 8b 45 3e af ed 6a 3d e0 7e 4c 3e f7 dd 7d 3d
       0.19291599 0.05735558 0.19970274 0.06197926
0000a0 b0 de 9c bd e4 b4 f3 3c 0f 53 35 3e 7a e2 49 3e
       -0.07659662 0.029749341 0.17707466 0.197153
0000b0 cc 32 6f 3d 60 f8 1a be 1c 10 b7 3d 26 f3 54 be
       0.058398053 -0.1513381 0.089386195 -0.20795879
0000c0 e5 60 23 be 92 2e 00 3e 8e c7 91 bd 37 d5 ef bb
       -0.15954931 0.12517765 -0.0711814 -0.0073191184
0000d0 6b bf 67 3d 53 40 0a 3e 82 0f 13 be 39 b4 26 be
       0.056579035 0.135011 -0.14361385 -0.16279687
0000e0 48 f6 19 bd e0 e7 30 bd 6a 41 39 be 55 cc 53 3e
       -0.037588388 -0.043189883 -0.1809136 0.20683415
0000f0 64 20 ac bc b4 c8 e2 3c 10 8d 81 bd 9f dd 3c 3d
       -0.021011539 0.027683593 -0.06325734 0.04610979
000100 e5 47 af bd 90 25 63 3d 27 d9 09 be 27 6d 12 3e
       -0.08558635 0.055455744 -0.13461743 0.14299451
000110 2d 86 a3 3d b3 1d 0c 3e cf 81 a6 3d 85 bd 15 be
       0.079845764 0.13683204 0.08130228 -0.14623077
000120 7e 14 00 be 3a 33 d6 bd db 90 c7 3d f0 ac cc 3b
       -0.12507817 -0.104589894 0.09744426 0.0062462017
000130 df 9b 32 3e cc 97 8d bd 9e 81 c9 bc 23 ad 18 3e
       0.17442273 -0.069137186 -0.02459794 0.14909796
000140 41 11 2a be b1 d1 e1 3c cf 0b d3 3d 45 98 54 3b
       -0.16608144 0.027565809 0.10304987 0.0032439393
000150 38 30 51 3d 98 10 25 ba 3f 07 3e 3c c7 6f 67 3c
       0.051071376 -0.0006296723 0.011598407 0.014125771
000160 62 c2 23 be 70 36 86 bc 13 76 4b bd 31 b0 48 3e
       -0.1599212 -0.01638338 -0.04967315 0.19598462
000170 8d 77 22 bd 6b cc 28 3e c1 11 8b bd 55 5a e0 bd
       -0.039664794 0.1648423 -0.06790496 -0.109547295
000180 a0 0b 06 3d 8b 7b 5e be 6d 67 4e 3e 48 a4 69 3b
       0.03272593 -0.21726815 0.20156641 0.0035650898
000190 be c5 dc bd d1 dd 41 3e 6d 61 33 bd 3c 76 7f 3c
       -0.10779904 0.18932272 -0.043794084 0.015592154
0001a0 1a 8c 65 bd 4f 46 ee 3d d4 c5 22 bd 95 15 34 be
       -0.056041814 0.11634504 -0.039739445 -0.17586358
0001b0 16 26 41 3e 08 e1 48 be 00 23 47 be 15 00 44 3e
       0.18862185 -0.19617093 -0.19446945 0.19140656
0001c0 9e c7 1e 3e eb 7b 05 bb 8c 61 18 be 7e ce ca 3d
       0.15505835 -0.002036805 -0.14880961 0.099026665
0001d0 a3 61 09 bd d1 89 82 bd 9b a2 0c bd e9 69 ea bd
       -0.03354038 -0.06373943 -0.03433476 -0.11445982
0001e0 7c 1c 9a bd 00 20 29 be f6 0a 34 3e 6e f1 f4 bb
       -0.07524964 -0.16516113 0.17582306 -0.0074750697
0001f0 59 46 31 3d ec 9e 10 bd 35 0d 47 3e ce 6d 0a 3e
       0.04327998 -0.03530781 0.19438632 0.1351845
000200 01 e7 f8 bd 06 91 d7 3d a8 b4 fb 3d 8c 2d 31 bd
       -0.121534355 0.10525708 0.12290317 -0.043256328
000210 bc f0 29 be 91 a5 90 3d 26 20 eb bd da 82 a3 3c
       -0.16595739 0.07062829 -0.11480741 0.019959856
000220 45 5d f3 bc f4 bf f9 bd 2f b8 b2 3c 8e 86 64 3d
       -0.02970756 -0.12194815 0.021816341 0.055792384
000230 ed bd 13 3d c2 37 12 be 46 26 b3 3d be c2 82 3d
       0.0360698 -0.14279082 0.087475345 0.063848004
000240 a3 a6 20 bd 41 f9 15 3e 34 7c 01 3e fb 76 95 3d
       -0.039221417 0.14645864 0.12645036 0.07298084
000250 0f 9f 47 be 29 dd 2a be d6 38 40 3e 5e cd 63 bd
       -0.1949427 -0.16685928 0.18771681 -0.055615775
000260 b6 95 09 3e 8c 40 53 3c 66 15 5a be 00 7d 35 be
       0.13436016 0.012893807 -0.21297225 -0.17723465
000270 fc dd 8f bd 30 6e 2e be 84 2f 05 3a e2 0d 20 3e
       -0.07024762 -0.1703422 0.0005080628 0.15630296
000280 90 3f 34 bc e1 81 2c 3e 51 5d 84 3b d8 66 4e be
       -0.011001483 0.1684642 0.0040394445 -0.2015642
000290 1f a5 8c bd eb 1c 81 bd d4 2c 00 be 18 1b 4b be
       -0.06867432 -0.06304344 -0.125171 -0.19834554
0002a0 df 18 ea 3d 28 f8 1e bc 50 82 11 bd 9d b1 38 bd
       0.11430525 -0.00970272 -0.035524666 -0.04509126
0002b0 1f af 41 be 22 b0 f0 bd b6 61 2a 3d 8a 60 4c 3b
       -0.1891446 -0.11752345 0.04159709 0.0031185471
0002c0 89 83 2c 3e 14 06 03 3c 52 2e 57 3e 15 c0 3c be
       0.16847052 0.007997055 0.21013764 -0.18432648
0002d0 52 07 34 bb 6e d2 00 3e e5 5d 18 3e 08 28 c8 bd
       -0.0027470184 0.12580273 0.14879568 -0.0977326
0002e0 d7 88 87 bd 63 97 20 3e eb 46 3a be ee b1 c9 bd
       -0.06617897 0.1568275 -0.18191116 -0.098483905
0002f0 f4 99 52 bc 08 08 bc bc cd 61 6c 3d d2 4a c2 bd
       -0.012854088 -0.022953048 0.057710458 -0.09486927
000300 9e e5 30 bd 3f 16 b5 bd 1d 62 27 3e e8 a4 39 be
       -0.04318773 -0.08842134 0.16346021 -0.18129313
000310 11 c8 30 bd 5c ee a1 ba 69 71 c6 3d cb 79 8c bd
       -0.04315955 -0.0012354362 0.096896 -0.06859168
000320 4d fb c1 bc 21 1e 1c be 43 68 c6 bd 02 6a 4a 3d
       -0.0236794 -0.15245868 -0.09687855 0.049417503
000330 41 c0 4d 3e 59 3b f8 bd 28 c3 d4 3d f8 91 c6 3d
       0.2009287 -0.12120695 0.103887856 0.0969581
000340 c3 20 aa bd 6b 71 5c bd 04 a4 ac bd c6 60 3a bb
       -0.0830703 -0.0538191 -0.08429721 -0.002843903
000350 28 2d 65 be 8f 12 a3 3d 5e 1b 32 3e 87 d2 bd bd
       -0.22380507 0.07962524 0.17393252 -0.092686705
000360 1b 5e 62 bd 95 76 21 be 1b 7f fb 3b cb 08 80 3d
       -0.055265527 -0.15767892 0.0076750643 0.06251677
000370 43 77 25 bc f7 88 d5 bd f4 75 b9 3c 20 ab 33 be
       -0.010099235 -0.104265146 0.022639252 -0.17545748
000380 1a 49 98 bd 65 8e 25 3e a9 cf 8c bd 87 17 31 3d
       -0.07435818 0.161676 -0.068755455 0.043235328
000390 f7 5b 93 bd f9 4d 4d be 8f 9f 53 be bd c4 cf 3d
       -0.07195275 -0.20049275 -0.20666336 0.10144947
0003a0 d6 d8 8e ba 02 c4 19 bb eb 74 37 3e a6 82 0c 3e
       -0.0010898362 -0.0023462777 0.17915694 0.13721713
0003b0 65 7b a2 bd 4d 5c 3e bd cc 5a a6 3c 85 a5 87 3c
       -0.07933692 -0.046474744 0.020306967 0.016558418
0003c0 29 05 1c 3d b8 59 48 3d 33 08 37 3e 58 cc 8d bc
       0.03809086 0.048913687 0.17874222 -0.017309353
0003d0 f7 d7 52 3d 3b b7 f2 bd 99 cb f0 3d e3 1b 45 3c
       0.05147549 -0.11851355 0.11757583 0.0120305745
0003e0 13 fe 5f bd 7b d0 25 3d e1 a6 4d be c6 4d c0 3d
       -0.054685663 0.040482026 -0.2008319 0.09389834
0003f0 1d 04 b5 bd d8 7d 0e be 51 91 1c bc ee 93 c4 bd
       -0.08838675 -0.13915193 -0.0095561305 -0.09598528

weight f4 [64, 64]
000000 1c ab 95 bd a0 d6 38 3e 19 ec 2b 3e b6 83 8e bd
       -0.07308027 0.18050623 0.16789283 -0.069587156
000010 d8 ee d9 3d 8f 2d 14 3e ca 21 05 be bf 5d 27 3e
       0.10641259 0.14470504 -0.13001171 0.16344355
000020 1b df 9d 3d ba 01 7a bd 3c 6a a8 bd ec d7 19 3e
       0.077085696 -0.061036803 -0.082233876 0.15023774
000030 ac 67 85 3d 39 4b e7 3d 09 c6 5e 3e 5d 80 4f 3d
       0.065139145 0.112936445 0.21755232 0.050659526
000040 7a 47 a2 3d ec 2c 39 3d b7 ff 0a be 19 c2 ed 3c
       0.07923789 0.045208856 -0.1357411 0.029023217
000050 eb 46 02 be c3 18 69 bd 7c be 82 bd 5c d1 3f be
       -0.12722366 -0.05690838 -0.06383988 -0.18732208
000060 4e d3 da 3c 74 94 3b 3d d4 08 42 be ff 48 a5 bb
       0.026712086 0.045795873 -0.1894868 -0.005044102
000070 2d cc 37 3e c2 b4 a8 bd df 25 0c be 09 01 c3 bc
       0.1794898 -0.08237602 -0.13686322 -0.023804205
000080 c4 39 85 3d 88 52 57 be 2d 56 b3 bb 7f 37 df 3c
       0.065051585 -0.21027577 -0.0054729194 0.027248142
000090 93 2c 01 be a0 94 5c be d6 10 0c be 95 5d 8b 3d
       -0.1261466 -0.21541071 -0.13678297 0.06804959
0000a0 0c d4 27 be ef 8d 10 be ff 60 55 3e 04 5f 1a 3d
       -0.16389483 -0.14116643 0.20837782 0.03768827
0000b0 77 af 1c 3e 6f 66 24 3e fb a4 0b 3e 5e 80 df bc
       0.1530131 0.160547 0.13637154 -0.02728289
0000c0 0e a9 72 3c ec 43 d5 3d 95 a4 39 be df bb 0c be
       0.014810814 0.10413346 -0.1812919 -0.13743542
0000d0 a6 a6 29 3e 4d 46 3a be 44 0c 22 be 76 d7 55 3e
       0.16567478 -0.1819088 -0.15824991 0.20882973
0000e0 3f 15 85 3d c8 2c 23 be ee cc c5 bb a8 7d 6e 3d
       0.06498193 -0.15935051 -0.0060363924 0.058225304
0000f0 44 67 83 bd ad 81 a6 3d ac 29 d8 3d 5d 3e 55 3e
       -0.06416181 0.081302024 0.10554823 0.20824571
000100 d7 82 b5 bd ad 63 d8 bd 84 b4 e6 3b 49 d0 3f be
       -0.08862846 -0.10565887 0.007040562 -0.18731798
000110 5d c4 d7 bd ea 8b 2b bd 7e 5e ef 3c d2 55 ce bb
       -0.105355 -0.04188148 0.029219862 -0.0062968517
000120 db 15 df 3d eb 40 2a 3e c0 14 a8 bd e8 90 b5 bd
       0.108928405 0.16626327 -0.08207083 -0.08865529
000130 0b 65 40 3e fd f1 31 3e 05 90 3f 3d 16 4f 74 bc
       0.18788545 0.17377467 0.046768207 -0.014911434
000140 88 3d 27 3e 80 52 c7 3d 14 26 3d 3d 0c 7e 02 be
       0.16332066 0.097325325 0.046178892 -0.12743396
000150 38 da 07 bd f0 39 e5 bb 3f ba d8 bd 9b e1 0f 3e
       -0.033167094 -0.006995432 -0.105823986 0.14050905
000160 24 89 66 3c 57 bb 0c 3d 1f e7 c7 bd a3 c5 8f 3d
       0.014070783 0.03435835 -0.0976088 0.07020118
000170 9a 8d 2f 3e 6d 68 fc bc e4 13 69 3d e7 d4 19 bd
       0.1714386 -0.030811513 0.056903735 -0.037556555
000180 c5 1e 40 3e 02 aa f2 3d c3 7d 43 3d 1a bd 1f be
       0.18761738 0.11848833 0.047727358 -0.1559948
000190 de e9 3a be ce ad e6 bc 60 55 30 be 78 1b 44 be
       -0.18253276 -0.028159048 -0.17220068 -0.19151103
0001a0 19 d6 9a bc 23 8d e0 bc e3 7e fc bd 13 31 02 bd
       -0.018900918 -0.02741105 -0.12328889 -0.031785082
0001b0 ca 55 9e 3d 06 9f 31 be df fd c0 bd da 3a 4f be
       0.07731207 -0.17345819 -0.09423422 -0.20237294
0001c0 3f 19 4d 3e 11 4c 2c be 9b ac 48 3c 30 bd 3b be
       0.20029162 -0.16825892 0.012248184 -0.18333888
0001d0 d1 80 3d 3e b1 25 e4 3d 17 ea e6 3d 88 03 c3 bd
       0.18506171 0.111400016 0.11275118 -0.09522158
0001e0 14 1c 07 3e 0c 92 1c bd 57 fb 2c be d0 fb 52 be
       0.13194305 -0.03822522 -0.16892754 -0.20603871
0001f0 c6 78 c6 bd 23 33 26 3e fb 50 2d be ee 6b d8 bd
       -0.096910045 0.16230445 -0.16925423 -0.10567461
000200 a0 69 2d 3e 51 1b 1a 3e 5f 50 02 3d 3e 97 e0 bd
       0.16934824 0.15049483 0.03181493 -0.10966347
000210 e8 d3 7d 3d ed 27 cf 3d 75 6a 31 be c9 ab cb 3d
       0.061969668 0.10115037 -0.17325766 0.09944875
000220 91 51 ee 3d 21 7f 34 bd 53 eb 50 3e dc 36 37 be
       0.11636651 -0.044066552 0.20402269 -0.17892021
000230 f0 32 2d 3e 66 fd 0b 3d a6 f8 2f be 45 95 1e bd
       0.16913962 0.034177206 -0.17184696 -0.038716573
000240 3a 14 f1 bd 84 df 9e 3d a0 51 69 3d 4c 88 42 3e
       -0.11771436 0.07757476 0.05696261 0.18997306
000250 a0 d9 c1 3c e2 ea 62 3e 96 bb 21 3e 1a 90 5e 3e
       0.023663342 0.22159913 0.15794215 0.21734658
000260 3e ef 19 bc 6f 5e 5e bd 21 fa fa bd 53 73 f5 bd
       -0.009395419 -0.054289278 -0.122547396 -0.11984887
000270 60 25 19 be 17 0c 85 bd 9d a5 60 bd fd dd 19 be
       -0.14955664 -0.064964466 -0.05484544 -0.15026088
000280 75 f6 de bd ad be d4 3d ac 08 1c bd a1 2f 1c be
       -0.10886852 0.10387931 -0.038094208 -0.15252544
000290 77 03 44 be 2f c6 d3 bc dc 6d 32 bd 6c 71 56 3e
       -0.19141947 -0.025851337 -0.0435618 0.20941705
0002a0 60 cc ad bd ec 0a 02 be d9 88 98 3d 5f 4c 26 3e
       -0.08486247 -0.12699479 0.074479766 0.16240071
0002b0 75 45 c9 3d f6 b2 2a be 0f c7 21 be 89 1d 55 be
       0.09827701 -0.1666983 -0.15798591 -0.20812048
0002c0 e7 61 96 bd 58 77 99 3d 53 5a 4c be 32 71 19 be
       -0.07342892 0.07493466 -0.19956331 -0.14984587
0002d0 4c c4 3a 3e 79 a0 10 3e a2 a7 5a bd a3 67 56 be
       0.18238944 0.14123715 -0.053382523 -0.20937972
0002e0 00 15 76 3b d0 16 ea 3d 59 03 1e 3e 61 3c 21 3e
       0.0037549138 0.114301324 0.15430965 0.15745689
0002f0 40 31 f9 3d b7 e2 49 be bd 10 0c 3e 6d a1 44 be
       0.12167597 -0.19715391 0.1367826 -0.19202204
000300 33 84 0c be e9 ed 25 3e 06 8e c4 bd 9e cb 08 be
       -0.13722305 0.16204037 -0.09597401 -0.13358924
000310 08 81 15 3e 6b d4 41 bd d9 ff 4d 3d 21 82 52 be
       0.14600003 -0.04732172 0.050292823 -0.20557453
000320 6a a8 e3 bd 2a 49 3f 3e 6c 11 12 3e 23 3f 14 be
       -0.11116107 0.18680254 0.14264458 -0.1447721
000330 c5 ab 55 be 02 35 90 3c 49 ea 5b 3e cf fe 71 bd
       -0.20866306 0.017603401 0.21476091 -0.059080895
000340 c2 1b 06 3e 6a 93 55 be 1f 88 ba 3c aa a6 07 3e
       0.13096526 -0.20857015 0.022769986 0.13247171
000350 f4 e5 82 3d ff 62 33 3d ec d7 fb 3d 69 c5 e9 bd
       0.06391516 0.043795582 0.12297043 -0.11414606
000360 e6 cc d9 bd 1c 60 9f bc 62 26 e4 bd 50 3a 43 be
       -0.106347844 -0.019455008 -0.111401334 -0.19065213
000370 2e 82 ca bb bf e7 92 3d bc 37 fb 3d 58 64 87 3d
       -0.0061800694 0.07173108 0.1226649 0.06610936
000380 7d b0 9a 3b 02 84 22 be 9e 00 c0 bd 51 b3 55 3d
       0.004720746 -0.1587067 -0.09375118 0.052172963
000390 fc 13 02 3e ce ed 0c be b6 56 26 bd bf 76 8e bd
       0.12702936 -0.1376259 -0.040610038 -0.06956243
0003a0 4a 9c 3a 3c 50 c2 1b 3e 32 fa 72 3d b4 41 4c bc
       0.011389801 0.15210843 0.059320636 -0.012466837
0003b0 03 66 a4 bd c8 3c 49 3e f5 01 85 bd fa cd 9f 3c
       -0.0802727 0.19652092 -0.06494514 0.019507397
0003c0 44 2a e3 bd a3 e3 60 3e 55 41 4d 3e 61 c9 d0 bd
       -0.11092046 0.21961837 0.20044453 -0.1019466
0003d0 24 d2 a9 bd 41 94 ef 3d 31 a6 47 be 05 64 05 be
       -0.08292034 0.11698199 -0.1949699 -0.13026436
0003e0 54 96 d0 3b 63 78 47 3e 8f e4 fe 3b 1e f4 b8 bd
       0.0063655768 0.19479518 0.007778711 -0.09030937
0003f0 df e4 b7 bc 4d 18 0b 3e f3 ad 03 be 58 64 95 bd
       -0.022448001 0.13583489 -0.12859325 -0.0729453

weight f4 [64, 64]
000000 14 ed fe bb bd 35 90 3d cb b9 b4 3d 5d 99 38 be
       -0.0077797268 0.070415 0.088245 -0.18027253
000010 4d fc 48 3e ca c1 a4 3b 5d 56 dc bd 09 b2 44 be
       0.19627495 0.0050279843 -0.1075866 -0.1920854
000020 92 dc 4c 3d 8f 09 c4 bc bc f6 85 3d 85 c7 46 be
       0.05001504 -0.02393034 0.065412015 -0.19412048
000030 02 e2 50 3e bf 86 24 3d 04 dd 4a be 0f cd 19 be
       0.20398715 0.040167566 -0.19810873 -0.1501963
000040 bf a1 0b bc 3a 00 aa bd 75 10 ba bd 0d 3f 14 bb
       -0.00852245 -0.083008245 -0.0908517 -0.002262059
000050 73 1b d6 3d 8d 48 cd bd 25 bd 48 bd cf b3 53 3d
       0.10454454 -0.100236036 -0.049008507 0.05168515
000060 ef ea ef 3d b2 a7 27 be 6d f2 08 3e e4 4e 75 bc
       0.11714732 -0.16372564 0.13373728 -0.014972422
000070 0e 09 ef bc c5 78 03 be 96 6c 46 be 9b b2 15 be
       -0.029179122 -0.12839039 -0.1937736 -0.14618914
000080 f6 71 84 3c b7 fd 90 3b aa 9a 42 be 04 c6 74 bc
       0.016167622 0.0044247764 -0.19004312 -0.014939789
000090 cc 3e 55 3c 26 b9 34 3e ff 3e 0d be 5f 7f a4 bc
       0.01301546 0.17648754 -0.13793562 -0.020080267
0000a0 ec 69 a2 bd 4c a8 cb bd e9 4c c9 bd a9 4a 94 3d
       -0.07930359 -0.099442095 -0.098291226 0.07240803
0000b0 32 e4 af bc 47 74 34 3e 50 b5 f6 3d c4 e0 06 3e
       -0.021471117 0.17622481 0.12046301 0.13171679
0000c0 5c eb 36 3e e7 05 f7 bd d4 20 8d 3d 67 c7 4b bb
       0.1786322 -0.12061673 0.06891027 -0.0031094195
0000d0 48 23 25 ba c5 a3 fc 3d 8c 06 54 bd 68 66 13 3c
       -0.0006299508 0.12335924 -0.051764056 0.0089965835
0000e0 7d 48 2e be ca 1f 80 3d 63 b4 c1 bd c9 25 cc bd
       -0.1701984 0.06256063 -0.09458234 -0.099681444
0000f0 c2 ba aa 3d e1 13 89 bd b0 0f 11 3d 12 a1 31 3d
       0.083364025 -0.06693245 0.03541535 0.0433665
000100 9a bd 61 be 16 0e 2e be 69 3d 4a be c4 9a 40 be
       -0.22044984 -0.16997561 -0.19749989 -0.18809038
000110 4a ae 7e bd c7 68 88 bd a8 3e 02 3e 07 ad 86 3d
       -0.062177934 -0.0666061 0.12719214 0.06575971
000120 15 37 88 bd a9 66 61 bc 9b a5 2d 3e 1d 31 f0 bd
       -0.06651131 -0.013757386 0.16957705 -0.117281176
000130 b3 d6 90 3d 3b ca 54 3e 09 98 15 3e bb 7f 7a 3d
       0.070722006 0.2078027 0.14608778 0.06115697
000140 90 a8 85 3d 98 89 19 be 8d 33 f9 3d 15 d2 4c be
       0.06526291 -0.14993894 0.12168036 -0.20002015
000150 0e f0 21 be d2 70 b5 3d 08 dc ce bd 3f 8f 97 3d
       -0.1581423 0.088594094 -0.101005614 0.07400369
000160 35 4e 63 be 6a 47 24 be 31 f7 ba bc c3 e3 2a 3e
       -0.22197802 -0.16042867 -0.022822948 0.16688447
000170 80 09 39 3e 35 f2 21 be ea b4 41 be 2f 17 d5 bd
       0.1807003 -0.15815051 -0.1891667 -0.104048125
000180 36 bf d1 bc 17 4b e7 3d a2 6e 94 3d 68 11 13 3e
       -0.025603872 0.11293619 0.07247664 0.14362109
000190 c4 1b 53 be 27 fe 50 3e c4 ac 18 be 57 7b 96 bd
       -0.2061606 0.20409451 -0.14909655 -0.07347744
0001a0 74 fb 21 bd 24 26 b3 3d 0e ae 59 be 95 aa 9b 3d
       -0.039546445 0.08747509 -0.21257803 0.07600895
0001b0 70 ad 76 bd a6 88 41 be 11 46 41 3b b9 b0 30 3d
       -0.060223997 -0.18899783 0.0029491226 0.043137286
0001c0 cc 1a 33 be c9 90 fd bd 8a e5 93 3d 93 b7 2e be
       -0.17490691 -0.12381131 0.072215155 -0.17062216
0001d0 de 2e df bd f3 b6 59 be b5 21 44 3d 47 2f 53 3c
       -0.10897611 -0.21261196 0.047883708 0.01288969
0001e0 49 d5 24 be e6 76 da 3d 46 d7 81 3d 00 c6 0e be
       -0.16096987 0.10667209 0.06339888 -0.13942719
0001f0 53 92 76 bc 90 84 a8 3d 5e c0 be 3d e3 15 35 3e
       -0.015049535 0.08228409 0.09314035 0.1768413
000200 5f 5b b9 3d ec fa 33 be 6a 7d 8e bd d0 dd 14 be
       0.09050631 -0.17576188 -0.069575146 -0.1453774
000210 fb 38 06 3d 73 32 d0 3d db a7 20 be 52 b7 ee bd
       0.032769185 0.101658724 -0.15689032 -0.11656059
000220 f1 c4 07 be c4 50 02 be 59 6c 26 be 70 dd 11 3e
       -0.13258721 -0.12726122 -0.16252269 0.14244628
000230 e6 36 22 3d e5 6c 5d be d2 c0 e4 bc 8f e7 1e 3e
       0.039603136 -0.21623571 -0.027923975 0.1551802
000240 e7 41 15 3d 0f 2b 30 be 94 27 46 bd d5 17 60 3e
       0.036439802 -0.17203926 -0.04837759 0.21884091
000250 d2 72 3c 3e b4 33 a5 3c b9 db da bd dc 2c 38 be
       0.18403175 0.020166256 -0.1068644 -0.17985862
000260 f7 08 df 3d 6b d5 37 3b 5a 5c 00 bd 92 7e 12 3e
       0.10890382 0.002805079 -0.031338073 0.14306095
000270 e1 05 4b 3e 1b 7d f2 3b c7 44 c3 b9 a8 c3 c4 3d
       0.19826461 0.0074001676 -0.0003724454 0.09607631
000280 58 a9 13 be 03 d4 64 3d 56 0c b1 3d b6 fd 27 3d
       -0.14420068 0.055866253 0.08644931 0.041013442
000290 48 b5 26 3e ff 96 c6 bd 61 6b ce 3d 88 e5 a5 3d
       0.16280091 -0.09696769 0.10079075 0.0810042
0002a0 a3 6f 7e 3a 19 01 2e be 3c e6 ee 3d 42 e9 d3 3d
       0.0009705966 -0.16992606 0.116650075 0.10347225
0002b0 40 1b c7 3d e5 9a 2c 3d 89 b3 9b 3c 42 14 bb 3d
       0.097219944 0.042139906 0.019006507 0.09134723
0002c0 58 ba 00 be ab 70 57 3e fb c4 1c 3e 40 09 3f 3e
       -0.12571084 0.21039073 0.15309517 0.18655872
0002d0 7c 41 32 3e fe 46 3f 3d 85 6a 38 be c9 fa 67 3c
       0.17407793 0.046698563 -0.18009384 0.014158913
0002e0 d1 cb 59 be 9c 55 08 bd bd 7a 8e 3d 12 71 02 3e
       -0.21269156 -0.03328477 0.06957004 0.12738445
0002f0 12 50 49 3e 35 11 30 be 0d da 18 3e db 0e d8 bd
       0.1965945 -0.17194064 0.1492693 -0.105497085
000300 35 15 4c 3d d6 98 2d 3e 54 cc 59 3e 96 96 59 3d
       0.049824912 0.16952834 0.21269351 0.053122126
000310 68 dc 0d be be 9e bf 3d 57 fd f2 bd 37 82 24 be
       -0.1385361 0.093564495 -0.11864727 -0.16065298
000320 7a 20 38 bd 15 07 19 be b7 29 e8 bc 64 a6 dc bc
       -0.044952847 -0.14944108 -0.028340204 -0.02693481
000330 27 00 e5 bd 2b d7 37 be d0 36 04 bd 9f db e4 3d
       -0.1118167 -0.17953174 -0.032278836 0.11174702
000340 41 14 43 3d 5a c8 59 3e d5 51 97 bd 1b 53 c5 bd
       0.047626738 0.21267834 -0.07388655 -0.09634992
000350 3b 21 fd bd ab 5e f0 3c e8 df b5 bd ae 42 40 be
       -0.12359854 0.029342016 -0.08880597 -0.18775436
000360 ce b8 3e be 36 11 a8 ba a3 ab 24 3e b8 a9 13 3e
       -0.18625185 -0.0012822512 0.16081099 0.14420211
000370 43 39 8c bd 4b 70 91 3d e3 a3 c4 3d 1f 47 5d 3d
       -0.06846859 0.07101496 0.096015714 0.054022904
000380 9a 07 d2 3d 85 62 ee bc 7e ef 98 bd a9 e6 11 3e
       0.10255356 -0.029099712 -0.074675545 0.14248146
000390 04 d6 1f bd 0c 15 22 3e af d4 13 3e 49 9c 3d 3e
       -0.03902246 0.15828341 0.14436601 0.1851665
0003a0 8f af e9 bb ca cf 3e 3e 21 b9 26 be 6c ae 1d 3e
       -0.007131524 0.18633953 -0.16281559 0.15398568
0003b0 83 56 7a bd a3 c4 7c 3c 5c 06 a3 bd 87 af 2f 3e
       -0.06111766 0.015427741 -0.07960197 0.17156802
0003c0 b8 d8 3f 3e dc ed c3 bd c0 08 fb 3c c2 6f 0a 3e
       0.18735015 -0.095668525 0.03064382 0.13519195
0003d0 dd a8 23 be 6e 0b c4 3c ba ac 2e 3e 57 66 14 3e
       -0.15982385 0.023931231 0.17058077 0.14492165
0003e0 4e c1 12 be c6 18 4e 3e b4 16 51 3e 33 3b 4f 3e
       -0.14331552 0.20126638 0.20418817 0.20237426
0003f0 fa 5a 8d 3c 2c c1 11 bd d3 13 04 be 28 63 dc bd
       0.017255295 -0.035584614 -0.12898187 -0.107611
