graph_classification_model.pt (torch, 225106 bytes, 23 tensors)

bias f4 [64]
000000 5c 19 b5 bb 06 e0 fb 3a 56 c7 38 3c df e6 41 3c
       -0.0055267047 0.0019216544 0.011277994 0.011834829
000010 35 f2 1c 3b 08 17 33 bb d7 b2 31 3c 13 96 be 3b
       0.0023948078 -0.002732696 0.010845861 0.00581623
000020 af c6 2c 3c c5 eb 3d 3c 6a 08 39 3c 2e 12 32 3c
       0.010545417 0.011591856 0.01129351 0.010868592
000030 ed a4 99 3b 04 fb 3c 3c 5c bd 04 bc b5 9b 71 ba
       0.00468885 0.011534456 -0.008101787 -0.00092166226
000040 2a 0c fe bb 05 be 17 bb bf 9d ed bb 82 cd 0a 3b
       -0.007752915 -0.0023154032 -0.007251471 0.002117962
000050 ef a9 24 3c 47 fa 96 bb 43 0a 58 bb b7 de e2 bb
       0.010050281 -0.004607472 -0.00329651 -0.0069235223
000060 3b 02 3b 3c e9 09 43 3c 3f 3d 40 3c 64 8d cd 3a
       0.011414106 0.011904218 0.011733352 0.0015682396
000070 8a d8 f7 bb 79 1d d8 3a c7 87 f8 bb 6c a4 7d 3b
       -0.0075636553 0.0016488276 -0.0075845453 0.003870274
000080 21 bb 40 3c 40 77 2d 3b e9 e7 9d bb d4 d8 82 bb
       0.011763365 0.0026468784 -0.0048189056 -0.003993133
000090 74 e2 0f bc 9f 0d 6e bb b0 23 84 b7 f2 f5 de 3b
       -0.008782018 -0.0036324037 -1.5752245e-05 0.0068042213
0000a0 74 5a 29 bc 2b fe 40 3c 3a dc 19 bb ad bb 75 bb
       -0.010336507 0.011779348 -0.0023477213 -0.0037495897
0000b0 94 ca 04 3b c8 50 43 3c f6 77 d0 bb b4 5f dd 39
       0.0020262348 0.011921115 -0.0063619567 0.0004222371
0000c0 86 4c 38 3c 18 77 28 3c 04 d8 3f 3c 38 07 1e 3c
       0.011248713 0.0102823 0.011709217 0.009645276
0000d0 07 56 bd 3a b0 09 40 3c b4 8d 39 3c e4 b4 89 3b
       0.0014445194 0.01172106 0.011325289 0.004202472
0000e0 c0 5d 22 3c cd ec 5b bb 17 6c d2 bb 5c 70 2c 3c
       0.009910047 -0.0033557892 -0.0064215767 0.010524835
0000f0 ee 11 3c 3c 96 d2 22 3c 9c c3 05 3c 00 d4 26 3c
       0.011478884 0.009937903 0.008164313 0.010182381

weight f4 [64, 1]
000000 68 cc 05 be 95 d9 58 3e 56 85 80 be 03 f7 f5 3d
       -0.13066256 0.21176751 -0.25101727 0.12010004
000010 6b df 7a be f6 c5 c7 3d c4 03 0a be c3 bb 63 3e
       -0.2449929 0.09754555 -0.13477999 0.22239594
000020 3e 9a 63 be 5e 98 a0 3e ae d1 92 3e d5 58 fa 3d
       -0.22226807 0.31366247 0.28675598 0.122239746
000030 46 62 99 3e 24 00 8f be c6 1d 9b bc f1 19 78 be
       0.2995779 -0.27929795 -0.018935096 -0.24228646
000040 ee 8c 3d 3e 2a 6c 14 bd 33 d2 2e 3e 98 96 75 bd
       0.18510792 -0.036235966 0.17072372 -0.05995807
000050 df 42 0c 3e 63 c8 72 3e 5f 74 5c be a7 95 8a 3e
       0.13697384 0.23709254 -0.21528767 0.270673
000060 8d 98 92 be a7 7a 38 bc 6d f6 7c bd 23 60 ba bd
       -0.28632012 -0.011259711 -0.061758447 -0.09100368
000070 83 38 96 3e 1d 21 43 be 6c 79 71 3b 5c 5d a0 3c
       0.2933999 -0.190556 0.0036846055 0.019575767
000080 39 f5 f3 3d 72 71 88 bd d6 b0 69 3e f6 14 8f 3e
       0.11912007 -0.06662263 0.22821364 0.2794568
000090 7a 51 3e be 0b 33 c7 bd ed 83 5a be 07 81 3c 3e
       -0.18585768 -0.097265325 -0.21339388 0.18408595
0000a0 93 94 95 be 6a 63 b8 bd a1 74 13 be 84 8f ed 3c
       -0.29214916 -0.09003337 -0.14399959 0.028999098
0000b0 ce 8e c8 bd a9 af 79 3e a6 5a ad 3d 6b 57 8d 3d
       -0.09792863 0.24383415 0.084645554 0.06901439
0000c0 9f 6f 47 3e 1c e8 87 bc 41 5e a4 3d 07 39 07 be
       0.19476174 -0.01659017 0.0802579 -0.13205348
0000d0 b1 c5 02 3e ff de a7 bd 5a 1e 76 3e aa ac f4 bd
       0.12770726 -0.0819683 0.24035016 -0.119469956
0000e0 77 95 24 bd 64 27 8c be 13 6c 34 3e 88 1c 35 be
       -0.040181603 -0.27373803 0.17619352 -0.17686665
0000f0 15 96 8f 3e 88 d5 d0 3d 12 4b 1c bc dd 54 d8 bd
       0.2804419 0.10196978 -0.0095393825 -0.105630614

weight f4 [64, 1]
000000 fc 8d 88 bd 6a 85 63 be 33 10 a4 3d 8d 9c 97 be
       -0.06667706 -0.22218862 0.08010902 -0.29611626
000010 05 dc 11 be 42 e1 53 be 8d bc d5 3d 62 b3 be 3d
       -0.14244087 -0.20691398 0.10436354 0.09311558
000020 87 c5 85 3e cc a3 6b bd 53 9c 78 3e 0d f3 5c be
       0.26127264 -0.057529256 0.24278383 -0.21577092
000030 5a 63 49 be c9 ec 6b be cb 3d 77 3c b8 24 8f be
       -0.19666806 -0.23039545 0.015090416 -0.27957702
000040 17 40 58 3e b3 3a 70 be 68 50 0c 3e 64 61 12 be
       0.21118198 -0.23459892 0.13702548 -0.14294964
000050 96 aa 39 bb ba 46 aa bd 2c d2 14 3e d9 83 97 3e
       -0.0028330437 -0.08314271 0.14533299 0.2959278
000060 95 33 9f be 85 65 8b be ba 8b 0d bd 77 c3 0d 3c
       -0.3109404 -0.2722589 -0.03455708 0.0086525595
000070 87 6e 98 3e d4 4e 07 3e f7 8b d5 3b 31 8d 87 be
       0.29771826 0.13213664 0.0065169293 -0.26474908
000080 1e 4c 63 3d 5b 86 df bd 52 41 db 3d af f7 d3 bd
       0.055492513 -0.10914298 0.10705818 -0.10349976
000090 ea 93 df bb 8f 05 5c 3e 95 82 88 3e a3 a6 8c be
       -0.0068230527 0.21486495 0.26662126 -0.27470884
0000a0 db 30 31 be e3 af 03 be ef 7a 13 bc d2 f9 58 3e
       -0.17303793 -0.12860064 -0.009001478 0.21189049
0000b0 a1 1c 37 3e 72 43 07 bd 76 8d 22 be 02 85 85 3e
       0.17882015 -0.033023305 -0.15874276 0.2607804
0000c0 08 be f4 bd e6 c8 15 be 4d ac 04 3e d2 b9 21 3e
       -0.11950308 -0.14627418 0.12956353 0.15793541
0000d0 6b 7d c0 3d e5 b2 ab bd 83 d7 04 be 5c e5 cb bd
       0.093989216 -0.08383731 -0.12972836 -0.09955856
0000e0 c0 8b 59 3e ef 8f 2a 3e b0 b4 0d 3e 31 19 10 bd
       0.21244717 0.16656469 0.13838458 -0.035180274
0000f0 7a b7 0a 3e 8a e6 ec 3c 1a d7 00 be 31 5b 02 be
       0.13546553 0.028918523 -0.12582055 -0.127301

weight f4 [64, 1]
000000 31 01 06 3e c3 07 a6 3b b1 d0 7a 3e dd 7d 5d 3e
       0.13086392 0.0050668432 0.24493672 0.21630044
000010 f9 9a 38 3e 10 a2 72 be b5 84 94 be a7 93 06 3e
       0.18027867 -0.23694634 -0.29007497 0.13142262
000020 d3 46 9e bc 30 45 94 be 43 75 03 be ca 44 0f be
       -0.019320881 -0.28959036 -0.128377 -0.13991085
000030 a3 94 53 be 9e 41 97 3d 57 99 bc 3d ac 97 33 be
       -0.20662169 0.07385562 0.09208935 -0.17538327
000040 7a 83 80 be a0 2b 49 3e 32 4f 24 3e cf 46 d4 3d
       -0.2510031 0.19645548 0.16045836 0.10365068
000050 9b 17 ef 3d 8d c2 3f bd f1 f9 0e bd de 5d 89 bd
       0.11674424 -0.046816397 -0.03490633 -0.06707357
000060 3e 75 21 be a8 46 5a be ee 8b 47 3e 54 12 3f bd
       -0.1576738 -0.21316016 0.19486973 -0.04664834
000070 5a ca 05 3c d4 3b 81 be d4 f7 55 3b c6 12 23 39
       0.00816592 -0.25240958 0.0032648938 0.00015551885
000080 15 9d 66 be 9a d9 89 be 5e ad 77 be e3 cd 92 be
       -0.2252086 -0.2692383 -0.24187228 -0.28672704
000090 83 cf 6f 3e 17 5d 10 be c2 66 70 bd 9c 6f 4a 3e
       0.23419003 -0.14098011 -0.058691747 0.19769138
0000a0 4b fa 8b 3d 14 13 2c 3d e4 20 26 b9 79 83 cd 3b
       0.06834849 0.04201038 -0.00015843246 0.0062717763
0000b0 8f 32 33 3b 62 5d e2 bd 2f 6a a7 3c 10 5d 09 3e
       0.0027343368 -0.110529676 0.020436374 0.13414407
0000c0 0a f7 1a be ec af 79 3e 6c 06 97 3d 4f 19 af bd
       -0.151333 0.24383515 0.07374272 -0.08549749
0000d0 c9 28 ea 3d af 55 f9 3d 45 18 00 3e 6f 92 9e bd
       0.114335604 0.12174546 0.12509258 -0.07742774
0000e0 93 b7 59 3e d9 0a 30 3b 03 64 58 3e cf d3 d8 bd
       0.21261434 0.0026861934 0.21131901 -0.10587274
0000f0 82 1c db bd 8e ce 0c 3e 09 3c 42 3d 2e 33 e3 3d
       -0.10698797 0.1375067 0.047420535 0.11093746

weight f4 [64, 1]
000000 cc 3d 1c be d5 b5 c9 bc 77 56 8e 3e da d0 0c be
       -0.15257949 -0.024622837 0.27800342 -0.13751546
000010 a9 39 18 3e dc 69 95 be 01 ac 26 3e ca e5 62 3e
       0.14865746 -0.29182327 0.16276552 0.2215797
000020 1b a8 59 3c d6 06 91 bd 03 2e e3 3d 3f d2 6c 3d
       0.013284708 -0.07081382 0.110927604 0.057817694
000030 be eb 2a 3e d1 ab fa 3c 35 6a 6d be 2d 3b 73 be
       0.16691491 0.030599507 -0.23185046 -0.23753043
000040 d8 d0 58 3e 0b 62 54 39 f0 10 6c 3e 05 e0 17 3e
       0.21173418 0.0002025442 0.23053336 0.1483155
000050 a4 35 34 be 0f 70 52 be c8 9b 53 3e 43 ee cb bd
       -0.17598587 -0.2055056 0.20664895 -0.09957554
000060 12 6e 3a 3e 29 f2 53 be e3 a7 69 bd 9f 1f 43 3d
       0.18206051 -0.20697846 -0.057044875 0.047637578
000070 9d 9b 75 bc e5 0b 77 3e 5b b1 6f bc bc af 95 3d
       -0.014990714 0.24125631 -0.014629687 0.07308909
000080 e6 e4 75 3e 6b 48 93 be b0 d1 99 3d 50 d4 4a 3e
       0.24013099 -0.28766188 0.07510698 0.19807553
000090 1c 51 10 bd 62 06 27 3d 95 9b 42 3e 1a 15 e0 3d
       -0.035233602 0.04077757 0.19004662 0.10941525
0000a0 23 64 96 bd 43 ce 72 3e 77 7b 22 be 91 e1 5b 3e
       -0.07343318 0.23711495 -0.1586741 0.21472766
0000b0 9a f8 97 3e a9 31 4b 3e c7 3e ba 3d ef 58 2a be
       0.29681855 0.19843163 0.09094005 -0.16635488
0000c0 51 27 5e 3e 1a 9b fb bc 9a 6e 80 be 5c 3a 3a 3e
       0.21694686 -0.030713607 -0.25084382 0.18186325
0000d0 55 22 31 3d 41 e8 40 3e 80 a3 b5 bd b0 7b 1b 3d
       0.043245632 0.18838598 -0.08869076 0.037959754
0000e0 a0 b6 8d 3d df 28 18 be 7a 95 ad 3d 28 3a 54 3e
       0.069195986 -0.14859341 0.08475776 0.2072531
0000f0 de ca 62 3e 96 9a d3 3d 95 7e 4c 3e 32 f1 c1 bd
       0.221477 0.10332219 0.19970162 -0.094698325

weight f4 [64, 1]
000000 58 3d d8 bd 0c a5 13 bd 2a 08 98 3e 34 f2 d1 bd
       -0.105585754 -0.036046073 0.2969373 -0.10251275
000010 77 f6 47 be f2 1c 13 3e 55 82 6d 3c 26 d7 38 be
       -0.19527613 0.1436651 0.014496406 -0.18050823
000020 40 5a 66 be bb 92 75 3e fa 75 ab 3d 68 a8 89 3e
       -0.22495365 0.23981754 0.083721116 0.26886296
000030 22 ad 42 be a7 a4 91 3e 39 e4 89 bd 58 3d ae bb
       -0.19011357 0.28445932 -0.06732983 -0.0053173713
000040 f9 8f d7 3d 58 25 32 be 0e 25 90 bd c3 13 b7 bd
       0.105255075 -0.17397058 -0.070383176 -0.08939316
000050 01 d4 40 3e 04 24 5e be 3f 86 88 3d b7 63 77 be
       0.18830873 -0.21693426 0.066662304 -0.24159132
000060 c3 84 b7 bd f7 d6 c4 bd c6 15 f8 bd 45 94 fa bd
       -0.08960869 -0.09611314 -0.12113528 -0.122353114
000070 70 8c 90 3d 7a ad 3b be 37 58 d8 bd 48 52 25 be
       0.07058036 -0.18327895 -0.10563701 -0.16144669
000080 b4 3d 36 3d 65 6f 1f 3d c9 01 11 be f8 23 93 3c
       0.04449244 0.038924593 -0.14160837 0.017961487
000090 80 24 80 3e 66 2b e1 bc c3 48 51 be 40 cb 8d be
       0.25027847 -0.027486514 -0.20437913 -0.2769413
0000a0 1c ed 7a 3e 94 c0 06 3e a9 48 5e 3e d4 0e 49 3e
       0.24504513 0.131594 0.21707405 0.19634563
0000b0 b5 57 8c bd c1 44 39 3d 60 a4 65 3d 54 eb e8 3d
       -0.06852666 0.045231584 0.056064963 0.1137301
0000c0 21 27 b7 bd 25 0b 93 be 05 ea 9a 3e 3f 92 32 3e
       -0.0894301 -0.2871944 0.30256668 0.17438601
0000d0 9b 5e 02 bc ff 41 5b 3e aa b5 ba bd 65 a4 8e be
       -0.007957126 0.21411894 -0.09116681 -0.27859798
0000e0 ad 52 0d 3d 44 fd 62 be ad 6f 43 be 60 5d 76 3e
       0.034502674 -0.22166926 -0.1908557 0.24059057
0000f0 29 db 1e be 50 b0 2a 3e 02 da 6c 3e f0 d5 59 be
       -0.1551329 0.1666882 0.23130038 -0.21273017

weight f4 [64, 1]
000000 09 b5 64 bd 3e a2 98 be 40 a8 76 be 8c c1 36 3d
       -0.05583671 -0.2981128 -0.2408762 0.044618174
000010 dc 67 ff 3d 12 d3 3c 3e b1 91 97 3d d9 da 9a 3e
       0.124709815 0.18439892 0.07400835 0.30245093
000020 9b fd c8 bd 30 f2 72 be 7e 15 78 bb 12 7c 19 be
       -0.098139964 -0.237252 -0.0037854607 -0.14988735
000030 b0 6d ea 3d 12 cc 5c be 02 d7 ce bd 22 6f 77 bd
       0.114467025 -0.21562222 -0.10099603 -0.06040872
000040 d2 07 90 be 7a f1 9c 3e 06 06 eb 3d c9 4e 7c 3e
       -0.28130966 0.30652982 0.11475758 0.24639429
000050 f1 2b 93 3e a2 ce 1f 3b 0c e3 82 bb c0 0b 8c 3e
       0.28744462 0.0024384637 -0.0039943513 0.27352715
000060 99 5f 9a bd aa 84 b7 bd 5b 9f ab bd 18 75 8b be
       -0.07537765 -0.089608505 -0.08380004 -0.27237773
000070 d2 d3 b1 bd 07 3a f4 bd 36 03 c8 bd 70 a5 42 bd
       -0.0868298 -0.1192513 -0.097662374 -0.047521055
000080 d4 94 43 be a3 b1 3c 3e 79 01 2b be 6e 2d 9b 3d
       -0.19099742 0.18427138 -0.1669978 0.075770244
000090 4e 9b 66 3e 3c 61 76 be b6 51 8b 3e 93 29 2e 3e
       0.22520182 -0.2406053 0.27210778 0.17008047
0000a0 05 e4 61 be 4e 59 97 be f6 a3 bf 3c 13 eb 4b bd
       -0.22059639 -0.29560322 0.023393612 -0.04978473
0000b0 e5 7b 99 bc 09 9c 9b 3c 3e ed 3c 3d ef 92 21 3e
       -0.018735835 0.018995302 0.04612469 0.15778707
0000c0 6f 52 41 be 9a 9b ce 3d 22 f3 01 3d fb bf 5c be
       -0.18879102 0.100882724 0.03172601 -0.2155761
0000d0 da ea a4 3c 99 a1 4b be b5 cb 69 be 4d ee 2b bd
       0.020131517 -0.19885863 -0.22831614 -0.04197531
0000e0 70 67 9e be 20 1d 6e 3e 35 0b 85 3e d9 27 69 be
       -0.30938292 0.23253298 0.25985113 -0.22769107
0000f0 b9 25 59 3e 34 3b cd 3d 11 68 50 3e c5 d5 be bd
       0.21205796 0.10021058 0.20352198 -0.09318117

bias f4 [64]
000000 ce 54 fe bb 13 df a5 bb fc 85 a5 bb 5a 04 cd bb
       -0.0077615744 -0.005061993 -0.0050513726 -0.0062566223
000010 a3 71 29 3c 8b 53 f1 ba 6b 52 35 3c 84 29 b1 bb
       0.0103420345 -0.0018411739 0.011067013 -0.0054065604
000020 8b 2d 50 3b a4 78 04 3c 19 d4 00 bc bc 75 76 3b
       0.0031765427 0.008085404 -0.007863068 0.0037606796
000030 22 f7 8b 3b a9 a1 3f 3c c2 f5 9c bb 10 4e 36 3c
       0.004271404 0.011696258 -0.004790039 0.01112701
000040 12 29 de 3b 59 c2 0b 3c 7b 37 eb bb 67 17 b9 bb
       0.0067797983 0.008530223 -0.0071782446 -0.0056485417
000050 d9 48 34 3c 25 35 8a bb c6 61 01 3c c1 ab 07 3c
       0.011003696 -0.004217761 0.007896846 0.008280695
000060 76 be a7 3b 98 17 41 3c 93 57 d1 bb 1b fb f4 bb
       0.0051191403 0.01178541 -0.0063886135 -0.007476223
000070 ad 85 38 3c 10 cb 28 3c f0 a0 39 3c e8 f2 2e 3c
       0.01126234 0.01030232 0.011329874 0.010678031
000080 15 fe fe bb dc ed 1a 3c a6 f8 86 bb 21 8c 10 bc
       -0.007781754 0.009456124 -0.0041189967 -0.008822472
000090 4e 72 3d 3c c0 38 34 3c fb 6c 3f 3c b2 48 3b 3c
       0.011562897 0.010999858 0.011683698 0.011430906
0000a0 7d fd 28 bc 0c 35 c1 bb 07 6a 35 3c 9c f2 3e 3c
       -0.010314343 -0.0058962163 0.011072642 0.011654522
0000b0 c3 69 9c bb 3e 39 27 bc 59 1c eb ba 61 cb 74 bb
       -0.00477335 -0.010206519 -0.0017937525 -0.0037352669
0000c0 b6 b6 7b 3b f8 57 10 3c 48 bb e5 ba 64 fe 37 3c
       0.0038408465 0.008810036 -0.0017527128 0.011230085
0000d0 73 eb 15 3c 10 85 32 3c 86 3e 23 3c 37 5f ef 3b
       0.009150374 0.010895982 0.009963637 0.0073050517
0000e0 0f 29 43 3c b8 54 a3 3b 0d 5c 42 3c a2 03 f8 bb
       0.011911645 0.0049844645 0.011862767 -0.0075687924
0000f0 20 2c da 3b 88 33 d3 3b 49 56 ac bb 57 2b 91 3b
       0.006658092 0.006445352 -0.0052593094 0.0044302153

weight f4 [64, 64]
000000 09 ea 22 3d 83 6c 53 be 41 6b 3c 3d 4c 75 f5 3d
       0.039773975 -0.20646863 0.046000723 0.11985263
000010 ba 5c 67 bc 88 ba 50 3d b9 f5 0f 3e b0 45 f0 3d
       -0.014121229 0.05095914 0.1405858 0.11732042
000020 5e cf 0a be 12 4d 5d be a4 f5 0f bd 1a a4 34 bc
       -0.13555667 -0.21611431 -0.03514637 -0.011025453
000030 4f 79 3c 3e d1 0b 4c 3e d9 a2 23 be cc 0c b8 3d
       0.1840565 0.19926383 -0.1598009 0.08986816
000040 94 a9 43 be ad 53 5e be b8 03 4d bd 89 3f 8d 3d
       -0.19107658 -0.21711607 -0.050052375 0.06896884
000050 f5 ec 5a be 31 dd 0f be 49 7d e2 bd 12 18 31 3e
       -0.21379454 -0.14049222 -0.110590525 0.17294338
000060 2e b1 3a 3e 14 f1 84 bd d8 9a d0 3c 8d c7 38 be
       0.18231651 -0.064912945 0.02546446 -0.18044873
000070 a3 c5 cd bc dc f9 b4 bd 67 c8 03 3d 33 38 02 3e
       -0.025118655 -0.088367194 0.03217354 0.12716751
000080 5c 9f c5 bd c2 36 0a be c4 c5 df 3d ec c8 32 be
       -0.09649536 -0.13497451 0.10926393 -0.17459458
000090 fb c3 2c 3e 10 01 16 be d3 25 da 3d aa 1a 23 be
       0.16871636 -0.14648843 0.10651746 -0.1592814
0000a0 54 b5 5f be fa ec 1f 3d b1 da a1 bc 3a ed b3 3d
       -0.21846515 0.039044358 -0.0197576 0.08785482
0000b0 3f 59 97 bd 71 0c 69 3d b6 eb a8 3c e1 33 1d be
       -0.07390069 0.05689663 0.020620208 -0.15351821
0000c0 23 01 fd bd db 95 bd 3d 23 f2 5e 3b 60 39 12 3e
       -0.123537324 0.09257098 0.0034018836 0.142797
0000d0 e7 24 8a 3d cd 8e 90 bd 0c b9 12 3e e3 d7 d3 3d
       0.0674532 -0.07058487 0.14328402 0.103439115
0000e0 d5 6e 1e 3e c5 c6 38 bd 79 db 1d be 73 87 22 3e
       0.15471967 -0.045111436 -0.15415753 0.15871982
0000f0 3e d9 9e 3d 16 fb 00 be 33 28 75 bd ed 0e 13 be
       0.077562794 -0.12595782 -0.05985279 -0.14361162
000100 3d 61 b3 bc 80 b7 1b 3e f2 f2 a8 bc 61 78 85 bd
       -0.021896953 0.15206718 -0.020623658 -0.06517101
000110 2a 55 cd 3d 90 d9 df 3c 19 b5 90 bd 9e 29 25 3e
       0.100260094 0.027325422 -0.07065792 0.16129157
000120 ae 56 17 be 94 ed 0f bb 18 0d e3 bd 72 61 12 be
       -0.1477916 -0.0021961676 -0.11086482 -0.14294985
000130 d9 a6 db bd a7 6c 1f be 63 9a 8a bd 85 d6 18 3d
       -0.10725183 -0.15568791 -0.06767728 0.037313957
000140 e2 1d 6e 3d b8 7e e0 3c 3e dc 03 bd 2f c0 07 be
       0.058133967 0.027404174 -0.03219246 -0.13256906
000150 53 ef 37 3e f1 8c 2f be a0 db c0 3d a1 62 2d 3e
       0.17962389 -0.17143609 0.0941689 0.16932155
000160 2e 18 26 3e fc 80 3b bd 36 11 85 bd ff a0 49 be
       0.16220161 -0.045777306 -0.06497423 -0.19690321
000170 4f 99 9f bd 03 fb ee 3d 00 2b 2d 3c c5 11 2a 3b
       -0.07792913 0.116689704 0.010569334 0.0025950533
000180 75 66 5a 3d 07 6b 90 3d 5c ca d6 3d 64 a9 4d 3e
       0.053320367 0.07051664 0.10487816 0.20084149
000190 94 10 fd 3d 97 a2 5d be 29 46 66 be cb 36 38 3e
       0.12356678 -0.21644054 -0.22487701 0.17989652
0001a0 85 ef a7 bd 44 7a 0f 3e 75 e5 ac bc 7d 35 64 be
       -0.081999816 0.14011484 -0.021105507 -0.22286029
0001b0 98 54 8a bd a4 46 f2 3d 2f d9 45 3e 91 6f 4e 3e
       -0.06754416 0.1182988 0.1932113 0.20159747
0001c0 6c 67 7c 3c 40 65 49 3e 4e 1f 6e 3d 6a ec 37 3e
       0.015405517 0.1966753 0.058135323 0.17961279
0001d0 47 68 87 bd 45 eb 2a 3e 84 f8 1f 3d 36 62 47 3e
       -0.06611686 0.1669131 0.039055362 0.19471058
0001e0 2a 03 07 be ec c4 35 be 7d 7d bd 3d 6c 98 e3 bc
       -0.131848 -0.17750901 0.092524506 -0.027782641
0001f0 6a 7a 33 be 26 c4 22 be 52 2d 49 3e eb d9 bf bd
       -0.17527166 -0.15895137 0.19646195 -0.093677364
000200 99 76 c3 3d 5a ec 0d 3e f5 80 17 3d bb b8 2a bd
       0.09544105 0.13859692 0.036988217 -0.04168008
000210 5d 59 24 3e 5a 40 80 3d 35 bb 07 be ac 65 4b 3d
       0.16049714 0.06262274 -0.13255008 0.04965751
000220 de 9d d2 3d f8 c9 38 3d fa 6a 5b be 56 6e 03 3e
       0.10284017 0.045114487 -0.21427527 0.12835059
000230 27 66 06 be 8d 63 05 be 19 9c 58 3e 7b 3a 07 3d
       -0.13124906 -0.13026257 0.21153297 0.033014756
000240 75 a7 54 bd 0e 90 76 3b 61 36 5b be 72 22 29 be
       -0.051917512 0.0037622484 -0.21407463 -0.16517046
000250 f1 e1 dd 3d 40 cf b6 3c fb 64 3b bd b2 6d 0d 3e
       0.108341105 0.022315621 -0.0457506 0.13811377
000260 c1 dd 3b be c1 98 c6 bd c2 d5 11 be 46 b1 c2 3d
       -0.18346311 -0.09697104 -0.14241698 0.095064685
000270 5a 23 1a bd a3 17 e1 bd 7e 23 ee bd 58 45 be 3d
       -0.03763137 -0.109908365 -0.11627863 0.0929057
000280 7f ba 01 3e 49 d7 0a 3e c6 c6 23 be d8 01 84 3d
       0.12668799 0.13558687 -0.15993795 0.06445664
000290 55 c3 aa bd 73 ba 1c 3e f9 4b d1 3d 30 16 c6 3c
       -0.08338038 0.153055 0.10219569 0.024180502
0002a0 da f4 32 3c 8b b4 53 be 6d 67 3e be 6c fa 8c bd
       0.010922635 -0.2067434 -0.18594141 -0.06883702
0002b0 49 6c 7d 3d 1d 1e 86 3d d8 ed a7 bd 2a 17 47 be
       0.061870847 0.065487124 -0.08199662 -0.1944243
0002c0 29 e7 11 bd 72 13 54 be cb 04 20 3e 69 a0 ec bd
       -0.035620842 -0.20710543 0.15626828 -0.11554033
0002d0 8d fa 70 3d 0c ac 51 be f1 fe 1c 3d d1 d9 3d be
       0.058832694 -0.20475787 0.03832907 -0.18540122
0002e0 14 a4 a9 bd e3 da 97 3c 97 9d a7 3d dc 0b 41 bd
       -0.082832485 0.01853699 0.08184355 -0.04713045
0002f0 4a ba 96 3d 57 d7 36 be 06 2f fc 3c 1c 3c 4b bd
       0.073597506 -0.17855583 0.030784141 -0.04961787
000300 6c c6 19 3e 3d dd ba bd dd 8f af 3d c0 83 14 3d
       0.15017098 -0.09124229 0.085723616 0.03625846
000310 d0 92 03 3e 43 38 60 be 17 64 4c be 8f b7 ac 3d
       0.12848973 -0.21896462 -0.19960056 0.084334485
000320 44 eb a2 bd 78 92 37 3e 84 7a 58 3d 25 96 ca bd
       -0.079550296 0.17926967 0.052851215 -0.09891919
000330 27 c7 14 3e a0 ba c7 bc 26 77 b7 bd f2 01 cd 3d
       0.14529096 -0.024380982 -0.08958273 0.10010137
000340 eb 23 22 3e 53 65 33 be ca ab 0d be 88 87 ac bc
       0.15834014 -0.17519121 -0.13835064 -0.02106072
000350 71 8a 9e bb c8 c4 44 bd 24 81 c5 bd b5 b6 d3 3c
       -0.004838281 -0.048039228 -0.09643772 0.025843957
000360 38 4a e1 3d 54 13 d8 bd 8a 10 5e be 61 32 21 be
       0.11000484 -0.105505615 -0.21685997 -0.15741874
000370 69 9c 76 bd ea ad 08 be e5 b0 de bc 30 fc 0e 3e
       -0.060207758 -0.13347593 -0.02718396 0.1396339
000380 7b 0b 19 be 05 4d 2b be 64 1c 44 3d 92 e7 07 be
       -0.14945786 -0.167286 0.047878638 -0.13271931
000390 3f 2d 54 3e 7b fa 4a 3d 59 f9 31 3e 2d f7 a2 3d
       0.20720385 0.049555283 0.17380275 0.07957301
0003a0 94 8f 92 3d c9 56 4c 3e fb e1 86 3d 06 a1 d1 3c
       0.071562916 0.19954981 0.06586071 0.025589477
0003b0 a8 29 2d 3e bb c3 10 be 32 e6 2e 3e b8 fa 32 3e
       0.16910422 -0.14137165 0.1708 0.17478454
0003c0 c7 0e 62 be 0b 21 0f bd da 39 90 3d a3 a0 75 bd
       -0.2207595 -0.03494362 0.07042284 -0.05996765
0003d0 7e dc 3f bc ea f5 db 3d 69 c4 d5 bd 1a 91 aa bc
       -0.011710284 0.10740264 -0.10437853 -0.020821143
0003e0 9a b6 a4 bc 50 b6 34 be eb 8a 4a bc 79 48 63 bb
       -0.020106602 -0.17647672 -0.012362222 -0.0034680648
0003f0 1f 94 42 3e 4f 7c 58 be a4 2a 34 bd f3 ee 40 be
       0.19001816 -0.2114117 -0.043985978 -0.18841152

weight f4 [64, 64]
000000 0c 57 f6 3d 7e d8 2d be 0f a2 57 bd f4 7e 62 3e
       0.120283216 -0.16977116 -0.052644785 0.22118741
000010 5e 38 c6 3d b1 3c ed 3c 27 26 c5 bd 08 58 9b bd
       0.0967872 0.028959604 -0.096264176 -0.0758515
000020 3f 9f 42 3d 9e 8c 4e be 3a 72 22 be e8 b5 bf 3d
       0.04751515 -0.20170829 -0.15863886 0.09360868
000030 0b e3 55 3d 6b ec f3 bd 6c 05 98 bd 55 4b cb 3d
       0.05221848 -0.119103275 -0.07422909 0.09926478
000040 27 98 f2 3d 7e 3f 56 be 8f 53 70 3d 6b a3 fc bd
       0.11845427 -0.20922658 0.058673438 -0.12335857
000050 62 d7 d2 bd 06 99 15 3d 7b 1f 3b 3d b4 ea 01 be
       -0.10294987 0.036522888 0.04568432 -0.12687188
000060 0b ec 07 bc 4e 7f 51 3d b6 fa a5 3b d0 2f 65 bd
       -0.008296023 0.051146798 0.0050652875 -0.0559538
000070 0f 4b 87 3d a5 ac 0d be 2d 57 d0 bd fe 8f 00 3d
       0.06606113 -0.1383539 -0.101728775 0.03138732
000080 c8 18 49 3e bb 8e 7b bc 65 30 0a 3d 2d d5 89 bc
       0.1963836 -0.015353854 0.03373756 -0.016825283
000090 a3 52 03 3d 71 ae 22 3e 43 2a 08 be 11 0e a5 bd
       0.03206123 0.15886857 -0.13297372 -0.080593236
0000a0 33 98 32 be 09 e9 af bc ac 8f 4d 3e fc 5e eb bd
       -0.17440872 -0.021473425 0.20074338 -0.11492726
0000b0 b5 d4 07 bc 4c fa d1 3d 4a 47 3b 3e 50 e1 2b 3d
       -0.008290459 0.102528185 0.18288913 0.04196292
0000c0 28 64 01 3e 89 30 ec bd 00 4d c0 bd d0 1e 24 bc
       0.12635863 -0.11532695 -0.093896866 -0.010017112
0000d0 53 f9 26 3e e0 8a 29 be 94 55 ec 3d 7e 8d 4a be
       0.16306047 -0.16556883 0.1153976 -0.19780537
0000e0 eb c4 de 3d 8b 31 3e be b3 24 c3 bd ce 3e 4f 3e
       0.10877403 -0.18573587 -0.09528484 0.20238802
0000f0 7f 56 f8 bd 6c e8 ae bd 70 11 d6 3d a5 f4 f1 bd
       -0.12125873 -0.08540425 0.10452545 -0.1181424
000100 f8 12 9d bd 81 30 24 3e b1 9d 29 3d ec 3d 12 be
       -0.076696336 0.16034128 0.041410152 -0.14281434
000110 a6 2e 4b 3e c6 d4 2e 3c e9 59 15 bc 51 c2 0e be
       0.19842014 0.010670846 -0.0091156745 -0.13941313
000120 52 87 05 3e b9 c5 0f 3e 7e 6e 4b 3c ef c3 3d 3e
       0.13039902 0.14040269 0.01241648 0.18531774
000130 28 b4 e1 3d 72 ed 47 3e 30 33 13 be 18 49 ba 3d
       0.1102069 0.19524172 -0.14374995 0.09095973
000140 e9 40 14 3e c2 b8 9f bd 53 e5 3f 3e d1 64 e0 bd
       0.14477886 -0.07798912 0.18739824 -0.10956729
000150 65 f7 4f bd b9 f5 94 bd d4 74 6a 3d f5 67 87 3d
       -0.050773043 -0.072734304 0.057240322 0.06611625
000160 b0 3f a6 bd 67 7c 0d be 8d 89 1a be 39 ce 39 3e
       -0.08117616 -0.13816987 -0.15091534 0.18145074
000170 c5 c5 f9 3c 68 a5 6f bd 48 a0 18 3e d5 f2 41 be
       0.030489812 -0.058507353 0.14904892 -0.1894029
000180 1c 34 0b be ec 04 a8 bd 46 d2 22 3d 76 d3 51 be
       -0.13594097 -0.08204064 0.039751314 -0.20490822
000190 17 28 00 bd 14 b5 ed bd 1e 50 8b 3c c8 c8 d4 3d
       -0.031288233 -0.116068035 0.017005976 0.103898585
0001a0 e9 2e d0 bd 82 25 9e bd 39 b5 1b 3e ed 57 83 3d
       -0.101651974 -0.07721998 0.1520585 0.06413255
0001b0 2f 35 df bc 2f 24 58 3e 59 4d 2d 3e 86 8e cb 3d
       -0.02724704 0.21107553 0.16924037 0.099392936
0001c0 17 74 93 3d 79 7a 96 3c 3b cf 72 bd aa 31 0d 3d
       0.07199877 0.018368946 -0.05927966 0.03447119
0001d0 91 f2 a6 3b bf 17 10 3d ff e5 ab 3d dd 8b c1 3d
       0.005094834 0.035178896 0.08393478 0.09450505
0001e0 35 67 c8 3c 2f 9d e2 bd 82 02 df 3d 54 8f 73 39
       0.024463275 -0.11065137 0.1088915 0.0002322768
0001f0 e7 53 3c be fc e7 20 bd 5c 8c 71 bd 46 f3 96 3c
       -0.18391381 -0.039283738 -0.058971748 0.018426549
000200 ef 3a 0a be ba fc 93 bd a4 10 a7 bd d6 24 2a 3e
       -0.13499044 -0.07225938 -0.08157471 0.16615614
000210 10 45 be bd 65 f7 15 be fd 21 50 be 3b 4a 26 3e
       -0.092905164 -0.14645155 -0.20325466 0.16239254
000220 ad 3a bf bd ed 1b 31 3d 20 4a e4 3d 28 af c0 bc
       -0.093373634 0.043239523 0.11146951 -0.023521021
000230 c8 3f 1c 3d 03 71 25 3e 27 8e 2e 3d 55 51 be bd
       0.038146764 0.16156392 0.042616036 -0.092928566
000240 1d 7f e4 3d 69 be 38 3e e2 ee 59 3e 76 08 28 3e
       0.111570574 0.18041386 0.21282533 0.16409478
000250 86 95 c2 3c 3d ed 9c 3b a2 8f a5 3c 33 b5 97 bc
       0.023752939 0.004789023 0.020210091 -0.01851902
000260 2f 36 50 3e 37 4d 33 be 91 0e 1f be 14 a1 e1 3d
       0.2033317 -0.17509924 -0.155329 0.11017051
000270 19 cd 12 bd da f1 36 3e b9 30 5c 3e 30 06 f0 3c
       -0.035840128 0.17865697 0.21502961 0.029299825
000280 ba 2a 4a 3e 75 8d 51 3d 8e 97 4a 3e cc 2a 80 bd
       0.19742861 0.051160295 0.19784376 -0.06258163
000290 61 6f b7 3d 7f f3 29 be a7 75 86 3d 43 03 45 3e
       0.08956791 -0.16596793 0.06565409 0.19239525
0002a0 49 b3 5e 3e 68 f9 08 be ff d2 7d bb 7c b3 4c 3c
       0.2174808 -0.13376391 -0.00387305 0.012493964
0002b0 94 f2 7d bc 00 8d 1f 3e 76 35 02 be 20 d2 f2 3d
       -0.01549973 0.15581131 -0.12715706 0.118564844
0002c0 14 b0 a0 bd 28 c2 cb bd df bb 47 3e ac d0 d1 3c
       -0.07846084 -0.09949142 0.19505261 0.025612198
0002d0 23 2c 36 3e 72 15 9b bd ea 73 55 3e 03 87 0f 3e
       0.17790274 -0.0757245 0.20844999 0.14016347
0002e0 6d 41 09 be bd d4 0a 3e 1d 13 fb 3c 61 90 d5 3d
       -0.13403864 0.13557716 0.030648762 0.10427929
0002f0 7e 37 19 3e ee 47 ac bd 2b e8 25 3e f6 6a 49 be
       0.14962575 -0.08412157 0.16201846 -0.19669709
000300 63 fe f3 bd 15 44 1f be 00 d6 02 3e 8b be e6 bb
       -0.11913755 -0.15553315 0.12776947 -0.0070417575
000310 3c d4 41 be 6b f8 3f 3d 02 fd b8 bd 80 ff f3 bd
       -0.18928617 0.04686777 -0.090326324 -0.11913967
000320 ba da 8a bd ec 57 cb 3d 7c f0 66 3d 89 dd 56 3e
       -0.0678 0.09928879 0.056381688 0.20982946
000330 09 f3 b2 bd f9 52 0d be 30 8b 64 3d 63 e8 4c be
       -0.087377615 -0.13801183 0.055796802 -0.20010523
000340 11 f8 61 3d d0 5b 59 3c 3d ad 11 be aa 69 53 be
       0.055168215 0.013266519 -0.14226241 -0.20645776
000350 0d b1 5a 3d 16 b0 2b 3e b5 c5 71 3c 17 2d b2 3d
       0.053391505 0.1676639 0.01475661 0.087000065
000360 c0 06 98 bc a0 a2 37 bc 34 27 09 3e ca f6 91 3d
       -0.018557906 -0.011208206 0.13393861 0.071271494
000370 bf b7 94 3d df 8f 16 be 07 a2 2f 3e bd b1 26 be
       0.07261609 -0.1470332 0.17151652 -0.1627874
000380 9c 93 b8 bd 65 2d 0d 3e 75 bf 26 be 53 37 09 3e
       -0.09012529 0.13786848 -0.16283973 0.13400011
000390 f6 bd 27 be 4e 77 0d 3d 30 52 a4 bd 70 37 56 bd
       -0.16381058 0.034537606 -0.080234885 -0.052298963
0003a0 cf 2d da bd 2c f5 ed 3d f4 77 0d 3e 35 5e 62 bd
       -0.106532685 0.116190284 0.1381529 -0.055265624
0003b0 94 59 8f 3c de 27 00 3e 5d 72 09 be f9 9a 2b 3e
       0.017498769 0.12515208 -0.13422532 0.16758336
0003c0 e4 33 cd 3d b5 f0 41 be 0e f4 3f 3e b8 83 e3 bd
       0.10019663 -0.18939479 0.18745443 -0.11109108
0003d0 92 a7 5b bd d7 b2 31 3e 65 1c fc 3d 5d 95 65 bd
       -0.053626604 0.17353378 0.12310103 -0.056050647
0003e0 99 09 0d 3e 7c 9e 0e be 69 54 22 3c dc da 73 bd
       0.13773192 -0.13927644 0.00990782 -0.059534892
0003f0 c3 cc 1c be 97 28 09 be da b4 9b 3d 83 47 22 bd
       -0.15312485 -0.1339439 0.07602854 -0.03961898

weight f4 [64, 64]
000000 00 42 f7 bd 10 8a 3d 3d c7 ad 37 ba 4f 51 47 bd
       -0.120731354 0.046274245 -0.0007006791 -0.048661526
000010 93 c6 da bd e4 c8 8c bc 3d b5 95 3d ce a7 57 be
       -0.10682406 -0.017185636 0.07309959 -0.21060106
000020 04 84 4c 3e aa a9 ce bc 11 b3 97 bd f7 8a 87 3d
       0.19972235 -0.025227387 -0.07407201 0.06618302
000030 05 1e 31 be 87 5e 4a be fc 2b e7 3d d7 18 c8 3d
       -0.17296608 -0.19762622 0.11287686 0.09770363
000040 a6 e7 4a 3e 08 57 b7 bd b3 5b 41 3e 35 95 9a 3d
       0.1981493 -0.08952147 0.18882637 0.0754799
000050 fd e5 42 3d fd 6b 4a be 2d a8 59 3e dc 53 a5 3d
       0.047582615 -0.19767757 0.2125556 0.080726355
000060 a8 4c 75 bd 68 58 fb bd 2a b4 39 be 19 d6 53 3e
       -0.05988756 -0.122727215 -0.18135133 0.2068714
000070 f8 bd 27 3e a3 21 12 3d f1 b3 a6 bd e9 95 88 3d
       0.16381061 0.03567661 -0.0813979 0.06669218
000080 1b 69 b2 bd 96 eb 3b 3e f7 6e 28 be 32 d5 ad 3d
       -0.087114535 0.18351588 -0.1644858 0.084879294
000090 7c b5 42 3e 87 04 6a 3d 57 df 47 3e 25 db 70 3d
       0.19014543 0.057133224 0.19518791 0.058802743
0000a0 4f 8f 99 bd 6e 7e fd 3c 70 d8 32 3e 2f 4a 49 3e
       -0.07498037 0.030944075 0.17465377 0.19657205
0000b0 93 1b 7d 3d 49 7d 1b be 81 39 b4 3d 86 8b 56 be
       0.061793875 -0.15184511 0.088000305 -0.20951661
0000c0 96 28 21 be 84 18 ff 3d 0c e4 8c bd c8 b5 e1 bb
       -0.15738139 0.12455848 -0.06879434 -0.006888125
0000d0 8c 36 6a 3d ab 60 0b 3e 1c 28 12 be 4d dd 29 be
       0.057180926 0.13611095 -0.14273113 -0.16588326
0000e0 bc eb 12 bd 1e e8 37 bd 21 37 3f be ad 8e 55 3e
       -0.035869345 -0.0448991 -0.18673374 0.20855208
0000f0 a4 24 b6 bc d8 b9 06 3d ce 21 7e bd 7d 59 43 3d
       -0.022234268 0.03289208 -0.062043957 0.047692765
000100 42 5d ab bd 91 ad 68 3d 62 93 09 be f9 06 16 3e
       -0.08367397 0.05680615 -0.13435128 0.14651097
000110 32 87 a5 3d 60 2e 0c 3e f6 14 b0 3d c1 36 13 be
       0.08082427 0.13689566 0.08597748 -0.14376356
000120 90 0c f7 bd 1a bf cd bd 8e ac cf 3d 4b 06 27 3c
       -0.12062943 -0.10046215 0.10140334 0.010194371
000130 21 2c 37 3e 4e de 8a bd 8d d8 b4 bc 3d 19 19 3e
       0.17887928 -0.067806825 -0.022075916 0.14951034
000140 fc 9d 25 be 96 51 f5 3c de d0 db 3d 95 7f cd 3b
       -0.16173548 0.02994613 0.10733198 0.0062713125
000150 7b 42 58 3d de cc cc 3a ad 9f 16 3c d5 f1 6a 3c
       0.052797776 0.001562502 0.009193343 0.014339884
000160 ed 69 23 be 04 df 55 bc 31 a9 33 bd 5b 51 48 3e
       -0.15958376 -0.013053659 -0.043862525 0.19562285
000170 45 93 0f bd 5a 86 28 3e 54 67 8e bd a6 cb dc bd
       -0.035052557 0.16457501 -0.06953302 -0.1078103
000180 4e e3 13 3d 4c 41 5d be 07 8e 53 3e 88 89 07 3c
       0.036105447 -0.2160694 0.20659648 0.008272536
000190 26 d1 d8 bd da ca 42 3e 6f 0a 20 bd 9b 5f a5 3c
       -0.10586767 0.19022694 -0.03907245 0.02018719
0001a0 38 ab 5d bd 7b 46 ee 3d a8 69 1f bd 34 3b 2f be
       -0.054118365 0.11634537 -0.03891912 -0.17112428
0001b0 42 b9 40 3e 8d eb 44 be 1e 37 3f be 6f 99 45 3e
       0.1882067 -0.1923048 -0.1867337 0.19296812
0001c0 c3 a2 22 3e e4 11 7c 3a f8 9d 16 be d3 0e ca 3d
       0.15882401 0.0009615703 -0.14708698 0.09866109
0001d0 ce 68 01 bd 77 0b 82 bd 52 3b 02 bd 46 79 ed bd
       -0.03159409 -0.06349843 -0.031794854 -0.11595397
0001e0 74 f0 97 bd 29 76 27 be 5f a7 36 3e 70 32 d8 bb
       -0.0741891 -0.16353668 0.17837285 -0.0065978095
0001f0 cf 59 45 3d 09 62 fe bc 6b 67 4a 3e a1 fa 0e 3e
       0.04818135 -0.031052606 0.19766013 0.13962795
000200 1e 31 f5 bd 1e e5 db 3d 91 25 ff 3d 3c ee 27 bd
       -0.11972259 0.1073706 0.12458337 -0.040998682
000210 aa 00 2a be 47 56 87 3d 8d 04 f6 bd 27 c8 8b 3c
       -0.16601816 0.06608253 -0.12012587 0.017063214
000220 6e 9d 03 bd b2 94 00 be 9d be 7a 3c c9 4d 60 3d
       -0.03213256 -0.12556723 0.015304235 0.05476168
000230 4c 84 ff 3c b6 55 10 be 51 76 b7 3d ed 5c 86 3d
       0.031191014 -0.14095196 0.08958114 0.06560693
000240 2f af 2c bd 55 d2 18 3e aa 7f 02 3e c3 35 92 3d
       -0.042159256 0.14923985 0.12744012 0.071391605
000250 73 8a 47 be ef 0f 29 be 09 53 3f 3e f2 67 7d bd
       -0.19486408 -0.16509984 0.18684019 -0.061866708
000260 ff f1 0a 3e 88 5a 4a 3c d5 09 58 be 9e 39 33 be
       0.13568877 0.012350686 -0.210975 -0.17502448
000270 a7 c0 93 bd 68 40 2b be 63 53 f9 3a 3a b1 22 3e
       -0.0721448 -0.16723788 0.0019022044 0.15887919
000280 58 f7 79 bc 9b aa 29 3e fb 70 0a 3b a6 02 54 be
       -0.015256725 0.16568987 0.002112447 -0.20704135
000290 94 18 87 bd 1f 51 86 bd 39 02 03 be c0 c7 48 be
       -0.06596485 -0.06558441 -0.12793817 -0.19607449
0002a0 59 d2 ed 3d 0c 6a 05 bc 8a a9 06 bd d0 39 56 bd
       0.11612386 -0.008142959 -0.03287653 -0.052301228
0002b0 aa b6 40 be 4c a0 fc bd d0 bc 31 3d d2 93 b5 3b
       -0.18819681 -0.12335262 0.043392956 0.005541303
0002c0 87 1a 2d 3e 51 6b 3e 3c 64 d5 57 3e 62 0d 3e be
       0.1690465 0.011622266 0.21077496 -0.18559793
0002d0 c6 49 cf 38 84 4c 02 3e 30 53 1a 3e 58 6d c6 bd
       9.8842705e-05 0.12724501 0.15070796 -0.096888244
0002e0 a3 0a 84 bd 20 f1 1e 3e 27 52 37 be 49 b8 c4 bd
       -0.06447341 0.1552167 -0.17902432 -0.09605462
0002f0 c1 f0 8a bc 0a 1c b7 bc 89 76 59 3d 21 f5 bf bd
       -0.016960504 -0.022352237 0.05309156 -0.093729265
000300 dc c2 36 bd 1a 54 af bd a6 86 29 3e a8 33 38 be
       -0.044619426 -0.08560963 0.1655527 -0.17988455
000310 18 a1 2f bd 61 42 c7 39 04 5f c9 3d 74 b8 86 bd
       -0.04287824 0.00038005694 0.09832576 -0.065781504
000320 a0 87 c2 bc 3c 56 1b be cd 3c be bd e6 ca 4c 3d
       -0.023746312 -0.15169615 -0.092889406 0.049998187
000330 eb 75 4f 3e 65 ca f3 bd 62 de d1 3d 50 37 c5 3d
       0.20259826 -0.11903838 0.10247494 0.09629691
000340 85 1a 9a bd 88 7d 69 bd d6 7d ad bd b9 e3 84 bb
       -0.075245894 -0.05700448 -0.08471267 -0.004055467
000350 f9 12 63 be 89 d4 9e 3d 16 86 40 3e d7 03 c5 bd
       -0.22175206 0.077553816 0.1880115 -0.09619873
000360 39 3d 51 bd 6b 44 22 be 96 ec f0 3b d5 fa 88 3d
       -0.051083777 -0.15846412 0.007352422 0.066884674
000370 82 72 19 bc e6 4c cb bd c3 fe cd 3c 7b c1 37 be
       -0.00936568 -0.099267766 0.025145894 -0.179449
000380 97 f1 89 bd 31 1f 22 3e 6f 2e 80 bd 7f d8 4e 3d
       -0.06735533 0.15832211 -0.062588565 0.050499436
000390 75 49 98 bd 4c 71 40 be b8 06 54 be 99 e0 cd 3d
       -0.07435886 -0.1879322 -0.20705688 0.10052604
0003a0 48 a9 19 bb 7a 3e 93 3b 42 dc 34 3e 81 1f 15 3e
       -0.0023446847 0.004493532 0.17662147 0.14562799
0003b0 39 5c 8c bd 32 83 34 bd 35 14 9d 3c dc 85 90 3c
       -0.068535276 -0.04407043 0.019174675 0.017641954
0003c0 72 3e 38 3d 7f 77 39 3d fa 1a 39 3e 7a 8c 25 bc
       0.044981427 0.045279976 0.18076697 -0.010104293
0003d0 37 0c 56 3d 56 24 ed bd 8e be f4 3d 83 83 47 3c
       0.052257743 -0.11579196 0.11950408 0.012177351
0003e0 9d 60 58 bd 80 86 1c 3d a6 b6 50 be 63 d6 c8 3d
       -0.052826513 0.038214207 -0.20382175 0.09806516
0003f0 21 0e b3 bd 9d 4d 0e be 33 c1 26 bc 70 57 c4 bd
       -0.08742929 -0.13896795 -0.010177898 -0.0958699

weight f4 [64, 64]
000000 c2 1b 8e bd 8c 37 3a 3e bd 6f 2c 3e c1 82 90 bd
       -0.06938888 0.18185252 0.168395 -0.07056189
000010 69 ff d9 3d 85 b5 12 3e da 2b 08 be f6 59 26 3e
       0.10644419 0.14327057 -0.13297978 0.16245255
000020 41 1b 99 3d 2a ab 81 bd fa ee ac bd e4 4a 17 3e
       0.074759014 -0.06331475 -0.08444019 0.14774662
000030 03 1c 7d 3d 48 58 e6 3d c0 81 5f 3e 5b 1c 4a 3d
       0.061794292 0.11247307 0.2182684 0.049343448
000040 ff c4 a5 3d 2c ef 38 3d ac 11 0c be 17 50 f3 3c
       0.08094215 0.045149967 -0.13678616 0.029701276
000050 28 44 04 be 47 52 63 bd 61 b6 59 bd ed 72 3b be
       -0.12916625 -0.055498388 -0.053152446 -0.1830556
000060 bf fa cb 3c f8 85 2f 3d 9a c3 41 be bc 2d 59 3a
       0.024899838 0.042852372 -0.18922272 0.0008284708
000070 ad 44 38 3e 1f fb 9b bd 7d 0a 07 be 0d 11 ca bc
       0.17994948 -0.07616257 -0.13187595 -0.024666334
000080 54 b4 81 3d f2 ef 5c be 82 53 99 bb e1 3e d6 3c
       0.06333223 -0.21575907 -0.0046791444 0.02615303
000090 14 91 fc bd fb b1 51 be b2 3c 0a be 38 c7 85 3d
       -0.12332359 -0.2047805 -0.13499716 0.065321386
0000a0 b7 d5 24 be 84 e0 11 be 42 48 58 3e bf c6 3a 3d
       -0.1609715 -0.14245802 0.21121314 0.045599695
0000b0 a5 fb 22 3e d2 06 22 3e 97 7f 0d 3e a0 ad b7 bc
       0.15916307 0.15822914 0.13818203 -0.022421658
0000c0 4a 17 43 3c fa 1f cc 3d a8 4b 3c be 2f cc 0e be
       0.011907408 0.099670365 -0.18388236 -0.13945077
0000d0 67 e1 28 3e 5a b1 3b be 4d 90 24 be 5b 47 55 3e
       0.16492234 -0.18329373 -0.16070671 0.20828001
0000e0 3a 1c 86 3d 15 27 1d be 1b d2 a7 bb 21 3d 5d 3d
       0.065483525 -0.1534694 -0.005121482 0.054013375
0000f0 ba 98 8a bd 01 b3 aa 3d 7f d5 d2 3d fb bd 53 3e
       -0.067674115 0.083349235 0.102946274 0.2067794
000100 e0 d2 bb bd 1f ec e0 bd 84 1f cc 3b 28 57 43 be
       -0.091710806 -0.109825365 0.006229343 -0.19076216
000110 9e 97 e5 bd ad f8 35 bd a2 07 c4 3c ee eb de bb
       -0.11210559 -0.04442661 0.02392942 -0.0068030274
000120 cc 0a d8 3d 2d 29 28 3e 6a b2 ae bd d5 d1 b9 bd
       0.10548934 0.16421957 -0.085301235 -0.090732254
000130 1d b4 3d 3e 4a e8 2e 3e c9 9e 34 3d b1 2e 87 bc
       0.18525739 0.17080799 0.04409674 -0.016501756
000140 88 bf 23 3e 6e 1a ba 3d 40 57 28 3d e7 b6 04 be
       0.15991032 0.09087072 0.041098833 -0.12960397
000150 25 37 09 bd 58 5d 18 bc 19 dd c2 bd b8 97 10 3e
       -0.033499856 -0.009299599 -0.09514827 0.14120376
000160 9b f4 5b 3c a1 29 07 3d 66 5b d0 bd 10 fc 92 3d
       0.013425018 0.032998685 -0.10173683 0.07176983
000170 5d 5e 2a 3e 58 7f fb bc 9a 77 60 3d 4c 9c 2d bd
       0.16637559 -0.03070037 0.05480156 -0.042385384
000180 62 2b 40 3e 9f a3 dc 3d a6 6e 1f 3d 81 72 24 be
       0.18766549 0.10773396 0.038923882 -0.16059305
000190 5b 14 3d be 85 07 97 bc 26 bc 38 be 1e 3a 48 be
       -0.18464796 -0.018436203 -0.18040523 -0.1955342
0001a0 56 bf ad bc 8f fd e3 bc 21 c0 00 be ff c8 d6 bc
       -0.0212094 -0.027830867 -0.12573291 -0.02621889
0001b0 78 57 a0 3d ef 90 34 be 5c 42 c7 bd 67 45 4d be
       0.07829183 -0.17633413 -0.09729454 -0.20046006
0001c0 7f 18 4a 3e ff 51 33 be da 78 34 3c 0f c6 3b be
       0.19735907 -0.17511748 0.011015141 -0.18337272
0001d0 e2 4f 3c 3e 88 fd e3 3d 38 3e e1 3d df 3f cd bd
       0.18389848 0.111323416 0.109981954 -0.10021948
0001e0 98 f5 04 3e 26 d8 34 bd 4a 5c 35 be 43 a8 59 be
       0.12984312 -0.044151448 -0.17710987 -0.21255593
0001f0 93 28 cc bd 24 20 22 3e 1d 33 2d be 35 e1 de bd
       -0.099686764 0.15832573 -0.1691403 -0.108827986
000200 67 74 2b 3e 34 e2 17 3e b5 e6 01 3d bc 79 e3 bd
       0.16743623 0.14832383 0.03171416 -0.11107203
000210 a8 df 7e 3d 31 79 ca 3d cb c0 32 be 56 a6 d7 3d
       0.062225014 0.09886397 -0.17456357 0.10529773
000220 aa f3 f6 3d e4 85 3b bd ef 51 50 3e 90 d9 38 be
       0.12058194 -0.045781985 0.20343755 -0.18051744
000230 e0 f4 27 3e 67 c2 06 3d d9 e9 31 be 38 ff 27 bd
       0.16402006 0.03290024 -0.17374362 -0.04101488
000240 4f 38 f5 bd 39 27 9a 3d 10 dc 65 3d 60 84 4a 3e
       -0.11973631 0.075270124 0.05611807 0.1977706
000250 27 8f b9 3c 65 41 61 3e 7e 21 2a 3e f9 c8 5d 3e
       0.022651268 0.21997602 0.16614339 0.21658696
000260 e6 6f 05 bc 42 66 62 bd 15 03 fd bd d9 8e f9 bd
       -0.008144354 -0.055273302 -0.123541035 -0.12185449
000270 0c 37 1b be 96 52 88 bd 1a b1 65 bd 53 86 1d be
       -0.15157717 -0.06656377 -0.0560771 -0.15383272
000280 97 ca e0 bd 47 8a c5 3d f0 d4 23 bd 13 ec 1e be
       -0.10976141 0.09645515 -0.039997995 -0.15519743
000290 83 db 45 be 64 25 9a bc bd 6e 22 bd 30 d1 53 3e
       -0.19322018 -0.018816657 -0.03965639 0.20685267
0002a0 0a c2 b1 bd 33 0e 03 be 9a de 94 3d 47 fa 29 3e
       -0.08679588 -0.12798385 0.072690204 0.1659938
0002b0 1d 5e cc 3d b0 81 2c be 1a 03 23 be 5c 20 54 be
       0.09978888 -0.16846347 -0.15919152 -0.20715469
0002c0 30 cb 9f bd 4b ca 8b 3d 17 07 4e be a4 35 1a be
       -0.07802427 0.06825694 -0.20119892 -0.15059525
0002d0 f5 66 37 3e da be 0f 3e 32 e5 60 bd ae 4f 56 be
       0.17910369 0.14037648 -0.054906078 -0.20928833
0002e0 9b d6 66 3b a9 36 ed 3d 61 6e 1c 3e c6 24 1b 3e
       0.003522313 0.11582691 0.15276481 0.15150747
0002f0 f6 2a f9 3d d9 f1 4a be bb f9 0b 3e d5 4e 45 be
       0.12166397 -0.1981882 0.13669483 -0.19268353
000300 ac 04 0c be a3 36 28 3e 0b 75 bd bd 7d 70 04 be
       -0.13673657 0.16427092 -0.0925084 -0.12933536
000310 05 0e 1b 3e 13 53 45 bd 30 60 51 3d 28 86 4d be
       0.15142067 -0.04817493 0.051117122 -0.20070708
000320 c9 7f d9 bd c3 53 43 3e e6 8c 12 3e a0 11 10 be
       -0.10620076 0.19074921 0.14311561 -0.14069223
000330 a5 8d 4e be 4e 31 aa 3c 20 28 5c 3e 52 b7 6c bd
       -0.2017122 0.020775463 0.21499681 -0.057792015
000340 7f 83 05 3e 6d 53 51 be 24 18 d4 3c da 8f 0d 3e
       0.13038443 -0.2044198 0.025890417 0.13824406
000350 3b 19 8d 3d 74 40 38 3d 81 c7 03 3e cc 3a e4 bd
       0.06889578 0.044983342 0.12869073 -0.11144027
000360 a8 53 d0 bd 13 92 74 bc 5a 60 db bd 85 0d 42 be
       -0.10172206 -0.014927405 -0.10711737 -0.1895047
000370 5d 86 36 bc a4 31 95 3d 83 5a fa 3d 20 59 8f 3d
       -0.011140433 0.07284859 0.12224295 0.06999421
000380 02 b3 1d 3c 35 76 1f be 58 b8 bd bd 8c dc 3b 3d
       0.009625198 -0.15572436 -0.092636764 0.045864627
000390 60 f3 02 3e 43 7b 0a be 19 1f 12 bd bd b7 7f bd
       0.12788153 -0.13523583 -0.03567419 -0.062431086
0003a0 9b 33 3d 3c 35 de 1f 3e 40 c1 74 3d 7b be 18 bc
       0.011547948 0.15612109 0.05975461 -0.009322758
0003b0 0c d0 9d bd 14 b5 4e 3e 09 4a 83 bd 0e 03 b2 3c
       -0.077056974 0.20186263 -0.064106055 0.021729972
0003c0 73 64 d7 bd c6 8b 66 3e 14 77 51 3e 49 93 c7 bd
       -0.10517206 0.22514257 0.20455581 -0.09744889
0003d0 3a 4a 99 bd f8 ff f7 3d 1a 8a 43 be 65 01 02 be
       -0.07484861 0.12109369 -0.1909565 -0.12695844
0003e0 40 ae 27 3c ea 32 4a 3e b8 38 2f 3c b0 43 b2 bd
       0.0102344155 0.19745985 0.010694675 -0.087043166
0003f0 7a 03 87 bc be b6 0f 3e c8 f4 fb bd 17 e5 8c bd
       -0.01648115 0.14034554 -0.12302548 -0.06879633

weight f4 [64, 64]
000000 1a b2 42 bc ae 0a 88 3d 89 b7 a6 3d 18 ff 39 be
       -0.011883283 0.06642662 0.08140475 -0.18163717
000010 4d 62 4a 3e da bb c5 3b 7b fe e8 bd f0 5c 40 be
       0.19764061 0.0060343565 -0.11376663 -0.18785453
000020 ba f2 3f 3d fc f8 d9 bc 58 58 81 3d b1 a4 49 be
       0.04686234 -0.026607983 0.06315678 -0.19691731
000030 91 f7 4e 3e 9b 0c 0e 3d 27 1f 4d be e7 f3 1b be
       0.20211627 0.03467999 -0.20031415 -0.1522976
000040 64 1e 4f bc 35 5c a4 bd d3 2d b2 bd dd b9 95 3b
       -0.012641523 -0.080253996 -0.087001465 0.004569276
000050 b8 18 cd 3d 70 d0 c6 bd d8 ad 48 bd fc 61 55 3d
       0.1001448 -0.09707725 -0.048993915 0.0520954
000060 9e 19 e8 3d 98 53 2a be 8b aa 05 3e 0f 36 a0 bc
       0.11333011 -0.16633451 0.13053338 -0.019557027
000070 8d 8c fd bc 80 b7 06 be d5 69 49 be a1 ec 1a be
       -0.030950809 -0.13155937 -0.19669278 -0.1512933
000080 be 5b 5b 3c b8 58 45 bb 95 da 45 be eb e8 8a bc
       0.013388572 -0.0030112695 -0.19321664 -0.016956767
000090 1e d7 20 3c 3d 7a 32 3e 0e b1 0e be 91 45 aa bc
       0.009816913 0.17429443 -0.13934729 -0.020785125
0000a0 26 1f b1 bd 1e 1c d5 bd f1 a1 d0 bd 86 b4 90 3d
       -0.08648519 -0.104057536 -0.10187138 0.07065682
0000b0 55 2b d2 bc 74 63 32 3e f6 09 00 3e 47 d8 00 3e
       -0.025655428 0.17420751 0.125038 0.12582503
0000c0 b8 e5 31 3e 6f 1b fb bd 4b 98 83 3d bc e8 ce bb
       0.17372787 -0.12261092 0.06425532 -0.006314365
0000d0 29 94 1a bb eb f6 f0 3d a6 d8 5f bd ab 95 15 3c
       -0.0023586845 0.11765846 -0.05464997 0.009129922
0000e0 1e 14 31 be 23 01 6f 3d 1c 55 bd bd cd c3 d6 bd
       -0.1729283 0.058350693 -0.09244749 -0.10486565
0000f0 9c bf a8 3d c5 54 97 bd e2 7c 06 3d dc 8e 25 3d
       0.082396716 -0.073892154 0.03283394 0.040419444
000100 20 99 5f be a6 30 2e be 78 b5 4a be ac 11 3e be
       -0.21835756 -0.17010745 -0.19795787 -0.18561429
000110 9d b0 79 bd 5c d8 8f bd d9 c7 fb 3d 22 c5 8b 3d
       -0.060959447 -0.07023689 0.12293977 0.068247095
000120 78 d9 8f bd e8 5c 8b bc 29 11 2a 3e 9b 8d f6 bd
       -0.07023901 -0.017012075 0.16608109 -0.12038728
000130 be db 8a 3d 9e 43 54 3e e2 56 18 3e 09 4a 73 3d
       0.06780194 0.20728919 0.14876893 0.059396777
000140 0e d0 7f 3d c4 a1 16 be 1a 0f ff 3d 0e 58 4b be
       0.062454276 -0.14710146 0.12454052 -0.19857809
000150 28 f9 21 be db b6 b1 3d 91 7b cf bd b8 6e 90 3d
       -0.15817702 0.08677455 -0.1013099 0.07052368
000160 80 f4 63 be 75 ec 26 be 1e 0e c0 bc 3e fc 2a 3e
       -0.22261238 -0.16301139 -0.023444232 0.16697785
000170 3b d5 35 3e 8f 91 21 be 47 d3 3f be 47 96 d4 bd
       0.17757122 -0.15778182 -0.1873294 -0.10380226
000180 ac 46 eb bc be dc df 3d 75 b0 8d 3d 85 8f 0f 3e
       -0.028720222 0.10930775 0.06918422 0.14019592
000190 ff 4a 50 be 48 1a 50 3e fa 24 14 be 8c e1 96 bd
       -0.20341109 0.20322526 -0.1446723 -0.073672384
0001a0 3a 4c 1e bd 8a 11 b2 3d 00 cc 59 be 37 6f 95 3d
       -0.038646914 0.086947516 -0.21269226 0.07296603
0001b0 0a 27 78 bd 7a f8 44 be e0 77 03 37 e6 df 3c 3d
       -0.060584106 -0.19235411 7.836119e-06 0.046111964
0001c0 74 c8 35 be ce b8 fb bd 79 06 8f 3d 89 75 2f be
       -0.17752248 -0.12291108 0.069836564 -0.1713468
0001d0 ec aa db bd e4 49 5a be e1 c3 43 3d 35 0e 8f 3c
       -0.1072596 -0.2131725 0.047794227 0.01746283
0001e0 3d 45 25 be cc a2 e0 3d e6 87 85 3d d4 25 0f be
       -0.16139694 0.10968551 0.06520061 -0.13979274
0001f0 a5 dd 85 bc de dc a3 3d 7d d7 bb 3d 8e 06 35 3e
       -0.01634104 0.080011114 0.091719605 0.17678282
000200 b2 6d bd 3d b9 03 32 be f4 74 8a bd 85 98 12 be
       0.09249438 -0.17384233 -0.06760588 -0.14315994
000210 a6 61 e4 3c 06 60 d4 3d 06 e9 1c be c1 5e ec bd
       0.027878594 0.103698775 -0.15323266 -0.115415104
000220 36 a8 09 be c4 3d 00 be 78 16 24 be 02 0e 14 3e
       -0.13443074 -0.12523562 -0.16024196 0.14458469
000230 6b e9 2c 3d 8b f9 5a be a1 21 d3 bc ef ba 20 3e
       0.042214792 -0.21384256 -0.025772871 0.1569631
000240 e9 6e 1d 3d ac 83 2d be 7d a5 40 bd b2 a1 5c 3e
       0.03843585 -0.1694476 -0.047032822 0.21546057
000250 64 33 3f 3e 0f b0 b0 3c 02 5e df bd db d4 36 be
       0.18671948 0.021568326 -0.109066024 -0.17854635
000260 6f 1b d5 3d 89 e6 aa 3b 96 61 ed bc 70 75 0c 3e
       0.10405623 0.00521547 -0.028977197 0.13716674
000270 e7 48 4c 3e 78 57 d4 3b 6a 58 f5 38 36 8c c7 3d
       0.19949685 0.0064801537 0.00011698979 0.0974354
000280 b8 cb 10 be 4b 6f 6b 3d a7 d6 b4 3d c4 8a 30 3d
       -0.14140213 0.057479184 0.08830004 0.043101087
000290 47 57 29 3e cb ba bb bd 40 3e bd 3d 05 59 a8 3d
       0.165372 -0.09166487 0.09240389 0.08220104
0002a0 4a c2 34 3b d1 4a 2b be ed 67 f3 3d f1 42 d6 3d
       0.0027581626 -0.16727759 0.11885057 0.10461987
0002b0 3f 0d c3 3d 7f 0f 37 3d c8 46 a6 3c 42 4b c0 3d
       0.09524011 0.044692513 0.020297423 0.09389354
0002c0 1c c3 fa bd 89 dd 5a 3e c5 6c 1f 3e 44 de 41 3e
       -0.122442454 0.21373571 0.15568836 0.18932444
0002d0 39 e0 34 3e 4a e8 49 3d 3c ef 35 be 79 ce 17 3c
       0.17663659 0.049293794 -0.17767042 0.0092655355
0002e0 f8 29 58 be d0 c8 0f bd 0b 0e 94 3d 28 b2 04 3e
       -0.2110976 -0.03510362 0.07229241 0.12958586
0002f0 d5 35 4c 3e 08 0d 2d be cf a1 1b 3e 24 dc d4 bd
       0.1994241 -0.16899502 0.15198444 -0.10393551
000300 af 85 43 3d 08 a8 23 3e 09 e6 4f 3e 10 f5 2e 3d
       0.047734912 0.15982068 0.20302595 0.04271418
000310 c5 e4 13 be 1b 06 a4 3d e8 ab 05 be 70 7b 30 be
       -0.14442737 0.08008977 -0.13053858 -0.17234588
000320 01 9d 52 bd 08 49 27 be d6 dd 2c bd cd 58 27 bd
       -0.05141926 -0.16336453 -0.042203747 -0.04085617
000330 6c b1 00 be 34 74 43 be d8 f7 0b bd 92 61 e4 3d
       -0.12567681 -0.19087297 -0.03417191 0.111514226
000340 df dd 11 3d 70 7e 55 3e c8 7f 9b bd 1f 5a d5 bd
       0.035611983 0.20849013 -0.07592732 -0.1041758
000350 43 17 0e be da b3 d3 3c 03 02 c9 bd 98 1f 45 be
       -0.13876061 0.025842596 -0.09814837 -0.19250333
000360 c4 9e 49 be 52 e9 7f bc a4 67 1b 3e 67 41 0d 3e
       -0.1968947 -0.015619593 0.15176255 0.1379448
000370 88 3c a2 bd f2 d2 89 3d 73 9c c0 3d c8 d9 4e 3d
       -0.07921702 0.06729688 0.0940484 0.05050066
000380 fc 65 b5 3d c6 f2 20 bd 18 ea ab bd 4f 48 04 3e
       0.088573426 -0.039294027 -0.08394259 0.12918209
000390 1a 31 29 bd 25 a7 13 3e 39 a1 0e 3e af d8 36 3e
       -0.041306593 0.1441923 0.13928689 0.17856096
0003a0 c6 e1 15 bc f5 29 32 3e f0 a6 28 be d2 6f 0f 3e
       -0.009148067 0.17398818 -0.16469932 0.140075
0003b0 28 e3 88 bd 0d e4 b5 3a f3 e8 a6 bd c2 69 2a 3e
       -0.066839516 0.0013877169 -0.081499 0.16641906
0003c0 45 5c 33 3e cb 36 cd bd 14 82 80 3c 69 01 f9 3d
       0.17515667 -0.100202166 0.015687026 0.12158472
0003d0 f1 26 33 be 84 e5 38 3c 1f 22 21 3e ca eb 0f 3e
       -0.17495324 0.01128519 0.15735672 0.1405479
0003e0 07 08 1d be 8e d8 49 3e 24 71 4d 3e a0 3a 48 3e
       -0.15335093 0.19711515 0.20062691 0.19553614
0003f0 c8 98 51 3b 1f a1 41 bd d3 6a 13 be 98 38 ef bd
       0.0031981934 -0.047272798 -0.14396219 -0.11680716
