graph_classification_model_fold0_less_libraries.pt (torch, 35330 bytes, 6 tensors)

bias f4 [32]
0	0xbca61d64	-0.020277686
1	0x3c920eb7	0.017829282
2	0x3cd6da2d	0.026227081
3	0xbcaf0958	-0.02136676
4	0xbb51faec	-0.003204043
5	0xbc9a1c23	-0.018812245
6	0x3cc2a144	0.023758538
7	0x3c56d31c	0.013111856
8	0x3c9bfb41	0.019040706
9	0x3d1a0f49	0.037612233
10	0xbc7d0a20	-0.0154443085
11	0xbc9866f0	-0.018603772
12	0xbcc55f9f	-0.024093447
13	0x3c79e9cb	0.0152534945
14	0x3b9467ff	0.004528999
15	0xbca43eb8	-0.020049438
16	0xbcbeb588	-0.02327992
17	0x3c580a05	0.013185983
18	0x3ba66100	0.0050774813
19	0xbca32e20	-0.019919455
20	0x3bde7225	0.0067885094
21	0xbcaa59d3	-0.020794785
22	0x3ccfe830	0.02537927
23	0xbbef2814	-0.007298479
24	0x3c99bf6e	0.018768039
25	0xbcaf4b4e	-0.021398213
26	0x3c4f8bfe	0.012667654
27	0xbcd05c22	-0.025434557
28	0xbca8631e	-0.020555075
29	0x3c23c8aa	0.0099965725
30	0xbca69279	-0.020333515
31	0xbcc18ad6	-0.023625772

weight f4 [32, 11]
0	0xbe99001a	-0.2988289
1	0x3e90f8f6	0.28314942
2	0xbe7a58f5	-0.24447997
3	0x3ea09661	0.3136473
4	0x3de1a450	0.11017668
5	0x3e314cea	0.17314497
6	0xbebebbaa	-0.3725255
7	0x3ea40e01	0.32041934
8	0xbe5f5ade	-0.21812007
9	0x3dda308e	0.10653792
10	0xbdc6ee0b	-0.09713372
11	0x3de346af	0.11097466
12	0x3e6a247b	0.22865479
13	0xbd000f5b	-0.031264644
14	0xbe93c6ea	-0.28862697
15	0xbe39d8aa	-0.18149057
16	0x3e820225	0.2539226
17	0x3d946db1	0.072474845
18	0xbe543f81	-0.2072735
19	0x3e6abdaf	0.22923921
20	0x3e7744ae	0.24147293
21	0x3e8d8ed2	0.27648026
22	0x3dcd62a9	0.100285836
23	0x3e4d7231	0.20063092
24	0xbe89528d	-0.26820794
25	0xbe10cd60	-0.14140844
26	0x3ddce2d8	0.107854545
27	0x3c6978f2	0.014250027
28	0xbdbebf1a	-0.093137935
29	0xbd934d82	-0.07192518
30	0xbde31b4f	-0.11089193
31	0x3e99ecdd	0.30063525
32	0xbe0978b6	-0.13424954
33	0x3e6a6ca5	0.22893007
34	0xbeaee506	-0.34159106
35	0x3dec8124	0.11548069
36	0xbea86f14	-0.32897246
37	0x3ddc1057	0.10745304
38	0xbe4d83d4	-0.2006982
39	0x3e7ab825	0.24484308
40	0xbe96c482	-0.294468
41	0x3eb382da	0.3506077
42	0x3ea461c4	0.3210584
43	0x3deaac8d	0.11458693
44	0x3eb9da54	0.36299384
45	0xbeafbfff	-0.3432617
46	0xbc31334b	-0.010815452
47	0xbe96c60a	-0.29447967
48	0x3e676bd3	0.22599725
49	0xbcba9015	-0.022773782
50	0x3e751e3b	0.23937313
51	0xbdaf2a5f	-0.085530035
52	0x3e1ae98b	0.15128152
53	0x3e952596	0.29130238
54	0xbe7f99b4	-0.24960977
55	0x3ea48462	0.3213225
56	0xbec5ff7f	-0.3867149
57	0xbd4b81ad	-0.049684215
58	0xbdd98882	-0.1062174
59	0xbe03f94e	-0.12888071
60	0x3eb2916c	0.34876573
61	0xbe80ddb9	-0.2516916
62	0xbb5315e5	-0.0032209095
63	0x3a68221f	0.0008855182
64	0x3de2e6d1	0.11079181
65	0xbdd6442a	-0.1046222
66	0x3e9f1c54	0.310763
67	0x3ebb7af7	0.36617252
68	0xbe4ddae8	-0.20103037
69	0xbdb6f74f	-0.08933889
70	0xbe87f568	-0.26554418
71	0x3e71d5b8	0.23616683
72	0xbea8de85	-0.3298227
73	0xbe000273	-0.12500934
74	0xbe191e41	-0.14952947
75	0x3d83254c	0.06403598
76	0xbddbd923	-0.10734775
77	0x3e9ad65a	0.30241662
78	0x3df80c4d	0.12111721
79	0x3dc56a6e	0.096394405
80	0x3e7692c4	0.24079424
81	0xbd0e34a4	-0.03471817
82	0x3dc3fd58	0.09569806
83	0xbe24a424	-0.1607824
84	0x3e1fbe78	0.15600002
85	0xbdd215f1	-0.10258091
86	0x3e962b16	0.29329747
87	0xbe118623	-0.14211325
88	0xbd3cfe27	-0.046140816
89	0xbea2ae28	-0.31773496
90	0x3e795736	0.24349675
91	0xbe5c6384	-0.21522337
92	0x3eb2e9dd	0.3494405
93	0x3df989c2	0.12184478
94	0xbb749707	-0.0037321465
95	0xbe0d5e75	-0.13805564
96	0xbd85e3f5	-0.0653762
97	0xbe88ed42	-0.26743513
98	0x3e0613a9	0.13093437
99	0xbeb36615	-0.3503882
100	0xbe1d33a5	-0.15351732
101	0xbe83ed0c	-0.2576679
102	0x3e1ed6d6	0.15511641
103	0x3e0bb55a	0.13643399
104	0x3ebef03e	0.37292665
105	0xbca21287	-0.019784225
106	0x3ea9bde7	0.33152696
107	0xbe52003f	-0.20507906
108	0xbe5bdb3d	-0.21470352
109	0xbe5f9989	-0.21835913
110	0xbb72be2d	-0.0037039623
111	0xbeb4342e	-0.3519606
112	0x3e72a06e	0.23694012
113	0xbe9caf9d	-0.30602732
114	0x3e1283f8	0.14308155
115	0xbe36b16e	-0.17841122
116	0xbc01f0fe	-0.007930992
117	0xbdeb53d1	-0.11490596
118	0x3e25c9da	0.16190282
119	0x3ead7164	0.33875573
120	0xbec3e2aa	-0.38258868
121	0xbea93455	-0.3304774
122	0xbd264d93	-0.040601324
123	0xbc0f8ff0	-0.008762345
124	0x3eaff1fc	0.34364307
125	0x3e14ef0b	0.14544313
126	0xbc65757b	-0.01400506
127	0xbeaa6823	-0.33282575
128	0x3d8b85b7	0.068126135
129	0xbe219ce4	-0.15782505
130	0x3dfaf8f7	0.122545175
131	0xbe136565	-0.14394148
132	0xbd24b45e	-0.040211074
133	0x3e71f95e	0.23630282
134	0x3e9fb877	0.31195423
135	0xbeb2f586	-0.34952945
136	0xbe7fea9d	-0.24991842
137	0xbe24f82c	-0.16110295
138	0xbcda9a7a	-0.026684988
139	0x3e701c78	0.2344836
140	0x3e4fcdb3	0.20293312
141	0xbd662a96	-0.056192957
142	0xbe67fe46	-0.22655591
143	0x3eaea14c	0.34107435
144	0xbdf8dbbd	-0.12151287
145	0xbe1303fa	-0.14356986
146	0x3e39f36f	0.18159269
147	0x3e604a5b	0.21903364
148	0x3dee9fc0	0.11651564
149	0xbdb01ba1	-0.0859902
150	0xbe0338c4	-0.12814623
151	0xbdc85d4d	-0.09783421
152	0x3e95fdb7	0.29295132
153	0x3e63fb9b	0.22263949
154	0x3e2d2314	0.16907912
155	0xbd0c9e5c	-0.03433071
156	0x3e32ae7b	0.17449372
157	0x3d516881	0.051125053
158	0xbe0b75cc	-0.13619155
159	0xbe0e407c	-0.13891786
160	0x3e2dd632	0.1697624
161	0x3b4a4c58	0.0030868258
162	0x3e96cbf5	0.29452482
163	0x3e827366	0.25478667
164	0x3e57cc99	0.21074142
165	0xbe9be765	-0.30449978
166	0xbeb886de	-0.36040395
167	0x3e1496c1	0.14510633
168	0xbd2916a9	-0.041281376
169	0xbec7b938	-0.39008498
170	0xbe385665	-0.18001707
171	0xbe48896e	-0.19583675
172	0xbe83f15c	-0.2577008
173	0x3d653eaf	0.055967983
174	0x3dd2385f	0.10264658
175	0xbe75cfe4	-0.24005085
176	0xbead6337	-0.33864757
177	0x3e4857f5	0.19564803
178	0x3e3e2d22	0.18571904
179	0x3dc91649	0.09818704
180	0x3de424cf	0.11139833
181	0xbda53ac2	-0.08067848
182	0xbd8cbe40	-0.06872225
183	0xbdbb4d88	-0.09145647
184	0xbe4f8bdd	-0.20268197
185	0xbe8da8d9	-0.27667883
186	0x3e532e80	0.20623207
187	0xbd3e794d	-0.0465024
188	0x3c87e5b2	0.01658902
189	0xbe949e0e	-0.29026836
190	0x3c6b3697	0.014356277
191	0x3ca5a1f7	0.020218832
192	0xbe88be9f	-0.26707932
193	0xbea3b4c7	-0.3197386
194	0xbe90861d	-0.2822732
195	0xbeb2bfdd	-0.34912005
196	0x3ea04132	0.3129974
197	0xbe383dfb	-0.17992394
198	0xbd96b25f	-0.0735824
199	0x3e753217	0.23944889
200	0x3dccfb53	0.10008874
201	0x3d33616e	0.043794088
202	0x3bb2a45d	0.0054517225
203	0x3b9e2d21	0.004827157
204	0xb991dc38	-0.0002782063
205	0xbe0672b6	-0.13129696
206	0x3d1f8008	0.03894046
207	0x3e216e1f	0.15764664
208	0xbe454169	-0.19263233
209	0x3e88bcb0	0.26706457
210	0x3d84e1de	0.06488393
211	0xbe02857c	-0.12746233
212	0x3e00aec8	0.12566674
213	0x3deacaa6	0.11464433
214	0x3dfdfddb	0.12401935
215	0xbdea662c	-0.11445269
216	0x3e662401	0.22474672
217	0xbc18786b	-0.009306054
218	0x3e7d1a20	0.24716997
219	0xbe144d71	-0.14482667
220	0xbde70852	-0.11280884
221	0x3e2c239f	0.16810463
222	0x3d6173a9	0.055041943
223	0x3e0b7eb2	0.13622549
224	0xbe3909c4	-0.18070132
225	0xbc861622	-0.016367976
226	0x3eb4c370	0.35305357
227	0xbe138aec	-0.14408463
228	0x3e3aace6	0.18230018
229	0xbeb539da	-0.353957
230	0x3e52958b	0.20564859
231	0x3e82b399	0.25527647
232	0xbc42d7d6	-0.01189228
233	0xbdc4aa81	-0.096028335
234	0x3dff9099	0.12478752
235	0x3d6cc473	0.057804536
236	0x3e31a06f	0.17346357
237	0x3d0c2aea	0.034220614
238	0xbe9ed63c	-0.31022823
239	0xbe9bd15d	-0.3043317
240	0x3e756203	0.2396317
241	0xbcab4864	-0.020908542
242	0x3e9af40f	0.30264327
243	0x3e5dd145	0.21661861
244	0xbe3ae890	-0.18252778
245	0xbe6839fa	-0.22678366
246	0x3e80b891	0.25140813
247	0xbdb8c831	-0.090225585
248	0x3e7cc7f6	0.24685654
249	0xbe78c3c9	-0.24293436
250	0xbd14b8a8	-0.036308914
251	0x3d9641eb	0.073367916
252	0xbb3dea00	-0.0028978586
253	0x3e9082e9	0.28224877
254	0xbd133b92	-0.035945483
255	0x3db0bd75	0.08629886

bias f4 [32]
0	0xbc93152c	-0.017954431
1	0xbc8aa90e	-0.016926315
2	0xbc621f32	-0.013801383
3	0x00000000	0.0
4	0xbc8452c4	-0.016152747
5	0xbc5cd7c1	-0.013479174
6	0xbc290374	-0.010315765
7	0xbcbf6d11	-0.023367437
8	0x00000000	0.0
9	0x3be293dc	0.006914599
10	0xbca8089d	-0.02051192
11	0x00000000	0.0
12	0xbca86828	-0.020557478
13	0xbc0a04f1	-0.00842403
14	0xbbff79ef	-0.007796518
15	0xbc3af72e	-0.011411471
16	0x3bb6ca77	0.005578335
17	0x3c29a45d	0.010354129
18	0x00000000	0.0
19	0x3cd81638	0.026377782
20	0xbc5139b9	-0.01277011
21	0xbc3aa000	-0.011390686
22	0x3cca9e02	0.024733547
23	0xbc469bb5	-0.012122084
24	0xbc1d2dc9	-0.009593436
25	0xbc84f362	-0.016229335
26	0xbccbae97	-0.024863524
27	0xbc9f2e7a	-0.019431341
28	0xbcc26a36	-0.023732286
29	0x3cabf1e3	0.020989364
30	0xbbd77d90	-0.0065762475
31	0x3cbffd46	0.0234362

weight f4 [32, 32]
0	0x3de17e37	0.11010402
1	0xbe64a330	-0.22327876
2	0x3d9a1841	0.07524157
3	0xbddc9677	-0.107708864
4	0x3e6389b9	0.22220506
5	0xbd2cf82a	-0.042228855
6	0xbe339795	-0.17538293
7	0xbe3ca58f	-0.1842253
8	0xbdde5b97	-0.10857313
9	0x3d186b6c	0.03721182
10	0xbd119ac8	-0.035548
11	0x3dd14012	0.102172986
12	0xbe665c4c	-0.22496146
13	0xbe3042d8	-0.17212999
14	0xbe2d8946	-0.16946897
15	0x3e8f7a6a	0.28023082
16	0x3e2e275d	0.17007203
17	0x3e2a642b	0.16639774
18	0xbdd82f78	-0.10555929
19	0xbdfbf519	-0.12302608
20	0xbe029ed0	-0.12755895
21	0x3d6d8ab9	0.057993624
22	0x3e766933	0.24063568
23	0x3e89072b	0.2676328
24	0x3e391adf	0.18076657
25	0x3e812e3f	0.25230595
26	0x3e0f0a0a	0.13968673
27	0xbe2f1760	-0.1709876
28	0x3e49ea83	0.19718365
29	0xbe4e8c69	-0.2017075
30	0x3e42395c	0.18967193
31	0xbe077ed9	-0.13231982
32	0x3e320ca2	0.17387632
33	0x3e8a9004	0.27063
34	0xbd2c0c6d	-0.042004038
35	0xbd350203	-0.04419137
36	0xbea119ee	-0.31465095
37	0x3dba31dc	0.09091541
38	0x3d2d01f7	0.042238202
39	0xbe77a203	-0.24182896
40	0xbea2cb32	-0.3179565
41	0xbe2a5621	-0.16634418
42	0x3d84c033	0.064819716
43	0x3b59786b	0.0033183347
44	0xbdc13b64	-0.09435156
45	0xbe40e5e8	-0.18837702
46	0x3e929609	0.28630093
47	0x3e1a5c8a	0.15074363
48	0xbe1ceca9	-0.15324654
49	0x3e65de5a	0.22448102
50	0x3ce9bc1f	0.028532086
51	0x3e169fe5	0.14709432
52	0xbd516db1	-0.05113
53	0x3e4431ed	0.1915967
54	0xbe8c571c	-0.2741021
55	0x3e081bd4	0.13291866
56	0xbe0f25dd	-0.13979287
57	0xbc7b6735	-0.015344431
58	0xbe93b590	-0.2884946
59	0x3d534c59	0.051586483
60	0xbe92947a	-0.28628904
61	0xbe9701c3	-0.29493532
62	0xbe734526	-0.23756847
63	0xbcbe8c93	-0.02326039
64	0x3e74769c	0.23873371
65	0x3dec16cc	0.11527786
66	0x3e8136c3	0.25237092
67	0xbe554e02	-0.20830539
68	0x3e93a74a	0.2883857
69	0x3d3484fd	0.04407214
70	0x3d05119a	0.03248749
71	0xbe663edd	-0.22484918
72	0x3e3eea08	0.18643963
73	0x3e6e7127	0.23285352
74	0xbe468785	-0.19387634
75	0x3dad9026	0.0847476
76	0xbe96bdf9	-0.29441813
77	0xbe3e18d2	-0.18564156
78	0xbe775062	-0.24151757
79	0xbd53ab6f	-0.051677164
80	0x3e2fd6d6	0.17171797
81	0x3e85c054	0.26123297
82	0xbd16f391	-0.036853377
83	0x3d10e83b	0.035377722
84	0xbe58edf6	-0.21184525
85	0x3e40517f	0.18781088
86	0xbde292ed	-0.1106318
87	0xbcb38e00	-0.021918297
88	0xbe364845	-0.17801006
89	0xbe47d33d	-0.19514175
90	0xbddd10d2	-0.10794224
91	0x3e4b75e0	0.19869184
92	0xbd905334	-0.0704712
93	0xbd5cacf8	-0.053875893
94	0xbe0e21d4	-0.13880092
95	0x3e930fac	0.28722894
96	0xbe9ba4fa	-0.30399305
97	0xbe028b85	-0.12748535
98	0x3cd1e720	0.025622904
99	0x3d04c730	0.032416523
100	0x3da7f2dc	0.082006186
101	0x3e94db55	0.29073587
102	0xbe8a1d30	-0.26975393
103	0x3c258360	0.010102123
104	0x3e890ea5	0.26768985
105	0xbe053bcc	-0.13011092
106	0xbd81340e	-0.06308757
107	0xbc007480	-0.007840276
108	0x3e779fe2	0.24182084
109	0xbe9427da	-0.28936654
110	0xbe7e0059	-0.2480482
111	0x3e13a79e	0.1441941
112	0x3db4265c	0.08796379
113	0x3e547d82	0.20751002
114	0x3cce7ba0	0.025205433
115	0xbdf5f4ca	-0.120095804
116	0xbcd73490	-0.026270181
117	0xbe8bd5c3	-0.27311525
118	0x3e88c1e5	0.2671043
119	0x3dbe72fc	0.09299275
120	0xbe0e342d	-0.13887091
121	0xbe8bcdcf	-0.27305457
122	0xbdd7bf70	-0.10534561
123	0x3d353608	0.04424098
124	0xbe6fd1e8	-0.23419917
125	0x3e510eea	0.20415846
126	0xbe07e67f	-0.13271521
127	0xbe593294	-0.212107
128	0x3e8d2b7d	0.2757224
129	0x3d1024ce	0.03519135
130	0x3dc267b9	0.0949244
131	0xbe5e9fab	-0.21740596
132	0xbe6aa42f	-0.22914194
133	0x3d610067	0.054932024
134	0x3db7ef1a	0.08981152
135	0x3e49ca22	0.19706014
136	0xbe19a92f	-0.15005945
137	0xbc359456	-0.011082729
138	0xbe3ff8b6	-0.1874722
139	0x3e6b9b90	0.23008561
140	0xbdf6f846	-0.12059073
141	0xbdd337de	-0.1031339
142	0xbdff4913	-0.1246511
143	0xbe7c9e63	-0.24669795
144	0x3d0953f7	0.03352734
145	0x3e12306b	0.14276282
146	0x3e3093bd	0.17243858
147	0xbe747754	-0.23873645
148	0x3d8421a7	0.06451731
149	0xbd150561	-0.036382083
150	0x3e1cce2d	0.15313025
151	0x3b9cf981	0.0047904854
152	0xbe832e34	-0.25621188
153	0x3e3c7a6c	0.18406075
154	0xbe0e88b6	-0.13919339
155	0x3e31d4d4	0.17366344
156	0xbe319d9f	-0.17345284
157	0x3d24202a	0.040069737
158	0x3cb34e98	0.021888062
159	0x3db84d98	0.08999175
160	0x3e605452	0.21907166
161	0x3e0f7161	0.14008094
162	0x3e697b65	0.22800978
163	0xbd545c2a	-0.051845707
164	0xbe84c5b8	-0.25932097
165	0xbd345713	-0.044028353
166	0xbe461947	-0.1934558
167	0x3db02296	0.08600347
168	0x3e1a643b	0.15077297
169	0x3e3607c7	0.17776404
170	0x3e744e99	0.23858108
171	0xbe6fe9cb	-0.23429029
172	0xbe8735e1	-0.26408294
173	0xbe0adc87	-0.13560687
174	0xbdafca56	-0.085835144
175	0xbdc52351	-0.09625877
176	0x3c03cf74	0.008045066
177	0x3e2b3b0a	0.1672174
178	0xbe6a5fc9	-0.22888102
179	0x3e89afaf	0.26891848
180	0xbe52cf63	-0.20586924
181	0xbe134001	-0.14379884
182	0xbbf8e3c4	-0.007595511
183	0x3db3cfda	0.08779879
184	0xbceb1935	-0.028698543
185	0xbe9425e6	-0.28935164
186	0xbe13af19	-0.14422263
187	0x3e91388d	0.28363457
188	0x3e7eadb3	0.24870948
189	0x3e706f27	0.23479901
190	0xbe7a5a31	-0.24448468
191	0x3e0ec3c0	0.1394186
192	0x3dbad129	0.091219254
193	0x3e6fc331	0.23414303
194	0xbe87eab0	-0.2654624
195	0x3cfd6412	0.030931506
196	0xbe734016	-0.23754916
197	0x3db64e5c	0.089016646
198	0xbc7c382a	-0.01539425
199	0xbe2dfb6e	-0.16990444
200	0xbd834d5a	-0.06411238
201	0xbe1f9ebd	-0.15587898
202	0x3dfac9a5	0.12245492
203	0xbe0fa224	-0.14026695
204	0x3e67a857	0.2262281
205	0x3df415f1	0.119182475
206	0xbdcc89f4	-0.0998725
207	0x3d83f203	0.064426444
208	0xbd24c736	-0.040229045
209	0x3e5bef68	0.21478045
210	0xbe274e58	-0.1633848
211	0x3da4426f	0.08020484
212	0x3b624a14	0.0034529017
213	0xbd6d6032	-0.057953067
214	0x3e694856	0.227815
215	0x3e416c19	0.18888892
216	0xbe6d5d91	-0.23180224
217	0x3d4b2e5b	0.049604755
218	0xbe7cbd0b	-0.24681489
219	0xbdb0e9dc	-0.08638355
220	0x3e1aaea2	0.1510568
221	0xbe8df004	-0.2772218
222	0x3e464b86	0.19364747
223	0x3dbe516d	0.092928745
224	0x3ddc7981	0.107653625
225	0xbe95894f	-0.2920632
226	0x3ccae76b	0.024768552
227	0xbde63b88	-0.112418234
228	0x3cb22743	0.021747237
229	0xbbc8df9d	-0.0061301724
230	0xbc5b44ed	-0.013383132
231	0x3d7c13ac	0.061542198
232	0x3e889953	0.26679477
233	0x3e670b76	0.22562966
234	0x3e8f328f	0.2796826
235	0xbc1f19fd	-0.009710786
236	0xbe8d2172	-0.2756458
237	0x3e73f6dc	0.23824638
238	0xbdb14eb4	-0.086575896
239	0xbd6c7298	-0.057726473
240	0xbe2b57ef	-0.16732763
241	0xbe74fdd4	-0.23924953
242	0xbe2b6d58	-0.1674093
243	0x3e7922f7	0.24329744
244	0xbe47142f	-0.19441293
245	0xbe3974c6	-0.18110952
246	0x3e181191	0.14850451
247	0xbe03a8df	-0.12857388
248	0x3e654153	0.223882
249	0xbea43b8d	-0.32076684
250	0xbd031473	-0.032001924
251	0xbe0884ab	-0.13331859
252	0x3ded7893	0.11595263
253	0x3e24f4e0	0.16109037
254	0x3ba890f4	0.005144233
255	0xbe74a0ba	-0.23889437

bias f4 [5]
0	0xbb9bddfb	-0.0047566867
1	0xbcc92a78	-0.024556383
2	0xbcb9e016	-0.02268986
3	0xbcc028a7	-0.023456885
4	0xbc468b30	-0.012118146

weight f4 [5, 32]
0	0x3d815f57	0.06317013
1	0xbe81f956	-0.2538554
2	0x3d66182f	0.056175407
3	0x3db10e44	0.08645299
4	0x3eab05b4	0.3340279
5	0xbe80f46f	-0.25186488
6	0x3d433f67	0.047667887
7	0x3dde5648	0.108563006
8	0xbe86d40e	-0.2633366
9	0xbeb7a592	-0.35868508
10	0xbe057b27	-0.1303526
11	0xbdbd9a18	-0.09257907
12	0x3da3c40b	0.079963766
13	0x3ea01540	0.31266212
14	0x3e1d7320	0.15375948
15	0x3e2e3807	0.1701356
16	0xbe54d19d	-0.20783086
17	0xbe5a4fe8	-0.21319544
18	0x3ce9b3e0	0.028528154
19	0xbe134878	-0.14383113
20	0xbeb61ec3	-0.35570344
21	0xbd8b2b95	-0.06795422
22	0xbeb4c649	-0.3530753
23	0x3e36fc3a	0.17869654
24	0xbdb5b9f7	-0.088733606
25	0xbe0a644e	-0.13514826
26	0xbded5755	-0.11588923
27	0x3e6e6e07	0.2328416
28	0xbeb11ba0	-0.3459139
29	0x3e554217	0.20825993
30	0xbe98bcb8	-0.2983148
31	0xbe9327ce	-0.28741306
32	0x3e914c4f	0.2837853
33	0x3ebc9b07	0.36837026
34	0xbe86a59b	-0.26298222
35	0x3e942346	0.28933161
36	0x3e1f15f3	0.15535717
37	0x3e9142d6	0.28371304
38	0xbeadb55f	-0.33927438
39	0x3ec1d4df	0.3785772
40	0x3dd67330	0.10471189
41	0xbdf34a61	-0.11879421
42	0x3e104a74	0.14090902
43	0xbe3dd2c4	-0.18537432
44	0x3e85a186	0.26099795
45	0xbeb1c527	-0.34720728
46	0x3e2e0017	0.16992222
47	0x3e95bbfb	0.2924498
48	0x3d8ad203	0.06778338
49	0x3dfe9663	0.12431028
50	0xbe4c1229	-0.19928803
51	0x3ca9c9c2	0.020726088
52	0x3e210030	0.15722728
53	0x3ebae1bb	0.36500344
54	0xbe7ca02a	-0.24670473
55	0x3ec0598a	0.37568313
56	0xbe73c632	-0.23806074
57	0x3e19d55c	0.15022796
58	0x3e4acb4e	0.19804117
59	0x3d403f5d	0.046935428
60	0x3df92a87	0.121663146
61	0xbe270296	-0.1630958
62	0x3eb5ed7b	0.35532746
63	0xbed83830	-0.42230368
64	0x3eaedaf5	0.34151426
65	0x3e9b4ce4	0.303321
66	0xbeb4b09c	-0.35290992
67	0xbe1ad312	-0.1511958
68	0xbe522e56	-0.20525488
69	0x3e7ad3e9	0.244949
70	0x3e21e55d	0.15810151
71	0x3e56ee57	0.20989357
72	0x3ec10724	0.3770076
73	0xbd9472cb	-0.072484575
74	0x3e6b40e7	0.22973977
75	0x3e9ec638	0.31010604
76	0x3d04bd1c	0.03240691
77	0x3d26510d	0.04060464
78	0x3ec0e575	0.37675062
79	0xbe5d0e5c	-0.21587509
80	0xbdfdd5e9	-0.12394316
81	0xbec3c4d3	-0.38236102
82	0x3eb10074	0.34570658
83	0xbea58a6b	-0.32332167
84	0x3ddfe702	0.10932733
85	0xbe51782d	-0.20456
86	0xbe4a26f5	-0.19741423
87	0x3dc1489f	0.094376795
88	0x3e9b0689	0.30278423
89	0x3cd31b21	0.025769772
90	0x3c6ae003	0.014335635
91	0x3ea26b6d	0.31722584
92	0x3e8bcc27	0.27304193
93	0x3cd724e2	0.026262704
94	0xbe962da8	-0.29331708
95	0xbe0f9b39	-0.14024056
96	0xbdac3833	-0.08409157
97	0x3ec27f85	0.37987915
98	0x3eb203f2	0.34768635
99	0x3e19fe9c	0.15038532
100	0x3da05875	0.07829372
101	0x3bf7a4aa	0.0075574713
102	0x3eb9121e	0.36146635
103	0x3d92b6f3	0.07163801
104	0x3d85e0dc	0.06537029
105	0x3dee6cce	0.116418466
106	0x3ebfa2e4	0.37428963
107	0xbeb3ce39	-0.35118273
108	0xbeb955f5	-0.36198393
109	0xbe1b7651	-0.15181853
110	0xbe8b7bf0	-0.27242994
111	0x3e2ff88c	0.17184657
112	0x3e6104b7	0.21974455
113	0x3cb9e32c	0.022691332
114	0x3ddd7270	0.10812843
115	0xbe798859	-0.24368419
116	0x3d0bf597	0.03416976
117	0x3cd9e600	0.02659893
118	0xbeb8f69b	-0.36125645
119	0xbd08cbe6	-0.033397578
120	0xbe15c17f	-0.14624594
121	0xbe2179ce	-0.15769121
122	0x3ea5a093	0.3234907
123	0x3d7689de	0.060190074
124	0xbbccfb4b	-0.0062555424
125	0xbe92e96f	-0.2869372
126	0xbed5fc73	-0.41794166
127	0xbdb5e476	-0.08881466
128	0x3e8e4f75	0.27794996
129	0x3dd9a217	0.10626619
130	0x3e940c2e	0.28915542
131	0x3d036ce8	0.032086283
132	0x3e9bbe9b	0.30418858
133	0x3d99a104	0.075014144
134	0x3eaae656	0.33378857
135	0xbea9e9a4	-0.33186066
136	0x3e3a2854	0.18179446
137	0x3e017990	0.12644029
138	0xbebc247e	-0.3674659
139	0xbc6f3500	-0.0146000385
140	0x3cb5a5b7	0.022173746
141	0x3eac76c7	0.3368437
142	0xbd890f35	-0.06692354
143	0xbe61644b	-0.22010915
144	0xbe928f09	-0.28624752
145	0x3deb20dd	0.114808775
146	0x3e7d5c58	0.24742258
147	0xbec73a39	-0.38911608
148	0x3e95730d	0.2918934
149	0x3ec0eb42	0.37679487
150	0x3e9dfb02	0.30855566
151	0x3e3d1423	0.18464713
152	0xbdea48ae	-0.11439644
153	0x3e672462	0.22572473
154	0x3d463100	0.048386574
155	0x3ebccba6	0.3687412
156	0x39893b44	0.00026174833
157	0x3df88d9f	0.12136387
158	0x3e837dbe	0.2568187
159	0xbe6bea3b	-0.2303857
