graph_classification_model.pt (torch, 64802 bytes, 12 tensors)

att_src f4 [1, 1, 32]
0	0xbc31d067	-0.01085291
1	0xbeaba4ae	-0.33524078
2	0xbe653cbf	-0.22386454
3	0x3cee3ae4	0.029080816
4	0x3e58ea60	0.21183157
5	0x3eb072c2	0.34462553
6	0x3e4546c5	0.19265278
7	0x3eff5032	0.49865872
8	0xbdc56d62	-0.09640004
9	0xbe6d9649	-0.2320186
10	0x3d55bf20	0.052184224
11	0xbe0b272d	-0.13589163
12	0x3db7187b	0.08940216
13	0xbe58843f	-0.21144198
14	0xbe639b02	-0.222271
15	0xbe266d09	-0.16252531
16	0xbf0bb796	-0.54577005
17	0x3f02ff7e	0.511711
18	0x3e91df51	0.2849069
19	0x3ee6e8a2	0.4509936
20	0x3ea6bbc4	0.3256513
21	0x3db0aaf0	0.08626354
22	0x3daf96e2	0.085737005
23	0x3f011d81	0.50435644
24	0xbe3514e5	-0.17683752
25	0xbe4c5f6e	-0.19958279
26	0xbe621a34	-0.22080308
27	0xbeaca7b6	-0.33721703
28	0xbe65ae85	-0.22429855
29	0xbd8d4e60	-0.068997145
30	0xbe7145b0	-0.2356174
31	0xbdaa5aa9	-0.08318073

att_dst f4 [1, 1, 32]
0	0xbe22eb20	-0.15910006
1	0x3e921dad	0.28538266
2	0xbe0bcb95	-0.13651879
3	0xbcd7df27	-0.026351525
4	0x3e8e5c35	0.27804723
5	0xbe7a12ec	-0.2442128
6	0x3efe492a	0.49665195
7	0x3ea72f44	0.32653248
8	0xbe848caa	-0.25888568
9	0xbe785e83	-0.24254803
10	0x3d8d79eb	0.0690802
11	0x3c4c8285	0.01248229
12	0xbd19dba3	-0.037562978
13	0x3d8f9d15	0.07012383
14	0xbdc24475	-0.094857134
15	0x3e6a610a	0.2288858
16	0xbe864409	-0.26223782
17	0x3e854630	0.2603011
18	0x3de93e9d	0.11388896
19	0xbe6bdc4b	-0.23033254
20	0xbd9e9db7	-0.077449255
21	0xbe489ecf	-0.1959183
22	0xbed46b72	-0.41488224
23	0xbd8dccda	-0.06923838
24	0xbed93f10	-0.42430925
25	0x3ea4b3bd	0.3216838
26	0x3ec54350	0.38527918
27	0xbe952248	-0.29127717
28	0x3eb152a0	0.3463335
29	0x3e6f7941	0.23386098
30	0x3e8c7d0f	0.27439162
31	0xbe78c5f1	-0.24294259

bias f4 [32]
0	0x3d103f97	0.035216894
1	0xbba06b3d	-0.0048955963
2	0x3cd1a0b7	0.02558933
3	0x3c2aec99	0.010432386
4	0x3caaaf8f	0.020835666
5	0xbb94be11	-0.0045392592
6	0x3d2bd770	0.041953504
7	0x3cf0bd82	0.02938724
8	0xbc8d857c	-0.017275564
9	0x3d981012	0.0742494
10	0x3b98156a	0.0046412246
11	0x3d0f18a8	0.034935623
12	0x3a8ccc2d	0.0010742001
13	0x3a831160	0.0009999685
14	0x3c913d0b	0.017729303
15	0xbc95b6d6	-0.01827566
16	0xbc809099	-0.01569395
17	0xbcc431f9	-0.02394961
18	0xbc943f53	-0.018096602
19	0xbc140ef8	-0.009036772
20	0x3b1d72b5	0.002402467
21	0x3d10882a	0.035286106
22	0x3d71a931	0.058999244
23	0x3c91611d	0.017746503
24	0xbc8c02d7	-0.017091198
25	0xbbf7bf83	-0.007560672
26	0x3d81574c	0.06315479
27	0xbcec4810	-0.028842956
28	0xbb9262de	-0.0044673523
29	0x3d42558d	0.04744487
30	0xbb1941b7	-0.0023385116
31	0xbc147d01	-0.009063006

weight f4 [32, 11]
0	0xbed9e2ba	-0.4255579
1	0xbe180327	-0.14844953
2	0xbe8db902	-0.27680212
3	0x3e74127e	0.23835179
4	0xbd316055	-0.04330476
5	0x3ee258cb	0.4420837
6	0xbf032706	-0.5123142
7	0x3e5dc267	0.2165619
8	0xbe5b3f35	-0.2141083
9	0x3e7b8a87	0.24564563
10	0xbd696556	-0.056981407
11	0x3ca35b21	0.019940915
12	0x3de67934	0.112535864
13	0xbda8f7e3	-0.08250406
14	0xbe9aca9e	-0.3023271
15	0xbe9c9f26	-0.3059017
16	0x3eeeec7b	0.46664795
17	0x3c759ab4	0.014990497
18	0xbea2d489	-0.31802776
19	0x3e4389f8	0.190956
20	0x3e93ccb2	0.28867108
21	0x3e88f01d	0.26745692
22	0xbe2afdba	-0.16698352
23	0xbe0caa34	-0.13736802
24	0xbe9a8706	-0.3018114
25	0xbe5b9bc8	-0.21446145
26	0xbb5f8568	-0.0034106616
27	0x3e9738c3	0.29535493
28	0xbe91bbb1	-0.2846351
29	0xbe47c355	-0.19508107
30	0xbe48e8da	-0.19620076
31	0x3ed0e6c8	0.40801072
32	0xbde0e788	-0.10981661
33	0x3ea1dedf	0.3161535
34	0xbd027c15	-0.031856615
35	0x3e2dabcd	0.16960068
36	0xbe8227b0	-0.25420904
37	0x3e64968d	0.22323056
38	0xbec5bb7b	-0.386196
39	0x3ea10779	0.31451014
40	0xbe8140b3	-0.25244674
41	0x3ebeffb8	0.37304473
42	0x3ead3d0c	0.33835638
43	0x3e177f71	0.14794709
44	0x3ee21abe	0.44161028
45	0xbd4bed9e	-0.049787156
46	0x3d67bc76	0.056576215
47	0xbe7df712	-0.24801281
48	0x3ea3e343	0.32009324
49	0xbe7ad590	-0.2449553
50	0x3e87dd55	0.2653605
51	0xbcb815f2	-0.022471402
52	0x3e3e0a39	0.18558587
53	0x3e88ee0e	0.2674412
54	0xbe5a8611	-0.21340205
55	0x3e7f3a7b	0.24924652
56	0xbf01125b	-0.50418633
57	0xbd864424	-0.065559655
58	0xbe03dc11	-0.12876917
59	0xbe7ed662	-0.24886468
60	0x3f1939a1	0.5985356
61	0xbeab8a99	-0.3350418
62	0xbda4b872	-0.08042993
63	0xbcd8c188	-0.02645947
64	0x3e5fc9c4	0.21854311
65	0xbdb049d2	-0.0860783
66	0x3e4cb273	0.19989948
67	0xbdc6888a	-0.096940115
68	0xbe90e9a8	-0.28303266
69	0xbe2a805b	-0.16650526
70	0xbed70727	-0.41997644
71	0x3ef5bd6a	0.47996074
72	0xbef372e6	-0.47548598
73	0xbe17c362	-0.14820626
74	0xbe420231	-0.18946148
75	0x3e29844a	0.1655437
76	0xbdbc8f31	-0.09206999
77	0x3cbefbf8	0.023313507
78	0xbe91a748	-0.28447938
79	0xbb80694e	-0.0039188033
80	0x3d80ac31	0.06282843
81	0xbe25e364	-0.16200024
82	0x3ec14074	0.37744486
83	0xbeb2b695	-0.34904924
84	0x3dc0a0f6	0.09405701
85	0xbe63e81f	-0.22256516
86	0x3ec86cac	0.3914541
87	0xbe4cb8db	-0.19992392
88	0xbce42f8c	-0.027854703
89	0xbe960747	-0.29302427
90	0x3e61aad9	0.2203783
91	0xbe7182e5	-0.23585089
92	0x3e56767e	0.20943639
93	0x3e45a71a	0.19302025
94	0xbdc64cb3	-0.09682598
95	0xbe2d7a9d	-0.16941305
96	0xbde9db99	-0.11418838
97	0xbeb77aad	-0.35835782
98	0x3e14f8cb	0.14548032
99	0xbec44ad2	-0.38338333
100	0xbeaed975	-0.34150282
101	0xbec6f4c5	-0.3885862
102	0x3d718260	0.058962226
103	0xbe0566b4	-0.1302746
104	0x3f1a22ec	0.60209537
105	0xbe85ce64	-0.26134026
106	0x3e4f7987	0.20261203
107	0xbe74a263	-0.2389007
108	0xbdbff8f5	-0.09373657
109	0xbea1b596	-0.31583852
110	0x3b8ad5b4	0.004236901
111	0xbe5b8e76	-0.21441063
112	0x3e86eae5	0.26351085
113	0xbe892987	-0.26789495
114	0x3dbf2ae3	0.09334352
115	0xbd9097dc	-0.07060215
116	0xbccc3f13	-0.02493242
117	0xbe12918f	-0.14313339
118	0x3e32407b	0.1740741
119	0x3ec4a6de	0.3840856
120	0xbea45b5f	-0.3210096
121	0xbf00a40c	-0.50250316
122	0xbebb9aaa	-0.36641437
123	0xbd999d18	-0.075006664
124	0x3e823b2f	0.25435778
125	0x3c06f203	0.008236411
126	0x3e9cc14e	0.3061623
127	0xbf02f755	-0.5115865
128	0xbc238090	-0.009979382
129	0xbe63ae30	-0.22234416
130	0x3e87fe81	0.2656136
131	0xbe140903	-0.14456563
132	0x3d217624	0.03941931
133	0x3edb3926	0.42817038
134	0x3ebe3143	0.3714696
135	0xbea9d5b8	-0.33170867
136	0xbe4ab16f	-0.19794248
137	0xbe67d17b	-0.22638504
138	0xbb9813de	-0.00464104
139	0x3e8dee70	0.27720976
140	0x3e5ffe19	0.21874274
141	0xbcb6ee37	-0.022330387
142	0xbe431e93	-0.19054632
143	0x3e847f2d	0.25878277
144	0xbe54694b	-0.20743291
145	0xbe518e4d	-0.2046444
146	0x3e2e8afb	0.17045204
147	0x3da5002d	0.08056674
148	0x3e92e9f3	0.28694114
149	0xbe8e2d66	-0.2776901
150	0xbe5f10df	-0.2178378
151	0xbe0fff3c	-0.14062208
152	0x3eac1411	0.3360906
153	0x3e435471	0.1907518
154	0x3e69b2f4	0.22822171
155	0x3e1dd300	0.15412521
156	0x3e44dd6e	0.19225094
157	0x3dd69226	0.10477094
158	0xbd61a079	-0.05508468
159	0xbe99c307	-0.30031607
160	0x3e71f003	0.23626713
161	0x3d12a154	0.035798386
162	0x3e9eb401	0.30996707
163	0x3e6533e1	0.22383071
164	0x3e5b7ea0	0.21435022
165	0xbe95cbae	-0.29256958
166	0xbea14dfa	-0.31504804
167	0x3e27ba85	0.16379745
168	0x3d0c3c62	0.034237273
169	0xbec41fb3	-0.38305435
170	0xbe59e456	-0.2127851
171	0xbe4c30df	-0.19940518
172	0xbe693a75	-0.22776206
173	0x3d7d1761	0.061789874
174	0x3dc946ab	0.09827932
175	0xbe5ee004	-0.21765143
176	0xbe94f004	-0.29089367
177	0x3e46aca2	0.19401792
178	0x3e4bad8f	0.19890426
179	0x3d175062	0.036941893
180	0x3dceede7	0.1010397
181	0xbd4b9ff7	-0.0497131
182	0xbe1c3d4e	-0.15257761
183	0xbdb3fef4	-0.08788863
184	0xbe354ef5	-0.17705901
185	0xbebbe4cc	-0.36697996
186	0x3e66d535	0.2254227
187	0xbdd4a621	-0.10383249
188	0x3e951b42	0.2912236
189	0xbf0bda55	-0.54630023
190	0xbe29cdd8	-0.1658243
191	0xbe2736e8	-0.16329539
192	0xbe868958	-0.2627666
193	0xbe09d74b	-0.13461034
194	0xbea07d48	-0.31345582
195	0xbedc067e	-0.42973703
196	0x3ead0dc8	0.33799577
197	0xbec46d92	-0.38364846
198	0xbe3bb060	-0.18329
199	0xbd6d095d	-0.057870258
200	0x3cec4ab3	0.028844213
201	0xbd9fb637	-0.077984266
202	0xbd8ead5a	-0.06966658
203	0x3e7e2f5c	0.24822754
204	0xbce0e94e	-0.027454998
205	0xbe0c2b8c	-0.13688487
206	0x3c4dc998	0.012560271
207	0x3e1c8d9d	0.15288396
208	0xbe6d1876	-0.23153862
209	0x3db4c232	0.08826102
210	0xbe966183	-0.2937127
211	0xbe1c8d4f	-0.1528828
212	0xba9c5a7f	-0.0011928825
213	0x3cb5b227	0.022179676
214	0x3ee41b67	0.44552156
215	0xbe3b4a28	-0.18290007
216	0x3e3ca843	0.18423562
217	0xbd181ed0	-0.03713876
218	0x3ead84be	0.33890337
219	0xbe2d4cd4	-0.16923839
220	0xbddcf79a	-0.10789414
221	0x3e49f936	0.19723973
222	0x3db52601	0.08845139
223	0x3ddf5d0e	0.10906421
224	0xbe48dda6	-0.19615802
225	0x3d201f41	0.039092306
226	0x3eb74b71	0.35799745
227	0xbe0fb010	-0.14032006
228	0x3e33c8f6	0.1755713
229	0xbeb45c94	-0.35226882
230	0x3e647f54	0.22314197
231	0xbd81ba3e	-0.06334351
232	0xbd32ba72	-0.04363484
233	0xbda6fad0	-0.081533074
234	0x3c634636	0.01387172
235	0x3cae72c9	0.021294968
236	0x3eb87bdf	0.36032006
237	0xbe10bac9	-0.14133753
238	0xbe899284	-0.26869595
239	0xbea4152f	-0.32047412
240	0x3ea66442	0.32498366
241	0xbdef393c	-0.116808385
242	0x3ed2d22c	0.41175973
243	0x3e95d907	0.2926714
244	0xbddf16aa	-0.10892995
245	0xbe469f53	-0.19396715
246	0x3edaf74f	0.42766806
247	0xbea447f0	-0.32086134
248	0x3ec7f2d8	0.39052463
249	0xbdbcd79e	-0.09220813
250	0xbc653f56	-0.013992151
251	0x3da03191	0.07821954
252	0x3cbd04cf	0.023073582
253	0x3e59d2a7	0.21271764
254	0xbe34cea4	-0.17656952
255	0x3c99bb59	0.018766092

att_src f4 [1, 1, 32]
0	0xbe31ad4e	-0.17351267
1	0xbea50695	-0.32231584
2	0xbe63f0c3	-0.22259812
3	0xbe5adf51	-0.21374251
4	0xbea7bb3a	-0.3276003
5	0x3e8cbf03	0.2748948
6	0xbeae97cc	-0.34100187
7	0x3da7e9ea	0.081989124
8	0x3eb4d244	0.3531667
9	0x3e994461	0.2993498
10	0x3e90f36f	0.28310725
11	0xbca5ad7d	-0.020224327
12	0xbe157405	-0.14595039
13	0xbedf52b6	-0.4361779
14	0x3e9ea05b	0.30981717
15	0xbbd0618f	-0.006359286
16	0x3d702eb2	0.058638282
17	0xbd0304c6	-0.031986974
18	0xbed5f07f	-0.41785046
19	0xbe3953d4	-0.18098384
20	0x3ed5938e	0.41714138
21	0xbd0048fe	-0.03131961
22	0x3ea3fec3	0.32030305
23	0xbd1e98c8	-0.038719922
24	0xbc58777e	-0.013212083
25	0xbe02e111	-0.12781169
26	0x3bd494d1	0.006487467
27	0xbd96c6ed	-0.07362161
28	0x3dfc75c2	0.12327148
29	0xbf184dc7	-0.5949368
30	0xbeed8c57	-0.46396133
31	0x3d7a5733	0.061118316

att_dst f4 [1, 1, 32]
0	0xbdac52e5	-0.084142484
1	0x3eda21d6	0.4260394
2	0xbe8bd714	-0.2731253
3	0x3e754b7e	0.23954579
4	0xbeffcd3f	-0.49961278
5	0xbd8b1cfa	-0.06792636
6	0x3e17a069	0.14807285
7	0xbeb48b27	-0.35262415
8	0x3ebce9ba	0.3689707
9	0x3ea3e16a	0.32007915
10	0xbdf4a1d5	-0.119449295
11	0xbe319233	-0.17340927
12	0xbf0195e0	-0.50619316
13	0xbeb86202	-0.36012274
14	0x3f010f46	0.5041393
15	0x3e933727	0.28753015
16	0x3e953838	0.29144454
17	0x3efb3b73	0.49068794
18	0xbe8dd67f	-0.2770271
19	0x3eaf71d5	0.34266534
20	0xbe092b84	-0.13395506
21	0x3f02eabb	0.5113942
22	0x3e0d3a47	0.13791762
23	0x3eba1f3a	0.3635195
24	0x3e7a06f0	0.24416709
25	0xbc52a90b	-0.012857686
26	0xbca1814f	-0.01971498
27	0x3de0c82c	0.1097568
28	0xbdd3a255	-0.10333697
29	0xbc808b7c	-0.015691511
30	0x3e271779	0.16317548
31	0x3d327868	0.04357186

bias f4 [32]
0	0xbced069f	-0.028933821
1	0xbcb41d18	-0.02198653
2	0x3c298354	0.0103462525
3	0x3bf2be78	0.0074079596
4	0xbc930fab	-0.017951807
5	0x3bfa768d	0.007643527
6	0xbcfe9508	-0.031076923
7	0x3cd11051	0.025520476
8	0xbca7716f	-0.020439832
9	0xbcf90af6	-0.030400734
10	0x3c33abca	0.010966251
11	0x3cb67c03	0.02227593
12	0x3d8cafee	0.068694934
13	0xbc845e74	-0.01615832
14	0xbc7141f9	-0.014725202
15	0xbc09467e	-0.008378623
16	0x00000000	0.0
17	0xbcbf00d5	-0.023315826
18	0xbd01f9f4	-0.031732515
19	0xbc1bd668	-0.009511568
20	0xbd24f73d	-0.040274847
21	0x3cf824f3	0.030291056
22	0xbc4378b6	-0.011930635
23	0x3a491731	0.00076709973
24	0xbca8bc0b	-0.020597478
25	0x3c7b38db	0.01533338
26	0xbc93f963	-0.018063253
27	0xbc25cb00	-0.0101192
28	0xbc9f4d1c	-0.019445948
29	0x3b881ae6	0.004153597
30	0x3cb4de82	0.022078756
31	0x3cb1e06c	0.021713458

weight f4 [32, 32]
0	0x3e5404ff	0.20705031
1	0x3dc8c8a1	0.09803892
2	0x3e688ab8	0.22709167
3	0xbe4c1fea	-0.19934049
4	0x3e8b7372	0.27236515
5	0x3c9acfe3	0.018897956
6	0x3bc7317a	0.006078896
7	0xbe7fc71b	-0.24978296
8	0x3e63dd34	0.22252351
9	0x3e2c1a48	0.168069
10	0xbe62513b	-0.221013
11	0x3d1b0741	0.037848715
12	0xbe6280c1	-0.22119428
13	0xbe517238	-0.20453727
14	0xbe64b705	-0.22335441
15	0x3d4bea44	0.04978396
16	0x3e3e590a	0.18588653
17	0x3e8f4baf	0.2798743
18	0xbd91e885	-0.07124428
19	0x3c17feff	0.009277104
20	0xbe002cd3	-0.12517099
21	0x3e2ccb6a	0.16874471
22	0x3d7b09eb	0.061288755
23	0xbd372ae0	-0.044718623
24	0xbe47a7bd	-0.19497581
25	0xbe53daeb	-0.2068898
26	0xbca5f6e0	-0.02025932
27	0x3e6a9f6b	0.22912376
28	0x3c85a314	0.016313113
29	0xbd9c44c3	-0.07630303
30	0xbe1d478d	-0.15359326
31	0x3eb33b69	0.35006264
32	0xbee0d74a	-0.43914253
33	0xbe942427	-0.28933832
34	0xbd309108	-0.043107063
35	0x3dd61989	0.10454089
36	0x3e23e1e8	0.16004145
37	0x3d993d2a	0.07482369
38	0xbee4d5d2	-0.44694382
39	0xbd571018	-0.052505583
40	0x3e75f1d3	0.2401803
41	0xbe89cef0	-0.26915693
42	0xbcb11827	-0.021617962
43	0xbda5ec00	-0.08101654
44	0x3e9478d3	0.28998432
45	0xbeca91c2	-0.3956433
46	0xbe4bd9c3	-0.19907288
47	0x3e8d709e	0.27624983
48	0x3d87cecb	0.066312395
49	0x3e6a15e7	0.22859918
50	0xbd150b2c	-0.036387607
51	0xbe89b977	-0.2689931
52	0xbd6fd201	-0.058549885
53	0xbea568c4	-0.32306492
54	0x3f0613ee	0.5237416
55	0x3ce53bf8	0.027982697
56	0xbe9bcc39	-0.30429247
57	0xbea07fb8	-0.31347442
58	0xbd212d16	-0.039349638
59	0x3d427ba1	0.047481183
60	0xbe07d46b	-0.13264625
61	0x3e19e00b	0.15026872
62	0xbe8201a1	-0.25391868
63	0xbe09e6ce	-0.13466951
64	0x3eff4780	0.49859238
65	0x3e02a78c	0.12759227
66	0x3e9359cf	0.28779456
67	0xbe83463c	-0.25639522
68	0xbe5d4231	-0.21607281
69	0x3e822e30	0.25425863
70	0x3e9e16b6	0.30876702
71	0x3ed87786	0.4227869
72	0xbe201adf	-0.1563525
73	0x3e9e4323	0.30910596
74	0xbe20a20f	-0.1568682
75	0x3f01fb28	0.5077386
76	0xbe4f5265	-0.20246275
77	0x3d61776b	0.055045526
78	0xbe268c30	-0.16264415
79	0xbe8072c8	-0.2508757
80	0x3d2b7736	0.041861735
81	0x3b888c32	0.004167103
82	0x3ec5fe8f	0.38670775
83	0xbc2d856a	-0.01059089
84	0x3d06f670	0.032949865
85	0x3e2f9112	0.17145184
86	0xbd9b2dcd	-0.07577095
87	0x3d7fb926	0.06243243
88	0xbe280a71	-0.16410233
89	0x3e51e94f	0.20499156
90	0xbe546fb7	-0.20745741
91	0x3e3c6dbf	0.1840124
92	0xbe295af8	-0.16538608
93	0x3e5b5904	0.21420676
94	0x3d8dd1d0	0.06924784
95	0x3d256b4d	0.040385533
96	0x3eec18a5	0.46112552
97	0x3e7554a6	0.23958072
98	0x3ed75967	0.42060396
99	0xbde24181	-0.1104765
100	0xbe87a2d9	-0.2649143
101	0x3e304296	0.172129
102	0x3d1ba3c0	0.03799796
103	0x3ea837e6	0.32855147
104	0x3e1eb3fe	0.15498349
105	0x3f0353c6	0.51299703
106	0x3e865033	0.26233062
107	0x3d9d20c5	0.07672266
108	0xbeaa615e	-0.3327741
109	0x3cdad5c0	0.026713252
110	0xbe12b603	-0.14327244
111	0xbdd74fe1	-0.105132826
112	0x3d002092	0.03128106
113	0x3d9f1987	0.07768541
114	0xb9ed7284	-0.00045289483
115	0x3f0381f3	0.5137016
116	0xbe75a8af	-0.23990129
117	0x3da49840	0.08036852
118	0xbe80ad89	-0.25132397
119	0x3e128163	0.1430717
120	0x3d987703	0.07444575
121	0xbe84b8da	-0.2592228
122	0xbe93fbd6	-0.28903073
123	0x3e9d3b6d	0.307094
124	0x3e7d68f5	0.24747069
125	0x3ed28059	0.41113546
126	0xbe426d02	-0.18986896
127	0x3cef555d	0.02921551
128	0x3daeaf27	0.085295014
129	0x3e6806a1	0.22658779
130	0xbe76c567	-0.2409874
131	0x3cbb7d40	0.022886872
132	0xbe7b0435	-0.24513324
133	0x3dbbd0dc	0.09170696
134	0x3be9d4b8	0.0071359538
135	0xbe219437	-0.15779196
136	0xbd335481	-0.04378176
137	0xbe338c4c	-0.17533988
138	0x3dea7dbb	0.114497624
139	0xbe283844	-0.16427714
140	0x3e5dbd85	0.21654327
141	0x3e13967c	0.14412874
142	0xbdddc6d2	-0.108289376
143	0x3d6733e5	0.056445975
144	0xbc781019	-0.015140557
145	0x3e1810e8	0.14850199
146	0xbe2e9e5c	-0.17052597
147	0x3d9f2a81	0.07771779
148	0xbba32eeb	-0.0049799583
149	0xbd9272b6	-0.071507856
150	0x3e765016	0.24053988
151	0x3e3c0253	0.18360262
152	0xbe761578	-0.24031627
153	0x3d26faa2	0.040766366
154	0xbe983a54	-0.29732
155	0xbdb0b39d	-0.086280085
156	0x3e108a2d	0.1411521
157	0xbe87a34e	-0.2649178
158	0x3e3d9387	0.18513308
159	0x3db08bec	0.08620438
160	0x3eba5d35	0.36399236
161	0xbe3df789	-0.18551458
162	0x3e6acea9	0.22930397
163	0xbe2ef288	-0.17084706
164	0x3c6400ee	0.013916237
165	0x3e5eae1d	0.21746106
166	0x3e524b18	0.20536458
167	0x3ea06e50	0.31334162
168	0x3ea74763	0.3267165
169	0x3f0853e7	0.53253025
170	0x3e9b3fdf	0.30322167
171	0x3e9e04b0	0.3086295
172	0xbeb537bd	-0.35394087
173	0x3ed4c64b	0.41557536
174	0xbe0d3c80	-0.1379261
175	0xbd90fca7	-0.070794396
176	0xbdccef0b	-0.10006531
177	0xbeb266cc	-0.34844053
178	0x3d9f1a45	0.077686824
179	0x3f009d32	0.5023986
180	0xbe771b52	-0.24131516
181	0x3d67693f	0.056496855
182	0xbdfe6d97	-0.12423246
183	0xbd85518d	-0.06509695
184	0x3e9e9cb4	0.3097893
185	0xbe930788	-0.28716683
186	0xbe3220ad	-0.17395277
187	0xbd5d6519	-0.054051492
188	0x3da283d1	0.07935298
189	0x3eb83587	0.35978338
190	0x3d42c3be	0.047549956
191	0xbeafb05a	-0.34314233
192	0xbe9b6d95	-0.30357042
193	0xbef17cb5	-0.47165456
194	0xbe3fb150	-0.18719983
195	0x3e1e3413	0.15449552
196	0x3e562aa8	0.2091471
197	0x3d9cb453	0.076515816
198	0xbee4a773	-0.44659004
199	0xbe3510d3	-0.17682199
200	0xbe163683	-0.14669232
201	0xbe4b23fa	-0.19837943
202	0x3dcb6675	0.099316515
203	0xbd010860	-0.031502128
204	0x3e8dbfa3	0.2768527
205	0xbdb17bc9	-0.08666188
206	0xbe1f8e6a	-0.1558167
207	0xbdb5c745	-0.08875898
208	0xbe509fcb	-0.20373456
209	0x3e019f89	0.12658514
210	0xbebd6968	-0.3699448
211	0xbed3f584	-0.4139825
212	0xbe9046f3	-0.2817913
213	0xbe64bb17	-0.22336994
214	0x3f010fc5	0.5041469
215	0xbe4802db	-0.1953234
216	0xbd8d4095	-0.06897084
217	0xbe77e34f	-0.24207805
218	0xbc70296a	-0.014658311
219	0x3e9230b6	0.28552788
220	0xbdd30cae	-0.10305153
221	0x3e0acb6c	0.13554162
222	0x3de3e66c	0.11127934
223	0xbe1cc7c4	-0.1531058
224	0x3d7fd08b	0.06245474
225	0x3e8d1673	0.2755619
226	0x3e0b97c6	0.13632116
227	0x3e1f0da1	0.15532543
228	0x3e4828fc	0.19546884
229	0xbe0e226b	-0.13880317
230	0xbe929fd2	-0.28637558
231	0xbe82a4bb	-0.25516304
232	0x3de15a6d	0.110035755
233	0xbe5a1a20	-0.21299028
234	0x3e72deb8	0.23717773
235	0x3de691fe	0.112583145
236	0xbdcdbf25	-0.100462236
237	0xbccbb634	-0.024867155
238	0xbe897341	-0.26845744
239	0xbe30afe5	-0.17254598
240	0xbdf33b6f	-0.118765704
241	0x3e90f900	0.28314972
242	0xbde0f6a8	-0.10984546
243	0x3e1ce346	0.15321073
244	0xbe00eae0	-0.12589598
245	0x3d107b29	0.035273705
246	0xbc83018e	-0.015991952
247	0x3e768688	0.24074757
248	0x3d498556	0.049199425
249	0x3e054c5f	0.13017415
250	0x3b096d50	0.0020969696
251	0xbe9a9df9	-0.3019865
252	0xbd4b83d7	-0.04968628
253	0xbe336824	-0.17520195
254	0xbdf6901a	-0.12039204
255	0x3df55f19	0.11981029

att_src f4 [1, 1, 4]
0	0x3f90c3c4	1.1309743
1	0x3f38f71e	0.7225207
2	0xbe93ae79	-0.2884405
3	0xbefc2bfd	-0.4925231

att_dst f4 [1, 1, 4]
0	0xbf4acf33	-0.7922241
1	0x3f668156	0.900411
2	0x3ef2038e	0.47268337
3	0x3f87207a	1.0556786

bias f4 [4]
0	0xbc2a5e32	-0.0103984345
1	0xbcc129e1	-0.02357954
2	0xbcb82fa2	-0.02248365
3	0xbc5bdeb2	-0.013419794

weight f4 [4, 32]
0	0xbda25af4	-0.07927504
1	0x3ecbaa25	0.39778247
2	0x3ea40d49	0.32041386
3	0x3dc6dd97	0.09710234
4	0x3daebeb3	0.08532467
5	0xbd0490b6	-0.03236457
6	0x3ec67886	0.38763827
7	0x3da20b08	0.0791226
8	0x3d684727	0.05670848
9	0x3e16a77f	0.14712332
10	0x3ec847b1	0.39117196
11	0xbeca8de6	-0.39561385
12	0xbf367acc	-0.71281123
13	0xbe0e6ed5	-0.13909467
14	0xbe8c2bf6	-0.2737729
15	0x3e367b52	0.1782048
16	0x3e7d9560	0.24764013
17	0x3d16f23a	0.0368521
18	0x3dc2e9e1	0.09517265
19	0xbe6db45b	-0.23213331
20	0x3d3f9ed9	0.04678235
21	0x3d924df0	0.07143772
22	0xbeb4d4dc	-0.3531865
23	0xbd3163a8	-0.04330793
24	0xbe13e13a	-0.14441386
25	0xbe205595	-0.15657647
26	0x3eae804d	0.3408226
27	0x3d98fe24	0.074703485
28	0x3bef4c13	0.00730277
29	0xbe8d795c	-0.27631652
30	0xbed22d45	-0.41050163
31	0xbdc7e1c5	-0.09759859
32	0x3e9a3f6e	0.30126518
33	0x3d670037	0.05639669
34	0x3e0996e1	0.13436462
35	0xbcc01dd3	-0.023451721
36	0x3ea50138	0.32227492
37	0x3d4ff9f3	0.05077548
38	0x3eb3633b	0.35036644
39	0xbeb27771	-0.34856752
40	0x3e21d816	0.15805086
41	0x3e145260	0.14484549
42	0xbec68150	-0.38770533
43	0xbe4ffac3	-0.20310502
44	0xbd89bfc4	-0.067260295
45	0x3eb86841	0.3601704
46	0xbdc632cf	-0.0967766
47	0xbe1574bd	-0.14595313
48	0xbe8e5265	-0.27797237
49	0x3e0edec2	0.13952163
50	0x3e25f9fb	0.16208641
51	0xbec625c7	-0.38700697
52	0x3e9e4352	0.30910736
53	0x3e8eb104	0.27869427
54	0x3eb4396b	0.35200056
55	0x3e2b08bc	0.1670255
56	0xbe09725f	-0.13422535
57	0x3e5f2cae	0.21794388
58	0x3d2a92b5	0.041643817
59	0x3eb9063b	0.36137566
60	0xbc038255	-0.008026679
61	0x3df75885	0.12077431
62	0x3e7f258f	0.24916671
63	0xbe6d4472	-0.23170641
64	0xbe9b56a6	-0.30339545
65	0x3dbb581a	0.091476634
66	0x3f2e0e5b	0.67990655
67	0x3f2045a8	0.62606287
68	0xbdd894d8	-0.10575265
69	0x3eb99a5e	0.36250585
70	0xbe1aae97	-0.15105663
71	0xbdf2be45	-0.11852697
72	0x3d451308	0.048113853
73	0xbe97c390	-0.2964139
74	0x3e14ff8f	0.14550613
75	0x3e915d27	0.28391382
76	0xbdf8e5d6	-0.12153213
77	0xbdeb8daa	-0.1150163
78	0x3ef55c38	0.4792192
79	0x3e99e806	0.30059832
80	0xbec56b28	-0.38558316
81	0x3e47c8dd	0.19510217
82	0xbe8c7639	-0.27433947
83	0x3ebcec28	0.36898923
84	0xbebab740	-0.36467934
85	0x3f18c9c6	0.5968288
86	0x3ea09780	0.31365585
87	0xbc75cc49	-0.015002319
88	0x3ec9d7bd	0.39422408
89	0xbe586cfa	-0.21135321
90	0x3eaf4b85	0.34237304
91	0x3ea84833	0.32867584
92	0x3d40ce64	0.04707183
93	0xbe3df681	-0.18551065
94	0xbe989de1	-0.29807952
95	0xbed7a3e1	-0.42117217
96	0xbeb8420e	-0.35987896
97	0x3ea54a0e	0.32283062
98	0xbe0f2cd4	-0.13981944
99	0xbeab30b0	-0.33435583
100	0x3e0f10bc	0.13971227
101	0xbf1e2fb3	-0.61791533
102	0x3d3f25d5	0.04666694
103	0xbe173fa0	-0.14770365
104	0x3e560988	0.20902073
105	0xbd77b551	-0.06047565
106	0xbe8eb1b0	-0.2786994
107	0xbf0027e8	-0.5006089
108	0xbe14a0ff	-0.1451454
109	0xbe907db2	-0.28220898
110	0xbe457128	-0.19281447
111	0xbf0a1559	-0.53938824
112	0x3ea34f06	0.31896228
113	0xbe2c3e33	-0.16820602
114	0x3eaae49c	0.3337754
115	0x3eb79a1c	0.35859764
116	0x3eaf287f	0.34210584
117	0x3d15a172	0.03653092
118	0x3e52d1fd	0.20587917
119	0xbeb23f56	-0.34813946
120	0xbd93fdf7	-0.07226174
121	0xbe1cb9f4	-0.1530531
122	0x3eb858a7	0.36005136
123	0xbc3d5437	-0.011555723
124	0x3d86656c	0.065623134
125	0x3ea93aae	0.33052582
126	0xbe39a683	-0.18129925
127	0xbecef0d8	-0.40418124
