graph_classification_model_fold1.pth (torch, 98134 bytes, 10 tensors)

bias f4 [64]
00000000: 0000 0000 0000 0000 0000 0000 0000 0000
00000010: e327 a0bb 52e0 ac3c 4d85 f23c 7c41 393b
00000020: cba5 b7bb e04e 1a3d 0000 0000 fc02 133d
00000030: 0000 0000 b247 0e3d 0000 0000 0000 0000
00000040: 0000 0000 cce1 95bc 0000 0000 0000 0000
00000050: 0000 0000 0000 0000 f383 c6bb 0000 0000
00000060: 0000 0000 0000 0000 0000 0000 0000 0000
00000070: 0874 33bc 0000 0000 bc76 c0bb aca1 fa3c
00000080: 52cc 0abc b560 b7bb 84fe ab3c 8113 ef3c
00000090: 0000 0000 0000 0000 5ed5 ff3c 0000 0000
000000a0: 31a6 a93c 0000 0000 38f2 a7bc 0000 0000
000000b0: 0000 0000 b6f4 bb3c 0000 0000 0000 0000
000000c0: 0000 0000 2ff7 2c3d c61f dd3c 0000 0000
000000d0: 0000 0000 0000 0000 0000 0000 b36c dbbb
000000e0: 0000 0000 b213 43bc 5929 1a3d ee8c c3bb
000000f0: 2b54 2b3d 60be 033d 0000 0000 0000 0000
0.0 0.0 0.0 0.0 -0.0048875674 0.021103058 0.029604578 0.0028267791
-0.005604481 0.037672877 0.0 0.035891518 0.0 0.034736343 0.0 0.0
0.0 -0.018296145 0.0 0.0 0.0 0.0 -0.00605821 0.0
0.0 0.0 0.0 0.0 -0.010952957 0.0 -0.0058735292 0.03059467
-0.008471565 -0.005596245 0.020995386 0.029184105 0.0 0.0 0.031229671 0.0
0.020709129 0.0 -0.020501241 0.0 0.0 0.022943836 0.0 0.0
0.0 0.04222792 0.02699269 0.0 0.0 0.0 0.0 -0.0066963076
0.0 -0.011906551 0.03763709 -0.005967728 0.041828316 0.032163978 0.0 0.0

weight f4 [64, 1]
00000000: e8f8 b6bd 1c63 76bd 8099 e3bd 044d 13be
00000010: 76d0 5c3e e0fd 913e 067e 153e 7067 823e
00000020: e099 e83d 316e 423d c07b f7bd 9d99 973e
00000030: 9a2f 5ebe d7c8 643e f8ee 1ebd 34d4 f5bd
00000040: 00d7 beba 21ee 703e cfd0 89be ed30 71be
00000050: 94c3 63bd b52d 9abe 477e 0f3d 5247 5cbe
00000060: c09f 8bbe 50c2 fcbd 0bb5 26be 005a cdba
00000070: c7d5 603e c686 97bd 3909 493d f2d6 123e
00000080: 31dc 8f3d 4c77 273c 8d5c 4e3d a800 473e
00000090: f1a2 8bbe beca f7bd 496e 883e 2036 a3bd
000000a0: b295 473e fb8d 78be 23c0 0a3e e086 11bc
000000b0: 301b 92be 4d02 a83d 30f9 03bd 9ffb 96be
000000c0: ca97 c1bd 5a16 863e 6c6d 453d 63fb 3dbe
000000d0: db8e 20be ebf3 0dbe 6339 21be 185a 403d
000000e0: d50d 12be 5d68 543e 1df3 373e 5778 8d3e
000000f0: 90bb 023a 77a0 923e 123a 82be 8bda 27be
-0.08934194 -0.06015311 -0.11113262 -0.14384848 0.21563897 0.28514004 0.14598855 0.25469542
0.11357474 0.047468368 -0.1208415 0.29609385 -0.21697846 0.2234224 -0.038802117 -0.12003365
-0.0014559925 0.23528339 -0.2691712 -0.2355382 -0.05560644 -0.30112997 0.035032537 -0.21511582
-0.27270317 -0.1234175 -0.1628 -0.0015667081 0.2195655 -0.07398753 0.04908106 0.14339808
0.0702442 0.010221314 0.050381232 0.19433844 -0.27272752 -0.12099217 0.2664664 -0.07969308
0.19490698 -0.24272911 0.13549857 -0.008882254 -0.28536367 0.08203564 -0.032220066 -0.29488847
-0.094527796 0.26188928 0.048200056 -0.18552928 -0.15679495 -0.13862579 -0.15744548 0.04696092
-0.14263089 0.20742936 0.17963834 0.27630875 0.00049870554 0.2863805 -0.2543493 -0.16391961

bias f4 [64]
00000000: 0000 0000 9b14 f03c 7027 3f3c 0000 0000
00000010: cb9f 303d 0000 0000 5418 993c 7462 2c3d
00000020: 3743 3d3c 0000 0000 be87 443d 3e36 1b3d
00000030: 0000 0000 9075 1cbc fb67 9d3c 4a2e 11ba
00000040: b56f c8bb 0000 0000 0000 0000 0000 0000
00000050: 0000 0000 d5c9 c4bb cab7 453d 0000 0000
00000060: 297c 0c3d 241f fe3c 4e31 afbb 0000 0000
00000070: 093e 85bb 174c 293d c9c9 c4bb 9e99 fa3a
00000080: cede e53c 0a06 153d 0000 0000 a2b5 223d
00000090: d6c9 c4bb 6415 4dbc c9c9 c4bb 8a29 fb3c
000000a0: f0e8 bdbb 3964 cd3c c7c9 c4bb 8af2 3d3d
000000b0: 0000 0000 0000 0000 6ef2 c7bb 78f3 313d
000000c0: a539 73bb 3285 103d 0000 0000 07d1 07bc
000000d0: a610 133d 0000 0000 0000 0000 5d8f c7bb
000000e0: ea95 c6bb 312c 43bc 6574 383d 7352 103d
000000f0: 967d d73c b091 aabb 0000 0000 0a6f ca3c
0.0 0.0293067 0.0116671175 0.0 0.04312114 0.0 0.018688358 0.04208608
0.01155167 0.0 0.047981016 0.037893526 0.0 -0.009549513 0.01921462 -0.00055382086
-0.006116832 0.0 0.0 0.0 0.0 -0.0060055056 0.048270978 0.0
0.034298096 0.031020708 -0.0053464537 0.0 -0.004066233 0.04133233 -0.0060055 0.0019119268
0.028060343 0.036382712 0.0 0.039724 -0.006005506 -0.012517307 -0.0060055 0.030659456
-0.0057955906 0.025072204 -0.006005499 0.04637388 0.0 0.0 -0.006101898 0.04344508
-0.0037113216 0.035283275 0.0 -0.008289582 0.03590455 0.0 0.0 -0.0060900883
-0.0060603516 -0.0119123915 0.045032877 0.03523488 0.026305001 -0.0052053556 0.0 0.02471115

weight f4 [64, 64]
00000000: 8294 46be b8a6 4cbd 48f0 a33c af68 413e
00000010: 18c8 bebc 7a08 16be 480c dbbd e37b cbbd
00000020: fc64 3cbd 989f 56bd b929 2a3e d05f 1dbe
00000030: 7a11 df3d 7dd5 eebd 6c35 2c3d 1eee de3d
00000040: c220 db3d 8c5f 5a3d ffb1 5c3e d8b3 083d
00000050: 837f 003e e574 52be 8603 e43d 18b1 1ebe
00000060: 98e6 08bd f0cc 33bc b151 583e eb19 59be
00000070: 40cf 0dbc 6b23 443e b3f7 383e 2615 2bbe
00000080: 3429 a6bd aea4 9a3d 6f1c 233e 1058 0ebc
00000090: 866f 59be d644 853d c0ed 80bb b836 26be
000000a0: b4d3 203d 88b3 4dbe 751b 023e 5c12 31be
000000b0: fca1 99bd 1cee 5b3d a5fe 093e fcac 40be
000000c0: d611 36be 498f 5d3e 06bd d7bd f0f7 4bbe
000000d0: 6ccf 43be cd36 4e3e 400c 6bbd 258c 2f3e
000000e0: 6a11 4cbe a0dc 67bd 27c2 433e c0a8 3ebe
000000f0: c89b 8fbd 5510 093e 9f8c 233e 46fc 923d
00000100: 153f 0c3e 501f 97bd 1acd c3bd 23bd 193e
00000110: 713a 49be 811a 80bb d7b5 633e 42ca 9d3d
00000120: b323 96bc a9d8 2bbd 8003 353c d7e0 01bd
00000130: 8d4b 24be 6219 4dbd 4d56 5abe 9d55 483e
00000140: 57ab 52be c733 013c 1288 8b3d 9788 5abe
00000150: 0a93 f33d 80c7 b3bc f1a6 9f3b 10ca 9f3c
00000160: 58ec c9bc c4c2 743d 8e74 ac3d 1f72 2ebe
00000170: 67c7 4bbd d63f 39be 547b f5bd 509f 1d3e
00000180: f4f4 2ebe 6397 1ebc 9430 8f3d 623a fc3d
00000190: 22ec 9a3d 6584 51be 0959 6c3e 6014 943b
000001a0: da83 063e 3c29 203d 89d8 493e 2840 ee3c
000001b0: dcf4 bebd c0fe 373e a035 ad3c b7a1 3c3e
000001c0: eaf8 3abe 6249 3e3e 3906 3ebd 8598 2f3e
000001d0: 0c41 41be c638 b03d e369 333e 5a93 903d
000001e0: 3cd5 1cbd f86e 433e e366 7cbd 52c8 73bd
000001f0: b778 153e 0185 453e 6041 fcbd a371 59be
00000200: 869c 973d c88f a0bc b7e3 c6bd 8ed9 3abe
00000210: 8e9c 403e c1cb 84bd d597 94bc 4ea1 3bbc
00000220: 335c 1abe 09c3 203e 8882 92bd cfd1 793d
00000230: 54a9 1a3d bbf4 923d eb50 573e 8dfa 00be
00000240: 6474 edbd 7004 073e 9829 b4bc 4035 3fbc
00000250: ccb4 04bd 00ba d83a 1b1b 38bd 0cd3 583d
00000260: 8031 3cbe a83a b7bc 363f b93d b6f2 22be
00000270: da99 94bd 0cf6 94bd 6e9a 01be 456d 373e
00000280: a682 8e3a 3b4d febd ba01 123e 3018 553c
00000290: 948d ccbd 1dbc 54be 90f0 bf3c 412f 443e
000002a0: 3ad4 2dbe 35c7 293e b2a5 3e3e 8c22 163d
000002b0: e27e 19be 1ff7 fa3d f7bb 383e b4d6 a0bd
000002c0: d440 02be 8830 4b3e 26aa 343d 6cf7 f3bd
000002d0: 80cf 933b c096 773c 5152 3fbe fe42 cdbd
000002e0: c012 55bd 432e e5bc 0c1c 20be 06c7 823e
000002f0: 369f 593e 6d6f 73bd 351d 28be 821d d6bd
00000300: da63 a6bd 9607 26be dc0c a4bd 2e77 a73d
00000310: 94c8 16be d816 f9bd c6d4 5abe 20b6 7bbc
00000320: 9019 a9bc 0fd5 093e e179 eebd fcbb d5bd
00000330: c01f 02bb a01b 413c d805 023d f07d cfbd
00000340: 9c9d 063d 6e81 a93d f062 44be 248a 223d
00000350: 3f64 1d3e 00a1 dc3c bd84 57be 36df 24be
00000360: b49c 30be 3655 0fbe ea1a df3d b27b a7bd
00000370: 6c3c 07bd 9ae7 a73d b721 edbd cbcc 3ebe
00000380: 9803 c0bc 8a6b cc3d 027d d23d 20e3 0b3c
00000390: 0458 1bbd 80b6 30be 0764 4b3e 6498 703d
000003a0: 1a15 cf3d df18 473e 6465 34be 82e3 e4bd
000003b0: 75d0 4a3e 48a7 ecbc 0213 fc3d aa25 f33d
000003c0: 3412 fcbd e5c3 073e cac9 05be 98fd 47be
000003d0: efd0 233e c266 38be 35a7 083e 5040 e7bc
000003e0: 2071 3cbd c6f8 c03d 12e7 87bd 5dd4 583e
000003f0: 7411 253d 7f19 fcbd bcf4 163d c889 ff3c
-0.19392589 -0.049963683 0.020012036 0.1888759 -0.023288772 -0.14651671 -0.10695702 -0.09935739
-0.045994744 -0.052398294 0.16617478 -0.15368581 0.10892005 -0.116618134 0.042043135 0.10885261
0.106996074 0.053313777 0.21552275 0.033374637 0.12548642 -0.20552404 0.111334845 -0.15497243
-0.033423036 -0.010974154 0.21124913 -0.21201293 -0.008655369 0.19154136 0.1806324 -0.16707286
-0.081133276 0.075509414 0.15928815 -0.008687988 -0.21233949 0.0650727 -0.003934592 -0.16231811
0.039264396 -0.20088017 0.12705787 -0.1729216 -0.07501599 0.053693876 0.13476045 -0.18815988
-0.17780241 0.2163669 -0.105341 -0.199188 -0.19122094 0.20138092 -0.05738473 0.17143305
-0.19928518 -0.05660689 0.19117032 -0.1861906 -0.07012135 0.13385136 0.15971611 0.071770236
0.13695939 -0.07379019 -0.095606044 0.15013556 -0.196512 -0.0039094095 0.22237335 0.07704593
-0.01832757 -0.04195467 0.011048198 -0.031708565 -0.16044445 -0.050073035 -0.21321984 0.19563909
-0.20573173 0.00788588 0.06813063 -0.21341167 0.1189328 -0.021945715 0.004872196 0.01950553
-0.02464883 0.059756055 0.084206685 -0.17035721 -0.04975071 -0.18090758 -0.119864136 0.15392804
-0.1708563 -0.009679648 0.069916874 0.12315823 0.0756457 -0.20460661 0.23080839 0.0045190305
0.13136235 0.039101824 0.19711508 0.029083326 -0.09324047 0.17968273 0.021143734 0.18421064
-0.18259016 0.18582681 -0.046392653 0.17148025 -0.1887247 0.08604579 0.17520861 0.07059355
-0.038289294 0.190853 -0.061621558 -0.059517212 0.1459683 0.19289018 -0.12317157 -0.21234755
0.07402901 -0.01959981 -0.09711402 -0.18247053 0.18809721 -0.064841755 -0.018138805 -0.011452032
-0.15074234 0.156994 -0.07153803 0.060991105 0.03775914 0.07175585 0.21026962 -0.12595578
-0.115944654 0.13185287 -0.02199249 -0.011670411 -0.032398984 0.0016534925 -0.044947725 0.052935645
-0.18378258 -0.022366837 0.0904526 -0.159129 -0.07255907 -0.07273492 -0.12656567 0.17912777
0.0010872677 -0.12417074 0.14258471 0.013006255 -0.099879414 -0.20774885 0.023430139 0.19158651
-0.1697549 0.16579898 0.18617895 0.03665404 -0.14989808 0.12254166 0.18040453 -0.07853451
-0.12720042 0.19842732 0.04410758 -0.11912426 0.00451082 0.015111625 -0.18683745 -0.10022543
-0.052019835 -0.02797616 -0.15635699 0.25542468 0.2125214 -0.059432436 -0.16417392 -0.10454847
-0.08124514 -0.16213831 -0.08010265 0.081770286 -0.14724952 -0.1216256 -0.21370229 -0.015363246
-0.020642072 0.13460182 -0.1164434 -0.10436246 -0.001985535 0.0117863715 0.031743854 -0.101314425
0.03286515 0.0827664 -0.19178367 0.039682522 0.15370272 0.02693224 -0.2104673 -0.16100773
-0.17247277 -0.13997349 0.10893805 -0.0817789 -0.033016607 0.08198471 -0.11578696 -0.1863281
-0.023439214 0.09981449 0.102777496 0.008538038 -0.037925735 -0.17257118 0.19862376 0.05873908
0.10111447 0.19443081 -0.17616802 -0.11176206 0.19806083 -0.02888836 0.12308313 0.11872418
-0.123081595 0.13258322 -0.13065258 -0.19530332 0.1599767 -0.18007949 0.13345034 -0.028228909
-0.046006322 0.0942245 -0.0663587 0.2117476 0.040299848 -0.123095505 0.03685449 0.031193629

bias f4 [64]
00000000: de1b 0f3d 0000 0000 b005 943c 4721 25bc
00000010: 02bf 97bc 0000 0000 575b 013d 0000 0000
00000020: 0000 0000 0000 0000 f4d7 1fbb 8315 e1bb
00000030: 2215 0d3d 0000 0000 5627 b6bb 0000 0000
00000040: a564 1b3d 263c 73bb c851 493d 91bc aa3c
00000050: bf28 513d d2c9 c4bb 330b 34bb c85e 993d
00000060: 5563 4f3c 0000 0000 f7b7 843c 3e0d 1a3d
00000070: abfb 283d d893 193d 0000 0000 0000 0000
00000080: 0000 0000 09e4 493d 4933 363d 0000 0000
00000090: b7b7 f3bc 2013 883c 0000 0000 0000 0000
000000a0: 0000 0000 0000 0000 cce3 a2bc 458e a0bc
000000b0: f4d9 dbbb f4b6 5cbc 71bd 163d 534d 6bbc
000000c0: 7119 0c3d c193 1dbd 0000 0000 c8c9 c4bb
000000d0: 0000 0000 6f7c 91bb 7d33 313d cec9 c4bb
000000e0: d882 2d3d fcc4 9d3b 2f19 f3bb 3576 563c
000000f0: e227 b6bb 0000 0000 b1b8 433c af4c 32bc
0.034938686 0.0 0.018069118 -0.010078735 -0.018523697 0.0 0.03158125 0.0
0.0 0.0 -0.0024390193 -0.0068690195 0.034443982 0.0 -0.0055588884 0.0
0.03793778 -0.0037114709 0.04915026 0.020841869 0.05106425 -0.006005504 -0.0027472496 0.07488781
0.01265796 0.0 0.016201003 0.037610285 0.041255634 0.03749451 0.0 0.0
0.0 0.049289737 0.044482503 0.0 -0.029750688 0.016610682 0.0 0.0
0.0 0.0 -0.019884013 -0.01959909 -0.0067093316 -0.013471354 0.03680176 -0.014361697
0.03420395 -0.038470987 0.0 -0.0060054995 0.0 -0.0044398825 0.043261994 -0.0060055023
0.04236111 0.004814742 -0.0074187736 0.013089706 -0.0055589536 0.0 0.011945889 -0.010882541

weight f4 [64, 64]
00000000: 2047 50be ba49 e83d 4067 723e da11 963d
00000010: faaa f5bd 8c4a 7f3d 613c 333e 948a 31bd
00000020: 610e 5c3d dbfe 503e fd25 243d 75b3 533e
00000030: be3d 1fbe ff83 e2ba 127d fd3c 5d16 0fbe
00000040: 279b 2cbe b485 263d e222 46be 449c 21be
00000050: a5ca 043e 00f3 adbd f517 d23d 7b68 51be
00000060: c86c cdbd a601 513e 583a 59be 3090 1dbe
00000070: a48c 1a3d 9e11 293e 1f27 273e 42c5 813d
00000080: cead 2dbe eb2d 91bd 369e b43d 6c4b 9d3d
00000090: a87e 19bd 6678 6abd af60 0c3e 48c2 603e
000000a0: a69d c73d c982 ad3d 5266 b0bd eb4f f7bd
000000b0: 78a1 ebbd 3f1a 4d3e 71ad 7b3d 09f1 4ebd
000000c0: baf7 9bbd a6cc 543e fddb 1fbe d67b 49be
000000d0: 4985 343e 8f7f 2dbe 10b9 c8bc 782a 533d
000000e0: 915c 3d3e 32b6 05be 7d58 243e 9df7 9fbd
000000f0: a585 9d3d 5067 2b3e f615 f33d 32f2 0e3e
00000100: 1816 4bbe fb06 17be 6c8e 40be 8003 af3c
00000110: 1267 04be c8a1 0fbd 5af3 30be 16ec 09be
00000120: c7ed 0c3e 05b2 eebd 000a f2bc 7496 a5bd
00000130: ee18 07be 20a4 e53c 9184 4b3e 2b84 223e
00000140: 0c47 443d f7bc ebbd 4c6a 6a3d 4ca8 06bd
00000150: 040d 223d b7dc dfbd e4ed 733d 753e 18be
00000160: a09f 4abe 1283 dabd b433 6abd fd30 213e
00000170: fa1a f13d 679b d0bd 7043 43be 7f72 1c3e
00000180: 85da 493e ac10 91bd a0a6 f3bb 66a8 ed3d
00000190: f08c 1dbd 5aaa de3d 3f92 c9bd f97c 023e
000001a0: 72e0 c23d 2c70 52be 8f54 553e 4bec 163e
000001b0: 145f 32bd 32ed b0bd fe43 15be 6010 ae3c
000001c0: f0dc 26bc 7015 26bd f536 563e 7a21 883d
000001d0: 68dc 54be bcb2 6a3d d0dd f23c 93dc 0d3e
000001e0: d0c1 96bd d64c f73d c243 8fbd 9cdf 4cbd
000001f0: 2c18 f7bd 06bd 0ebe e80b c23c 5048 d03c
00000200: 9470 00be 29b3 393e 87a4 48be 029f 98bd
00000210: cb53 4a3e c087 7ebd 77b7 13be 8d31 a93b
00000220: d623 ec3c 8665 ae3d 22e7 a83d 5c0f 81bd
00000230: e045 30bc 299d 40bc 03e9 2d3e 9ee4 273e
00000240: f65e a3bd 65ce 3d3e df33 203e 1b68 1abe
00000250: 84fb 1bbe 5f70 cf3d ddd9 02bd d871 82bd
00000260: 6a75 323b 0fca bd3d 9374 1c3e 6175 3c3e
00000270: 0d9b a5bc cde8 58bc 9dec 44be bd62 1b3e
00000280: e55d b8bd 88ba 36bc 641b 6b3d 15d9 9b3d
00000290: 8115 45be 4ae1 eb3d ed38 d53d bf5e 1a3e
000002a0: 0890 2abe 9c4c 45be acbe 603e d0f0 b9bd
000002b0: 1496 c7bd 1a84 893d e039 87bd 7c56 d33d
000002c0: b185 623c 231b 1a3e 4058 da3b 644d 47be
000002d0: 0ed9 073e b800 55be b322 c6bd afba eb3d
000002e0: e73b 4dbe f600 f53b 6e16 e2bd 8031 6a3d
000002f0: d8ba 6e3d 60dd 583e 660a f83d 12b3 edbd
00000300: e5b6 193e 5f22 463e 3ca0 1ebe f172 4f3e
00000310: bbeb 9bbd 3de2 043e 0c08 54bb 9822 273e
00000320: c77e 44bd 918d 24be f9c4 3abe 42e9 38be
00000330: 9ec1 bd3d aaa0 82bd cb0e 22be 2e71 1f3d
00000340: b0c5 dd3c 28bb 81bc 3c8a 19bd 5570 053e
00000350: b51d 4e3e 15dd 503e 9d54 813d effa 0abe
00000360: f527 12be fe0d 67bb f285 903d 783b 92bc
00000370: d961 533e bb09 473e 819d 223e 95a2 08be
00000380: de9d b23d 61a8 d83c 0094 7939 92d0 9bbd
00000390: 0077 703a cc62 53be ab8d cbbd a808 40be
000003a0: 1c9f 5dbd 9bce 11be caca 4dbe 0cbe 60bd
000003b0: 8e5f b1bd 7cfe 6e3d 9b23 4a3e b568 10bc
000003c0: fbf8 3fbc 770a 8b3d 66f0 a93d 65a3 333e
000003d0: b30d 283e 6f3f 193e 70f7 bf3c bcce 3c3d
000003e0: c98c 543e 617c 393e 1a70 61bd 1f26 323e
000003f0: 42b5 52bc fcfd babd 0908 0ebe 9045 86bd
-0.20339632 0.11342187 0.23672199 0.07327624 -0.11995502 0.062326953 0.17503501 -0.04334505
0.05372465 0.2040972 0.04007529 0.20673926 -0.15550897 -0.001728177 0.030943427 -0.13973375
-0.16856061 0.040654853 -0.19349244 -0.15782267 0.12967928 -0.08493614 0.10258476 -0.20450012
-0.10030514 0.20410785 -0.21213663 -0.15387034 0.03773178 0.16510627 0.16323517 0.06336452
-0.16960832 -0.07088836 0.08819239 0.07680401 -0.037474304 -0.057243727 0.13708757 0.21949112
0.09746866 0.08472211 -0.08613266 -0.1207579 -0.11505407 0.20029543 0.061444703 -0.050522838
-0.076156095 0.20781192 -0.15611263 -0.19676146 0.17628969 -0.16943191 -0.024502307 0.051554173
0.18492343 -0.13057783 0.1604938 -0.078109 0.07691506 0.1673863 0.11869423 0.13959578
-0.19832647 -0.14748757 -0.1880433 0.021363974 -0.12929943 -0.035066396 -0.17280331 -0.13468966
0.1376258 -0.11655048 -0.029545784 -0.08085337 -0.13193104 0.028032362 0.19874789 0.1587073
0.047919318 -0.115106516 0.05723028 -0.032875344 0.039563194 -0.1093077 0.059553042 -0.14867575
-0.19787455 -0.10669531 -0.057178214 0.15741344 0.117727235 -0.10185891 -0.19068694 0.15278052
0.19712265 -0.07083258 -0.0074356347 0.11604385 -0.038464487 0.10872336 -0.09842347 0.12742986
0.09515466 -0.20550603 0.20833038 0.14738576 -0.043547705 -0.086389914 -0.14576718 0.021248043
-0.010184512 -0.04054779 0.20919402 0.0664701 -0.20787203 0.05729936 0.029646784 0.13853674
-0.073611856 0.12075202 -0.06995346 -0.050017938 -0.12065157 -0.13939294 0.023687318 0.025425106
-0.12542945 0.1813475 -0.19594012 -0.07452203 0.19758527 -0.06214118 -0.14425455 0.0051633776
0.028825682 0.08515458 0.0824721 -0.06301758 -0.010758847 -0.01175622 0.16983418 0.16395804
-0.07977097 0.18535765 0.15644787 -0.15078776 -0.15232664 0.10128855 -0.031946052 -0.0636937
0.0027230629 0.09267055 0.15278845 0.18404151 -0.020215536 -0.013239098 -0.19230886 0.15174384
-0.09002284 -0.011152871 0.05739917 0.076097645 -0.19246484 0.1151758 0.10411248 0.15075205
-0.16656506 -0.19267505 0.21947736 -0.090791345 -0.09745422 0.067146495 -0.06602836 0.1031923
0.01382582 0.15049414 0.0066633523 -0.19463116 0.13266394 -0.20801055 -0.09674587 0.115102164
-0.20042382 0.007476921 -0.110394344 0.057176113 0.058283657 0.21178198 0.12111358 -0.116064206
0.15011175 0.19349049 -0.15490812 0.2025869 -0.076133214 0.12976928 -0.003235343 0.1632179
-0.047972467 -0.16069628 -0.18239202 -0.18057731 0.09265445 -0.063783005 -0.15825956 0.038926296
0.027071804 -0.015836313 -0.037485346 0.13031133 0.2012852 0.20396836 0.06314967 -0.13572286
-0.14273055 -0.0035256143 0.07056798 -0.017850623 0.20642795 0.19437306 0.15880395 -0.1334327
0.08721517 0.026447477 0.00023801625 -0.07608141 0.0009173006 -0.20643157 -0.099391304 -0.18753302
-0.054106817 -0.1423897 -0.20096889 -0.054868743 -0.08660804 0.058348164 0.19740145 -0.008814027
-0.011717076 0.067891054 0.082978055 0.17542799 0.16411476 0.14965604 0.023433417 0.046095595
0.2075683 0.18113853 -0.05503855 0.17397355 -0.012860598 -0.09130475 -0.13870253 -0.06556237

bias f4 [64]
00000000: 5187 1fbc 0000 0000 0000 0000 0000 0000
00000010: 0000 0000 1d6d 733d cbca c6bb 9b7c 58b9
00000020: 22aa 6fbc d2c9 c4bb 0000 0000 0000 0000
00000030: 719e b63c 0c2b a53c 87d4 d93c 27df c23b
00000040: 9f2d 433c 0000 0000 9a4c c5bb 0000 0000
00000050: 45b3 07bc 0000 0000 0000 0000 5327 b6bb
00000060: 0000 0000 5df1 10bc 8077 723d 0000 0000
00000070: 9b12 373d 341d f03b 579e 2ebc ea6e babc
00000080: 0000 0000 757a 293d 02f9 183d 0000 0000
00000090: 273c 02bc 0000 0000 0000 0000 0000 0000
000000a0: 1036 afbc 1083 9abc 43e7 61bc d6c9 c4bb
000000b0: 047b 1eba 0000 0000 7e9d 0c3d 0000 0000
000000c0: 9033 8f3d 0000 0000 0000 0000 10ee fbbb
000000d0: 0000 0000 9827 933b 0000 0000 679e 25bc
000000e0: 69e2 803c 7002 5bbc 0000 0000 0000 0000
000000f0: f67d 2e3d d0c4 9d3d 0000 0000 0000 0000
-0.009736852 0.0 0.0 0.0 0.0 0.05943023 -0.0060666553 -0.00020645784
-0.014627965 -0.006005504 0.0 0.0 0.022292348 0.020162128 0.026590599 0.005947012
0.011912732 0.0 -0.0060210945 0.0 -0.008282487 0.0 0.0 -0.005558887
0.0 -0.008846608 0.059195995 0.0 0.044695478 0.0073277 -0.010657868 -0.022757966
0.0 0.04137655 0.037346847 0.0 -0.007948912 0.0 0.0 0.0
-0.021388084 -0.018861324 -0.013788047 -0.006005506 -0.00060455524 0.0 0.034329884 0.0
0.06992257 0.0 0.0 -0.0076882914 0.0 0.004490804 0.0 -0.010108567
0.01573296 -0.01336728 0.0 0.0 0.042600594 0.07703555 0.0 0.0

weight f4 [64, 64]
00000000: 005c 293e 0c5d 503d bba8 8e3d dac8 f5bd
00000010: b7b3 88bd 7202 aa3d e4d8 05be 825a 18be
00000020: 50d1 e5bd 55e8 fabd b9f3 1d3d f175 503d
00000030: 08a2 163e 3dee 583e 61c6 90bd dcaa 5b3d
00000040: 4676 dcbc 1687 d83d 7c4e 5abe 63a6 203e
00000050: 2324 9e3d 002c 8cb9 8a87 043e 6456 853c
00000060: d79b 453e 9f7d 26be ca5a 46be 9160 35be
00000070: 42c3 afbd d5c5 33be 1faf f8bd 5798 553e
00000080: f62e 12be e3a2 07be eab4 5ebe 94b2 623d
00000090: 90d2 6ebc 3727 463e 8260 15be acd5 34be
000000a0: bef2 35be a4d6 4a3d 52c4 2fbe 53d8 5cbe
000000b0: 2ed2 07bc d606 403d 4b40 163e 63ee 2a3e
000000c0: 15be 6dbe 32f3 c63d 8b55 233e 044b 423d
000000d0: 742d 30be e9ea d13d 0784 29bc dde4 413e
000000e0: 68ae 053e 4f8d a43c 4ce7 503e 9fdd 0dbc
000000f0: 1eda acbd 4cc9 fbbd c6dd 0abe 330f d0bd
00000100: 8440 26bd 0002 50bd 1aea a93d a817 bbbc
00000110: 34de 46be f063 4c3c 1c8a 08be 7f4b 4a3e
00000120: 20ce 4cbd 567e de3d c231 acbd a009 443c
00000130: 0731 4cbe 3adc ab3d e0fe e3bb dd7d 0b3e
00000140: cdc3 393e 8908 21be 4aaa 40be d4f0 2abd
00000150: 0080 2fbb 3461 163d de97 00be e1db 523e
00000160: d6e6 3cbe e0e4 a23b 7f99 453e 7c07 53be
00000170: 0319 073e 26a6 e5bd 28f3 003d ac3e 1abe
00000180: 3868 a8bd 5cfd 4ebd 5499 07bd 0468 93bd
00000190: 6a98 ac3d 6458 0dbe 9abb de3d 565f d93d
000001a0: c8cb 99bc 1e59 dc3d a7b2 093e 09ab 4cbe
000001b0: b6cc e2bd 21c5 f6bd 7a5e 8cbd f62d a7bd
000001c0: 58bd 5abd 1477 2abe c3ab 313e 8042 ceba
000001d0: 0a37 b7bd a004 c03b 644e 133d 7817 b4bc
000001e0: 7cd6 02bd fa61 48be 0ad3 913d a061 d83c
000001f0: e25d 8c3d bb3d 1fbe 4535 153e 4a91 f13d
00000200: 74ee 5c3d 1474 63bd 9a87 dc3d 5de2 303e
00000210: 7810 eabc 7312 053e c838 51be 4796 593e
00000220: aa2c b7bd 4c99 58be 35ce f6bd c083 ad3b
00000230: a252 43be a5ce 4cbe 275e 543e 2e38 f53d
00000240: 3619 8b3d 7242 8b3d ea3b 00be 42a1 3dbe
00000250: e043 fbbd dadd 9c3d 7bc0 3dbe 5666 31be
00000260: e599 2e3e d07f 0e3c 7ada 823d dcf9 643d
00000270: afb6 edbd 18bc acbd a03e d2bb 6ab7 b53d
00000280: 24d2 00bd 62a2 25be 2ad5 ed3d 7c1b 183d
00000290: a828 ed3c 5dee 533e 60ef 0cbe 8c92 2e3d
000002a0: c4ff 113d ef26 1e3e a99a d8bd 9c9b 483d
000002b0: d86d 953c de81 9d3d 7686 b23d eecc 88bd
000002c0: 44ac 173d 9050 acbd f221 21be 2215 aabd
000002d0: 6f3f 5b3e 97c1 323e ec1d 123d 43f4 2c3e
000002e0: 1edc 46be 3048 2bbd 1939 c9bd a371 443e
000002f0: b01f 8ebd c491 02bd 52e1 b9bd b8ec adbd
00000300: 7266 e43d 6568 12be ba4b 35be 28a5 1dbd
00000310: f5f7 423e b665 893d 2a9e bebd c0c5 b8bd
00000320: b62b ddbd 9157 4b3e dd8a e7bd 6e19 17be
00000330: bc45 b7bd 4a8d b13d 06fe f2bd 92bc a7bd
00000340: 00c2 36ba f5cb 083e a00b 6fbd 4027 e13c
00000350: f800 c1bd d849 b6bd c01e 0cbe 549f aabd
00000360: 0dc0 503e cf91 ffbd e900 3d3e f0b7 97bd
00000370: e52f eabd cec7 09be cd65 1e3e e9a1 223e
00000380: 8054 ccbd b385 34be 900c 2fbc 8418 21be
00000390: 1609 c53d 2605 ec3d c0a2 1cbb 03c4 023e
000003a0: 7d8a efbd 8e3a b4bd d426 24bd 7040 07bc
000003b0: 6f4f bebd 0566 593e d07c 71bd 48ec c83c
000003c0: 6f5c 513e 1b88 093e 7041 403c 5981 053e
000003d0: 8e39 ddbd 4a75 8b3d 9e5b d13d 4d7d 12be
000003e0: da6c ff3d 05e7 113e b82b 2bbe aaa4 07be
000003f0: 31fe 0e3e c813 75bd 9473 5cbd e5da 513e
0.16539001 0.050869986 0.069657765 -0.120012 -0.06674903 0.08301248 -0.13071018 -0.14878276
-0.11221564 -0.12251345 0.03856251 0.050893728 0.14710248 0.2118463 -0.07069088 0.05362974
-0.026911866 0.105726406 -0.21319002 0.15688471 0.07721736 -0.00026735663 0.12942329 0.016276546
0.1929773 -0.16258858 -0.19370571 -0.17712618 -0.08582164 -0.17555936 -0.12142777 0.20858894
-0.14275727 -0.1324573 -0.217487 0.055346087 -0.014576569 0.19350897 -0.14587596 -0.17659634
-0.1776838 0.049521104 -0.17164734 -0.21566896 -0.008289857 0.04688152 0.14672963 0.166925
-0.23217042 0.097143546 0.15950601 0.04743482 -0.17204839 0.10249884 -0.010346419 0.1893496
0.13054812 0.020086912 0.20400733 -0.008658796 -0.0844004 -0.12294254 -0.13561162 -0.10159149
-0.04058887 -0.050783157 0.082966045 -0.022838429 -0.19420701 0.012474999 -0.13333935 0.19755362
-0.050001264 0.108639404 -0.08407928 0.011965185 -0.19940577 0.08391614 -0.0069578737 0.13622232
0.18141098 -0.15725912 -0.1881496 -0.041733578 -0.0026779175 0.036713794 -0.12557933 0.2059169
-0.18447432 0.0049711317 0.19296835 -0.20608324 0.13193135 -0.11213331 0.031481892 -0.1506297
-0.08223003 -0.05053459 -0.03310521 -0.07197574 0.08427508 -0.1380325 0.10875626 0.10613887
-0.018773928 0.10759185 0.13447057 -0.1998712 -0.11074202 -0.12049318 -0.068539575 -0.08163063
-0.05340323 -0.16646987 0.17350678 -0.0015736371 -0.08946045 0.0058599263 0.03596343 -0.021983847
-0.03194283 -0.19568625 0.07120331 0.026413739 0.06853844 -0.15550892 0.14571102 0.1179529
0.053938344 -0.055530623 0.107680514 0.1727385 -0.028572306 0.12995319 -0.20431817 0.21248733
-0.08944066 -0.21152228 -0.120510496 0.005295247 -0.1907449 -0.20000704 0.20739041 0.11973606
0.06791918 0.06799783 -0.12522855 -0.18518546 -0.122688055 0.07659502 -0.18530457 -0.17324194
0.17050894 0.008697465 0.06389327 0.055902347 -0.1160711 -0.084343135 -0.006416157 0.08872874
-0.031450406 -0.16175225 0.116129234 0.037135586 0.02895005 0.20696397 -0.1376319 0.042620227
0.035644308 0.1544454 -0.10576374 0.048976526 0.018240854 0.07690786 0.08717053 -0.06679712
0.03702952 -0.084138036 -0.15735605 -0.08304812 0.21410917 0.17456661 0.035673067 0.16890053
-0.19419906 -0.04181689 -0.09825344 0.19183974 -0.06939638 -0.031877294 -0.090761796 -0.08492416
0.111523524 -0.14297636 -0.17704669 -0.038487583 0.190399 0.06708853 -0.09307511 -0.09022093
-0.10799353 0.19857623 -0.11305783 -0.14755794 -0.08948848 0.08669527 -0.118648574 -0.08190264
-0.0006971657 0.13359053 -0.058360696 0.027484536 -0.09424013 -0.08900803 -0.13683605 -0.08331171
0.20385762 -0.12478983 0.18457378 -0.0740813 -0.114349164 -0.13455126 0.15468521 0.15882076
-0.099770546 -0.17629127 -0.0106841475 -0.15732008 0.09620874 0.115244195 -0.0023900717 0.12770085
-0.116963364 -0.08800231 -0.040076092 -0.008255109 -0.092924945 0.21230324 -0.05895692 0.02452673
0.20445417 0.13430826 0.0117343515 0.13037623 -0.10801993 0.068094805 0.10222553 -0.14305611
0.12471934 0.14248283 -0.16715896 -0.13246408 0.13964154 -0.059833318 -0.05382116 0.20493658

bias f4 [5]
00000000: 4e16 4dbc 843e 79bd 1a65 a6bc 2bab 0e3d
00000010: 13e5 adbd
-0.012517525 -0.060850635 -0.02031188 0.034831207 -0.08490958

weight f4 [5, 64]
00000000: 86a7 fbbd f800 093d 04fe 6c3e a8e8 67be
00000010: 1083 c3bc dd89 bf3d 0ee8 fbbd 1f83 c5bd
00000020: 20af 3f3e 0a98 583e d25c 45be 4000 733c
00000030: f29a 8ebe cf5f 87be d093 79be 9665 643e
00000040: b703 54be 2c1b 663e 6045 b83d c005 b1bb
00000050: 845c 453d f4b4 7d3e e27b 5abe e0b8 32be
00000060: ee34 abbd 4117 763e a075 2ebe 1aac 43be
00000070: 3b9b 823e ee2a aa3d fafc e7bd 0a7f 513c
00000080: 90aa 643e ffdb 273e 360d ce3c 100c 753e
00000090: 1c90 e2bd 0013 a6bb a8df 593e 0bd3 25be
000000a0: d2f4 b5bd d554 54be 0c03 a73d 6f3f 223d
000000b0: c37f a63d 40be 3bbe d5fa a43d b4d3 7e3e
000000c0: 938d b9bd f2b2 88bd a6c3 323e 441b 7d3e
000000d0: e212 60be 622f 5a3e 10ae 8ebe 1625 44bd
000000e0: 7339 783e 09ce 8cbe d74d 59be 9010 e13d
000000f0: e4b3 893d 4a7d af3d bc6c 39be a860 5f3e
00000100: 8647 203e 9201 ebbd 8009 a63d 3c77 66bd
00000110: 00de 0a3c f61e b6bd aa63 c7bc b3fd 84be
00000120: abc3 a2bc eeca 813b 694b 94be 18dd 2dbe
00000130: 1b9b 6d3e ca21 9f3d 13c0 b63d c093 5f3e
00000140: bc81 53bd 78ae 62bd 9ad8 723e 25ca 33be
00000150: 785d 3b3e fb18 49be eade 48be b663 953e
00000160: 12b2 6dbe 5e65 d13d bf58 adbe e8a3 70bd
00000170: 2b36 6bbe 8d8e 4b3e 11dd 5d3d 4439 6e3e
00000180: 68d3 5ebd fc9a 7e3d 71e0 253e d8c0 503d
00000190: 5e61 fd3d b4ee 543e 121d bbbd ff04 75be
000001a0: dd3e cf3d 6430 0e3e 9ab4 f23b cd84 403e
000001b0: 39e9 29be d001 953d ccf4 28be 3622 a9bd
000001c0: 6469 0c3e dac6 86bd e8d4 dc3d 3667 6a3d
000001d0: 2093 5cbc ccf4 533e 1007 8cbc c454 03be
000001e0: d35d 373e f3dc 9f3d 54b5 693e 9476 3fbe
000001f0: e56d 113d 2cb6 0bbe f017 66bd 4c0d 6dbd
00000200: 534e 933e 80bc 8d3b f829 18be 1e6d 193e
00000210: d7fd 0bbe ead0 8d3c 1d86 01be 2f4f 043e
00000220: b41c f0bd 90e4 c43d c879 673d b65a 923e
00000230: 044a 07bd d9fe 47be b457 efbc aa63 f33d
00000240: 76ba 6f3e c0eb 3c3d 9788 f03d d0db a53c
00000250: 8007 38be a088 e53c 62a4 7bbe 43a8 46be
00000260: ce6d c7bd 7fbc 39be cb33 c4bd 5661 66be
00000270: fb7c 98bb fa28 a73d 5e1c fdbd 975f 6e3e
00000280: 54db b2bd 4870 433e 6ab8 cc3c 08e6 f93d
00000290: 2f7f 86be 3c5e 0bbe d6d8 c6bd 68a2 a93d
000002a0: 24c0 71bc 13f5 01be b82e 3d3e 5050 6fbe
000002b0: 3b79 3bbe fc49 d63d 27b1 823e b0ea 673e
000002c0: 25b7 91bd 0aa5 3c3e 5419 843e cd2f 7c3e
000002d0: e33a 14be 9f6d f33d 0cc8 32be 8654 173e
000002e0: 61ba 35bc ec51 06bc 5e05 243e d5b4 14be
000002f0: 62d0 063e 7f0a 0d3e 80a4 bbbc 38ed 3c3e
00000300: 2ba3 7fbd 14b7 b83d d63f 913e 80ce 8f3d
00000310: 4320 0ebe 971e 6f3d c904 d23c 395d 6e3e
00000320: d450 8b3d e254 71be 80ab cbbb 8ce7 b5bd
00000330: 6b30 e53d 55d1 ce3d 1150 0f3e 9351 a83e
00000340: 39f8 4bbc edda 80be 5bf9 d1bd f8d4 9f3d
00000350: 8c82 84be 5f5b 43be 9064 d23c 1133 89be
00000360: 5bf7 79be 4062 8c3e 4c30 843e 7218 463e
00000370: 391d 54be 7378 733e 8919 fabd 25f9 e23c
00000380: 41b6 34be 0fd0 903c b5d4 723e a7d2 30be
00000390: c4a0 dcbd 5e3a 62be 38a6 7b3d 782c 163e
000003a0: 069c 59be e22f e6bd 7ec2 53be 5334 8bbe
000003b0: 2689 8f3e 9d01 1bbe c40d 423e 74bb b53d
000003c0: 3747 b93c 4af6 863e 5c60 8b3e b5b5 ec3d
000003d0: 3fc9 18be 72c0 a23e 20ae c23c 6373 88be
000003e0: 1fcd 893e b4e8 183e d078 423d a451 80be
000003f0: a529 113e a3a1 27be e4aa 963e acea 89bd
-0.12287812 0.03344819 0.23143774 -0.22647345 -0.023866206 0.09352467 -0.1230012 -0.0964415
0.18719149 0.21151748 -0.1927369 0.014831603 -0.2785259 -0.26440284 -0.24372792 0.22304377
-0.20704542 0.22471303 0.08997607 -0.005402297 0.048183933 0.2477606 -0.2133632 -0.17453337
-0.08359705 0.24032308 -0.17037058 -0.1910862 0.25509056 0.083089694 -0.11327548 0.012786636
0.2233069 0.16392516 0.025152784 0.23930383 -0.11062643 -0.005068183 0.21276724 -0.16193788
-0.088845864 -0.20735486 0.08154878 0.039611276 0.08129837 -0.18334293 0.08055655 0.24885446
-0.09060206 -0.06674756 0.17457446 0.24717432 -0.21882203 0.21307138 -0.27867174 -0.04788693
0.24240665 -0.27500942 -0.212211 0.10989487 0.067237645 0.08568819 -0.18107885 0.21814215
0.15652284 -0.11474909 0.08107281 -0.056266055 0.0084757805 -0.08892624 -0.024339516 -0.25974807
-0.019868692 0.0039609587 -0.28963783 -0.16978872 0.232037 0.077701166 0.08923354 0.21833706
-0.051637396 -0.055342168 0.2371544 -0.17557581 0.18297374 -0.19638436 -0.19616285 0.29177636
-0.2321246 0.102244124 -0.3385677 -0.058750063 -0.22969882 0.19878598 0.054165903 0.23264033
-0.05440083 0.062159523 0.16198899 0.05096516 0.12372087 0.20794183 -0.09136404 -0.23927687
0.10119412 0.13885647 0.0074067833 0.1880066 -0.16592874 0.07275736 -0.16499633 -0.08258478
0.13712078 -0.06580897 0.10782796 0.057227336 -0.013462812 0.20698851 -0.017093211 -0.12825304
0.17906885 0.078058146 0.22823077 -0.18697578 0.035505194 -0.13643712 -0.056175172 -0.05787401
0.28770694 0.0043254495 -0.1485976 0.14983031 -0.13671051 0.017311532 -0.12648816 0.12920831
-0.11724225 0.09613907 0.056512624 0.28584832 -0.03302957 -0.1953081 -0.029216625 0.11884244
0.23410973 0.046123266 0.117448024 0.020246416 -0.17971611 0.02801925 -0.24574426 -0.19400124
-0.097377405 -0.18138312 -0.09580191 -0.22498068 -0.0046535707 0.081621125 -0.12358926 0.23278652
-0.0873324 0.190858 0.02499028 0.12202078 -0.26268908 -0.13610166 -0.09709327 0.0828293
-0.014755283 -0.12691145 0.18474853 -0.2337048 -0.18307965 0.1046333 0.25525782 0.2264812
-0.0711501 0.18422332 0.25800574 0.2462761 -0.14475589 0.11886143 -0.17459124 0.14778337
-0.0110917995 -0.008198243 0.16017672 -0.14522107 0.13165429 0.13773535 -0.022905588 0.18449867
-0.06241147 0.090192944 0.28369015 0.070218086 -0.13879494 0.058378782 0.025637047 0.23277749
0.06802526 -0.23567536 -0.0062155128 -0.08882055 0.111908756 0.10098521 0.13995387 0.32874736
-0.012449318 -0.25167027 -0.10252639 0.078042924 -0.2588085 -0.19077824 0.025682718 -0.26796773
-0.24410765 0.2741871 0.25818098 0.19345263 -0.20714273 0.23776416 -0.12211902 0.027706692
-0.1764765 0.017677335 0.23713954 -0.17267857 -0.10772851 -0.22092578 0.061437815 0.14665401
-0.21250924 -0.11239602 -0.20679662 -0.27188358 0.28034323 -0.15137334 0.18950564 0.088736445
0.022616966 0.2635978 0.27221954 0.11558095 -0.1492052 0.3178745 0.02376467 -0.26650533
0.26914307 0.14932519 0.047478497 -0.25062287 0.14176042 -0.16370253 0.29427254 -0.06734213
