graph_classification_model.pt (torch, 49094 bytes, 6 tensors)

bias f4 [64]
000000 cc f6 36 bb f8 7a b0 3a 1d d1 3b bb 7a 8b 29 3b
       -0.0027918098 0.0013464382 -0.0028658577 0.0025870488
000010 7d 44 4f ba 2b fe 19 bb 9c c4 3f bb be 5a 1f 3b
       -0.0007906629 -0.0023497443 -0.0029261475 0.0024315561
000020 fd 58 d3 3a b3 d2 3d bb f6 21 b8 3a 01 93 40 3b
       0.0016124543 -0.0028964698 0.0014048207 0.0029384496
000030 5b 2e 38 bb 63 ac 26 bb 08 3d e8 3a 00 48 05 bb
       -0.0028103802 -0.002543234 0.0017718384 -0.0020337105
000040 c9 ef d8 ba 58 c9 33 bb 7e 00 28 3b d3 e8 ac 3a
       -0.0016550954 -0.0027433243 0.002563506 0.0013191946
000050 15 17 35 bb 9a ca 8d 3a 3c c7 d1 ba 5f 42 13 3b
       -0.0027632166 0.0010817826 -0.0016004811 0.002246998
000060 2f 82 41 bb fc 65 39 bb 01 31 38 3b 00 00 00 00
       -0.0029527058 -0.0028289547 0.002810538 0.0
000070 38 6d 3e 3b ee 92 fa 3a 76 ab 99 ba 3d df 3e bb
       0.0029056799 0.0019117275 -0.0011724073 -0.002912476
000080 82 32 3b bb cb 1a ed b9 6c ff b2 ba a6 a2 82 ba
       -0.002856404 -0.00045224125 -0.0013656444 -0.0009966686
000090 57 79 eb ba ae 7b c8 3a 0a e6 43 3b d6 d0 55 b9
       -0.0017965239 0.0015295648 0.0029891753 -0.0002039106
0000a0 4e aa b6 3a 56 89 35 3b b5 5c f6 ba 4d c9 ab ba
       0.0013936253 0.0027700267 -0.0018795939 -0.0013106257
0000b0 9c 60 93 3a 81 75 cb ba 6d c6 aa 3a e0 59 88 3a
       0.0011244002 -0.001552269 0.0013029106 0.0010402761
0000c0 4b e9 8f 3a d9 c8 12 3b 42 86 0f bb 72 ac 2d bb
       0.0010979561 0.0022397547 -0.0021900092 -0.002650049
0000d0 c1 64 30 3b 64 71 42 3b e4 53 26 3b d0 3d d9 b9
       0.0026915523 0.0029669637 0.0025379593 -0.0004143552
0000e0 97 4f fb ba c7 76 43 bb 31 ee 86 b9 ef 25 44 3b
       -0.00191735 -0.0029825435 -0.00025735938 0.0029929837
0000f0 ff b4 3d 3b bb 2c d6 3a aa 73 a7 3a e6 2a b9 ba
       0.0028946993 0.0016340235 0.001277556 -0.0014127165

weight f4 [64, 8]
000000 7f 90 ff 3d 59 a3 b5 ba d6 e9 60 3e f9 91 44 3e
       0.12478732 -0.0013857885 0.21964201 0.19196309
000010 05 0f 25 3e f0 e5 63 be c9 20 87 be 0b 40 00 3e
       0.16119011 -0.22255683 -0.263922 0.1252443
000020 b0 b0 8c bc 67 0e 92 be c7 36 00 be 6b d9 0b be
       -0.017174095 -0.28526613 -0.12520896 -0.13657157
000030 38 79 3d be 52 4d 77 3d 48 76 c5 3d e8 3a 2f be
       -0.18503273 0.060376473 0.09641701 -0.17112315
000040 40 31 7f be 70 83 3e 3e 1d 51 27 3e 27 3f b0 3d
       -0.24921131 0.18604827 0.16339536 0.08605795
000050 36 fe cf 3d cf 48 45 bd 5d dd 16 bd 6c 4b 90 bd
       0.10155909 -0.04816514 -0.036832202 -0.070456356
000060 4b 0f 0d be 22 0f 57 be b1 b1 37 3e 75 b3 3a bd
       -0.13775365 -0.21001866 0.17938878 -0.0455813
000070 94 83 91 3c 05 7b 72 be 4e 92 34 3c a1 1e bb 3a
       0.017762937 -0.2367974 0.01102121 0.0014276096
000080 14 32 51 be 2b 8b 7b be cd 26 70 be 11 79 8c be
       -0.2042926 -0.24564807 -0.23452301 -0.27436116
000090 b5 2a 6c 3e ea 8e 0e be 5c 16 7d bd 0d 2a 3a 3e
       0.23063166 -0.13921705 -0.0617889 0.18180104
0000a0 f9 d9 97 3d fa 48 d6 3c 1d 67 18 bb 20 e3 f1 ba
       0.07414622 0.026157845 -0.002325482 -0.0018454529
0000b0 ba 8f 56 bb b4 08 db bd 9f 15 c7 3c 7e e8 ef 3d
       -0.0032739476 -0.10695019 0.024302302 0.11714266
0000c0 92 a6 1d be 23 30 60 3e f7 62 89 3d b6 d1 ad bd
       -0.15395573 0.21893363 0.06708329 -0.08487265
0000d0 89 07 ea 3d 9c e1 d9 3d 49 f5 e1 3d fe 74 93 bd
       0.114272185 0.10638735 0.110331126 -0.07200049
0000e0 39 6d 44 3e 51 f7 35 3c 01 b3 56 3e 26 6b c6 bd
       0.1918229 0.011106328 0.20966722 -0.09688406
0000f0 5f f4 bb bd 04 86 f9 3d 90 43 23 3d de 3c ca 3d
       -0.091774695 0.121837646 0.039859354 0.09874891
000100 12 a9 12 be b8 10 93 bc d6 27 8c 3e 8e 02 f3 bd
       -0.14322308 -0.017952308 0.27374142 -0.11865722
000110 bd 59 0e 3e 2a 61 8e be cf ad 1f 3e 68 41 5c 3e
       0.1390142 -0.27808505 0.15593646 0.21509326
000120 e8 75 56 3b c8 76 71 bd 7f ed df 3d a3 1c 6c 3d
       0.0032724086 -0.05895117 0.10933971 0.057644498
000130 f4 e1 14 3e 70 d0 18 3d 92 10 6b be e3 89 62 be
       0.1453932 0.037308156 -0.2295554 -0.22122912
000140 73 13 4f 3e f0 b7 47 ba e4 8c 5f 3e b1 b8 19 3e
       0.20222263 -0.00076186564 0.2183109 0.1501186
000150 d6 58 25 be ca ea 45 be 2c 2d 48 3e d8 d2 ba bd
       -0.1614717 -0.19327846 0.19548482 -0.091222465
000160 8b ae 31 3e 66 31 3b be c1 56 3b bd 91 65 25 3d
       0.17351739 -0.18280563 -0.04573703 0.040380064
000170 0f e1 ab bc d5 04 6b 3e 57 6b 97 bc 0d 1f 8f 3d
       -0.02098134 0.22951062 -0.0184838 0.06988344
000180 3b 85 5d 3e e0 23 8f be 51 23 73 3d bc d4 44 3e
       0.21632855 -0.27957058 0.059359852 0.19221777
000190 cf be 39 bd d4 74 21 3d 30 c6 30 3e 5c a6 db 3d
       -0.045347985 0.039418057 0.17263103 0.1072509
0001a0 1a 74 a9 bd 99 bf 6e 3e bd 3f 18 be c0 53 4f 3e
       -0.08274098 0.23315276 -0.14868064 0.20246792
0001b0 0c 9c 8d 3e 89 cc 48 3e 87 fe 9c 3d 5d ae 17 be
       0.27658117 0.19609274 0.07665735 -0.14812608
0001c0 22 c4 5f 3e 83 34 9d bc 35 c2 6a be d7 58 2d 3e
       0.21852162 -0.019190079 -0.22925647 0.16928421
0001d0 ed 73 2b 3d 5a 22 44 3e a0 1f 94 bd 15 44 da 3c
       0.041858602 0.19153729 -0.072325945 0.026643792
0001e0 95 11 9a 3d 12 9d 1a be 5e 74 91 3d f3 68 46 3e
       0.07522885 -0.1509898 0.071022734 0.19375972
0001f0 8b 07 4c 3e 3a 85 db 3d 4f 0d 49 3e fc 2f ad bd
       0.19924752 0.1071877 0.19633983 -0.08456418
000200 56 a2 ca bd 49 e4 3a bd 8f 14 8a 3e 6d 3a e1 bd
       -0.098942444 -0.045627866 0.2696881 -0.10997472
000210 c5 f4 34 be 85 c8 0b 3e 1e 0b b6 3a 22 9f 2e be
       -0.17671497 0.13650711 0.0013888811 -0.17052892
000220 13 f5 5c be 15 1b 5b 3e 99 41 96 3d 5b cd 78 3e
       -0.21577863 0.2139705 0.073367305 0.24297087
000230 fe 0c 40 be 29 01 85 3e 83 fa 65 bd 80 31 1c bc
       -0.18754956 0.25977448 -0.05614711 -0.009533286
000240 ad 26 db 3d 16 d4 22 be 2f 07 89 bd 02 9a 99 bd
       0.10700736 -0.15901217 -0.06690823 -0.07500078
000250 5d ca 30 3e 68 bc 52 be 10 c3 8a 3d 72 a3 65 be
       0.17264695 -0.20579684 0.067754865 -0.2242563
000260 76 66 c4 bd 2c 15 d2 bd 28 a5 fe bd 82 5a ee bd
       -0.095898554 -0.102579445 -0.12433845 -0.11638357
000270 df a7 9b 3d e3 4b 34 be e8 6f c0 bd 87 2e 21 be
       0.07600378 -0.17607073 -0.093963444 -0.15740405
000280 1e 60 06 3d 23 a2 02 3d 95 90 05 be ee e4 87 3c
       0.03280651 0.031892907 -0.13043435 0.016588654
000290 35 c7 7c 3e 95 88 be bc f4 f8 41 be 40 32 89 be
       0.24685366 -0.023258487 -0.18942624 -0.2679615
0002a0 4e a5 7a 3e 4b 06 ea 3d 69 c4 56 3e 5d ba 44 3e
       0.24477121 0.114269815 0.20973362 0.19211717
0002b0 2b 1d 70 bd d6 a6 05 3d c4 f5 78 3d a9 a8 d8 3d
       -0.058621567 0.03262981 0.060781255 0.10579044
0002c0 e0 43 c5 bd c1 b4 91 be 5c c9 8c 3e 6f 8b 1e 3e
       -0.09632087 -0.28458217 0.27497375 0.15482877
0002d0 19 3a 20 bc 8f 3d 43 3e d5 25 cb bd aa 58 86 be
       -0.009779477 0.19066451 -0.09919325 -0.2623952
0002e0 70 31 c7 3c a5 8c 52 be 6e a9 2f be c4 9b 61 3e
       0.024315566 -0.20561464 -0.17154476 0.22032076
0002f0 dc 78 1e be 32 db 1a 3e 2b 72 5b 3e ce 04 56 be
       -0.15475792 0.15122679 0.2143027 -0.2090027
000300 4e fb 6c bd 63 6f 8f be 34 df 5e be 5a a8 4e 3d
       -0.05785685 -0.2801467 -0.21764833 0.05045352
000310 38 f7 fc 3d 8b 52 2e 3e 83 d7 89 3d 60 3c 8e 3e
       0.12351841 0.17023675 0.06730559 0.27780437
000320 b0 aa ab bd 9a e8 59 be 09 b0 20 b7 21 8b 08 be
       -0.083821654 -0.21280137 -9.5777295e-06 -0.13334323
000330 01 8e da 3d 97 76 48 be d0 1f d2 bd dc 3f 6e bd
       0.10671616 -0.19576488 -0.10259974 -0.05816637
000340 c3 47 8b be 23 af 94 3e e3 af e7 3d 09 c4 6c 3e
       -0.27203187 0.2903987 0.113128446 0.23121656
000350 f0 5d 90 3e a4 f6 9b 3b da 47 c0 b8 b1 cf 83 3e
       0.2819667 0.0047596265 -9.168657e-05 0.25744393
000360 e8 df 7a bd 50 48 97 bd a0 b7 8f bd 1c 12 83 be
       -0.06124869 -0.073868394 -0.070174456 -0.25599754
000370 96 b2 b9 bd 4e ae df bd ea 9f d0 bd f8 7d 27 bd
       -0.09067266 -0.10921918 -0.10186751 -0.040891618
000380 eb dc 2c be 86 b4 34 3e 53 79 1a be 72 af 8c 3d
       -0.16881149 0.17646989 -0.15085344 0.06869401
000390 e5 64 52 3e 00 c4 6c be 4c 1d 80 3e e6 eb 2c 3e
       0.205463 -0.23121643 0.25022352 0.16886863
0003a0 c6 13 60 be c4 55 89 be c0 79 b7 3c d4 dc 41 bd
       -0.21882543 -0.26823246 0.022396922 -0.04732974
0003b0 7d 52 07 bc 3c 8b e9 3c 18 c7 20 3d ae 1d 20 3e
       -0.008259413 0.028508775 0.03925237 0.15636322
0003c0 91 d8 2d be de 7d d8 3d a3 39 10 3d 2f 9d 47 be
       -0.16977145 0.10570882 0.035211217 -0.19493555
0003d0 eb 8d 82 3c 11 ad 38 be 1f 99 54 be 80 35 ed bc
       0.015936812 -0.1803477 -0.20761536 -0.028956175
0003e0 c5 2e 93 be 58 7c 66 3e c7 3a 83 3e 44 81 59 be
       -0.2874662 0.22508371 0.2563078 -0.21240717
0003f0 63 aa 56 3e 57 8f d1 3d a7 50 49 3e 59 d6 a4 bd
       0.20963435 0.10232418 0.19659673 -0.08048696

bias f4 [64]
000000 64 40 7f 3a 1b 3c 32 3b e4 d4 43 3b 05 38 12 3b
       0.0009737073 0.002719647 0.0029881531 0.0022311222
000010 56 db 3b 3b c8 cd 3e 3b b1 d7 3f bb 1c dc db ba
       0.002866467 0.0029114354 -0.002927285 -0.0016773972
000020 ab 59 2f 3b 91 45 8b b9 72 4e 3c bb f3 a6 9b ba
       0.0026756327 -0.00026563977 -0.002873328 -0.0011875316
000030 14 f8 2f 3b 51 a3 d8 ba 94 5a 43 bb e6 03 3b 3b
       0.0026850747 -0.0016528164 -0.0029808627 0.002853626
000040 19 a8 8c ba 3b fa 18 bb 5b c9 3e bb 5b 84 00 bb
       -0.0010731249 -0.0023342508 -0.0029111716 -0.001961014
000050 6c e1 44 bb d7 7b 53 b9 20 6b dd 3a c8 4c 1c 3b
       -0.0030041588 -0.00020168662 0.0016892888 0.0023849476
000060 0d 0e b9 ba 1e 93 42 3b 97 96 44 3b 71 7a 67 ba
       -0.0014118567 0.002968974 0.0029996985 -0.0008830196
000070 47 d7 34 bb 9f 14 73 3a 99 1d 55 ba 54 e6 44 bb
       -0.0027594136 0.0009272787 -0.00081297156 -0.0030044513
000080 24 29 43 3b 9d a9 c2 b9 6f 55 42 bb 3a 2c e5 ba
       0.002977916 -0.00037128935 -0.0029652973 -0.0017484494
000090 19 70 35 bb f0 15 a4 ba b8 3a 39 bb e1 c8 28 3b
       -0.0027685224 -0.0012518745 -0.002826376 0.0025754499
0000a0 50 e8 ef ba 94 29 3c 3b 0d 5b 3e 3b 1f b1 22 3b
       -0.0018303487 0.0028711306 0.002904597 0.002482481
0000b0 5d b3 42 3b 2a 70 3a bb 93 1e 3b bb 1e d6 38 bb
       0.002970896 -0.0028448203 -0.002855216 -0.0028203796
0000c0 ae 8e 3f 3b 80 64 62 3a d1 67 3e 3b 7c 20 26 3b
       0.002922933 0.00086361915 0.0029053579 0.0025348952
0000d0 cc 2b 41 3b a0 dc 0f 3b 29 2f aa 3a 6f 56 3b 3b
       0.0029475568 0.002195157 0.0012984026 0.0028585454
0000e0 22 d5 2b 3b a2 b8 b5 ba 20 86 1f 3b be 0c ee b9
       0.0026219566 -0.0013864229 0.002434142 -0.0004540439
0000f0 90 22 3e 3b 0f 15 9e 3a 73 07 3f bb 78 1b d3 39
       0.00290123 0.0012060719 -0.0029148727 0.00040265522

weight f4 [64, 64]
000000 2e 3e 58 3e ef 81 f1 3c 8d 71 f9 bd 6c 6c 9d bd
       0.2111747 0.029480902 -0.12179861 -0.076866955
000010 92 a6 4e be 93 25 34 bd e2 7b 16 be fb d3 17 3e
       -0.20180729 -0.043981146 -0.14695695 0.14826958
000020 16 04 40 3d ac 4c c0 3d 75 d7 42 be c6 39 9d bd
       0.046878897 0.09389624 -0.19027503 -0.07677035
000030 9a d8 35 be 35 7b 9e 3d 08 7b d9 3d 5e c1 3d 3d
       -0.17758408 0.077383436 0.106191695 0.046326987
000040 f7 09 da bd 77 e1 35 3e 12 e8 9e 3d 27 a1 3a 3e
       -0.10646432 0.1776179 0.07759108 0.18225537
000050 43 63 a8 bd 0b 9e 10 be 3c 84 64 bd d7 7e e5 3d
       -0.08222058 -0.14122789 -0.05579017 0.112058334
000060 d4 52 33 be 13 cf 05 be c2 5e d3 3d c0 87 0f 3c
       -0.17512065 -0.13067274 0.10320808 0.008760393
000070 87 b7 0b be 46 c0 42 3e c9 50 c5 bc 41 b1 16 3c
       -0.13644229 0.19018659 -0.024086373 0.009197534
000080 6b 80 29 3c 2e 8a 83 bd 32 b5 41 be d7 36 04 be
       0.010345559 -0.0642284 -0.18916777 -0.12911545
000090 d8 f9 5d bb 4d 39 db bc 10 25 c6 3d 42 19 ab 3d
       -0.0033870842 -0.026760722 0.09675038 0.08354427
0000a0 fe 83 57 3e 56 53 9c 3d 45 52 96 bd 98 7e 31 bd
       0.21046445 0.076330826 -0.073399104 -0.04333362
0000b0 d1 af 4a 3d e2 c6 e2 bd 20 c1 2c 3e 17 b0 10 3e
       0.049484078 -0.1107309 0.16870546 0.14129673
0000c0 a2 7e 97 bd e8 b6 0b 3e ae 9d 75 3d 9a 79 0a bc
       -0.073972 0.13643992 0.05996483 -0.008451844
0000d0 00 39 32 bd 52 46 2e be ec 40 08 be 24 d4 08 bb
       -0.04351139 -0.17019013 -0.13306016 -0.0020878399
0000e0 78 6f eb bd 40 d3 a0 3d ff ef 3d 3e 9b 7b f5 3d
       -0.1149587 0.07852793 0.18548582 0.119864665
0000f0 95 3d 8c 3d 37 74 51 3e e0 4b 28 be 44 79 06 3e
       0.06847683 0.20454489 -0.16435194 0.13132197
000100 7a c2 e1 3d 4a bf 00 be b8 13 2a be 92 1a c6 3d
       0.110234216 -0.12572971 -0.16609085 0.09673037
000110 30 a1 5c bc e2 5f ac bc fe 81 df 3c cb bf 87 3d
       -0.0134661645 -0.021041814 0.027283665 0.066283785
000120 ab 5f 55 be af 9f 84 bd 54 5b 65 bd cc 26 1f 3d
       -0.20837276 -0.0647577 -0.0559953 0.03885536
000130 80 4e 2c be 40 81 a4 3c da eb 4b 3d 9a 65 52 3e
       -0.1682682 0.020081162 0.049785472 0.2054657
000140 d0 d6 01 be d6 76 e4 3d 72 3d 81 3d fa 0d de 3d
       -0.126796 0.11155479 0.06310548 0.108425096
000150 e9 3e 35 be 54 68 a2 bd aa 61 41 3d 6f 98 03 3e
       -0.1769978 -0.07930055 0.04721228 0.12851118
000160 7b 06 26 3e dd b6 96 bc d4 40 79 bd a7 aa 4f be
       0.1621341 -0.018397743 -0.06085284 -0.20279942
000170 89 fb d2 3d c0 84 8e bd f6 eb 0f be 6e 61 53 be
       0.10301883 -0.06958914 -0.14054856 -0.20642635
000180 b8 f7 22 bb 95 ca 9a 3c d3 3a 6c bd 57 db ab 3d
       -0.002486689 0.018895427 -0.057673287 0.08391445
000190 3a f2 90 3d 7d ca 0a 3e 84 23 3b 3d b3 9f 2a 3e
       0.07077451 0.13553806 0.045688167 0.16662483
0001a0 16 d1 04 3e 02 0a d3 bd 40 9c f9 bd 0f 2c 2c 3e
       0.12970385 -0.10304643 -0.121880054 0.16813682
0001b0 16 d4 cb 3c a7 f9 eb bc 62 43 25 bc 75 cf 91 3d
       0.024881404 -0.028805567 -0.010086866 0.071196474
0001c0 ab e2 e5 bc 66 a6 b3 3d 33 6e 32 bd 6e cf 08 3e
       -0.028062185 0.08771972 -0.043562125 0.13360378
0001d0 53 66 2b 3e d3 76 29 bd b8 a5 be bd b3 66 37 be
       0.16738252 -0.041373085 -0.09308952 -0.1791027
0001e0 93 db 47 be 97 d8 2b be bb 5a 91 bd 8b bb 24 be
       -0.19517355 -0.16781841 -0.070973836 -0.16087167
0001f0 2b e0 26 be 4c 48 5e 3e 61 53 47 3d 3d d1 d6 3c
       -0.16296451 0.21707267 0.0486635 0.02622282
000200 1e 75 86 3d 54 94 44 be bf a7 0c be 1c d6 19 3e
       0.06565307 -0.19197208 -0.13735865 0.15023082
000210 4d 5e ac 3c 64 2d 9d bd 52 34 74 3d 6e 15 be 3d
       0.02104106 -0.07674673 0.05962021 0.09281431
000220 57 0b 07 3b 26 1c ea bd 31 df 36 3e 59 d7 cd 3d
       0.0020606124 -0.1143115 0.17858578 0.1005084
000230 33 8d bf bc 78 3d 41 3e 12 70 4e 3e b7 6a 4d 3e
       -0.023382759 0.18871105 0.20159939 0.2006024
000240 b1 16 2f bb 4c 25 98 bc 0f 50 19 3e a7 51 f6 bd
       -0.0026716406 -0.018572472 0.14971946 -0.12027293
000250 f3 97 34 3e 72 ce 31 3e e8 c4 d5 bd a0 59 7a bd
       0.17636089 0.17363909 -0.104379475 -0.06112063
000260 92 51 95 3d d1 d7 57 be 87 13 02 3e 6c f6 29 bd
       0.07290949 -0.21078421 0.12702762 -0.04149477
000270 cd 6b 55 3e e9 0f d7 3d fb 6e d3 3d 53 a5 f5 3c
       0.20841904 0.105010815 0.10323902 0.02998606
000280 37 8b 42 be dd 49 e1 bd 1e b9 24 3e 39 fe b5 bd
       -0.18998419 -0.110004164 0.16086242 -0.0888638
000290 5d d8 a2 bd 1b 01 f4 bd 8d 5b 27 3e 0c dd 44 3d
       -0.07951424 -0.11914273 0.16343518 0.04806237
0002a0 9a 9d 57 bd 7b 9d 0c be 11 0b 1b be eb 48 84 bb
       -0.052640535 -0.13731949 -0.1514094 -0.004037013
0002b0 80 d7 e1 bc 7a 26 2a 3d 0c cb d7 3c c1 6f 57 be
       -0.027568579 0.0415406 0.026341937 -0.21038724
0002c0 a3 7e c9 bd 6d b2 2b be b6 16 44 bd 66 8f 3e be
       -0.09838607 -0.16767283 -0.04787322 -0.1860939
0002d0 88 97 35 bd 89 ba 58 bd 0e ff 4d 3e e1 d4 a3 3c
       -0.044333965 -0.05291227 0.20116827 0.01999897
0002e0 a5 59 af 3d 45 25 c3 bd 67 52 37 be 21 ac 0d 3e
       0.0856202 -0.09528593 -0.17902528 0.13835193
0002f0 4b 88 9d bc 79 4c fb 3d ca a9 a9 3d 75 c8 b1 3d
       -0.019230029 0.122704454 0.08284338 0.08680812
000300 4e 20 08 3e a2 23 63 3d fa 50 aa 3c 42 c4 e8 bd
       0.13293573 0.055453904 0.020790566 -0.11365558
000310 fa 82 ca 3d 36 d1 9c 3d 55 e6 19 be 54 f3 d2 bc
       0.09888263 0.07657091 -0.15029271 -0.025750794
000320 63 fc d0 3d 27 6d 1c be c4 94 eb bd 34 62 e8 bd
       0.10204389 -0.15276013 -0.11502984 -0.11346856
000330 bd 22 43 3e 51 f2 5c bd da 7f 6c 3d 88 eb 95 3d
       0.1905622 -0.05394203 0.057739116 0.07320315
000340 d7 34 36 be 52 de e4 3c 02 1d 78 bd a6 b0 04 be
       -0.17793594 0.027938042 -0.06057454 -0.12958011
000350 cb fd f2 bd a9 84 0b 3d a7 ab 90 bc a5 63 81 bd
       -0.118648134 0.03406206 -0.017659975 -0.06317834
000360 0a 93 b4 3d 19 57 05 3c ed 3a 5e bd 8c c8 5b be
       0.08817108 0.0081384415 -0.054255415 -0.21463221
000370 1d 4a 7c bd 2d eb 5d be 1f 81 33 3d 4e c6 e4 bd
       -0.061594117 -0.21671744 0.04382431 -0.11170636
000380 c1 7d 52 be c3 fd 92 bc 96 60 80 3c 0d f4 e3 3d
       -0.20555784 -0.017943269 0.015671056 0.11130533
000390 dc 6b 65 3d 30 59 ca bd 50 6f 39 bd bf 31 a0 bc
       0.056011066 -0.098802924 -0.04527217 -0.01955497
0003a0 66 8f 53 3e 52 f5 af 3c 12 ce aa bd 33 4b a0 3d
       0.20660171 0.021479283 -0.08340086 0.07826843
0003b0 16 42 1b be ee 44 30 3e 91 84 07 3c bc 44 14 3e
       -0.15161929 0.17213795 0.008271352 0.14479345
0003c0 0d 3e 4e be 79 2e 14 be 60 a1 22 3e f6 f4 26 3d
       -0.20140858 -0.14470853 0.15881872 0.040760957
0003d0 40 70 49 3e be 21 f2 3d 67 d4 38 3d b3 1e d6 bd
       0.19671726 0.11822842 0.045124438 -0.10455074
0003e0 74 ab 37 be 77 3c 50 3e 79 ef 13 be 70 b1 53 bd
       -0.17936498 0.20335566 -0.1444682 -0.05168289
0003f0 e9 6f 4e be 73 87 4c 3d 9b 74 57 be c0 2f 39 be
       -0.20159878 0.049933862 -0.21040575 -0.18084621

bias f4 [5]
000000 9e fa bf 3a fe 5e d7 ba 89 5c f6 ba 8d 23 3c 3b
       0.0014646833 -0.0016431508 -0.0018795888 0.0028707713
000010 8d 19 3e bb
       -0.0029006929

weight f4 [5, 64]
000000 90 1c 41 3e 00 57 65 3c 55 6a bd 3c 1d 99 fb bd
       0.18858552 0.013997793 0.023121992 -0.122850634
000010 64 78 f4 3d b2 5b 26 bc d4 47 e1 3c 3e 97 0a bd
       0.11937025 -0.010153698 0.02750007 -0.033835642
000020 f3 21 e1 3b 00 a6 85 3d 5d 1d 34 3e ea 80 79 be
       0.006870502 0.065258026 0.17589326 -0.24365583
000030 f3 9c bd bd 2d 50 1c be 9e 59 53 3e 03 87 6e be
       -0.09258451 -0.1526496 0.20639655 -0.2329369
000040 1b 8c 52 be d7 ba 45 3e 35 51 65 3e a6 5c c2 bd
       -0.20561258 0.19309555 0.2239426 -0.094903275
000050 3c 6e 4d 3e 36 ad 1b 3e e2 dd 89 bd 80 c7 8c be
       0.20061582 0.15202793 -0.06731774 -0.27495956
000060 96 80 1a 3d dc b7 85 3e 54 9e 22 3b 06 9d 21 be
       0.037720285 0.26116836 0.002481361 -0.15782556
000070 3d ec 6e 3e 6a 3f 66 3e ec d1 74 be 44 b8 55 be
       0.23332305 0.22485128 -0.23908204 -0.20871073
000080 df 20 ab 3d 7e a8 57 be e6 5a cb bc ed de 84 be
       0.08355879 -0.21060368 -0.024823617 -0.2595133
000090 b2 50 83 be cf 5e 24 be 5c 97 0e 3e af d6 6a be
       -0.25647503 -0.16051792 0.13924927 -0.22933458
0000a0 9a c3 a9 bd d2 19 0a be 47 a7 ac bd 2a d5 5b be
       -0.08289261 -0.13486412 -0.08430343 -0.21468034
0000b0 58 5d 22 3e d5 a2 34 3e 60 99 6f 3e 0a ab 89 3e
       0.1585592 0.1764024 0.23398352 0.26888305
0000c0 0f da 5b 3d b2 04 33 3d 54 32 93 be 41 23 44 bd
       0.053674754 0.04370565 -0.28749335 -0.047885183
0000d0 70 49 82 3d 98 58 8d be 45 8b a2 bd 7a b7 87 be
       0.06361663 -0.27606654 -0.0793672 -0.2650717
0000e0 5a 56 20 bc f4 42 92 be f7 c8 20 be c5 4d 15 3e
       -0.009786213 -0.28566706 -0.15701662 0.14580448
0000f0 92 91 91 bc 12 86 35 3c b6 ec f0 3c 6c f6 4e be
       -0.017769609 0.011079328 0.029409748 -0.2021119
000100 2f 51 85 bc 30 9a 3d 3e 39 2c 97 3d 4c 16 cb bd
       -0.016274063 0.18515849 0.07381482 -0.09916362
000110 8d 16 3d be b7 2a 8e 3e f6 a2 6e be 1a a6 5f bd
       -0.18465634 0.27766964 -0.23304352 -0.054601766
000120 80 c7 89 3e cf 1b 74 be 6b 7b 05 3e c5 ff 4a 3e
       0.2691002 -0.23838733 0.13035361 0.19824131
000130 21 3d af 3d a3 05 c2 3d 55 c1 27 be 18 bb d4 3d
       0.08556581 0.09473731 -0.16382344 0.10387248
000140 7e fa 64 3b 25 4c f9 3d 73 2d 0e 3d e3 a6 89 3e
       0.0034939344 0.121727265 0.034711313 0.26885137
000150 d9 6a 71 3e ff a1 20 be 1d 4d 92 3e e9 c1 8f be
       0.23575915 -0.15686797 0.28574458 -0.2807763
000160 d3 83 65 be 5b 03 b0 bd 57 e3 8e be 80 21 59 be
       -0.22413568 -0.0859439 -0.27907822 -0.21204185
000170 d4 67 c7 bd 89 fd 54 be b8 75 48 3e 44 a9 85 be
       -0.097366005 -0.20799841 0.19576156 -0.26105702
000180 1e af 8b be 9e ed 40 3e 19 25 fe 3d e4 d3 44 3e
       -0.2728204 0.18840644 0.124094196 0.19221455
000190 e6 37 16 3e eb d5 5f be ec ff 6f bd 54 5a b7 3b
       0.14669761 -0.21858947 -0.058593675 0.0055954847
0001a0 6c e7 26 be 19 60 30 bd 51 25 2e be c7 7e 0b 3e
       -0.16299218 -0.043060396 -0.17006423 0.1362258
0001b0 84 bb 44 bd 94 fc 51 be 9e 6d 39 3d a0 8e 2a 3e
       -0.04803039 -0.20506507 0.045270555 0.1665597
0001c0 bf ca 0a be 4a 50 f9 bd 93 a7 84 3c 45 32 8a be
       -0.13553904 -0.12173517 0.016193187 -0.26991478
0001d0 5d 8f da bd e4 57 b3 bc 62 2f 8f 3e 0f ab 98 3d
       -0.106718756 -0.021892495 0.27965838 0.07454502
0001e0 44 0f 72 be 3b 0a 92 bd 34 9e e1 3d f3 30 ad 3d
       -0.23638636 -0.071308576 0.11016503 0.08456602
0001f0 84 1f 59 3e 63 3c 82 be 65 3c 52 3d c9 05 e8 3d
       0.21203429 -0.25436696 0.051327128 0.113292284
000200 07 5e 2a be a4 de 6d be 1a 4e 26 be 84 a3 16 be
       -0.16637431 -0.23229462 -0.16240731 -0.14710814
000210 d6 52 57 3e a5 55 4c 3e ba 44 73 be b0 91 bd 3d
       0.21027693 0.19954546 -0.23756686 0.09256303
000220 70 a6 08 3b 37 2e 90 bd a8 b8 37 be 5d ea 7e 3e
       0.0020851158 -0.07040065 -0.17941535 0.2489409
000230 41 49 92 be 36 09 db 3c 3c 56 97 bd f7 6e 0b 3e
       -0.28571513 0.02673779 -0.07389495 0.13616548
000240 41 a2 8d 3e b3 d8 7d 3e 87 63 80 3e f4 39 90 3e
       0.27662852 0.24789695 0.25075933 0.28169215
000250 65 ad 6d be 9c 8f 8b be eb 62 70 bd 9f c6 16 3e
       -0.23210676 -0.27258003 -0.058688086 0.14724205
000260 f4 e2 94 3d a4 b5 85 be 95 6f f8 3d b7 9d 47 be
       0.072698504 -0.26115143 0.121306576 -0.19493757
000270 a8 c7 c2 3d 2f 09 0c 3d 5d 4f 98 bd 40 b5 57 bd
       0.09510738 0.034188446 -0.07437012 -0.052663088
000280 39 d7 9c bd a3 9e 56 3d d5 a7 61 3e 8a d5 51 bd
       -0.07658238 0.05239738 0.22036679 -0.051229037
000290 8f 47 81 bd 63 66 9f 3d 96 14 24 bd f4 4a 4d 3c
       -0.06312477 0.077832006 -0.040058695 0.012530077
0002a0 85 8b 17 be 49 73 6d 3e 33 bf a6 3a 27 2c 6e 3e
       -0.14799316 0.23188509 0.0012721777 0.2325903
0002b0 ed fa 0e be 6c 59 80 3e ca ab 72 3e 70 ef 26 3d
       -0.13962908 0.25068223 0.23698345 0.04075569
0002c0 99 14 68 be f2 53 85 be 76 c2 4c 3e 70 fa e9 3d
       -0.22664107 -0.26040608 0.19996056 0.1142472
0002d0 44 17 8a be 6f f0 1e b9 c0 60 b3 3c 68 b5 3a 3e
       -0.26970875 -0.00015157623 0.02189672 0.18233263
0002e0 0b 38 81 be 6a 2c 5c be 20 97 2d 3d 32 7f 52 be
       -0.2523807 -0.21501318 0.042380452 -0.20556334
0002f0 5b bb 6b 3e a3 f5 3b 3e da c6 24 bd bf 4e 61 3e
       0.23020689 0.18355422 -0.040228702 0.22002696
000300 65 8e 31 be 65 ab 3c 3c 29 fb 07 3e f4 89 03 be
       -0.17339475 0.011515473 0.13279404 -0.12845594
000310 32 01 89 3e 77 3a 80 3d 8c db 00 be 27 4d 2e 3c
       0.26758724 0.06261151 -0.1258375 0.010638512
000320 d0 0b 4c 3e c8 bb 93 be c8 3d 09 bc c0 40 8a bd
       0.19926381 -0.28854203 -0.008376546 -0.06750631
000330 9f 5a 79 bd 75 70 9c bd c1 bc 62 be 92 cc e4 3c
       -0.06087744 -0.07638637 -0.22142316 0.027929578
000340 11 48 88 3e 4e ec c9 bd 63 d3 a8 bd 5d 59 18 be
       0.26617482 -0.09859525 -0.08243444 -0.1487784
000350 01 97 0a be 82 2f 1d 3e 93 e2 1a be 3c 7c 14 3e
       -0.13534166 0.15350154 -0.15125494 0.14500517
000360 3d 6d 00 3e 10 68 81 3e 8f 5d 80 3c 85 c8 5c 3e
       0.12541671 0.25274706 0.015669612 0.21560867
000370 7f 5d 70 be 25 53 84 bd 58 ac 93 3e a0 92 5f be
       -0.23473166 -0.06461171 0.28842425 -0.21833277
000380 57 b5 49 3e e7 ea 42 3e 59 c0 41 be 70 71 4a 3d
       0.19698082 0.1903492 -0.18921031 0.04942459
000390 82 0c 10 3d 2f bb 93 3e 75 41 7a be 31 23 8d be
       0.03516818 0.28853747 -0.24439032 -0.2756591
0003a0 1b f4 03 3d 90 74 94 3e 47 fc 3f 3e 62 24 8f 3e
       0.03221522 0.2899518 0.1874858 0.27957445
0003b0 fb 9a 74 3e b1 32 24 bd 9b 8a a4 3c 05 ed 14 bd
       0.23887245 -0.040087406 0.020085623 -0.036358852
0003c0 8e 7e 12 3e a2 40 05 be cc af 7d 3e 30 ae c3 3d
       0.1430609 -0.13012937 0.24774092 0.09554708
0003d0 ad d0 84 3e fd 87 02 be dc 4c dd 3d 6c 2b 30 3e
       0.25940457 -0.12747188 0.108056754 0.17204064
0003e0 9c 32 58 bd e7 5d 8f 3d aa 46 0a 3e 1e 87 92 bd
       -0.05278264 0.07000332 0.13503519 -0.07154678
0003f0 41 a3 41 3e 27 2c 0d be 4d 6e ae 3a 65 8d fe 3c
       0.18909933 -0.13786374 0.0013308019 0.031073282
