graph_classification_model.pt (torch, 225362 bytes, 23 tensors)

bias f4 [64]
0	0xbbe2c270	-0.0069201514
1	0x3c3f51a0	0.011677176
2	0x3c1c1a6f	0.009527787
3	0x3c045561	0.008076997
4	0x3937e0ba	0.00017535957
5	0x3c0a152f	0.008427902
6	0x3c3b5370	0.011433467
7	0x3c143507	0.009045846
8	0x3bef2bf3	0.0072989403
9	0x3c2312cf	0.009953215
10	0x3c15f600	0.009152889
11	0x3c264adc	0.010149684
12	0x3bfa46c0	0.0076378286
13	0x3c3fd379	0.011708134
14	0xbc147009	-0.009059914
15	0x39cdc683	0.0003924855
16	0xbc17ccf7	-0.009265176
17	0xba83ea60	-0.0010064356
18	0xbbd0f45b	-0.0063767857
19	0x3c2db609	0.010602483
20	0x3c2f3ef3	0.010696161
21	0xbbe88719	-0.007096183
22	0xbbcc766b	-0.0062397025
23	0xbb77d75c	-0.0037817573
24	0x3c3cd529	0.011525431
25	0x3c43db69	0.011954167
26	0x3bf8edc1	0.007596702
27	0x3be6c350	0.007042326
28	0xbbbd1112	-0.005769857
29	0x398f927a	0.0002738422
30	0xbbf8cc3f	-0.0075927074
31	0x3b496ee2	0.0030736257
32	0x3bdab74f	0.006674684
33	0x3bfff8a4	0.0078116227
34	0xbb9fae0d	-0.0048730434
35	0x381a5319	3.6793852e-05
36	0xbc199755	-0.009374459
37	0x3c3fb0fa	0.011699909
38	0xb995d1ae	-0.00028575718
39	0x3c04901d	0.008091
40	0xbc16f19c	-0.009212878
41	0x3c35ab92	0.011088269
42	0xbb816f7e	-0.0039500585
43	0xbbd4f0eb	-0.006498446
44	0x3a185666	0.0005811214
45	0xbb75b39a	-0.0037491084
46	0xbbc8570c	-0.0061138924
47	0x3b5ceb38	0.0033709537
48	0x3c46880a	0.012117395
49	0x399f4979	0.00030381585
50	0x3c19c277	0.009384743
51	0x3b40a675	0.002939609
52	0x3c1fff96	0.009765526
53	0x3c30646e	0.010766132
54	0x3c3ddee9	0.01158879
55	0x3bc9a220	0.00615336
56	0x3c376cde	0.01119539
57	0x3b63a8f8	0.0034738164
58	0xbbf656b7	-0.0075176614
59	0x3c1d3245	0.009594505
60	0x3bbecee5	0.0058230036
61	0x3c2a0b82	0.01037872
62	0x3c0d8f00	0.008640051
63	0x3b89fa8c	0.0042107757

weight f4 [64, 1]
0	0xbe093d16	-0.13402209
1	0x3e5b1b70	0.21397185
2	0xbe81a139	-0.25318316
3	0x3deeebdc	0.1166608
4	0xbe80f140	-0.2518406
5	0x3ddecc02	0.10878755
6	0xbe097c3b	-0.13426296
7	0x3e649be3	0.22325091
8	0xbe65430f	-0.22388862
9	0x3e9f815a	0.31153375
10	0x3e92ed7c	0.2869681
11	0x3df77f21	0.12084795
12	0x3e9a9a79	0.30195978
13	0xbe8edff2	-0.27905232
14	0xbc9d44b1	-0.019197794
15	0xbe7801e7	-0.24219476
16	0x3e3b6bd6	0.18302855
17	0xbd0561f0	-0.032564104
18	0x3e2ff2ae	0.17182419
19	0xbd556689	-0.05209974
20	0x3e0cfd58	0.13768518
21	0x3e6d8541	0.23195364
22	0xbe5fa993	-0.21842031
23	0x3e8d5b9d	0.27608958
24	0xbe928db8	-0.28623748
25	0xbc37cd40	-0.011218369
26	0xbd8db61e	-0.06919502
27	0xbdb03fa7	-0.08605891
28	0x3e96e17f	0.29468915
29	0xbe46009b	-0.19336168
30	0x3ba1c650	0.004936971
31	0x3c947ab6	0.01812492
32	0x3de617ba	0.11234994
33	0xbd7f2957	-0.062295284
34	0x3e680251	0.22657134
35	0x3e8fb105	0.28064743
36	0xbe3ed0cf	-0.18634342
37	0xbda5861c	-0.0808222
38	0xbe56a3c5	-0.2096091
39	0x3e3e7926	0.18600902
40	0xbe94e66f	-0.29082057
41	0xbdb9cfb6	-0.09072821
42	0xbe145d8d	-0.14488812
43	0x3cde9912	0.027172599
44	0xbdcb207c	-0.09918305
45	0x3e6c0e9d	0.2305245
46	0x3dae58dc	0.08513042
47	0x3d971667	0.0737732
48	0x3e47ed88	0.19524205
49	0xbcd4a0a7	-0.025955511
50	0x3d9cb065	0.07650832
51	0xbe137940	-0.14401722
52	0x3e0aaa04	0.13541418
53	0xbda98c75	-0.08278743
54	0x3e766599	0.24062194
55	0xbdf3ebe7	-0.11910229
56	0xbd1d57fd	-0.03841399
57	0xbe8a2c7b	-0.2698706
58	0x3e34685f	0.1761794
59	0xbe39350b	-0.1808664
60	0x3e8dedac	0.27720392
61	0x3dd36c82	0.103234306
62	0xbc316031	-0.0108261565
63	0xbde3540a	-0.111000136

weight f4 [64, 1]
0	0xbd83187a	-0.06401153
1	0xbe67d660	-0.22640371
2	0x3da6af7b	0.08138939
3	0xbe961053	-0.2930933
4	0xbe0b5fb8	-0.13610733
5	0xbe60b865	-0.21945341
6	0x3dc7859e	0.09742282
7	0x3dcb49dd	0.09926198
8	0x3e864fd5	0.26232782
9	0xbd612a69	-0.054972086
10	0x3e781c35	0.2422951
11	0xbe5f7fc5	-0.21826084
12	0xbe450594	-0.19240409
13	0xbe6c1cd4	-0.23057872
14	0x3c7b8b4c	0.015353035
15	0xbe8f039b	-0.27932438
16	0x3e59e34a	0.2127811
17	0xbe735ecc	-0.23766631
18	0x3e0a89ed	0.13529177
19	0xbe13b885	-0.14425857
20	0xbade5af0	-0.0016964357
21	0xbd9dc2b4	-0.07703152
22	0x3e1dc18b	0.15405862
23	0x3e92722c	0.2860273
24	0xbe9f6eb3	-0.31139144
25	0xbe8b6789	-0.2722743
26	0xbce031a2	-0.027367417
27	0x3b3baa84	0.002863557
28	0x3e9a01d2	0.30079514
29	0x3e0276c5	0.1274062
30	0x3bc497c4	0.005999537
31	0xbe8889ac	-0.26667535
32	0x3d684317	0.056704607
33	0xbde52fd0	-0.1119076
34	0x3dec93dd	0.1155164
35	0xbdd44da1	-0.10366369
36	0xbbcd23da	-0.0062603774
37	0x3e519620	0.20467424
38	0x3e8b10a7	0.27161142
39	0xbe8dc903	-0.27692422
40	0xbe32d440	-0.1746378
41	0xbe02d826	-0.12777767
42	0xbbf3fbee	-0.007445804
43	0x3e5fa988	0.21842015
44	0x3e36b917	0.17844044
45	0xbca12d25	-0.019674847
46	0xbe234bca	-0.1594688
47	0x3e8510f0	0.25989485
48	0xbdf61d92	-0.12017359
49	0xbe0c2393	-0.13685445
50	0x3e0b2a3d	0.13590331
51	0x3e20ff74	0.15722448
52	0x3db80a24	0.08986309
53	0xbda8f081	-0.082489975
54	0xbe063a23	-0.13108115
55	0xbdccd694	-0.10001865
56	0x3e585378	0.21125591
57	0x3e268272	0.16260698
58	0x3e0da88f	0.13833831
59	0xbd0708e6	-0.03296747
60	0x3e0e75e2	0.13912156
61	0x3ce5d8cd	0.02805748
62	0xbdf14204	-0.117801696
63	0xbdfa500d	-0.122223

weight f4 [64, 1]
0	0x3e02e24a	0.12781635
1	0x3b3d5850	0.002889175
2	0x3e7a4ef2	0.24444178
3	0x3e5a3de1	0.21312667
4	0x3e2f58ad	0.17123671
5	0xbe642db4	-0.2228306
6	0xbe94df1b	-0.29076466
7	0x3e01b115	0.12665208
8	0xbc2fd00b	-0.010730754
9	0xbe95a9cd	-0.2923111
10	0xbe0bfe3a	-0.13671198
11	0xbe0cc5d4	-0.1374734
12	0xbe53539a	-0.2063736
13	0x3d97cebf	0.074124806
14	0x3dbbc715	0.09168831
15	0xbe33fec6	-0.17577657
16	0xbe800263	-0.2500182
17	0x3e4c5a59	0.1995634
18	0x3e278dce	0.16362688
19	0x3dd5286f	0.10408103
20	0x3de91ecb	0.113828264
21	0xbd49fbf6	-0.049312554
22	0xbd00d4ed	-0.03145306
23	0xbd92e711	-0.07172979
24	0xbe216f90	-0.15765214
25	0xbe55b15f	-0.20868443
26	0x3e407214	0.18793517
27	0xbd1adfee	-0.037811212
28	0x3bc278b3	0.0059347986
29	0xbe82e800	-0.25567627
30	0x3b8c3dc7	0.0042798254
31	0x3b810dfc	0.0039384346
32	0xbe5dedae	-0.21672699
33	0xbe89f752	-0.26946503
34	0xbe762199	-0.24036254
35	0xbe92f913	-0.28705654
36	0x3e6f7b48	0.23386872
37	0xbe213bfb	-0.15745537
38	0xbd89d756	-0.06730525
39	0x3e4cda10	0.20005059
40	0x3d8eedf3	0.06978979
41	0x3d27abd5	0.040935356
42	0xbb498938	-0.0030751955
43	0x3bc0d33c	0.005884556
44	0xb973a0b0	-0.00023234147
45	0xbddf6d6d	-0.10909543
46	0x3cb96083	0.022629028
47	0x3e0991f2	0.1343458
48	0xbe1ae526	-0.15126476
49	0x3e6fbb13	0.23411207
50	0x3d8b2655	0.06794421
51	0xbda8ceb5	-0.08242551
52	0x3de4ad28	0.111658394
53	0x3df12a71	0.11775673
54	0x3e02affd	0.12762447
55	0xbd9d2655	-0.07673327
56	0x3e5a71e0	0.21332502
57	0x3be8b59b	0.007101727
58	0x3e571aae	0.21006271
59	0xbdd3a052	-0.10333313
60	0xbdd4d7b0	-0.103927016
61	0x3e0d047b	0.1377124
62	0x3d150b77	0.036387887
63	0x3dd83ee8	0.105588734

weight f4 [64, 1]
0	0xbe18e3e7	-0.14930688
1	0xbcd3a043	-0.025833255
2	0x3e8ec84e	0.27887195
3	0xbe09f309	-0.13471617
4	0x3e18f06d	0.14935465
5	0xbe9b100b	-0.30285677
6	0x3e31e57d	0.17372699
7	0x3e6b6f38	0.22991645
8	0x3c5a455a	0.013322199
9	0xbd8bd6fa	-0.06828113
10	0x3df3372c	0.118757576
11	0x3d5a18b8	0.05324623
12	0x3e2a68f6	0.16641602
13	0x3cf92283	0.030411964
14	0xbe6ce727	-0.23135053
15	0xbe724a5a	-0.23661175
16	0x3e53e954	0.20694476
17	0xbb39895e	-0.0028310637
18	0x3e70b292	0.23505619
19	0x3e178552	0.14796951
20	0xbe330831	-0.17483594
21	0xbe4c65e1	-0.19960739
22	0x3e4980f4	0.19678098
23	0xbdc9dd94	-0.09856716
24	0x3e39b987	0.1813718
25	0xbe53d73b	-0.20687573
26	0xbd464c1e	-0.048412435
27	0x3d0ad90b	0.033898395
28	0xbc523b74	-0.012831558
29	0x3e7d565c	0.24739975
30	0xbc7ba442	-0.015358986
31	0x3d907540	0.07053614
32	0x3e742002	0.23840335
33	0xbe94b1fc	-0.2904204
34	0x3d8bab2a	0.06819756
35	0x3e484362	0.19556955
36	0xbd0fa74c	-0.035071656
37	0x3d372434	0.04471226
38	0x3e425750	0.1897862
39	0x3dda4a6a	0.106587246
40	0xbd9914c1	-0.074746616
41	0x3e742296	0.23841318
42	0xbe200ffb	-0.15631096
43	0x3e52ba81	0.20578958
44	0x3e9842af	0.29738376
45	0x3e4fb778	0.20284832
46	0x3db85b3f	0.09001779
47	0xbe2b0072	-0.16699389
48	0x3e618987	0.22025119
49	0xbcbdbf0d	-0.02316239
50	0xbe7a3920	-0.24435854
51	0x3e4409fd	0.19144435
52	0x3d2da6cb	0.042395394
53	0x3e4290ff	0.19000624
54	0xbdb7eff4	-0.08981314
55	0x3d15ae0c	0.036542937
56	0x3d8c0ec7	0.06838756
57	0xbe1db131	-0.15399624
58	0x3dad774c	0.0847002
59	0x3e52112d	0.20514365
60	0x3e5daf3f	0.21648882
61	0x3dd27ad0	0.10277331
62	0x3e4f25c6	0.20229253
63	0xbdb72f7f	-0.08944606

weight f4 [64, 1]
0	0xbddf4822	-0.1090243
1	0xbd0d0566	-0.034428976
2	0x3e96f65f	0.2948484
3	0xbdd86d6d	-0.10567746
4	0xbe47783f	-0.19479464
5	0x3e1d005f	0.15332173
6	0x3c792b3d	0.015208063
7	0xbe2f91f7	-0.17145525
8	0xbe6f4561	-0.2336631
9	0x3e736233	0.23767929
10	0x3dabb951	0.08384956
11	0x3e8906de	0.26763052
12	0xbe402b95	-0.18766625
13	0x3e91cbab	0.284757
14	0xbd89bbd3	-0.06725278
15	0xbb9b3110	-0.0047360733
16	0x3dd38194	0.103274494
17	0xbe2dbc56	-0.16966376
18	0xbd9f5c33	-0.077812575
19	0xbd9fb924	-0.07798985
20	0x3e41ac70	0.18913436
21	0xbe633ea1	-0.2219186
22	0x3d8461ea	0.06463988
23	0xbe742327	-0.23841535
24	0xbdb7efd7	-0.08981293
25	0xbdc4cb61	-0.09609104
26	0xbe03a3a7	-0.12855397
27	0xbdf17f84	-0.117919
28	0x3d8d660a	0.06904228
29	0xbe350187	-0.17676364
30	0xbdd5793b	-0.104235135
31	0xbe2776fc	-0.16353983
32	0x3d177da2	0.036985047
33	0x3d31864e	0.043340974
34	0xbe1309c8	-0.143592
35	0x3c7ef322	0.015560897
36	0x3e7fc689	0.24978079
37	0xbc213eb6	-0.009841612
38	0xbe49f959	-0.19724025
39	0xbe8cc9d4	-0.27497733
40	0x3e7c3ce7	0.24632607
41	0x3e05f861	0.1308303
42	0x3e5cbe39	0.21556939
43	0x3e478369	0.19483723
44	0xbd8eb2aa	-0.06967671
45	0x3d01ed16	0.031720243
46	0x3d67c0f8	0.056580514
47	0x3df2b4f9	0.11850924
48	0xbdb681cd	-0.08911476
49	0xbe96375e	-0.29339117
50	0x3e98d260	0.29848003
51	0x3e277d16	0.1635631
52	0x3a238ee0	0.00062392466
53	0x3e5a9eb7	0.21349607
54	0xbdba1d31	-0.09087599
55	0xbe8ded3a	-0.27720052
56	0x3d13f70b	0.03612427
57	0xbe6321db	-0.22180884
58	0xbe4194d8	-0.18904436
59	0x3e7257f8	0.2366637
60	0xbe22ee09	-0.15911116
61	0x3e2bf3fe	0.16792294
62	0x3e6c1a52	0.23056915
63	0xbe5fdc5b	-0.21861403

weight f4 [64, 1]
0	0xbd5cd58a	-0.053914584
1	0xbe9bd2e5	-0.30434337
2	0xbe74b5e2	-0.23897508
3	0x3d43eb24	0.04783167
4	0x3dfa4362	0.122198835
5	0x3e3012f3	0.17194729
6	0x3d80ecdf	0.062951796
7	0x3e955f76	0.29174393
8	0xbdc7ac3e	-0.097496495
9	0xbe70d14a	-0.23517337
10	0xbba4c94b	-0.005028879
11	0xbe1a737e	-0.1508312
12	0x3de7350a	0.11289413
13	0xbe5cf7eb	-0.21578948
14	0xbdceafba	-0.10092111
15	0xbd80eee5	-0.062955655
16	0xbe8ef016	-0.27917546
17	0x3e9a2c93	0.30112132
18	0x3df0367d	0.11729143
19	0x3e727fc6	0.23681554
20	0x3e933df4	0.28758204
21	0x3c05185f	0.008123486
22	0x3bdc8e15	0.0067308047
23	0x3e8e2bd3	0.2776781
24	0xbd9c39b0	-0.076281905
25	0xbdb79563	-0.0896404
26	0xbda1cf6c	-0.07900891
27	0xbe8dbea4	-0.2768451
28	0xbdac715f	-0.08420061
29	0xbe00e71d	-0.12588163
30	0xbdc94e1c	-0.09829351
31	0xbd4712e2	-0.048601992
32	0xbe4186f2	-0.18899134
33	0x3e42ee00	0.19036102
34	0xbe2483b4	-0.16065866
35	0x3da1600a	0.07879646
36	0x3e67a8ff	0.2262306
37	0xbe805ffb	-0.25073227
38	0x3e871d16	0.26389378
39	0x3e2c5ad6	0.16831526
40	0xbe63a467	-0.22230683
41	0xbe970539	-0.29496172
42	0x3cc52585	0.024065742
43	0xbd321b0d	-0.04348283
44	0xbc971d75	-0.018446663
45	0x3d0d4496	0.034489237
46	0x3d3aaa1b	0.04557238
47	0x3e1c08cc	0.1523773
48	0xbe420c9f	-0.18950127
49	0x3de173e3	0.11008432
50	0x3d1cc7b5	0.038276393
51	0xbe5d60fe	-0.21619031
52	0x3c926b71	0.017873498
53	0xbe4ad9f2	-0.19809702
54	0xbe6b7c0a	-0.22996536
55	0xbd2cca55	-0.042185146
56	0xbe9f428c	-0.3110546
57	0x3e72a13a	0.23694316
58	0x3e864f7a	0.2623251
59	0xbe688988	-0.22708714
60	0x3e630b22	0.22172216
61	0x3dcb1799	0.0991661
62	0x3e58dadc	0.21177238
63	0xbdb51eb3	-0.08843746

bias f4 [64]
0	0xbc062887	-0.008188373
1	0xbb8866e2	-0.004162655
2	0xbbea7e62	-0.0071561793
3	0xbc0205fc	-0.007935997
4	0x3bdd9380	0.006761968
5	0xbb6c1d65	-0.0036028263
6	0x3c2d54a5	0.010579263
7	0xbbeab27a	-0.0071623893
8	0x3bb67c64	0.0055690277
9	0x3c2129b8	0.009836607
10	0xbbf6bc76	-0.0075297905
11	0x3c069732	0.008214759
12	0xbb759c5c	-0.003747723
13	0x3c3ba058	0.011451803
14	0xb9cb2bbb	-0.0003875176
15	0x3bcbc8c2	0.0062190006
16	0x3c21a4cb	0.00986595
17	0x3c2eee5d	0.010676947
18	0xbbd1a330	-0.0063976273
19	0xbb8c9b9e	-0.004291012
20	0x3c3b8775	0.01144587
21	0xbba13370	-0.004919462
22	0x3c17b76d	0.009260041
23	0x392bb3f8	0.00016374874
24	0xba682933	-0.0008856237
25	0x3bff45ed	0.007790318
26	0xbbc02dbf	-0.0058648284
27	0xbbe32644	-0.006932052
28	0x3c369fb6	0.0111464765
29	0x3c334eeb	0.0109441085
30	0x3c28069d	0.010255483
31	0x3beac1a6	0.007164198
32	0xbbfcf0a9	-0.0077191186
33	0x3b1595b2	0.002282482
34	0xbb9e16e8	-0.004824508
35	0xbc1ed826	-0.0096950885
36	0x3c2adcbf	0.0104286065
37	0x3c2aab88	0.010416873
38	0x3c433301	0.011914016
39	0x3c42ab51	0.011881665
40	0xbc024478	-0.007950895
41	0xbb9238e3	-0.004462348
42	0x3c3bc445	0.0114603685
43	0x3c3fffe6	0.011718726
44	0xbc03e658	-0.008050524
45	0xbc1d381a	-0.009595895
46	0xbb0bd57a	-0.0021336959
47	0xbb4e558c	-0.0031484095
48	0xbb42022f	-0.0029603352
49	0x3c312ca7	0.010813869
50	0x3b9d6623	0.0048034354
51	0x3c3376db	0.01095363
52	0x3c326b16	0.010889789
53	0x3c2474e5	0.010037635
54	0x3ba00427	0.0048833075
55	0x3bdafdec	0.006683102
56	0x3c3ded05	0.011592154
57	0x3be9dcef	0.007136933
58	0x3c30ae22	0.010783704
59	0xbbe4ca57	-0.0069821286
60	0x3c28e36b	0.010308127
61	0x3c1c146d	0.009526354
62	0x39f69660	0.00047032814
63	0x3b0a9e02	0.002115131

weight f4 [64, 64]
0	0x3d196f89	0.037459884
1	0xbe534555	-0.20631917
2	0x3d411bbe	0.047145598
3	0x3df41f5b	0.11920043
4	0xbc662a47	-0.014048166
5	0x3d445b9e	0.047938935
6	0x3e101945	0.1407214
7	0x3ded1388	0.11575991
8	0xbe0dd0a0	-0.13849115
9	0xbe5cebfa	-0.21574393
10	0xbd11707f	-0.035507675
11	0xbc2ad531	-0.010426805
12	0x3e3c51cd	0.1839058
13	0x3e4cbd2c	0.19994038
14	0xbe261c5c	-0.16221756
15	0x3db37b3c	0.087637395
16	0xbe4009da	-0.18753758
17	0xbe5d803b	-0.21630947
18	0xbd45876d	-0.048224855
19	0x3d8b3972	0.06798066
20	0xbe5bbbe6	-0.21458396
21	0xbe104a1b	-0.14090769
22	0xbddc4750	-0.10755789
23	0x3e315c62	0.17320397
24	0x3e3aefa4	0.18255478
25	0xbd86d667	-0.06583863
26	0x3cbe7a8a	0.02325179
27	0xbe369c1a	-0.17832986
28	0xbccf3b97	-0.02529697
29	0xbdb19f60	-0.086729765
30	0x3d0c9149	0.034318242
31	0x3e02b42e	0.12764046
32	0xbdc214ce	-0.094766244
33	0xbe0a0d2b	-0.13481586
34	0x3de4c406	0.11170201
35	0xbe32361f	-0.17403458
36	0x3e2a30dd	0.16620202
37	0xbe143ab2	-0.14475515
38	0x3dd9496e	0.10609709
39	0xbe2387f5	-0.15969832
40	0xbe5cf309	-0.21577086
41	0x3d2476cf	0.040152367
42	0xbcc0deb0	-0.023543686
43	0x3dbc1f13	0.091856144
44	0xbd90cd72	-0.070704356
45	0x3d73dd4b	0.059537213
46	0x3ccd5e65	0.025069425
47	0xbe20aa74	-0.15690023
48	0xbdfc2af5	-0.12312881
49	0x3dbcfe22	0.092281595
50	0x3b24c4ff	0.0025141833
51	0x3e15629d	0.14588399
52	0x3d88e1ae	0.0668367
53	0xbd8ed2fc	-0.06973836
54	0x3e1243b7	0.14283644
55	0x3dd1d198	0.10245055
56	0x3e1f0b1c	0.15531582
57	0xbd3d16a0	-0.046164155
58	0xbe1d5104	-0.15362936
59	0x3e2445d2	0.1604226
60	0x3d9f4763	0.07777288
61	0xbe022425	-0.127091
62	0xbd789d6f	-0.060697015
63	0xbe146e28	-0.14495146
64	0xbcbd4db1	-0.023108335
65	0x3e1d4e2a	0.15361848
66	0xbcb22da7	-0.021750284
67	0xbd8c310c	-0.068452924
68	0x3dc77936	0.09739916
69	0x3cf106c5	0.029422173
70	0xbd9221ae	-0.0713533
71	0x3e226d3e	0.15861985
72	0xbe1bd517	-0.15218006
73	0xb988eb64	-0.0002611532
74	0xbddfa7e6	-0.10920696
75	0xbe109482	-0.14119151
76	0xbdda52d5	-0.1066033
77	0xbe206983	-0.1566525
78	0xbd8c639c	-0.068549365
79	0x3d2fdf98	0.042937845
80	0x3d785d8a	0.06063608
81	0x3cc34807	0.023838056
82	0xbd0f0d36	-0.03492471
83	0xbe09de7f	-0.13463782
84	0x3e380671	0.17971207
85	0xbe2f4ff4	-0.17120343
86	0x3dbdfa87	0.092763
87	0x3e2d9f4f	0.16955303
88	0x3e24c65c	0.16091293
89	0xbd3d5fd4	-0.046233967
90	0xbd8b13b2	-0.06790866
91	0xbe4aa062	-0.19787744
92	0xbd9b836b	-0.07593425
93	0x3dee1a92	0.11626162
94	0x3c12fdec	0.0089716725
95	0x3b06a60e	0.0020545754
96	0x3d608dc6	0.054822706
97	0x3d926294	0.071477085
98	0x3ddcc758	0.10780209
99	0x3e4fde4f	0.20299648
100	0x3dfa170b	0.12211426
101	0xbe5eae54	-0.21746188
102	0xbe672745	-0.22573574
103	0x3e357b97	0.17722927
104	0xbda8cae6	-0.08241825
105	0x3e0e6b67	0.13908158
106	0xbc7f7802	-0.015592577
107	0xbe606dd1	-0.21916892
108	0xbd8d5b0d	-0.06902132
109	0x3df88919	0.12135524
110	0x3e48f45a	0.19624463
111	0x3e4d768d	0.20064755
112	0x3c880c1e	0.01660734
113	0x3e457871	0.19284226
114	0x3d751247	0.059831884
115	0x3e38e9b0	0.18057895
116	0xbd8fca03	-0.070209526
117	0x3e29c0a8	0.16577399
118	0x3d1a5c3c	0.037685618
119	0x3e4587b0	0.19290042
120	0xbe083bc6	-0.13304052
121	0xbe380036	-0.1796883
122	0x3db5f749	0.088850565
123	0xbcd931d3	-0.026513016
124	0xbe32507f	-0.1741352
125	0xbe2345d0	-0.159446
126	0x3e48b197	0.19598995
127	0xbdc31936	-0.09526293
128	0x3dc036f4	0.093854815
129	0x3e0c1d5c	0.13683075
130	0x3d0c900f	0.034317072
131	0xbd370764	-0.044684783
132	0x3e20bd6c	0.15697259
133	0x3d80de08	0.06292349
134	0xbe07a8cc	-0.13247985
135	0x3d36c2a3	0.044619214
136	0x3ddd87a4	0.10816887
137	0x3d3c9999	0.04604492
138	0xbe5a7ef7	-0.21337496
139	0x3e02092b	0.1269881
140	0xbe05b9dd	-0.13059182
141	0xbe0825df	-0.13295697
142	0x3e56d7ce	0.2098076
143	0x3d06b0d8	0.032883495
144	0xbd4a6876	-0.049416028
145	0x3ac9092f	0.001533782
146	0xbe5d18bd	-0.21591468
147	0xbe2ebb17	-0.17063557
148	0x3ddae83e	0.10688828
149	0x3cbeb53e	0.023279782
150	0xbd24598f	-0.040124472
151	0x3e0ceb38	0.13761604
152	0xbe3765e2	-0.17909959
153	0xbdccabfc	-0.09993741
154	0xbe15f65a	-0.14644757
155	0x3dd6e3d5	0.10492674
156	0xbd126535	-0.03574105
157	0xbdd1fe6d	-0.10253606
158	0xbdebaaac	-0.115071625
159	0x3dbbb2e3	0.09164979
160	0x3e02ca56	0.12772498
161	0x3e0a0cb9	0.13481416
162	0xbe210758	-0.15725458
163	0x3d88804b	0.06665095
164	0xbdb0bcfb	-0.08629795
165	0x3e1c3a5b	0.15256636
166	0x3dc5f9f5	0.09666816
167	0x3ca39c76	0.019972067
168	0x3c1b10f7	0.009464494
169	0xbe560c67	-0.20903169
170	0xbe4028fc	-0.18765634
171	0xbd86006b	-0.065430485
172	0x3d91245b	0.070870124
173	0x3d88d904	0.066820174
174	0xbda7f875	-0.08201686
175	0xbe48ad50	-0.19597363
176	0xbd0fa787	-0.035071876
177	0xbe597366	-0.21235427
178	0x3e1d3f9b	0.15356295
179	0xbdea6729	-0.114454575
180	0x3d61d3e5	0.05513372
181	0xbe546786	-0.20742616
182	0x3d12301f	0.035690423
183	0xbe3d4fb2	-0.18487433
184	0xbdaf6940	-0.08564997
185	0x3ca14e34	0.01969061
186	0x3da84f08	0.08218199
187	0xbd3e4c8d	-0.046459723
188	0x3d969df8	0.07354349
189	0xbe3a3e8e	-0.18187925
190	0x3cf1370d	0.029445196
191	0xbd55b03b	-0.05217002
192	0x3e1a5c92	0.15074375
193	0xbdbac032	-0.091186896
194	0x3db115d1	0.08646739
195	0x3d1c5b9f	0.038173314
196	0x3e065e5c	0.13121933
197	0xbe5f4fb5	-0.2180775
198	0xbe4b9f41	-0.1988497
199	0x3db178fa	0.086656526
200	0xbd9e837f	-0.07739925
201	0x3e3785ec	0.17922181
202	0x3d5991bd	0.053117502
203	0xbdca637b	-0.09882256
204	0x3e161642	0.14656928
205	0xbcc59ff4	-0.024124123
206	0xbdb6a5a9	-0.08918316
207	0x3dccb689	0.09995753
208	0x3e22f502	0.15913776
209	0xbe3082ee	-0.17237446
210	0xbe0d2b97	-0.1378616
211	0xbc98a6ac	-0.018634163
212	0xbb57b7f9	-0.0032916053
213	0xbd3a51ff	-0.045488354
214	0xbdc20ea1	-0.094754465
215	0x3cef6078	0.029220805
216	0x3de55b0a	0.11199005
217	0xbdd4c50f	-0.103891484
218	0xbe5cd42b	-0.2156531
219	0xbe1fa68e	-0.1559088
220	0xbd7b8aa8	-0.06141153
221	0xbe07569d	-0.13216634
222	0xbcd90296	-0.02649049
223	0x3e10a43f	0.14125155
224	0xbe17c719	-0.14822043
225	0xbe28f1ef	-0.1649854
226	0x3d478bea	0.048717417
227	0xbe08225d	-0.13294359
228	0x3e55411f	0.20825623
229	0x3d4d9434	0.050190166
230	0x3e36852b	0.17824237
231	0x3da87a89	0.08226497
232	0x3d92f09f	0.07174801
233	0x3e4d5973	0.20053653
234	0x3d87d1dd	0.06631825
235	0x3cd85b34	0.026410677
236	0x3e2ef481	0.17085458
237	0xbe0f449c	-0.13991016
238	0x3e304a4c	0.17215842
239	0x3e34227c	0.1759128
240	0xbe610234	-0.21973497
241	0xbd02960a	-0.03188137
242	0x3d90c860	0.070694685
243	0xbd6f7a90	-0.058466494
244	0xbc372054	-0.011177141
245	0x3ddd1e1b	0.10796758
246	0xbdd540d3	-0.10412755
247	0xbca72afa	-0.020406235
248	0xbca07d79	-0.01959108
249	0xbe326942	-0.17422965
250	0xbc17ba7a	-0.009260768
251	0xbb29b45c	-0.0025894856
252	0x3e478743	0.19485192
253	0xbe584c33	-0.21122818
254	0xbd31cfc2	-0.043411024
255	0xbe3ef7e2	-0.18649247

weight f4 [64, 64]
0	0x3df88d21	0.12136293
1	0xbe2c22a1	-0.16810085
2	0xbd51be4f	-0.051206883
3	0x3e649c62	0.2232528
4	0x3dc7c2f3	0.097539805
5	0x3ce9c150	0.028534561
6	0xbdc5f3f5	-0.09665672
7	0xbd9908d6	-0.074723884
8	0x3d3e7790	0.046500742
9	0xbe4e2f1a	-0.20135155
10	0xbe22dbda	-0.15904179
11	0x3dc0f371	0.09421433
12	0x3d552cbb	0.05204461
13	0xbdf138af	-0.1177839
14	0xbd963e91	-0.07336152
15	0x3dd37d1f	0.10326599
16	0x3df39449	0.118935175
17	0xbe567e4f	-0.2094662
18	0x3d6aad89	0.057294402
19	0xbdfc8c48	-0.12331444
20	0xbdd1a6f2	-0.102369204
21	0x3d106e08	0.035261184
22	0x3d429ec4	0.047514692
23	0xbe030873	-0.12796192
24	0xbbdc1c19	-0.0067172167
25	0x3d54dd40	0.051968813
26	0x3be7ca9a	0.0070737125
27	0xbd5778bb	-0.052605372
28	0x3d853e76	0.06506054
29	0xbe0bd1eb	-0.13654296
30	0xbdce5f53	-0.100767754
31	0x3d0481c5	0.03235032
32	0x3e4a72b1	0.19770314
33	0xbc7fbad0	-0.015608504
34	0x3d0a4558	0.033757538
35	0xbc8e05d7	-0.017336769
36	0x3d0032c8	0.03129843
37	0x3e2323dd	0.1593165
38	0xbe04c194	-0.12964469
39	0xbda2addf	-0.079433195
40	0xbe30e5b8	-0.17275131
41	0xbca2f96d	-0.019894326
42	0x3e4e0f80	0.201231
43	0xbde91b74	-0.113821894
44	0xbbc8b4e0	-0.0061250776
45	0x3dd39ceb	0.10332664
46	0x3e3ac948	0.18240845
47	0x3d2dce7a	0.04243324
48	0x3e021a9a	0.1270546
49	0xbde954c3	-0.1139312
50	0xbdbf3fcf	-0.093383424
51	0xbc0a50e7	-0.00844214
52	0x3e265ce7	0.16246377
53	0xbe2844db	-0.16432516
54	0x3dee4afd	0.11635397
55	0xbe47f372	-0.19526461
56	0x3de1e710	0.110304
57	0xbe3d4613	-0.18483762
58	0xbdc44a49	-0.09584481
59	0x3e505a4e	0.20346949
60	0xbdf7b38b	-0.12094792
61	0xbdae6ce1	-0.08516861
62	0x3dd679f1	0.10472477
63	0xbdee6cc4	-0.11641839
64	0xbd9a7b7d	-0.07543085
65	0x3e279f6f	0.16369413
66	0x3d340270	0.043947637
67	0xbe103e46	-0.14086255
68	0x3e4d5bf5	0.2005461
69	0x3c75bb76	0.014998307
70	0xbbf8a225	-0.0075876885
71	0xbe0c7633	-0.13716964
72	0x3e0936c6	0.133998
73	0x3e10a9be	0.14127252
74	0x3c5d84e8	0.013520457
75	0x3e3ed45f	0.186357
76	0x3de399fd	0.11113355
77	0x3e4a6765	0.19766004
78	0xbe11bd8d	-0.14232464
79	0x3dbbb416	0.09165208
80	0x3e1509fe	0.14554593
81	0xbd991c3b	-0.07476088
82	0x3e42643e	0.18983552
83	0xbdda5537	-0.10660785
84	0xbd4bc13f	-0.04974484
85	0xbd8efd9a	-0.069819644
86	0x3d758b5f	0.059947368
87	0x3d8c9aa0	0.0686543
88	0xbda1d4e6	-0.07901935
89	0xbe0bec54	-0.13664371
90	0xbe183edb	-0.14867727
91	0x3e3d7cee	0.18504688
92	0x3d03260c	0.032018706
93	0xbd6c239c	-0.057651147
94	0x3e1a31b7	0.15058027
95	0xbe3fd20c	-0.1873247
96	0xbe0a6f36	-0.13518986
97	0xbda55bcc	-0.080741495
98	0x3d27f3e4	0.041004077
99	0xbe5054f6	-0.2034491
100	0xbd057e07	-0.032590892
101	0xbde235b5	-0.110454
102	0x3c8ccbf5	0.017187098
103	0x3dd8d680	0.10587788
104	0xbdcdbb81	-0.10045529
105	0xbd9b45be	-0.07581662
106	0x3e1cd769	0.15316547
107	0x3d854c1c	0.06508657
108	0xbce62a44	-0.028096326
109	0x3e5719d4	0.21005946
110	0x3e312a3b	0.17301266
111	0x3dc7350a	0.09726913
112	0x3d9502b3	0.072759055
113	0x3ca9c914	0.020725764
114	0xbd6efc2d	-0.058345962
115	0x3d077ca4	0.03307785
116	0x3b8b0820	0.004242912
117	0x3d1679aa	0.03673712
118	0x3daf86d8	0.08570641
119	0x3dc74e9d	0.09731791
120	0x3cdffdd0	0.027342707
121	0xbde11840	-0.109909534
122	0x3de37e5e	0.11108087
123	0x3ab31b98	0.001366484
124	0xbe3b46fc	-0.18288797
125	0xbd1d3097	-0.038376417
126	0xbd6bc05d	-0.0575565
127	0x3ca3338f	0.019922046
128	0xbe0876b8	-0.13326538
129	0xbd8ec7a1	-0.0697167
130	0xbd9ff541	-0.0781045
131	0x3e2e0bcd	0.16996689
132	0xbdb663ad	-0.089057304
133	0xbe13abc3	-0.1442099
134	0xbe4916b8	-0.19637573
135	0x3e2bf717	0.16793476
136	0xbdc3258a	-0.095286444
137	0x3d402892	0.04691369
138	0x3df04264	0.11731413
139	0xbca17488	-0.019708887
140	0x3d361338	0.044451922
141	0x3e29d09f	0.16583489
142	0x3d35260f	0.04422575
143	0xbdbb8da8	-0.09157878
144	0x3de9065e	0.113781676
145	0x3e3bfb53	0.18357591
146	0x3e5f159c	0.21785587
147	0x3e2c7283	0.16840558
148	0x3ce7ff5d	0.028320009
149	0x3bce0c49	0.0062880856
150	0x3caf5b49	0.021405833
151	0xbc85be00	-0.01632595
152	0x3e565a0f	0.20932792
153	0xbe2db8f0	-0.1696508
154	0xbe1985af	-0.14992402
155	0x3de4e366	0.11176185
156	0xbd0e475e	-0.03473603
157	0x3e3b95e3	0.18318896
158	0x3e5d35ff	0.21602629
159	0x3d06c165	0.03289928
160	0x3e50d994	0.203955
161	0x3d605a93	0.05477388
162	0x3e4ce7fc	0.2001037
163	0xbd764cfc	-0.06013201
164	0x3dbbad6a	0.091639355
165	0xbe284a7c	-0.16434664
166	0x3d93800a	0.07202156
167	0x3e4ad376	0.19807228
168	0x3e6078e7	0.2192112
169	0xbe03a22f	-0.12854837
170	0xbb09ab03	-0.0021006472
171	0x3c660aba	0.014040643
172	0xbc36ad64	-0.011149738
173	0x3e25a8f1	0.16177727
174	0xbe017509	-0.12642302
175	0x3df72d44	0.120691806
176	0xbd93782f	-0.072006576
177	0xbdbe740c	-0.09299478
178	0x3e4bc98b	0.19901101
179	0x3d0665cb	0.03281192
180	0x3e3b1b36	0.18272099
181	0xbd914924	-0.070940286
182	0x3e594085	0.21216018
183	0x3e0fcf4e	0.14043924
184	0xbe0454ae	-0.12922928
185	0x3e0e1a06	0.13877115
186	0x3d0a00eb	0.03369228
187	0x3de28313	0.11060157
188	0x3e20a7a8	0.15688956
189	0xbda144b8	-0.07874435
190	0x3e2b2c15	0.16716035
191	0xbe445f14	-0.19176894
192	0xbdf4a235	-0.11945001
193	0xbe1d889a	-0.1538414
194	0x3e022d1b	0.12712519
195	0xbc1639c9	-0.0091690505
196	0xbe43bbab	-0.19114558
197	0x3d45728a	0.048204936
198	0xbdbcc6cc	-0.09217605
199	0xbdf598a6	-0.11992006
200	0xbd8d9681	-0.06913472
201	0x3dc9e92a	0.09858926
202	0x3d5c3703	0.0537634
203	0x3e5633b1	0.20918156
204	0xbdb73d45	-0.08947233
205	0xbe0d9073	-0.13824634
206	0x3d65547b	0.05598877
207	0xbe4c0722	-0.19924596
208	0x3d6074d2	0.05479891
209	0x3c3d280c	0.011545192
210	0xbe1390bf	-0.14410685
211	0xbe54b6ff	-0.20772932
212	0x3d563206	0.0522938
213	0x3e2af00f	0.16693138
214	0x3c8259fe	0.015912052
215	0x3db3caaf	0.08778893
216	0xbc9fd03f	-0.01950848
217	0xbc42a232	-0.011879491
218	0x3e072a7d	0.13199802
219	0x3d9461ea	0.07245238
220	0x3d97b137	0.07406848
221	0xbe152724	-0.14565712
222	0x3e2f3fe6	0.17114219
223	0xbe27003d	-0.16308685
224	0xbdbdb0d0	-0.0926224
225	0x3e0c3e54	0.13695651
226	0xbe27bd1e	-0.16380736
227	0x3e096eb7	0.1342114
228	0xbe27cb70	-0.16386199
229	0x3d1a506c	0.037674353
230	0xbdac2acf	-0.084066026
231	0xbd5e82dd	-0.05432402
232	0xbdd9a15b	-0.10626479
233	0x3decd974	0.115649134
234	0x3e0dae6d	0.1383607
235	0xbd666b94	-0.05625494
236	0x3c8bcc3d	0.017065162
237	0x3df5689b	0.119828425
238	0xbe09df54	-0.13464099
239	0x3e2ce08b	0.16882531
240	0x3dca8faa	0.09890683
241	0xbe45143a	-0.19245997
242	0x3e3f376c	0.18673486
243	0xbde737e5	-0.11289958
244	0xbd5fc218	-0.05462846
245	0x3e30f7ad	0.17281981
246	0x3dfafbc4	0.12255052
247	0xbd6cf039	-0.05784628
248	0x3e0c9361	0.13728096
249	0xbe0e7749	-0.13912691
250	0x3c007b4d	0.007841897
251	0xbd765a25	-0.060144562
252	0xbe21449a	-0.15748826
253	0xbe0aae94	-0.13543159
254	0x3d988faa	0.07449277
255	0xbd2c40e4	-0.042054072

weight f4 [64, 64]
0	0xbdf9fde1	-0.12206627
1	0x3d313a9a	0.043268777
2	0xbb5da41b	-0.0033819738
3	0xbd5403ba	-0.051761366
4	0xbdda8855	-0.106705345
5	0xbc65ce73	-0.014026272
6	0x3d8b05ee	0.067882404
7	0xbe55d515	-0.20882066
8	0x3e4b7cdf	0.19871853
9	0xbcff5bf6	-0.03117178
10	0xbda37bfc	-0.079826325
11	0x3d77f1f9	0.060533497
12	0xbe375d36	-0.17906651
13	0xbe4d1a12	-0.20029476
14	0x3de32f39	0.110929914
15	0x3dc4f66d	0.096173145
16	0x3e43b808	0.19113171
17	0xbdb7bb4e	-0.089712724
18	0x3e40d711	0.18832041
19	0x3da29d1d	0.07940123
20	0x3d31fed1	0.043455902
21	0xbe4abd0c	-0.19798678
22	0x3e56dfda	0.2098383
23	0x3da5f881	0.08104039
24	0xbd7de987	-0.061990287
25	0xbe025cd0	-0.12730718
26	0xbe3c33de	-0.18379161
27	0x3e52198f	0.20517562
28	0x3e213c8d	0.15745755
29	0x3d04d299	0.032427404
30	0xbda88900	-0.08229256
31	0x3d7e5444	0.06209208
32	0xbdb99a41	-0.09062625
33	0x3e367578	0.17818248
34	0xbe2fb9be	-0.17160699
35	0x3da0a722	0.07844378
36	0x3e427532	0.18990019
37	0x3d5fac81	0.054607872
38	0x3e4612b4	0.19343072
39	0x3d6d7e77	0.057981934
40	0xbda67bd1	-0.08129085
41	0x3ce6a8d7	0.028156681
42	0x3e30b982	0.17258266
43	0x3e41c067	0.18921052
44	0x3d72befe	0.059264176
45	0xbe243e11	-0.16039301
46	0x3dabfa4f	0.08397352
47	0xbe580e55	-0.21099217
48	0xbe249a93	-0.1607459
49	0x3dfbb597	0.12290495
50	0xbd974f1b	-0.07388135
51	0xbc266d16	-0.010157844
52	0x3d537493	0.051624846
53	0x3e0885ae	0.13332245
54	0xbe17176a	-0.14755026
55	0xbe292c9d	-0.16520925
56	0xbd1d2611	-0.03836638
57	0xbd356d03	-0.044293415
58	0xbe3f7ea7	-0.18700658
59	0x3e526215	0.20545228
60	0xbcdf6592	-0.027270112
61	0x3ce74897	0.028232856
62	0xbd897a70	-0.06712806
63	0x3d320539	0.043462012
64	0xbda834c6	-0.08213191
65	0x3d77f8f3	0.06054015
66	0xbe04e81d	-0.12979169
67	0x3e13e5c6	0.1444312
68	0x3da61a94	0.08110538
69	0x3e10aede	0.14129207
70	0x3db1afc7	0.08676105
71	0xbe12d2ba	-0.14338198
72	0xbdff9863	-0.12480237
73	0xbdcfb93a	-0.10142751
74	0x3dcc7172	0.099825755
75	0x3c1f73cc	0.009732198
76	0x3e36aea0	0.17840052
77	0xbd801338	-0.06253666
78	0xbcbaa736	-0.02278481
79	0x3e1f8fd1	0.15582205
80	0xbe284ac9	-0.16434778
81	0x3ce6c4c4	0.028169997
82	0x3dd72c43	0.10506489
83	0x3be34aa7	0.0069363895
84	0x3d67cf13	0.056593966
85	0x39d8d5c5	0.00041358
86	0x3c62d4f4	0.013844717
87	0x3ca00de9	0.019537883
88	0xbe1e7469	-0.15474094
89	0xbc206a0e	-0.00979091
90	0xbd353fdf	-0.044250365
91	0x3e4e4897	0.20144878
92	0xbd14caac	-0.036326095
93	0x3e2c97d1	0.16854788
94	0xbd6e8388	-0.058230907
95	0xbdcbe4eb	-0.09955772
96	0x3d10d0cc	0.035355374
97	0xbe58d3e8	-0.21174586
98	0x3e501c94	0.20323402
99	0x3bc60f0e	0.006044275
100	0xbdd9d9ea	-0.10637267
101	0x3e45edf4	0.19329053
102	0xbd1f0ee7	-0.03883257
103	0x3c90b2f4	0.017663456
104	0xbd37bdcc	-0.04485874
105	0x3df6947f	0.12040042
106	0xbd1b9265	-0.03798141
107	0xbe340b91	-0.17582537
108	0x3e46678c	0.19375437
109	0xbe48554b	-0.19563787
110	0xbe463918	-0.19357717
111	0x3e46b8c3	0.19406419
112	0x3e2288b8	0.15872467
113	0xbaab631d	-0.0013075803
114	0xbe1222e8	-0.14271128
115	0x3dd02e32	0.10165061
116	0xbcc0b295	-0.023522655
117	0xbd72341c	-0.059131727
118	0xbccf1abd	-0.025281304
119	0xbde1a4ba	-0.11017747
120	0xbd8cf593	-0.06882777
121	0xbe27d662	-0.16390374
122	0x3e3502e6	0.17676887
123	0xbb7ff15e	-0.0039053778
124	0x3d2af5dd	0.04173838
125	0xbcd2bf7f	-0.025726078
126	0x3e4c1be6	0.19932517
127	0x3e0c5fdd	0.13708444
128	0xbdf89cb5	-0.121392645
129	0x3dd50d5a	0.10402937
130	0x3dfa2461	0.1221397
131	0xbd358983	-0.044320595
132	0xbe2d7556	-0.16939291
133	0x3d89ba8c	0.06725034
134	0xbdf67a85	-0.120350875
135	0x3c75121d	0.014957932
136	0xbd193b46	-0.037410043
137	0xbe036150	-0.1283009
138	0x3c837a0a	0.016049404
139	0x3d50e12c	0.05099599
140	0x3d021b97	0.031764593
141	0xbe144660	-0.14479971
142	0x3db407a6	0.08790521
143	0x3d86f390	0.065894246
144	0xbd1c716d	-0.03819411
145	0x3e182167	0.14856492
146	0x3e00d227	0.12580167
147	0x3d8fe04b	0.07025202
148	0xbe49101b	-0.1963505
149	0xbe2ab4fc	-0.16670603
150	0x3e4365cf	0.19081806
151	0xbd6d91d3	-0.058000397
152	0x3e089ef7	0.1334189
153	0x3c03dca8	0.008048214
154	0xbe5d2fd8	-0.21600282
155	0xbe340cab	-0.17582957
156	0xbd97f904	-0.07420543
157	0xbe2b468a	-0.16726127
158	0x3b4eca2b	0.0031553607
159	0x3e213d8e	0.15746137
160	0xbc56d040	-0.013111174
161	0x3e2b3f80	0.16723442
162	0x3bd16005	0.0063896202
163	0xbe50b4ef	-0.2038152
164	0xbd878681	-0.066174515
165	0xbd83b9d1	-0.06431926
166	0xbe02ae9c	-0.1276192
167	0xbe4d3eda	-0.20043507
168	0x3dea8388	0.11450869
169	0xbc25f917	-0.010130188
170	0xbd0da223	-0.034578454
171	0xbd4739b7	-0.048639026
172	0xbe3e2e87	-0.18572436
173	0xbdf96be7	-0.12178784
174	0x3d2b4274	0.04181142
175	0x3baf9157	0.005357902
176	0x3e2d902d	0.1694953
177	0x3bde156e	0.006777457
178	0x3e540be5	0.20707662
179	0xbe3e50fa	-0.18585578
180	0xbb70d2dd	-0.0036746778
181	0x3e00241c	0.12513775
182	0x3e169b51	0.14707686
183	0xbdd047b2	-0.10169925
184	0xbd891cbf	-0.06694936
185	0x3e21ee8c	0.15813655
186	0xbe3605e3	-0.17775683
187	0xbdc37630	-0.09544027
188	0xbc913807	-0.017726911
189	0xbcdc00d7	-0.02685587
190	0x3d4c08b7	0.049813
191	0xbdc8ee56	-0.09811084
192	0xbd350138	-0.044190615
193	0xbda7b403	-0.081886314
194	0x3e2dd095	0.16974099
195	0xbe373579	-0.17891492
196	0xbd2fc237	-0.042909827
197	0x3a21b9c2	0.00061693427
198	0x3dcfdc03	0.10149386
199	0xbd88f5ea	-0.066875294
200	0xbc9fd3cd	-0.019510174
201	0xbe160c9b	-0.14653246
202	0xbdb9c8a3	-0.090714715
203	0x3d60beb8	0.054869384
204	0x3e52481f	0.20535325
205	0xbded63d5	-0.11591307
206	0x3dd2a370	0.102850795
207	0x3dc4dbab	0.09612211
208	0xbd976bb5	-0.0739359
209	0xbd668843	-0.056282293
210	0xbdaf9235	-0.08572809
211	0xbb9efef4	-0.00485217
212	0xbe62ad26	-0.22136363
213	0x3da01ed0	0.07818377
214	0x3e3b76d9	0.18307056
215	0xbdc4f0f2	-0.09616269
216	0xbd49012f	-0.049073394
217	0xbe1e1f05	-0.1544152
218	0x3c16117f	0.009159445
219	0x3d8563ac	0.065131515
220	0xbc025bdc	-0.007956471
221	0xbdce9b77	-0.10088246
222	0x3ccf3e6e	0.025298323
223	0xbe34fd6a	-0.17674795
224	0xbd860bef	-0.06545245
225	0x3e2323b5	0.1593159
226	0xbd7e70da	-0.062119342
227	0x3d5321ce	0.05154591
228	0xbd96c353	-0.07361474
229	0xbe449011	-0.19195582
230	0xbe55afd5	-0.20867856
231	0x3dcecbc6	0.100974604
232	0xbb15181c	-0.0022749966
233	0x3bc4f1b1	0.006010257
234	0x3e35286d	0.17691202
235	0x3e14ab73	0.14518528
236	0xbd959cc9	-0.07305295
237	0xbd182b1d	-0.03715049
238	0x3c99262c	0.01869496
239	0x3c95d4c1	0.018289926
240	0x3d3eda27	0.046594765
241	0x3d3f2cf2	0.046673723
242	0x3e39af37	0.18133245
243	0xbc01fc5d	-0.007933703
244	0x3d59b5a6	0.05315175
245	0xbde410ee	-0.111360416
246	0x3df9ea22	0.122028604
247	0x3c3c5ffa	0.011497492
248	0xbd48ebd1	-0.049053017
249	0x3d1ea01e	0.03872692
250	0xbe501310	-0.20319772
251	0x3dcbe713	0.09956183
252	0xbdb09d95	-0.086238064
253	0xbe0d4d49	-0.13799013
254	0xbc10f335	-0.008847048
255	0xbdbea5bf	-0.09308957

weight f4 [64, 64]
0	0xbd8e971e	-0.06962417
1	0x3e3a88dd	0.18216272
2	0x3e2f0919	0.17093314
3	0xbd86ee83	-0.06588461
4	0x3de32d82	0.11092664
5	0x3e144265	0.14478453
6	0xbe025607	-0.1272813
7	0x3e29ba4c	0.16574973
8	0x3da6de28	0.08147842
9	0xbd74affb	-0.05973814
10	0xbda8be5f	-0.082394354
11	0x3e1cad98	0.15300596
12	0x3d897162	0.06711079
13	0x3dee4144	0.11633542
14	0x3e5ffdf0	0.21874213
15	0x3d5a1ae6	0.05324831
16	0x3da9a0c6	0.08282618
17	0x3d3d67af	0.04624146
18	0xbe0c5178	-0.13702953
19	0x3d083c7f	0.03326082
20	0xbdfeca32	-0.124409094
21	0xbd5ce41b	-0.053928476
22	0xbd677a5f	-0.056513187
23	0xbe3b2fea	-0.18279997
24	0x3cee9cf0	0.029127568
25	0x3d46408f	0.04840141
26	0xbe3e6602	-0.185936
27	0xbbb841bc	-0.0056230705
28	0x3e3aa3e9	0.1822659
29	0xbda4f1d2	-0.08053936
30	0xbe09f550	-0.13472486
31	0xbca58830	-0.02020654
32	0x3d8999ea	0.0671881
33	0xbe5743df	-0.21021985
34	0xbbb785ed	-0.005600682
35	0x3cf3866a	0.02972718
36	0xbe00293f	-0.12515734
37	0xbe595003	-0.21221928
38	0xbe0ba2c1	-0.13636304
39	0x3d8ec508	0.069711745
40	0xbe24fb1b	-0.16111414
41	0xbe0e0463	-0.13868861
42	0x3e5886d0	0.21145177
43	0x3d37e26e	0.044893675
44	0x3e1e27cd	0.1544487
45	0x3e2261be	0.15857598
46	0x3e07bd7b	0.13255875
47	0xbcc9f23c	-0.02465164
48	0x3c8bb15c	0.017052345
49	0x3ddbfb4a	0.10741289
50	0xbe36df76	-0.17858681
51	0xbe087eb3	-0.13329582
52	0x3e2dc77c	0.16970628
53	0xbe3783eb	-0.17921416
54	0xbe1f4723	-0.1555448
55	0x3e5a0aa5	0.21293123
56	0x3d8a6871	0.06758202
57	0xbe1cf6a0	-0.15328455
58	0xbbcd32bd	-0.006262152
59	0x3d6f6e70	0.05845493
60	0xbd884c3c	-0.066551656
61	0x3daffe03	0.08593371
62	0x3ddd9ea7	0.10821276
63	0x3e5bafee	0.2145383
64	0xbdb9ee90	-0.09078705
65	0xbdfbe936	-0.12300341
66	0x3a83e6f4	0.0010063336
67	0xbe457203	-0.19281773
68	0xbdf41c40	-0.11919451
69	0xbd4da8b5	-0.05020972
70	0x3cabb3ea	0.020959813
71	0xbbe1f7cc	-0.006895995
72	0x3dccdc8f	0.10003006
73	0x3e22ef92	0.15911701
74	0xbdb3abec	-0.08773026
75	0xbdc6e51c	-0.09711668
76	0x3e3bd8e3	0.18344454
77	0x3e2a3cc3	0.16624741
78	0x3d3b0acc	0.045664594
79	0xbc81a8d3	-0.015827572
80	0x3e20b5e5	0.15694387
81	0x3dadfe0d	0.08495722
82	0x3d2ecc98	0.042675585
83	0xbe044632	-0.12917402
84	0xbd2a6f8e	-0.041610293
85	0xbc7243cf	-0.014786675
86	0xbdc7c570	-0.09754455
87	0x3e129dcf	0.14318012
88	0x3c030f27	0.007999218
89	0x3cde97af	0.027171938
90	0xbdd62986	-0.10457139
91	0x3d860675	0.065442
92	0x3e281194	0.16412956
93	0xbd0fb7a4	-0.035087243
94	0x3d6bb1ed	0.05754273
95	0xbd5286e9	-0.05139819
96	0x3e3ae10a	0.18249908
97	0x3dd43745	0.10362104
98	0x3d1ed854	0.038780525
99	0xbe248657	-0.16066872
100	0xbe3ed6e9	-0.18636669
101	0xbd0c3f02	-0.034239776
102	0xbe365d15	-0.17808945
103	0xbe4e9ed3	-0.20177774
104	0xbc9e3652	-0.019313011
105	0xbd0defb4	-0.034652427
106	0xbdff7aea	-0.12474616
107	0xbcd6e010	-0.026229888
108	0x3d9e5fbd	0.077331044
109	0xbe348726	-0.1762968
110	0xbdce06dc	-0.10059902
111	0xbe50c9c5	-0.20389469
112	0x3e44e836	0.19229206
113	0xbe39a460	-0.1812911
114	0x3b99996a	0.004687478
115	0xbe3643d2	-0.17799309
116	0x3e361126	0.17779979
117	0x3dd2a9fa	0.10286327
118	0x3dd218cc	0.10258636
119	0xbddc0836	-0.107437536
120	0x3dfc6d72	0.123255625
121	0xbd305601	-0.04305077
122	0xbe369339	-0.17829598
123	0xbe615190	-0.2200377
124	0xbdcbbab6	-0.09947722
125	0x3e1c5596	0.15267023
126	0xbe314f4b	-0.17315404
127	0xbde5c8b1	-0.112199195
128	0x3e2d288d	0.1691
129	0x3e1ad24b	0.15119283
130	0x3d1d0ce7	0.038342383
131	0xbdd95c21	-0.10613275
132	0x3d72aec2	0.059248693
133	0x3dc90992	0.098162785
134	0xbe2d1a4a	-0.1690456
135	0x3dd580ff	0.10424995
136	0x3df4d3a5	0.119544305
137	0xbd26653e	-0.040623896
138	0x3e54957b	0.20760147
139	0xbe337e45	-0.17528637
140	0x3e2c5b16	0.16831622
141	0x3d1d8458	0.03845629
142	0xbe303ad9	-0.17209949
143	0xbd22d932	-0.039757915
144	0xbdf0a378	-0.11749929
145	0x3d9f7443	0.07785847
146	0x3d3ff953	0.046868633
147	0x3e4931f1	0.19647957
148	0x3ce85d14	0.028364696
149	0x3e627f30	0.2211883
150	0x3e2a014f	0.16602062
151	0x3e5b7399	0.21430816
152	0xb918c7ac	-0.00014570233
153	0xbd469614	-0.04848297
154	0xbdefa4d1	-0.11701358
155	0xbdf20048	-0.1181646
156	0xbe1bb815	-0.1520694
157	0xbd820ce1	-0.06350113
158	0xbd630c03	-0.055431377
159	0xbe196359	-0.14979304
160	0xbdd243eb	-0.102668606
161	0x3dcd7a50	0.10033095
162	0xbd1c3aeb	-0.038142126
163	0xbe1e94b9	-0.1548642
164	0xbe43efca	-0.19134441
165	0xbc8cf8a5	-0.017208407
166	0xbd36b2d1	-0.044604126
167	0x3e57dbac	0.21079892
168	0xbdae59fe	-0.085132584
169	0xbdf8d905	-0.12150768
170	0x3d97bf6e	0.07409559
171	0x3e2acbf0	0.16679358
172	0x3dd16201	0.10223771
173	0xbe25c1ce	-0.16187212
174	0xbe22ac09	-0.15885939
175	0xbe525833	-0.20541458
176	0xbd9198ca	-0.0710922
177	0x3d94ac86	0.07259469
178	0xbe489819	-0.1958927
179	0xbe123218	-0.14276922
180	0x3e3df9ab	0.18552272
181	0x3e162599	0.1466278
182	0xbd4bff7a	-0.04980419
183	0xbe592e86	-0.21209154
184	0x3c1e8922	0.00967625
185	0x3ded2fd0	0.11581385
186	0x3e1c1a7a	0.15244475
187	0x3e22447c	0.15846437
188	0x3df67a4c	0.12035045
189	0xbe468703	-0.1938744
190	0x3e10a5b5	0.14125712
191	0xbe418258	-0.18897378
192	0xbe0bd8b4	-0.13656884
193	0x3e287581	0.16451074
194	0xbdc121dd	-0.09430287
195	0xbe05d032	-0.13067701
196	0x3e1afca2	0.15135434
197	0xbd44f934	-0.04808922
198	0x3d4837a1	0.048881177
199	0xbe4df01b	-0.20111124
200	0xbddbcf8e	-0.10732947
201	0x3e3ef873	0.18649463
202	0x3e11540a	0.14192215
203	0xbe13af86	-0.14422426
204	0xbe5248f7	-0.20535646
205	0x3c9c7af4	0.019101597
206	0x3e5c7658	0.2152952
207	0xbd690f76	-0.05689951
208	0x3e05e07c	0.13073915
209	0xbe504cba	-0.20341769
210	0x3cdcd8b1	0.026958795
211	0x3e0da42e	0.13832161
212	0x3d87c112	0.06628622
213	0x3d38d1ed	0.045122076
214	0x3e03cb82	0.12870601
215	0xbde307ed	-0.11085496
216	0xbdd3e162	-0.10345723
217	0xbc8b81a2	-0.017029587
218	0xbdde31c0	-0.10849333
219	0xbe409532	-0.18806913
220	0xbc27b944	-0.010237042
221	0x3d97f482	0.07419683
222	0x3dfb0ad2	0.12257923
223	0x3d90edb7	0.070765905
224	0x3bae1752	0.0053128386
225	0xbe2367e2	-0.15957597
226	0xbdbd3e39	-0.09240384
227	0x3d4c411f	0.04986679
228	0x3e03495e	0.12820956
229	0xbe0b42a1	-0.13599636
230	0xbd0c8117	-0.034302797
231	0xbd815f79	-0.06317038
232	0x3c4159ad	0.0118011655
233	0x3e1dc731	0.15408017
234	0x3d759d98	0.059964746
235	0xbc0a3285	-0.008434896
236	0xbd9b185e	-0.07573007
237	0x3e4cb500	0.19990921
238	0xbd82ff58	-0.06396359
239	0x3cc11c0b	0.023572942
240	0xbdde4198	-0.10852355
241	0x3e64f9ea	0.2236096
242	0x3e4f2e3f	0.20232485
243	0xbdc9db14	-0.09856239
244	0xbd9fa9fd	-0.077960946
245	0x3df37563	0.11887624
246	0xbe452a59	-0.19254436
247	0xbe007011	-0.1254275
248	0x3c0dacad	0.008647126
249	0x3e4c5812	0.19955471
250	0x3c3e8639	0.011628681
251	0xbdb7aff1	-0.08969105
252	0xbc8c5a9c	-0.01713305
253	0x3e0b99f0	0.13632941
254	0xbe02709d	-0.12738271
255	0xbd900d97	-0.07033842

weight f4 [64, 64]
0	0xbc73eaed	-0.014887554
1	0x3d89dbc3	0.06731369
2	0x3dacb887	0.08433633
3	0xbe39589d	-0.1810021
4	0x3e4a5af2	0.19761255
5	0x3b78a1a0	0.0037938133
6	0xbdddd1dc	-0.10831043
7	0xbe420362	-0.18946603
8	0x3d4eb90d	0.050469447
9	0xbcb93790	-0.022609502
10	0x3d8cca7e	0.0687456
11	0xbe462416	-0.19349703
12	0x3e54ada5	0.20769365
13	0x3d1a8cf7	0.03773209
14	0xbe4e6b87	-0.20158206
15	0xbe1d490d	-0.15359898
16	0xbc168e92	-0.009189265
17	0xbdaa2ae7	-0.08308964
18	0xbdb7b874	-0.089707285
19	0xb9df0f0a	-0.0004254508
20	0x3dd0221a	0.10162754
21	0xbdced906	-0.10099988
22	0xbd472bd1	-0.04862577
23	0x3d524a70	0.05134052
24	0x3de9e51a	0.11420651
25	0xbe24a74e	-0.16079447
26	0x3e05ae80	0.13054848
27	0xbc9d3bdf	-0.019193588
28	0xbccead11	-0.025229009
29	0xbe04e5f9	-0.12978353
30	0xbe48d7cf	-0.19613574
31	0xbe1750b7	-0.14776884
32	0x3c7a59b3	0.015280175
33	0x3a9ba7fc	0.0011875625
34	0xbe41516c	-0.18878716
35	0xbc3b2c7b	-0.011424179
36	0x3c1cd36f	0.009571894
37	0x3e34483d	0.17605682
38	0xbe0db3b7	-0.13838087
39	0xbca9e40e	-0.020738628
40	0xbda9d79a	-0.08293076
41	0xbdd1ac71	-0.10237969
42	0xbdd6ebdb	-0.104942046
43	0x3d9439bf	0.07237577
44	0xbcd0e560	-0.0255
45	0x3e3b09ff	0.18265532
46	0x3dfb582b	0.12272676
47	0x3dffec98	0.124962986
48	0x3e34d254	0.17658359
49	0xbdf5d43f	-0.12003373
50	0x3d86b3f2	0.065772906
51	0xbb97b69d	-0.0046299235
52	0x3b749b63	0.0037324063
53	0x3df89bf7	0.12139123
54	0xbd581953	-0.052758526
55	0x3bfd480a	0.007729535
56	0xbe307905	-0.17233665
57	0x3d6c9017	0.057754602
58	0xbdc1bf6e	-0.094603404
59	0xbdd1aaa5	-0.10237626
60	0x3db3b7b0	0.0877527
61	0xbd8e5082	-0.069489494
62	0x3d1dff33	0.038573455
63	0x3d4072c4	0.04698445
64	0xbe6063a6	-0.21913013
65	0xbe2c5565	-0.1682945
66	0xbe4b6f10	-0.19866586
67	0xbe34c936	-0.17654881
68	0xbd7e42c6	-0.0620754
69	0xbd88a368	-0.06671792
70	0x3dfcc2d3	0.12341847
71	0x3d8db357	0.06918972
72	0xbd83b8d7	-0.0643174
73	0xbc6e8c12	-0.014559763
74	0x3e2cd8c0	0.16879559
75	0xbdf1e7df	-0.11811804
76	0x3d8fb1f8	0.07016367
77	0x3e53b65c	0.20675033
78	0x3e17424c	0.14771384
79	0x3d85cd06	0.06533246
80	0x3d85be37	0.06530421
81	0xbe0e5fe7	-0.13903771
82	0x3dfd9fa5	0.123839654
83	0xbe4b4c9d	-0.19853444
84	0xbe1e3fb8	-0.15453994
85	0x3dcf01f0	0.101077914
86	0xbdd1ccad	-0.10244117
87	0x3d9eb23d	0.0774884
88	0xbe64b963	-0.22336344
89	0xbe25bbd0	-0.16184926
90	0xbc90468e	-0.017611768
91	0x3e29ad1a	0.1656994
92	0x3e381854	0.1797803
93	0xbe221a42	-0.15830329
94	0xbe41db35	-0.18931277
95	0xbdd637a5	-0.10459832
96	0xbcd9f74e	-0.026607182
97	0x3de4daf7	0.11174577
98	0x3d94ef11	0.07272161
99	0x3e12471e	0.14284942
100	0xbe50a78b	-0.20376413
101	0x3e4f34f7	0.20235048
102	0xbe167787	-0.14694034
103	0xbd91b158	-0.07113904
104	0xbd17324c	-0.0369132
105	0x3db086fb	0.086194955
106	0xbe53e7e9	-0.20693935
107	0x3d9e0b5c	0.077170104
108	0xbd7f7d4e	-0.06237536
109	0xbe40206f	-0.18762372
110	0x3bf49485	0.007463994
111	0x3d464aa0	0.04841101
112	0xbe33e77c	-0.17568773
113	0xbdec7557	-0.11545818
114	0x3d946f1e	0.072477564
115	0xbe2dfc32	-0.16990736
116	0xbde1f039	-0.11032147
117	0xbe5b0ca6	-0.21391544
118	0x3d417ddc	0.04723917
119	0x3c6f6d0d	0.014613402
120	0xbe260047	-0.16211043
121	0x3def5a9f	0.116872065
122	0x3d9539b1	0.072863944
123	0xbe0d6fc9	-0.13812174
124	0xbbf3bfa8	-0.0074386187
125	0x3da77846	0.08177237
126	0x3dbd03ce	0.09229241
127	0x3e3dae76	0.18523583
128	0x3dba56d9	0.09098596
129	0xbe342b01	-0.1759453
130	0xbd9143d8	-0.07093018
131	0xbe158375	-0.14600928
132	0x3d0e977e	0.034812443
133	0x3dd420ff	0.10357856
134	0xbe1dcf5a	-0.1541113
135	0xbdedbaf3	-0.11607923
136	0xbe0948bb	-0.1340665
137	0xbe01a2a1	-0.12659694
138	0xbe23b29c	-0.15986103
139	0x3e12480b	0.14285295
140	0x3d2bc17a	0.04193256
141	0xbe5e25a6	-0.21694049
142	0xbce07813	-0.027401006
143	0x3e202217	0.15638004
144	0x3d2531fd	0.040330876
145	0xbe2aa738	-0.16665351
146	0xbd3a7b08	-0.045527488
147	0x3e5e3a8d	0.21702023
148	0x3e3d9276	0.18512902
149	0x3caa9415	0.020822564
150	0xbdd3bc6e	-0.103386745
151	0xbe379af0	-0.17930198
152	0x3ddb9afa	0.10722919
153	0x3b001a1a	0.0019546808
154	0xbd056729	-0.032569084
155	0x3e10d851	0.14145018
156	0x3e4bfdd3	0.19921045
157	0x3c0b30db	0.008495535
158	0x3b126d50	0.0022342987
159	0x3dca4cbb	0.098779164
160	0xbe104014	-0.14086944
161	0x3d67f33a	0.056628443
162	0x3db8cbc5	0.09023241
163	0x3d35dc34	0.044399455
164	0x3e265655	0.1624387
165	0xbdc4cb64	-0.09609106
166	0x3dcb48ab	0.0992597
167	0x3da1bceb	0.07897361
168	0x3a930b84	0.0011218642
169	0xbe2c49fd	-0.168251
170	0x3def7770	0.11692703
171	0x3ddc810d	0.10766802
172	0x3dcc857c	0.099863976
173	0x3d3c6fd5	0.04600509
174	0x3ca3f686	0.020015012
175	0x3dbda5c0	0.0926013
176	0xbdfbcfec	-0.12295517
177	0x3e5c8b75	0.21537574
178	0x3e1c9a55	0.15293248
179	0x3e44a2ec	0.19202775
180	0x3e30e146	0.17273435
181	0x3d3d0614	0.046148375
182	0xbe38c3eb	-0.18043487
183	0x3c778e80	0.015109658
184	0xbe5b3fb0	-0.21411014
185	0xbcf329af	-0.029682962
186	0x3da3458e	0.07972251
187	0x3e049de7	0.1295086
188	0x3e4cd934	0.20004731
189	0xbe30bb60	-0.17258978
190	0x3e19d86e	0.15023968
191	0xbdd71f77	-0.10504048
192	0x3d43e254	0.047823265
193	0x3e22e686	0.1590825
194	0x3e4f9d57	0.20274864
195	0x3d2ce13f	0.042207
196	0xbe153675	-0.14571555
197	0x3da39dcd	0.079890825
198	0xbe079edf	-0.13244198
199	0xbe323258	-0.17402017
200	0xbd67c244	-0.05658175
201	0xbe282328	-0.16419661
202	0xbd31783b	-0.04332755
203	0xbd2a94f7	-0.04164597
204	0xbe01e2d4	-0.12684184
205	0xbe4420d0	-0.19153142
206	0xbd0b0601	-0.033941273
207	0x3de3bd85	0.11120132
208	0x3d1248f0	0.03571409
209	0x3e551eea	0.20812574
210	0xbd9dcb82	-0.07704832
211	0xbdd7e2b1	-0.10541285
212	0xbe0dffdc	-0.13867134
213	0x3cd2fcd2	0.02575532
214	0xbdc69a38	-0.09697384
215	0xbe45b205	-0.1930619
216	0xbe4a107d	-0.19732852
217	0xbc8b1a2d	-0.016980255
218	0x3e1a1e36	0.15050587
219	0x3e0dc059	0.13842906
220	0xbda4d8ac	-0.080491394
221	0x3d8a50ed	0.067537166
222	0x3dc0e7fd	0.09419248
223	0x3d4c5395	0.049884398
224	0x3db54926	0.088518426
225	0xbd1dee68	-0.03855744
226	0xbdab9402	-0.083778396
227	0x3e038cd8	0.12846696
228	0xbd2691fd	-0.04066657
229	0x3e139f56	0.1441625
230	0x3e0d01ae	0.13770172
231	0x3e354622	0.17702535
232	0xbc15e1d3	-0.009148079
233	0x3e31f8de	0.17380092
234	0xbe285fff	-0.1644287
235	0x3e0fb5d4	0.14034206
236	0xbd875ba8	-0.06609279
237	0x3ab12b73	0.0013516977
238	0xbda5ac03	-0.08089449
239	0x3e2ae266	0.16687927
240	0x3e32fc57	0.17479073
241	0xbdce6cc7	-0.100793414
242	0x3c7baf49	0.015361615
243	0x3df9ad6b	0.1219128
244	0xbe3415e3	-0.17586474
245	0x3c307648	0.010770388
246	0x3e202e3c	0.15642637
247	0x3e0d993b	0.13827984
248	0xbe1d8317	-0.15382038
249	0x3e49a1e5	0.19690664
250	0x3e4d0abd	0.20023628
251	0x3e47fa46	0.19529065
252	0x3aec7e53	0.0018043019
253	0xbd46de88	-0.048552066
254	0xbe14a317	-0.14515339
255	0xbdf21ee2	-0.11822297
