graph_classification_model.pt (torch, 64674 bytes, 12 tensors)

att_src f4 [1, 1, 32]
00000000: d5d8 b0bd c99f d2be b71c a5be 9f8b a23d
00000010: b93b 3e3e b8fd 813e 7014 d03d ffcc d33e
00000020: 17b7 f5bd 58ea a1be 3e68 563b 9fa6 4cbe
00000030: ce5c 243e 0024 93be a532 1cbe 664f aabd
00000040: 2c6c cdbe b9db d83e 892d 2c3e 882f ac3e
00000050: a2e0 d33e a5a5 ec3a cd01 5abb e3cd c13e
00000060: 523f b7bd 947c e1bd 1841 d2bd 9e1c c2be
00000070: 7c20 08be 4d38 26be f512 19be 1f7b 7bbd
-0.086351074 -0.4113753 -0.3224847 0.07936787 0.1857747 0.25388885 0.10160148 0.41367337
-0.11997812 -0.31624103 0.0032715942 -0.19985436 0.16051027 -0.28738403 -0.15253694 -0.08315925
-0.4012159 0.42355135 0.16814245 0.33630013 0.4138232 0.0018054737 -0.0033265234 0.37852392
-0.08947624 -0.110100895 -0.10266322 -0.37912458 -0.13293642 -0.16232415 -0.14948638 -0.061396714

att_dst f4 [1, 1, 32]
00000000: fc1a 81be 13dc 823e 4a93 62be c3f6 c43d
00000010: 68e6 9a3e fff2 afbe 72fd bc3e b1de 7d3e
00000020: ee43 a6be 4c73 cbbe 964a f53c 47dd 93bd
00000030: f5c7 5fbc 3975 1c3d 39ea 5a3d 10c1 693e
00000040: 4432 7ebe 7da6 1a3e 2d63 613d 14a9 93be
00000050: 1b3f e43c d7f9 86be 4a74 9dbe efe2 2cbd
00000060: 27be d7be 1f06 ac3e f258 c13e 3dd2 9ebe
00000070: 9436 9f3e 264f 1e3e dc73 963e ea97 f3bd
-0.252159 0.25558528 -0.22126499 0.096173786 0.3025391 -0.3436508 0.36912113 0.24791981
-0.324737 -0.39736402 0.029942792 -0.0721994 -0.013658513 0.03819773 0.05344603 0.22827554
-0.24823862 0.15102573 0.055026222 -0.28839934 0.027862122 -0.26362488 -0.30752784 -0.04220861
-0.42137262 0.3359842 0.37763172 -0.31019774 0.31096327 0.1545988 0.2938527 -0.1189421

bias f4 [32]
00000000: 5c11 83ba 6212 83ba cd10 833a 6112 83ba
00000010: 6512 833a 5812 83ba 360e 833a 3312 83ba
00000020: 8d11 83ba da40 823a 5412 83ba a711 83ba
00000030: 6012 83ba ff10 833a 5912 83ba 1a12 833a
00000040: 7b10 83ba 41fa 82ba 6312 83ba 3b11 83ba
00000050: 6712 833a 1f0f 83ba 1a12 83ba 4112 83ba
00000060: 2312 83ba 6612 83ba 3312 833a a809 833a
00000070: 6612 833a 9711 833a 6512 833a 6212 83ba
-0.000999968 -0.0009999985 0.0009999514 -0.0009999984 0.0009999989 -0.0009999974 0.0009998742 -0.0009999931
-0.0009999737 0.000993754 -0.0009999969 -0.0009999768 -0.0009999983 0.0009999572 -0.0009999975 0.0009999902
-0.0009999418 -0.0009992794 -0.0009999987 -0.0009999642 0.0009999991 -0.0009999013 -0.0009999902 -0.0009999947
-0.0009999912 -0.000999999 0.0009999931 0.0009997385 0.000999999 0.0009999749 0.0009999989 -0.0009999985

weight f4 [32, 11]
00000000: 7d0e 91be 7192 9b3e 8b67 68be 1703 aa3e
00000010: 18c8 053e c09e 433e ff3e b5be 4113 ae3e
00000020: 2a21 4cbe 6419 013e 3d16 98bd 7eca c93d
00000030: 9833 653e 247a 2ebd 6cf0 97be 0713 51be
00000040: 0ccf 843e 1735 ac3d d5c7 6abe 3799 553e
00000050: aa2b 643e abaa 8f3e 7fe1 9c3d 0f85 393e
00000060: 3614 96be 8f42 28be e791 a73d bd57 363b
00000070: 68f3 dbbd 891b c8bd c527 0cbe 3026 8d3e
00000080: 86d6 21be 15d6 7d3e b8b4 a5be a7cf 073e
00000090: 3bfb 9dbe 51f0 f63d c6f5 38be 5ebc 883e
000000a0: d725 93be 8cb4 bd3e 53e7 ae3e fcee 0b3e
000000b0: 219c b83e 897a b6be c02d 5dbc 5210 9bbe
000000c0: 70d8 733e 05bc 21bd 908a 613e 400e 9abd
000000d0: 1d7f 223e ca3d 963e c32b 85be 6fbb ae3e
000000e0: 5c06 bcbe 9956 f1bc 4f25 b7bd 1ea1 e8bd
000000f0: 3e2d be3e 1e46 70be 32aa 583c bd48 983c
00000100: 286c 063e fa7b b1bd 4023 933e 7667 b13e
00000110: d31d 5fbe 629b e6bd ed7e 87be d6f6 5f3e
00000120: acc0 b0be 39fd 00be a233 31be 327e 2b3d
00000130: 7012 fcbd dc26 923e db13 e53d 64c0 a73d
00000140: 8695 653e 9eb9 0bbd fcc8 aa3d 7447 34be
00000150: 9519 203e 9561 edbd 9af0 8f3e b4ea 24be
00000160: d42b 7fbd f231 a7be 1fb7 653e 638e 69be
00000170: 5ab3 aa3e 5d88 e43d 437c b5bc 0662 0ebe
00000180: 7c62 b1bd d4b7 87be fb28 e53d 3eb4 b2be
00000190: f42b 25be 8f6c 83be 6d3b 093e 389c f23d
000001a0: e210 ac3e 2140 6cbd e231 9e3e cebb 83be
000001b0: 2552 76be 5e44 8abe adb4 133c 12b3 adbe
000001c0: 1423 813e 8325 96be 0293 213e 70e7 28be
000001d0: 8053 c13b 3d5e d2bd 18cf 343e 6ee7 b43e
000001e0: 730b bdbe f37b a4be a5e7 02bd 2da9 463c
000001f0: 8afd b53e bac0 273e f7b9 8abb 4ce4 a4be
00000200: 62d4 a63d b78d 14be 367f 113e 37f1 08be
00000210: f041 acbc 42ba 843e dd5e ab3e d9cb a8be
00000220: 56df 68be 6620 14be b2f4 3cbc f949 843e
00000230: c477 673e 4a3b 04bd 4527 52be 34e6 aa3e
00000240: ef2b 07be dffe 29be 3091 2e3e f72e 553e
00000250: 1cae e83d 987d b4bd 55de 15be 71f7 dcbd
00000260: 6fd2 8c3e f207 533e 92a3 253e 13a7 16bd
00000270: d351 373e c957 443d 7b56 14be d445 16be
00000280: cab4 273e 56ed 4a3a aa86 923e 72a8 803e
00000290: 9a29 583e 1a0c 92be 191f afbe 4b8f 2a3e
000002a0: 1b9e bbbc 03c5 bcbe c2ed 26be 7248 37be
000002b0: d027 74be b6c9 9e3d 7a2d fd3d 2cb9 61be
000002c0: 0a06 a3be 697a 7b3e 7847 553e 80dd ed3d
000002d0: 684d 073e f408 74bd 4f6b 40bd ea47 b9bd
000002e0: d14d 3bbe a6a9 89be bd79 6a3e 2ccd 6ebd
000002f0: babb 953c 9156 9fbe ef6d 523c 90ec 71ba
00000300: b9fa 86be 4175 a2be 29e2 9bbe 2d43 b5be
00000310: bdee 983e b973 37be 57cb a5bd 4447 703e
00000320: ed04 c63d 5571 163d 5ce2 5ebb 78ab 56b9
00000330: b421 62bb 3be1 0dbe 6e47 063d b98f 1b3e
00000340: e373 49be 098c 933e ff35 ae3d d006 dbbd
00000350: 4a15 153e 415b 0b3e 2154 113e 70ad c6bd
00000360: 0497 7c3e 5ac3 1b3c 9123 893e 44d0 00be
00000370: 811e f8bd ac97 1f3e 5a8b 4a3d baa9 013e
00000380: 6292 40be 7de5 a7bc 8ab0 b63e b3cf 1dbe
00000390: 5561 353e cd2c b9be fff3 4d3e eefe 8c3e
000003a0: 3d62 e93a 9023 98bd 9ed7 113e b742 9e3d
000003b0: bd2b 433e f535 503d 8e90 96be 9a14 93be
000003c0: 8b60 853e c359 8abb cb38 8f3e 2d78 443e
000003d0: 1a58 53be f431 81be 7784 813e d6ca f3bd
000003e0: d75b 633e 802e 77be 4857 79bd 17d7 493d
000003f0: 0a26 e9bc d6a4 953e b0d5 e9bc 269a ba3d
-0.28331366 0.30385163 -0.22695749 0.33205482 0.13064611 0.19103527 -0.35399625 0.33999065
-0.19934526 0.12607342 -0.074261166 0.098530754 0.22382963 -0.04259695 -0.29675615 -0.20417415
0.25939214 0.084085636 -0.22927792 0.20859228 0.22282282 0.28059897 0.076601975 0.18117164
-0.29312295 -0.1643164 0.081821255 0.0027823292 -0.107397854 -0.09770877 -0.13687046 0.27568197
-0.1580449 0.24788697 -0.3236444 0.13262807 -0.30855736 0.120575555 -0.18062505 0.26706213
-0.28739807 0.3705181 0.3416086 0.13665384 0.36056617 -0.35640362 -0.013499677 -0.3028589
0.23813033 -0.03948595 0.22025514 -0.07522249 0.15868802 0.29344016 -0.2600995 0.34127375
-0.36723602 -0.029460238 -0.08942663 -0.11358856 0.37143892 -0.23464248 0.0132241715 0.018589372
0.13127196 -0.08666225 0.2873783 0.34649247 -0.21788721 -0.11260106 -0.26464024 0.21871504
-0.34521997 -0.12596597 -0.17304853 0.041868396 -0.12308204 0.28545272 0.11185428 0.081909925
0.2242032 -0.034112565 0.08339116 -0.17605382 0.15634759 -0.11590878 0.28113252 -0.16105157
-0.062297657 -0.32655293 0.22433136 -0.22808222 0.3333996 0.11158822 -0.02215398 -0.1390458
-0.086613625 -0.26507437 0.11189457 -0.3490314 -0.16130048 -0.2566876 0.13401575 0.118462026
0.3360663 -0.057678346 0.30897433 -0.2572922 -0.24054773 -0.27005285 0.009015244 -0.33925682
0.25222075 -0.29325494 0.15778735 -0.16494536 0.0058998466 -0.10271881 0.17657125 0.35332817
-0.36922798 -0.32125816 -0.031959195 0.012125296 0.35544997 0.16382113 -0.0042335945 -0.32205427
0.081459776 -0.14507185 0.14208683 -0.13373266 -0.021027535 0.25923353 0.33470812 -0.32968023
-0.22741446 -0.14465484 -0.011532949 0.25837687 0.2260428 -0.032283105 -0.20522793 0.33378756
-0.13200353 -0.16601132 0.17047572 0.20818697 0.11361334 -0.088130176 -0.14635594 -0.10789383
0.27504298 0.206085 0.16175678 -0.03678043 0.17902307 0.04793528 -0.14486115 -0.14675075
0.1637756 0.0007741054 0.28618366 0.25128514 0.2110962 -0.28524858 -0.34203413 0.16656224
-0.022902539 -0.36869058 -0.16301635 -0.1789873 -0.23843312 0.07753317 0.123621896 -0.22043294
-0.31840545 0.24558415 0.20828044 0.116145134 0.13213122 -0.05957885 -0.046977337 -0.0904692
-0.18291403 -0.26887244 0.22898002 -0.058301136 0.018277992 -0.31120732 0.012843593 -0.0009228671
-0.2636316 -0.31730083 -0.30445984 -0.35402814 0.29869643 -0.17915238 -0.080954246 0.23464686
0.09668908 0.036729176 -0.0034009432 -0.00020472507 -0.0034504952 -0.1385545 0.032782964 0.15191545
-0.19673114 0.28817776 0.08506393 -0.10694659 0.14558902 0.1360903 0.14192249 -0.09701049
0.24666983 0.009507025 0.26784948 -0.12579447 -0.12115193 0.15585202 0.049449302 0.12662402
-0.1880584 -0.02049517 0.35681564 -0.15411262 0.1771291 -0.36166993 0.20112608 0.27538246
0.0017805767 -0.07428658 0.14242408 0.077275686 0.19059654 0.050832707 -0.2940716 -0.28726655
0.2605022 -0.004222126 0.27973017 0.19186468 -0.20639077 -0.25233424 0.25296375 -0.11903922
0.22203003 -0.24138832 -0.060874254 0.04927739 -0.028460521 0.29227322 -0.028544277 0.09111433

att_src f4 [1, 1, 32]
00000000: bb6e 92be f565 58be 149c d5be 8d55 c4be
00000010: 8e93 74be 18a3 bb3d 6ca5 83be dedd 5c3e
00000020: bf1c a03e a32a 693d 7b30 8f3e 1e71 80be
00000030: 7ffb 86bd 232f 99be 12a9 533e 67bb 73be
00000040: 9aeb 033d adea 4f3d 1cfd a7be 3e88 cdbe
00000050: 9eda 5f3e a14e 4dbe 23dd 823e caf7 9f3d
00000060: 69f4 0abe f690 123d 891e 5f3e 9b71 80be
00000070: 6c52 9f3e c436 c3be 4ef1 57be 566f 153d
-0.28600106 -0.21132644 -0.4172064 -0.3834652 -0.23884413 0.09161967 -0.25712144 0.2156901
0.31271932 0.056925427 0.27966675 -0.25086302 -0.06590938 -0.29918775 0.20669964 -0.23801957
0.03220711 0.050760914 -0.32810295 -0.40143007 0.2186074 -0.20049526 0.2555934 0.07810934
-0.13569798 0.035782777 0.21788992 -0.25086674 0.3111757 -0.3812772 -0.21088144 0.03648313

att_dst f4 [1, 1, 32]
00000000: b258 86be c0e9 ab3e c254 cebe 4df3 d03d
00000010: 444c 72be b0a8 2dbe f978 b53d d876 52be
00000020: 546a d63e 7c4b 443e ad6e d2bc ead9 20be
00000030: 7430 b2be 1d18 c8be acc1 d93e c260 363e
00000040: 46f4 2d3e 4415 b03e 0c52 96be 2ff0 c43e
00000050: 7204 81be e31d ad3e 7cb5 973d e47a b13e
00000060: 1460 9a3e 4a53 0d3e 7120 473d 1a13 38bc
00000070: 3c2d 04bd 2b52 6f3d ea50 9d3e d1f3 48bd
-0.26239544 0.33576775 -0.4029904 0.10202656 -0.23661906 -0.1695888 0.08860964 -0.20553148
0.41877997 0.1916942 -0.02568754 -0.15708128 -0.34802592 -0.39080897 0.42530572 0.17810348
0.16987714 0.34391224 -0.29359472 0.38464496 -0.25198704 0.33811864 0.07407662 0.3466407
0.30151427 0.13801304 0.048614923 -0.011235023 -0.0322697 0.05842797 0.30725795 -0.049060646

bias f4 [32]
00000000: c4ac 823a 0000 0000 c010 83ba 20fe 82ba
00000010: 6912 83ba b206 833a 0000 0000 6512 833a
00000020: 6812 83ba 0000 0000 6312 833a ba0f 833a
00000030: 3812 833a 0e12 833a 6912 833a c80f 833a
00000040: 0000 0000 e3ad 81ba 0712 83ba 5411 833a
00000050: 9310 83ba 0000 0000 0512 83ba 6512 833a
00000060: 6712 833a 4f12 833a 6b12 83ba 5312 83ba
00000070: 5412 83ba 6612 83ba 6512 833a a110 833a
0.0009969701 0.0 -0.0009999499 -0.0009993948 -0.0009999993 0.0009996502 0.0 0.0009999989
-0.0009999992 0.0 0.0009999987 0.0009999194 0.0009999936 0.0009999888 0.0009999993 0.000999921
0.0 -0.0009893741 -0.0009999879 0.0009999671 -0.0009999446 0.0 -0.0009999877 0.0009999989
0.0009999991 0.0009999963 -0.0009999996 -0.0009999968 -0.0009999969 -0.000999999 0.0009999989 0.0009999463

weight f4 [32, 32]
00000000: 058d 803e c83e 073e 67d3 893e 9752 58be
00000010: 0204 973e 47f9 6c3d c3db 553d 42fd 55be
00000020: 90e1 3f3e cc1c 7d3e ae25 44be 08fa b63d
00000030: faf2 97be 8c37 2dbe 58cd 70be 516a 50bd
00000040: 4e64 323e 414e 8c3e 2544 c9bc b728 433d
00000050: d373 58be dc87 4b3e d02e d4bd 84f7 59bc
00000060: 2975 27be 90c3 3abe ed53 ddbd f951 4c3e
00000070: 8dcd 91bd 9d15 18bd 2176 01be 3953 8f3e
00000080: 1337 9bbe df41 03be 3bed d73c c17b 073d
00000090: d8df a93d 3252 953e ced2 89be 691e 353c
000000a0: 564d 893e 7529 05be 8473 7ebd ed12 e5bb
000000b0: 0093 783e c8b4 93be 243a 7dbe 6799 143e
000000c0: dd35 b53d 2106 553e e620 d63c b603 f4bd
000000d0: 4013 dfbc 4c67 8bbe 2613 893e 9850 c03d
000000e0: 1022 0fbe 2456 8bbe aff2 d7bd 2271 383d
000000f0: ae7c 70be 0def 513e adc8 08be bb48 58be
00000100: aa98 983e db3d 5d3d c0bd fe3d 3661 57be
00000110: f449 53be a927 9a3d 659e fe3d e257 643e
00000120: e759 17be 8536 7d3c 1760 31be 5f3a 7b3e
00000130: 1345 efbd fdce a0bd ac2f e8bd 2f29 78be
00000140: 8df3 1e3d bc59 303e a632 473e 9374 60be
00000150: f0cd 953d f339 7dbc 3f1b 3f3e 05b8 8b3c
00000160: 10e3 6ebe 9acb 473e f1c8 0ebe f4e1 323e
00000170: 2965 32be 14d6 7d3d aac3 203d 779d c93d
00000180: 3e78 733e 6b34 1f3e fdf7 7e3e de48 2bbd
00000190: 355d 77be c59e dcbc 3c41 30be 8687 dc3d
000001a0: 784d 233e 8323 483e 15bc 823e ded6 5dbe
000001b0: 7ada 83be 4d3d edbd ffde 9abd 815c bbbd
000001c0: 4ced 793c c91e 403e ced5 54be f3e9 933e
000001d0: 9a54 46be db3f 00be f77a 883c 3674 cd3d
000001e0: 0f31 1abc 74e0 8fbe 0571 0ebe 0f07 943e
000001f0: e0e2 7d3e ce09 803e 1e56 68be dc92 203e
00000200: f56c cf3d 8ef6 783e 60e7 80be 56d2 233d
00000210: bdc0 69be f5e5 cb3d a8c3 7f3a b648 21be
00000220: 481c 64bd 8925 0abe 78e2 063e 66e0 05be
00000230: 9aec 703e b9a8 073e 4314 babd 8a96 973d
00000240: 7cfa 14bd 2fd2 643e 3525 1ebe 63c7 b93d
00000250: 0085 413c 7475 46bd e394 773e 7ea7 4b3e
00000260: c876 64be ce17 713d f06c 78be 03b0 a2bd
00000270: 0332 243e 80ef 88be 31a7 4f3e b887 d13d
00000280: 61b5 033e ad5d 89be d85f 493d 0d0a b4bd
00000290: bcec 3c3d b00e fc3b 8d61 6fbc 0ba1 af3d
000002a0: daa1 913e ebb6 593e b3bd 9b3e a04a 603c
000002b0: 3102 82be ad7d 863e fbf7 7dbd b238 35bd
000002c0: 1eac 2bbe 348a 60be c16a 12be 11b9 883e
000002d0: 033c 42be f0f4 27be 8dcc 313e d2a0 e8bd
000002e0: 3a41 7e3e d7ec 97be 5e2b e0bb 1052 e3bd
000002f0: 7037 ef3d 54ae 393e 0ce2 ec3c a33b 5dbe
00000300: 1498 18be 6771 9abe 2a6c bfbd bc01 913a
00000310: 87b8 1dbc c2f9 9b3e fde9 80be 8757 b8bd
00000320: 2a96 dcbd 8f95 c0bc 2b9e d6bc 8774 8d3d
00000330: 1c5c 5d3e cc2c 0a3d 6472 9bbe df75 61be
00000340: 876b 3dbe 087b bb3d 6517 93be b630 7cbe
00000350: 3975 94be f128 0abe fbf0 1d3e 2756 1fbe
00000360: d2a6 ad3d e1d4 86be 339c babd 7de5 783e
00000370: 701f 59be 87b8 6e3e 4d13 3f3e 0441 97be
00000380: 5418 ad3d 1f36 813e c6f6 d93d c8ca 073e
00000390: 34fc 2e3e 93bc 10be 5f25 8bbe 8ed5 86be
000003a0: 1e5c a93d 509b 2dbe 5ed9 5a3e 3568 143e
000003b0: 741a fabd 8a4e 37bd 4672 95be 9397 43be
000003c0: 5507 02be 5898 9b3d 95f3 01be 83a6 0d3e
000003d0: 33e3 17be 64f9 1c3d c62f 8abe 894c 5b3e
000003e0: c0de eb3c bc2a dd3d 33ad b5bd 05e9 89be
000003f0: 8ec3 8fbd 7f27 34be 54e3 11be 87d7 c83d
0.2510759 0.13207543 0.269191 -0.21125256 0.29495245 0.057854917 0.052211534 -0.20897391
0.18738389 0.24718016 -0.19154999 0.089344084 -0.29677564 -0.1691572 -0.23515832 -0.05088264
0.17421076 0.27403453 -0.024568627 0.04764625 -0.21137933 0.19876045 -0.10360491 -0.013303641
-0.16353287 -0.18238664 -0.10807023 0.19953145 -0.07119284 -0.037129987 -0.12642719 0.2799318
-0.30315456 -0.12818097 0.026358237 0.033077005 0.08294648 0.29164273 -0.26918644 0.011054614
0.26816815 -0.13004096 -0.062121883 -0.0069907815 0.24274826 -0.28848863 -0.2472921 0.14511643
0.08848164 0.20803119 0.026138734 -0.1191477 -0.027230859 -0.27227247 0.26772422 0.09390372
-0.13977838 -0.27214158 -0.10544335 0.045029767 -0.23485062 0.20501347 -0.13357802 -0.21121494
0.29803973 0.054014068 0.12438536 -0.21033177 -0.2063368 0.07527096 0.12432555 0.2229915
-0.14780389 0.015454893 -0.17321812 0.24533986 -0.11683097 -0.0785198 -0.11337218 -0.2423446
0.038806487 0.17221731 0.19452915 -0.2191947 0.0731467 -0.015455711 0.18662737 0.01705552
-0.23328805 0.19511262 -0.1394384 0.17469007 -0.17421402 0.06197174 0.0392491 0.09844487
0.23776338 0.1554734 0.24899288 -0.04181754 -0.2415665 -0.026931176 -0.17212385 0.107680365
0.1594752 0.19544797 0.2553412 -0.21663997 -0.25752622 -0.11583958 -0.075620644 -0.09148503
0.01525433 0.18761744 -0.20784685 0.28889427 -0.1936821 -0.12524359 0.016660197 0.10031931
-0.009411111 -0.28100932 -0.13910301 0.28911635 0.24793577 0.2500748 -0.22689101 0.15681022
0.10128204 0.24312803 -0.25176525 0.039995514 -0.2282743 0.0995597 0.0009756633 -0.15750393
-0.055691034 -0.13490881 0.13172328 -0.13073882 0.23527756 0.13247956 -0.09085896 0.0740176
-0.036371693 0.22345804 -0.15443881 0.09071233 0.011811495 -0.048451856 0.2417789 0.19888112
-0.22310936 0.058860593 -0.24260306 -0.07943728 0.16034703 -0.26745224 0.20278622 0.102309644
0.1286216 -0.2682928 0.04916367 -0.087909795 0.046124205 0.0076921806 -0.01461066 0.085756384
0.28443795 0.21261184 0.30418167 0.013689667 -0.25392297 0.26267758 -0.06200407 -0.044243522
-0.16764876 -0.2192772 -0.14298536 0.26703694 -0.18968205 -0.1640203 0.17363186 -0.11358799
0.2482957 -0.29672882 -0.0068411073 -0.110996366 0.11680496 0.18132907 0.028916381 -0.21604781
-0.14901763 -0.30164644 -0.093468025 0.0011063139 -0.009626514 0.30463988 -0.2517852 -0.090010695
-0.10770829 -0.023508815 -0.026198467 0.069069915 0.21617168 0.033734128 -0.3036071 -0.2201762
-0.1849805 0.09154326 -0.28728786 -0.24627957 -0.28995684 -0.1349218 0.15423958 -0.15560208
0.08479084 -0.2633429 -0.09111824 0.24306293 -0.21203399 0.23312579 0.18659706 -0.2954179
0.08451906 0.25236604 0.106427714 0.13260949 0.17088395 -0.14134435 -0.2717695 -0.26334804
0.08269523 -0.16953778 0.21371982 0.14492877 -0.12212077 -0.044752635 -0.29188746 -0.1910079
-0.1269811 0.07597417 -0.12690575 0.1383305 -0.14832763 0.038323775 -0.26989573 0.21415915
0.028792739 0.107991666 -0.08870926 -0.26935592 -0.07019721 -0.17593192 -0.14246875 0.098067336

att_src f4 [1, 1, 4]
00000000: 7f55 543f 95d9 7e3f 2c51 51bf 27a5 52bd
0.82942957 0.99550754 -0.81764483 -0.051427033

att_dst f4 [1, 1, 4]
00000000: 775c 61bf 2023 523f 6f64 133f 6875 723f
-0.88031715 0.82084846 0.57575125 0.947104

bias f4 [4]
00000000: 6b12 83ba 6b12 83ba 6512 833a 6b12 83ba
-0.0009999996 -0.0009999996 0.0009999989 -0.0009999996

weight f4 [4, 32]
00000000: 184d 94bd c08a cc3e a27b b33e f619 1b3e
00000010: b7a9 bd3d afbd 913c 2081 c63e b269 b83d
00000020: 53ad 853d 7458 103e 86b6 cd3e cacb b6be
00000030: 1a28 b1be 716d 05be b0b1 89be fe35 483e
00000040: 6095 7d3e b6e3 453d 1676 de3d fffb 65be
00000050: 6df0 3f3d 8842 263d aa2c afbe 6efb 0dbd
00000060: 4fa3 0abe 3a66 14be fc3c b23e 9e44 9d3d
00000070: 98e4 783c fab5 88be 727a cdbe 1e31 86bd
00000080: 7ede 953e f8e7 f33d 7718 a53e af4b 013d
00000090: b8db ae3e e51c c43d ba69 b33e fee5 a6be
000000a0: 8bb3 3b3e e41d 0f3e 5008 b9be ca62 81bc
000000b0: d29f 093d 274a c23e 259b 7ebd bb84 59be
000000c0: 6552 8ebe b810 1b3e b3d5 7f3e 0b5b b5be
000000d0: 3f15 9e3e fa46 c93e 58d3 b93e b547 403e
000000e0: 2d6b d7bd a473 753e 3703 763d 99fa c43e
000000f0: 5a51 3a3c 78b0 113e 6af6 8a3e f94a 63be
00000100: 96dd a0be b027 c03d 9adb c83e 57f6 c13e
00000110: 0963 b2bd 58b4 f83d f4ce 1cbe 33ac 8ebd
00000120: 818d 273d 86d4 a2be d0c9 183e eb83 f33d
00000130: 12f6 a1bd 4895 10be 1951 c73e 2b62 063d
00000140: 286b c5be 214b 4f3e 759b 5abe f282 603e
00000150: d186 c6be aacb 9b3e 9cc6 8b3e 2815 1b3b
00000160: b038 b33e 928d 40be 866a b93e 8dd7 af3c
00000170: 64c9 843d daa4 1dbe 8407 83be 6a15 c6be
00000180: 04ed b6be 0c4a a53e 1067 1b3e 15a8 21bd
00000190: 0fa8 1b3e 5627 aabe 200d 3f3d 0ca9 0abe
000001a0: 6367 633e 189d 6dbd aad2 87be 5788 82be
000001b0: 9dd3 63be 3201 8dbe 832c 35be d949 8cbe
000001c0: 064f a33e 7eef 2abe 9841 ab3e eadf c13e
000001d0: c205 af3e 64bc a23e f48c 5b3e 0612 acbe
000001e0: 9a1b 6ebd 1204 10be 64aa be3e f0ee af3c
000001f0: a7a2 9f3d f86f af3e 4016 2dbe 17f3 c8be
-0.07241267 0.39949608 0.35055262 0.15146622 0.09260886 0.017790643 0.3877039 0.09004535
0.065271996 0.14096242 0.40178317 -0.35702354 -0.34600908 -0.1303003 -0.26893377 0.19551846
0.24764013 0.048312865 0.10862367 -0.2245941 0.046860147 0.040590793 -0.34213763 -0.03466361
-0.1353886 -0.14492121 0.34812152 0.07679103 0.01519122 -0.26701337 -0.4013248 -0.06552337
0.2927131 0.11909479 0.32245228 0.031566318 0.34152007 0.09575824 0.350416 -0.32597345
0.18330209 0.13976246 -0.36139154 -0.015794177 0.033599682 0.379472 -0.062159676 -0.21242039
-0.27797237 0.15143096 0.24983864 -0.35421023 0.30875584 0.39311963 0.36294055 0.18777354
-0.10518489 0.23969895 0.06006166 0.3847244 0.011371935 0.14227474 0.27141124 -0.22196569
-0.31419057 0.0938257 0.39230043 0.37883255 -0.08710296 0.12143773 -0.15313321 -0.06966438
0.040906433 -0.31802768 0.14920735 0.11890396 -0.07908262 -0.14119446 0.3892906 0.032808464
-0.38558316 0.20243503 -0.21348365 0.21924952 -0.38774732 0.3042882 0.27299964 0.0023663733
0.35004187 -0.18804005 0.36214083 0.021465087 0.06483725 -0.15394917 -0.2559167 -0.38688213
-0.35727704 0.32283056 0.15176034 -0.039466936 0.15200828 -0.33233136 0.046643376 -0.13541049
0.22207408 -0.058011144 -0.2652791 -0.25494644 -0.22248693 -0.27539974 -0.17692761 -0.2740009
0.31896228 -0.16692922 0.33448482 0.37866145 0.3418408 0.31784356 0.21440488 -0.336075
-0.05813179 -0.14064053 0.37239373 0.021476239 0.07794695 0.34265113 -0.16903019 -0.39247963
