graph_classification_model.pt (torch, 64674 bytes, 12 tensors)

att_src f4 [1, 1, 32]
0	0xbda9cfa5	-0.08291558
1	0xbed4616e	-0.41480583
2	0xbea34692	-0.31889778
3	0x3d9b4631	0.07581747
4	0x3e3ca5cb	0.1842262
5	0x3e83e48d	0.25760308
6	0x3dd78ae3	0.105245374
7	0x3ed59a9c	0.4171952
8	0xbdf20ed5	-0.11819235
9	0xbea123a6	-0.3147251
10	0x3ad6fa41	0.0016401486
11	0xbe499c54	-0.1968854
12	0x3e22b49e	0.15889212
13	0xbe914c9f	-0.2837877
14	0xbe1dddbe	-0.15416619
15	0xbdadbc19	-0.084831424
16	0xbecc9a41	-0.39961436
17	0x3edaaebb	0.42711434
18	0x3e2a6f89	0.1664411
19	0x3eadf3e2	0.3397513
20	0x3ed20e55	0.4102656
21	0x3bb0d817	0.0053968537
22	0xbac093e4	-0.0014692512
23	0x3ec393ca	0.38198692
24	0xbdbeaaad	-0.093098976
25	0xbde4bc0b	-0.11168679
26	0xbdd907be	-0.1059718
27	0xbec03f24	-0.37548172
28	0xbe0ba040	-0.1363535
29	0xbe228bf1	-0.15873696
30	0xbe1cba58	-0.1530546
31	0xbd81165f	-0.06303095

att_dst f4 [1, 1, 32]
0	0xbe7eeb26	-0.2489439
1	0x3e81f023	0.25378522
2	0xbe5f2c14	-0.21794158
3	0x3dc21a7a	0.09477706
4	0x3e9c5a1a	0.30537492
5	0xbeaec7c4	-0.34136784
6	0x3ebdb75e	0.3705396
7	0x3e809942	0.25116926
8	0xbea77121	-0.32703498
9	0xbecaa952	-0.39582306
10	0x3d089651	0.033346478
11	0xbd8d179f	-0.06889271
12	0xbc4ce4a5	-0.012505685
13	0x3d18419a	0.037171938
14	0x3d54997d	0.05190419
15	0x3e6b3c6d	0.2297227
16	0xbe8098c8	-0.25116563
17	0x3e1e1173	0.15436344
18	0x3d6d5e48	0.05795124
19	0xbe921d22	-0.28537852
20	0x3cc7f6a8	0.024409607
21	0xbe858097	-0.2607467
22	0xbe9da1cd	-0.30787507
23	0xbd38c16e	-0.045106344
24	0xbed84dc3	-0.42246827
25	0x3eab52dd	0.33461657
26	0x3ec2ebe1	0.38070586
27	0xbe9d2e02	-0.30699164
28	0x3e9fcd9a	0.3121155
29	0x3e1febe3	0.15617327
30	0x3e95bbaf	0.29244754
31	0xbdee4398	-0.11633986

bias f4 [32]
0	0xbb367181	-0.002783865
1	0x3b2b6814	0.0026154565
2	0x3b4187e2	0.0029530455
3	0x3b2dfafe	0.0026547308
4	0xbb3a5600	-0.0028432608
5	0x3b33bf4b	0.0027427252
6	0x3b41f201	0.0029593708
7	0x3b31809f	0.002708472
8	0xbb1e1efa	-0.002412735
9	0x3b3d1e57	0.0028857195
10	0xbb361ff1	-0.0027790035
11	0xbb3f157f	-0.00291571
12	0xbacd1a62	-0.0015648121
13	0x3b18ae95	0.0023297418
14	0x39946a42	0.00028307928
15	0xbb306cfc	-0.0026920428
16	0xbb431097	-0.0029764527
17	0x3b3bc7a5	0.0028652933
18	0xbb3e36c6	-0.0029024347
19	0xbb28fe55	-0.002578636
20	0xbb355bc8	-0.0027673114
21	0xbb3a63e5	-0.002844089
22	0x3b352cda	0.0027645142
23	0x3b3779ed	0.0027996257
24	0xbb2ea118	-0.0026646312
25	0xbb3ad75f	-0.0028509719
26	0x3b3fe5a1	0.0029281157
27	0xbb261a8d	-0.0025345415
28	0xbac70617	-0.001518431
29	0xb8f702d1	-0.000117784024
30	0xba824158	-0.0009937687
31	0xbafc506f	-0.0019250045

weight f4 [32, 11]
0	0xbe91f2bb	-0.285055
1	0x3e9aabf0	0.30209303
2	0xbe6a355b	-0.22871916
3	0x3ea91a8d	0.3302807
4	0x3e03ef91	0.12884356
5	0x3e41f407	0.18940745
6	0xbeb60e06	-0.35557574
7	0x3ead2609	0.3381808
8	0xbe4df8c2	-0.20114425
9	0x3dfe8bfc	0.12429044
10	0xbd9b9db6	-0.0759844
11	0x3dd139c9	0.102161
12	0x3e68ee2e	0.22747108
13	0xbd1ff699	-0.039053533
14	0xbe9610bf	-0.2930965
15	0xbe4d624a	-0.20057026
16	0x3e86b0f9	0.26306894
17	0x3db3b3fc	0.08774564
18	0xbe672b5b	-0.22575133
19	0x3e594d74	0.21220952
20	0x3e67d389	0.22639288
21	0x3e918cbb	0.2842768
22	0x3d9fa941	0.077959545
23	0x3e3b67f5	0.18301375
24	0xbe9510ef	-0.29114482
25	0xbe2654ae	-0.1624324
26	0x3dab8e06	0.08376698
27	0x3b989972	0.004656964
28	0xbdd84a4e	-0.105610475
29	0xbdc40937	-0.0957207
30	0xbe0a3043	-0.13494973
31	0x3e8e262f	0.27763507
32	0xbe238849	-0.15969957
33	0x3e80d73b	0.25164208
34	0xbea3d287	-0.31996557
35	0x3e086c83	0.13322644
36	0xbe9c0a00	-0.3047638
37	0x3df9f3e7	0.12204724
38	0xbe3511ea	-0.17682615
39	0x3e8aac23	0.27084455
40	0xbe92564e	-0.2858147
41	0x3ebf949a	0.37418061
42	0x3eb0b9c1	0.3451672
43	0x3e0fe4f7	0.14052187
44	0x3eb6aa37	0.3567674
45	0xbeb85ef9	-0.36009958
46	0xbc8eb302	-0.017419342
47	0xbe9d04d1	-0.30667737
48	0x3e6fd263	0.234201
49	0xbd31083a	-0.043220736
50	0x3e5dc2b6	0.21656308
51	0xbda227f2	-0.07917775
52	0x3e1e92de	0.15485713
53	0x3e944138	0.28956008
54	0xbe871c57	-0.2638881
55	0x3eb09eb9	0.34496096
56	0xbeba1684	-0.36345303
57	0xbcd0979c	-0.025462918
58	0xbdaf970c	-0.08573732
59	0xbde09b70	-0.10967147
60	0x3ebf11fd	0.3731841
61	0xbe6c7a6c	-0.23093575
62	0x3c8c29dd	0.017109806
63	0x3cb6bfb9	0.022308217
64	0x3e0a5b35	0.13511355
65	0xbda9e9a9	-0.0829652
66	0x3e94101b	0.28918537
67	0x3eb2683e	0.34845155
68	0xbe609295	-0.21930917
69	0xbde2d09b	-0.110749446
70	0xbe871b01	-0.2638779
71	0x3e61db92	0.22056416
72	0xbeafdcbf	-0.34348103
73	0xbdfb71b7	-0.12277549
74	0xbe33ab0b	-0.17545716
75	0x3d3357f8	0.043785065
76	0xbdf88c4d	-0.12136135
77	0x3e941a7b	0.28926453
78	0x3dec4b3c	0.11537787
79	0x3dab5d11	0.083673604
80	0x3e698572	0.22804812
81	0xbcf84196	-0.030304711
82	0x3db2adc4	0.087245494
83	0xbe305baf	-0.17222475
84	0x3e24283b	0.16030972
85	0xbde5f62c	-0.11228594
86	0x3e91d7c5	0.28484932
87	0xbe20f1cb	-0.15717237
88	0xbd837947	-0.06419616
89	0xbea8e487	-0.32986853
90	0x3e642449	0.22279467
91	0xbe6a4d1f	-0.22880982
92	0x3ea9f223	0.33192548
93	0x3de32291	0.110905774
94	0xbcb14d69	-0.021643357
95	0xbe11abf3	-0.1422575
96	0xbdb2a072	-0.08722009
97	0xbe89ab9a	-0.26888734
98	0x3de21a15	0.11040131
99	0xbeb49634	-0.35270846
100	0xbe28c6c1	-0.16482069
101	0xbe828e29	-0.25499085
102	0x3e099e26	0.13439235
103	0x3def55c6	0.11686282
104	0x3eaa3834	0.33246005
105	0xbd7356ed	-0.05940907
106	0x3e9f3012	0.31091362
107	0xbe81e471	-0.253696
108	0xbe776859	-0.24160899
109	0xbe8b1fdc	-0.27172744
110	0x3be98fb4	0.0071277265
111	0xbeae7ff1	-0.34081987
112	0x3e803f57	0.25048324
113	0xbe97207d	-0.29516974
114	0x3e1fcc2e	0.15605232
115	0xbe2ab927	-0.16672193
116	0x3b89d265	0.004205989
117	0xbdd604c5	-0.104501285
118	0x3e32fcc1	0.1747923
119	0x3eb40259	0.3515804
120	0xbebdfa7a	-0.3710516
121	0xbea57139	-0.32312945
122	0xbd09d372	-0.033648916
123	0x3c27148b	0.010197769
124	0x3eb504e3	0.3535529
125	0x3e25c131	0.16186978
126	0xbbc41427	-0.0059838477
127	0xbea5c97b	-0.3238028
128	0x3da2d68a	0.07951076
129	0xbe168194	-0.14697868
130	0x3e0f84e5	0.14015539
131	0xbe0adb53	-0.13560228
132	0xbcb4929f	-0.02204257
133	0x3e8418d4	0.25800192
134	0x3eab6518	0.33475566
135	0xbea94c19	-0.3306587
136	0xbe65ccdf	-0.22441433
137	0xbe158dcd	-0.14604874
138	0xbc55e270	-0.013054475
139	0x3e863121	0.26209357
140	0x3e66db8a	0.22544685
141	0xbd03da14	-0.032190397
142	0xbe5360aa	-0.20642343
143	0x3eaba359	0.33523062
144	0xbe056e40	-0.13030338
145	0xbe2dd5a2	-0.16976026
146	0x3e30155b	0.17195646
147	0x3e56d139	0.2097825
148	0x3dec4a1f	0.11537575
149	0xbdb0a827	-0.086258225
150	0xbe191c15	-0.14952119
151	0xbdd9f514	-0.10642448
152	0x3e8d627b	0.27614197
153	0x3e562a96	0.20914683
154	0x3e23f28a	0.1601049
155	0xbd0eb52e	-0.034840755
156	0x3e38f4e1	0.18062164
157	0x3d3d504f	0.046219166
158	0xbe11faf0	-0.14255881
159	0xbe18405b	-0.148683
160	0x3e25b08a	0.16180626
161	0x3b653676	0.0034975088
162	0x3e9363a0	0.28786945
163	0x3e813e92	0.2524305
164	0x3e56401d	0.20922895
165	0xbe93e969	-0.28889015
166	0xbeb0ff7f	-0.34569928
167	0x3e26c540	0.16286182
168	0xbcd9d202	-0.026589397
169	0xbebeabe3	-0.37240514
170	0xbe28a69a	-0.16469803
171	0xbe38f788	-0.18063176
172	0xbe77f41d	-0.24214216
173	0x3d9739fe	0.07384108
174	0x3df59be7	0.11992627
175	0xbe657ae9	-0.22410168
176	0xbea4ed30	-0.3221221
177	0x3e77eef5	0.24212249
178	0x3e533f19	0.20629539
179	0x3de77c50	0.113030076
180	0x3e0556ea	0.13021436
181	0xbd7b85e1	-0.061406974
182	0xbd47bc80	-0.048763752
183	0xbdc015f0	-0.09379184
184	0xbe3a837d	-0.18214221
185	0xbe8b600f	-0.27221724
186	0x3e68748c	0.22700709
187	0xbd5f89a7	-0.054574635
188	0x3cb1ed68	0.02171965
189	0xbe9d8590	-0.30765963
190	0x3c87996b	0.016552648
191	0x3a7a225e	0.0009541864
192	0xbe8601ae	-0.26173156
193	0xbea175f0	-0.31535292
194	0xbe9a1e2f	-0.30101153
195	0xbeb71720	-0.3575983
196	0x3e9adcb8	0.3024652
197	0xbe35bdf0	-0.17748237
198	0xbda95572	-0.082682505
199	0x3e6e3d9a	0.23265687
200	0x3dc22e93	0.094815396
201	0x3d0f10e7	0.03492823
202	0xbbb0e627	-0.00539853
203	0xbb0cad63	-0.0021465651
204	0xbbb0b536	-0.005392696
205	0xbe0fe801	-0.14053346
206	0x3cfcf0ca	0.030876536
207	0x3e1997ba	0.14999285
208	0xbe4b3962	-0.19846109
209	0x3e91d0aa	0.2847951
210	0x3daad81a	0.08341999
211	0xbddeb2c6	-0.10873942
212	0x3e119843	0.1421824
213	0x3e09a135	0.13440402
214	0x3e0fcfbe	0.14044091
215	0xbdc9cdf3	-0.09853735
216	0x3e7ae83f	0.24502657
217	0x3c023431	0.007947014
218	0x3e88496c	0.26618516
219	0xbe0442b2	-0.12916067
220	0xbdfffbdd	-0.12499211
221	0x3e1c0963	0.15237956
222	0x3d3af845	0.045646925
223	0x3dfb736d	0.12277875
224	0xbe446799	-0.19180144
225	0xbcc6277d	-0.024188751
226	0x3eb4cdff	0.35313413
227	0xbe21aa06	-0.15787515
228	0x3e3188b0	0.17337298
229	0xbebb1a82	-0.3654366
230	0x3e4a0d28	0.19731581
231	0x3e8b1aac	0.27168787
232	0x3884a35f	6.324681e-05
233	0xbd9bfa02	-0.076160446
234	0x3e0ff090	0.14056611
235	0x3d9a3c94	0.075310856
236	0x3e4154a7	0.18879949
237	0x3d488e28	0.048963696
238	0xbe97a856	-0.29620618
239	0xbe9401e1	-0.28907683
240	0x3e846e05	0.25865188
241	0xbbc7e428	-0.0061001964
242	0x3e912097	0.28345177
243	0x3e482353	0.19544725
244	0xbe4f7265	-0.20258482
245	0xbe7e75d9	-0.24849643
246	0x3e8380f0	0.2568431
247	0xbdedacfb	-0.11605259
248	0x3e66dc4d	0.22544976
249	0xbe736abf	-0.23771189
250	0xbd69cbb7	-0.057079043
251	0x3d593e84	0.053038135
252	0xbccb3076	-0.024803381
253	0x3e97901e	0.2960214
254	0xbccb21dc	-0.024796419
255	0x3dc26c43	0.094933055

att_src f4 [1, 1, 32]
0	0xbe90a6b4	-0.28252184
1	0xbe54dfe4	-0.20788532
2	0xbed4b90c	-0.4154743
3	0xbec28591	-0.37992528
4	0xbe763ce9	-0.24046673
5	0x3dc2f01f	0.09518456
6	0xbe82cf82	-0.2554894
7	0x3e6076a2	0.21920255
8	0x3e9f4438	0.31106734
9	0x3d5d0f8b	0.0539699
10	0x3e8d5c24	0.2760936
11	0xbe7f2bcb	-0.2491905
12	0xbd844a24	-0.06459454
13	0xbe9b0094	-0.3027388
14	0x3e50008d	0.2031271
15	0xbe775569	-0.24153675
16	0x3d1240b6	0.035706244
17	0x3d56a7c8	0.052406102
18	0xbea7201d	-0.32641688
19	0xbecca732	-0.3997131
20	0x3e6342bc	0.22193426
21	0xbe4b181d	-0.19833417
22	0x3e8133d3	0.2523485
23	0x3d999fd1	0.07501186
24	0xbe0ca02f	-0.1373298
25	0x3d0bc2c3	0.034121286
26	0x3e5d59df	0.21616314
27	0xbe8241dc	-0.25440872
28	0x3e9e7acd	0.30953065
29	0xbec41993	-0.38300762
30	0xbe5b5b98	-0.21421659
31	0x3d1c24d3	0.038121056

att_dst f4 [1, 1, 32]
0	0xbe861014	-0.26184142
1	0x3eac33f7	0.33633396
2	0xbece361f	-0.40275666
3	0x3dd1ac78	0.10237974
4	0xbe72b469	-0.23701634
5	0xbe2d3fa7	-0.16918813
6	0x3db6c3ad	0.08924041
7	0xbe529c8b	-0.20567529
8	0x3ed62297	0.41823265
9	0x3e44ae0d	0.1920702
10	0xbcd5a449	-0.026079314
11	0xbe20c787	-0.15701114
12	0xbeb22988	-0.3479731
13	0xbec80303	-0.39064798
14	0x3ed9b786	0.4252283
15	0x3e365d01	0.17808916
16	0x3e2e8069	0.17041172
17	0x3eb0523c	0.3443774
18	0xbe96474a	-0.29351264
19	0x3ec4dad7	0.38448212
20	0xbe80dabf	-0.2516689
21	0x3ead65ad	0.33866635
22	0x3d97f5ed	0.074199535
23	0x3eb17950	0.34662867
24	0x3e9a29fe	0.30110162
25	0x3e0cfdb0	0.13768649
26	0x3d4563d6	0.048190914
27	0xbc37bc6d	-0.011214358
28	0xbd052f15	-0.032515604
29	0x3d6ea0b5	0.05825873
30	0x3e9d1b56	0.30684918
31	0xbd47d283	-0.048784744

bias f4 [32]
0	0xbb076704	-0.0020660767
1	0x00000000	0.0
2	0x3a467d0c	0.0007571734
3	0x3a4a9445	0.00077277824
4	0x3b30a1fc	0.002695202
5	0xbb2d9a28	-0.002648959
6	0x00000000	0.0
7	0xbb39bfd7	-0.0028343105
8	0xbb316179	-0.0027066155
9	0x00000000	0.0
10	0xbb3d5bcf	-0.0028893834
11	0xbb10a282	-0.0022069518
12	0x3ae00334	0.0017090798
13	0xbb1e8627	-0.0024188848
14	0xbb19d364	-0.0023471946
15	0x3ab4351e	0.001374874
16	0x00000000	0.0
17	0x3b06d9c3	0.0020576573
18	0xbb23470f	-0.002491418
19	0x3b371792	0.0027937633
20	0xbb2f3a1f	-0.0026737524
21	0xbb249387	-0.0025112347
22	0x3b3d19d2	0.0028854501
23	0xbb14f31a	-0.0022727908
24	0xbb268a27	-0.0025411935
25	0x38fba9f1	0.00012000267
26	0xbb3d5d8e	-0.0028894874
27	0xbb12b9d8	-0.0022388604
28	0xbb315aa8	-0.0027062092
29	0x3b2a8340	0.0026018173
30	0x3b3d4a80	0.0028883517
31	0x3b3bdfe4	0.0028667385

weight f4 [32, 32]
0	0x3e7e6691	0.24843813
1	0x3e08e6b8	0.13369262
2	0x3e8866f2	0.2664104
3	0xbe5697e5	-0.2095638
4	0x3e97dcac	0.29660547
5	0x3d5f795b	0.054559093
6	0x3d4b1895	0.04958399
7	0xbe59324b	-0.21210591
8	0x3e3dc851	0.18533446
9	0x3e7b66a3	0.24550872
10	0xbe42718b	-0.18988626
11	0x3db856cd	0.09000931
12	0xbe971775	-0.29510084
13	0xbe30cdff	-0.17266081
14	0xbe6f160b	-0.23348252
15	0xbd49a4b1	-0.049229328
16	0x3e312a49	0.17301287
17	0x3e8bfa43	0.27339372
18	0xbcbb7848	-0.022884503
19	0x3d353d43	0.044247877
20	0xbe54df4f	-0.2078831
21	0x3e499d3c	0.19688886
22	0xbdda531c	-0.10660383
23	0xbc893cc2	-0.016752604
24	0xbe23d641	-0.159997
25	0xbe390f11	-0.18072154
26	0xbddf84f1	-0.109140284
27	0x3e4e16d3	0.20125894
28	0xbd8b1afc	-0.06792256
29	0xbd144c49	-0.036205564
30	0xbdfeadcc	-0.12435493
31	0x3e902b0c	0.28157842
32	0xbe9c5e8e	-0.3054089
33	0xbdffe9c9	-0.12495763
34	0x3cc4690d	0.023975873
35	0x3d0f5fad	0.035003353
36	0x3dad45fd	0.08460615
37	0x3e93aaf4	0.28841364
38	0xbe8ab41b	-0.27090535
39	0x3c01b3eb	0.007916431
40	0x3e88876e	0.26665825
41	0xbe053008	-0.13006604
42	0xbd77a4ae	-0.060459785
43	0xbbbe0b75	-0.0057997056
44	0x3e7a4bc6	0.24442968
45	0xbe9576c9	-0.29192188
46	0xbe7b5c02	-0.24546817
47	0x3e164c5b	0.14677565
48	0x3db3a780	0.087721825
49	0x3e55b9fd	0.2087173
50	0x3ce34a5f	0.027745424
51	0xbdfb03da	-0.12256594
52	0xbcc27aa5	-0.023740122
53	0xbe8ac3a1	-0.27102378
54	0x3e87bfaa	0.26513416
55	0x3db9588a	0.090500906
56	0xbe0b8e63	-0.13628535
57	0xbe8a7a51	-0.27046445
58	0xbdd9c831	-0.106338866
59	0x3d3f549f	0.04671156
60	0xbe6d39c5	-0.23166569
61	0x3e53a9e6	0.2067028
62	0xbe054a3f	-0.13016604
63	0xbe568fff	-0.20953368
64	0x3e9a6a24	0.30159104
65	0x3d65c60a	0.056097068
66	0x3e02ff5e	0.12792727
67	0xbe551284	-0.20807844
68	0xbe4f9bc1	-0.20274259
69	0x3d989bee	0.07451616
70	0x3e02dcb8	0.1277951
71	0x3e681b68	0.22666705
72	0xbe15eae2	-0.14640382
73	0x3c8b274b	0.01698651
74	0xbe2daba8	-0.16960013
75	0x3e7ec194	0.24878532
76	0xbde966ad	-0.11396537
77	0xbd9ee151	-0.077578194
78	0xbde43c90	-0.11144364
79	0xbe76714a	-0.24066654
80	0x3d24ad86	0.040204547
81	0x3e33c60b	0.17556016
82	0x3e4ae5ad	0.19814177
83	0xbe5cb7dd	-0.21554513
84	0x3d9981e1	0.074954756
85	0xbc54eb2f	-0.012995525
86	0x3e420548	0.18947327
87	0x3c97b84f	0.018520502
88	0xbe6b2cab	-0.22966258
89	0x3e49dd23	0.19713263
90	0xbe1001e7	-0.14063226
91	0x3e3462bb	0.17615788
92	0xbe2eed5f	-0.17082737
93	0x3d82487e	0.06361483
94	0x3d2f873a	0.04285357
95	0x3dd11989	0.102099486
96	0x3e75a4e7	0.23988687
97	0x3e217655	0.15767796
98	0x3e806aed	0.25081578
99	0xbd208ef6	-0.03919884
100	0xbe73fdb6	-0.23827252
101	0xbcead0c7	-0.028664006
102	0xbe2da170	-0.16956115
103	0x3ddb1d18	0.106989086
104	0x3e251bdb	0.16123907
105	0x3e495e4b	0.19664876
106	0x3e846796	0.2586028
107	0xbe5b8940	-0.21439075
108	0xbe82a231	-0.25514367
109	0xbded1917	-0.11577051
110	0xbd9646e2	-0.073377386
111	0xbdb80a19	-0.08986301
112	0x3c8b8a11	0.017033609
113	0x3e425d48	0.18980896
114	0xbe530fa7	-0.2061144
115	0x3e920da4	0.28526032
116	0xbe43f217	-0.19135319
117	0xbdfc32b3	-0.123143576
118	0x3c80d65f	0.01572722
119	0x3dd04f77	0.10171407
120	0xbbc0b6e7	-0.0058811787
121	0xbe8eb42c	-0.27871835
122	0xbe0fd070	-0.14044356
123	0x3e94fe31	0.29100183
124	0x3e80a681	0.25127032
125	0x3e810365	0.25197902
126	0xbe64cd9f	-0.22344063
127	0x3e224f2d	0.15850516
128	0x3dd6d985	0.10490707
129	0x3e7cc16e	0.24683163
130	0xbe7e3bb9	-0.2482747
131	0x3d32f672	0.04369206
132	0xbe660457	-0.22462593
133	0x3dd38f99	0.103301235
134	0x3b91efbd	0.004453628
135	0xbe1d9de1	-0.15392257
136	0xbd587f75	-0.052855927
137	0xbe06f0b9	-0.13177766
138	0x3e0a9924	0.13534981
139	0xbe0251a8	-0.12726462
140	0x3e74acf3	0.238941
141	0x3e0b7ff8	0.13623035
142	0xbdb27ef1	-0.087156184
143	0x3d9ef682	0.077618614
144	0xbd0a5ca3	-0.03377975
145	0x3e685b9b	0.22691195
146	0xbe1a87ac	-0.15090817
147	0x3dc12f7a	0.094328836
148	0x3c7e8a24	0.015535865
149	0xbd390782	-0.045173176
150	0x3e7b2cc4	0.24528795
151	0x3e4f7aa7	0.20261632
152	0xbe60b060	-0.21942282
153	0x3d801633	0.06254234
154	0xbe74a9b4	-0.23892862
155	0xbd9d0ab3	-0.07668056
156	0x3e27feca	0.16405788
157	0xbe877a5a	-0.26460534
158	0x3e537163	0.20648722
159	0x3dd91353	0.10599389
160	0x3e000e54	0.12505466
161	0xbe8b383a	-0.27191335
162	0x3d3a8c29	0.045543823
163	0xbdbb7e2d	-0.091549255
164	0x3d2e0c6f	0.042492326
165	0x3b8763d6	0.0041317744
166	0xbc8944cc	-0.016756438
167	0x3da84f30	0.08218229
168	0x3e915516	0.28385228
169	0x3e58ac5a	0.21159497
170	0x3e99e390	0.3005643
171	0x3c268c7a	0.010165328
172	0xbe83d882	-0.2575112
173	0x3e84a47a	0.25906736
174	0xbd866bf1	-0.06563557
175	0xbd425b90	-0.047450602
176	0xbe2b3216	-0.16718325
177	0xbe63e25f	-0.22254322
178	0xbe160ac3	-0.14652543
179	0x3e86dd89	0.26340893
180	0xbe45b714	-0.1930812
181	0xbe2b623b	-0.1673669
182	0x3e2e1dd3	0.17003565
183	0xbdef98c2	-0.11699058
184	0x3e7a8505	0.24464805
185	0xbe99c747	-0.3003485
186	0xbc2b424a	-0.010452816
187	0xbdea3360	-0.1143558
188	0x3de930fe	0.11386298
189	0x3e363bed	0.17796297
190	0x3ccf1920	0.025280535
191	0xbe60f3ab	-0.21967952
192	0xbe1b00ae	-0.15136978
193	0xbe98c2ec	-0.29836214
194	0xbdc4948f	-0.09598648
195	0x3b456e17	0.0030125433
196	0xbc028cdd	-0.007968155
197	0x3e9a49c6	0.3013441
198	0xbe81e20e	-0.2536778
199	0xbdbedcae	-0.09319435
200	0xbddfe53d	-0.109323956
201	0xbcc0d3aa	-0.02353843
202	0xbcc9019c	-0.0245369
203	0x3d901519	0.07035274
204	0x3e5f12e6	0.21784553
205	0x3cf7ef21	0.030265393
206	0xbe9a8619	-0.30180433
207	0xbe5fc401	-0.21852113
208	0xbe3e4493	-0.18580846
209	0x3dbd14a1	0.0923245
210	0xbe924344	-0.28566945
211	0xbe7fb76d	-0.24972315
212	0xbe92a9a4	-0.2864505
213	0xbe08cbed	-0.13359042
214	0x3e1b24e8	0.15150797
215	0xbe22db0d	-0.15903874
216	0x3db4d9a9	0.08830578
217	0xbe85f9e4	-0.26167214
218	0xbdbcaed2	-0.09213032
219	0x3e7aa6c3	0.24477677
220	0xbe55cd56	-0.2087911
221	0x3e707b37	0.23484503
222	0x3e4299c0	0.19003963
223	0xbe9665b0	-0.29374456
224	0x3da5480e	0.08070384
225	0x3e7e7fbd	0.24853416
226	0x3dd2279c	0.10261461
227	0x3e03ddc4	0.12877566
228	0x3e2b117b	0.16705887
229	0xbe14b7c6	-0.14523229
230	0xbe8cfc17	-0.2753608
231	0xbe88d372	-0.2672382
232	0x3da1e80a	0.07905586
233	0xbe3102b3	-0.17286186
234	0x3e56ee44	0.20989329
235	0x3e107917	0.14108692
236	0xbe00f678	-0.1259402
237	0xbd473d19	-0.04864225
238	0xbe9768cd	-0.29572144
239	0xbe477c9c	-0.19481128
240	0xbe05d711	-0.13070323
241	0x3d93e17f	0.07220744
242	0xbe05d718	-0.13070333
243	0x3e09ba9a	0.13450089
244	0xbe1bc661	-0.15212394
245	0x3d0d7dd3	0.034543823
246	0xbe8c2747	-0.27373716
247	0x3e575adc	0.21030754
248	0x3ccc933f	0.024972556
249	0x3dd55549	0.104166575
250	0xbdbdd9c7	-0.09270053
251	0xbe8bd327	-0.27309534
252	0xbd978770	-0.073988795
253	0xbe37f19c	-0.1796326
254	0xbe15cdea	-0.14629331
255	0x3dc1033a	0.094244435

att_src f4 [1, 1, 3]
0	0xbf729a1e	-0.94766414
1	0x3e8f1747	0.27947447
2	0x3f95ef19	1.1713592

att_dst f4 [1, 1, 3]
0	0x3f91235a	1.1338913
1	0xbe874b2a	-0.26424533
2	0x3eb917b2	0.3615089

bias f4 [3]
0	0xbb30a475	-0.0026953493
1	0xbb3b0634	-0.0028537633
2	0xba4d607f	-0.00078345084

weight f4 [3, 32]
0	0x3ebaec3e	0.36508363
1	0x3ea84201	0.32862857
2	0xbeb43ab8	-0.3520105
3	0xbe22127e	-0.15827367
4	0xbe4667f3	-0.19375591
5	0x3e8789bf	0.2647228
6	0x3e3c35a6	0.1837984
7	0x3e6e39c3	0.23264222
8	0x3ec5183e	0.38495058
9	0xbd5ee450	-0.054416955
10	0x3e835ab1	0.2565513
11	0x3ea1eca5	0.31625858
12	0x3d577346	0.052600168
13	0x3d7d54d5	0.06184848
14	0x3ec8eb34	0.39241946
15	0xbe4e2e41	-0.20134832
16	0xbdd39738	-0.10331577
17	0xbebe3290	-0.3714795
18	0x3eb4b50e	0.35294384
19	0xbe9ef30a	-0.310448
20	0x3dfd63b0	0.123725295
21	0xbe49fd93	-0.19725637
22	0xbe3a0abf	-0.18168162
23	0x3dc2b8ff	0.095079415
24	0x3ea82059	0.3283718
25	0x3d2d23ec	0.042270586
26	0x3d090da4	0.033460274
27	0x3eaf6b2a	0.34261447
28	0x3e99f8ed	0.30072728
29	0x3d3eac70	0.046551168
30	0xbe902d3c	-0.2815951
31	0xbdfa299e	-0.12214969
32	0xbd98d21a	-0.07461949
33	0x3ecf7185	0.40516296
34	0x3eb509ce	0.35359043
35	0x3e1b78ba	0.15182772
36	0x3dbc9c59	0.092095084
37	0x3c850914	0.01623968
38	0x3ec951f9	0.39320353
39	0x3db7469e	0.08949016
40	0x3d83d123	0.06436374
41	0x3e1264a2	0.14296201
42	0x3ecfb1c4	0.40565312
43	0xbeba2d69	-0.3636277
44	0xbeb48f15	-0.35265413
45	0xbe08c12d	-0.1335494
46	0xbe8c8dc7	-0.27451918
47	0x3e4936a6	0.19649753
48	0x3e80971d	0.2511529
49	0x3d4136f5	0.04717155
50	0x3dde3807	0.1085053
51	0xbe6b105b	-0.22955458
52	0x3d3c2a86	0.04593899
53	0x3d276667	0.040869143
54	0xbeb2aac5	-0.34895912
55	0xbd177d81	-0.036984924
56	0xbe0e79e1	-0.1391368
57	0xbe186419	-0.14881934
58	0x3eb3d342	0.35122114
59	0x3d9cd331	0.07657469
60	0x3c5e6e41	0.013576091
61	0xbe8b9723	-0.27263746
62	0xbed15465	-0.408847
63	0xbd8bfa0c	-0.06834802
64	0x3e99144d	0.298983
65	0x3df75dac	0.12078413
66	0x3ea8393b	0.32856163
67	0x3d052958	0.03251013
68	0x3eb172c8	0.34657884
69	0x3dc6bfd1	0.09704555
70	0x3eb5f53f	0.3553867
71	0xbea90842	-0.33014113
72	0x3e3ea4ea	0.18617597
73	0x3e11259a	0.141745
74	0xbebb9ddd	-0.36643878
75	0xbc57481e	-0.013139753
76	0x3d078176	0.033082448
77	0x3ec4614a	0.38355476
78	0xbd818177	-0.063235216
79	0xbe5adfa2	-0.21374372
80	0xbe905738	-0.28191543
81	0x3e1da88b	0.15396325
82	0x3e81d0ad	0.2535452
83	0xbeb7c74c	-0.3589424
84	0x3e9fcbb5	0.31210104
85	0x3ecbf4f0	0.3983531
86	0x3ebbb6fc	0.36663043
87	0x3e434b82	0.19071773
88	0xbdda135f	-0.10648226
89	0x3e79399f	0.24338387
90	0x3d7a6b1f	0.061137315
91	0x3ec743ec	0.38919008
92	0x3c401ca9	0.011725583
93	0x3e13f2b2	0.1444805
94	0x3e8d05a4	0.27543366
95	0xbe68606a	-0.22693029
