graph_classification_model.pt (torch, 35270 bytes, 6 tensors)

bias f4 [32]
0	0xbb395746	-0.0028280779
1	0x3b3fd35d	0.002927027
2	0x3afdb79a	0.0019357086
3	0x3b42b2c6	0.0029708608
4	0xbb4114fe	-0.0029461975
5	0x3b29ce09	0.002591016
6	0x3b432778	0.0029778164
7	0x3b44e84f	0.0030045693
8	0x3b444ba0	0.0029952303
9	0x3b4428df	0.0029931588
10	0xbb4499a8	-0.0029998813
11	0x3b39ce4b	0.002835172
12	0xbb3f86c0	-0.0029224604
13	0xbb42bdf2	-0.0029715267
14	0x3b41f104	0.002959312
15	0xbb431600	-0.0029767752
16	0xbb41feb3	-0.0029601275
17	0xbb43e557	-0.0029891336
18	0x3b44da62	0.0030037393
19	0xbb42f17c	-0.0029745987
20	0xbb3398c5	-0.002740429
21	0xbb41b59b	-0.0029557708
22	0xbb38d23f	-0.0028201488
23	0xbb44d73b	-0.0030035514
24	0x3b44e38c	0.0030042855
25	0xbb440111	-0.0029907862
26	0x3b409fdb	0.0029392156
27	0x3a043c81	0.0005044416
28	0xbb44b1be	-0.003001317
29	0x3b4481b4	0.0029984536
30	0xbb445654	-0.0029958682
31	0xbab87f0c	-0.0014075949

weight f4 [32, 11]
0	0xbe91ea4a	-0.2849906
1	0x3e9a9cfd	0.30197898
2	0xbe6a39da	-0.22873631
3	0x3ea903d9	0.33010748
4	0x3e046670	0.12929702
5	0x3e41ca71	0.18924882
6	0xbeb61511	-0.35562947
7	0x3ead4d30	0.33847952
8	0xbe4df917	-0.20114551
9	0x3dfe7764	0.12425116
10	0xbd9baebd	-0.07601688
11	0x3dd1943a	0.1023335
12	0x3e693cac	0.2277705
13	0xbd1e7000	-0.03868103
14	0xbe9605c2	-0.29301268
15	0xbe4d0590	-0.20021653
16	0x3e86872d	0.26275006
17	0x3daf7365	0.08566932
18	0xbe66be2f	-0.22533487
19	0x3e59a195	0.21253045
20	0x3e68311e	0.22674987
21	0x3e919844	0.28436482
22	0x3d9f2add	0.077718474
23	0x3e35fdfb	0.17772667
24	0xbe9518aa	-0.2912038
25	0xbe2bedbf	-0.16789912
26	0x3dab9c33	0.08379402
27	0xba99a61b	-0.0011722477
28	0xbde3a435	-0.111153044
29	0xbdc436de	-0.095807776
30	0xbe0a2a84	-0.13492781
31	0x3e8e15f4	0.27751124
32	0xbe21509f	-0.15753411
33	0x3e7bd413	0.24592619
34	0xbea3befa	-0.3198164
35	0x3e0be7c6	0.13662633
36	0xbe9efbba	-0.31051427
37	0x3dff1e80	0.12456989
38	0xbe386290	-0.18006349
39	0x3e87cabf	0.2652187
40	0xbe911b53	-0.2834116
41	0x3ebfbabb	0.37447152
42	0x3eb0eb2a	0.34554416
43	0x3e0fd4b2	0.1404598
44	0x3eb6be6e	0.3569216
45	0xbeb8846c	-0.3603853
46	0xbc8ece4b	-0.017432353
47	0xbe9cd694	-0.3063246
48	0x3e6fc74a	0.23415866
49	0xbd2f0e6a	-0.042738356
50	0x3e5f217b	0.21790116
51	0xbda22837	-0.079178266
52	0x3e1e720e	0.15473196
53	0x3e943921	0.28949836
54	0xbe871b26	-0.263879
55	0x3eae036a	0.3398698
56	0xbebc1112	-0.36731774
57	0xbcd20e49	-0.025641577
58	0xbdb9fe50	-0.090817094
59	0xbde09204	-0.1096535
60	0x3ebc33ab	0.3675817
61	0xbe722b15	-0.23649247
62	0x3c8c6973	0.017140126
63	0x3cb64744	0.022250779
64	0x3e0a3e78	0.13500392
65	0xbdb2ae76	-0.08724682
66	0x3e9426e0	0.2893591
67	0x3eb25cc6	0.34836406
68	0xbe5dd9a0	-0.21665049
69	0xbde2d2d0	-0.110753655
70	0xbe87f568	-0.26554418
71	0x3e61bde5	0.22045095
72	0xbeb00b50	-0.3438363
73	0xbe000273	-0.12500934
74	0xbe2f3389	-0.17109503
75	0x3d337abc	0.04381822
76	0xbdf8419f	-0.12121891
77	0x3e9431de	0.28944296
78	0x3ded055c	0.11573288
79	0x3dafebca	0.08589895
80	0x3e69ab20	0.22819185
81	0xbcf6d43f	-0.030130504
82	0x3db2f78e	0.087386236
83	0xbe303fac	-0.17211789
84	0x3e242add	0.16031976
85	0xbde52e63	-0.11190488
86	0x3e91fd0a	0.28513366
87	0xbe20d6fa	-0.15707007
88	0xbd6fdf87	-0.05856278
89	0xbea68a15	-0.32527223
90	0x3e69cfac	0.22833127
91	0xbe67a0ee	-0.22619984
92	0x3eacbcc1	0.33737758
93	0x3dec8b3f	0.115499966
94	0xbc95972c	-0.01826056
95	0xbe0f5e29	-0.14000763
96	0xbda935fe	-0.08262251
97	0xbe86b7c6	-0.26312083
98	0x3ded5834	0.11589089
99	0xbeb334db	-0.35001263
100	0xbe262ada	-0.16227284
101	0xbe83ed0c	-0.2576679
102	0x3e08927d	0.13337131
103	0x3df6c47e	0.12049197
104	0x3ead17bd	0.33807173
105	0xbd5e6c7e	-0.054302685
106	0x3e9f227e	0.31081003
107	0xbe81bfa4	-0.25341523
108	0xbe744ac6	-0.23856649
109	0xbe89358a	-0.2679866
110	0x3be5c9f0	0.007012598
111	0xbeaeb518	-0.3412254
112	0x3e801df3	0.2502285
113	0xbe972b82	-0.2952538
114	0x3e1f8724	0.15578896
115	0xbe2af21e	-0.16693923
116	0x3b807992	0.0039207423
117	0xbdd673a4	-0.104712754
118	0x3e32c290	0.17457032
119	0x3eb3e13c	0.35132778
120	0xbebe0feb	-0.3712152
121	0xbea27f5f	-0.317378
122	0xbceb5c81	-0.028730633
123	0x3c5bb490	0.013409749
124	0x3eb80825	0.35943714
125	0x3e294f61	0.16534187
126	0xb9aec43c	-0.00033334072
127	0xbea32a77	-0.31868336
128	0x3daee69b	0.08540078
129	0xbe10abee	-0.14128086
130	0x3e15667e	0.14589879
131	0xbe04fe93	-0.12987737
132	0xbc8c9755	-0.017162004
133	0x3e85a77a	0.26104337
134	0x3eaa5a32	0.3327194
135	0xbea6d86b	-0.3258699
136	0xbe6aea56	-0.22940955
137	0xbe101b40	-0.14072895
138	0xbbfbcb77	-0.007684167
139	0x3e834699	0.256398
140	0x3e657e14	0.22411376
141	0xbd0c3d27	-0.034238007
142	0xbe510f46	-0.20415983
143	0x3ea8dd90	0.3298154
144	0xbe0a9c32	-0.13536146
145	0xbe280475	-0.1640795
146	0x3e2a7eaa	0.16649881
147	0x3e51207e	0.20422551
148	0x3de0a69d	0.10969279
149	0xbdbc793c	-0.09202811
150	0xbe19a6ab	-0.15004985
151	0xbde5210d	-0.111879446
152	0x3e8ad6f2	0.27117115
153	0x3e5112c9	0.20417322
154	0x3e29b332	0.16572264
155	0xbd099e43	-0.033598196
156	0x3e3705cc	0.17873305
157	0x3d54b01c	0.051925763
158	0xbe104378	-0.14088237
159	0xbe1230c6	-0.14276418
160	0x3e2bc3e2	0.16773942
161	0x3b992a18	0.0046742074
162	0x3e948f62	0.29015642
163	0x3e829de8	0.25511098
164	0x3e5c3755	0.21505482
165	0xbe9415b5	-0.2892281
166	0xbeb1283d	-0.34601012
167	0x3e267d20	0.16258669
168	0xbcdc3665	-0.026881406
169	0xbebeccb0	-0.3726554
170	0xbe28f3f6	-0.16499314
171	0xbe3949db	-0.1809458
172	0xbe783248	-0.24237931
173	0x3d96a4d8	0.0735566
174	0x3df5092c	0.1196464
175	0xbe65c98c	-0.22440165
176	0xbea500e1	-0.32227233
177	0x3e77bb4c	0.24192542
178	0x3e534257	0.20630775
179	0x3de5faab	0.11229452
180	0x3e0554c3	0.13020615
181	0xbd7bfc91	-0.061520163
182	0xbd4840da	-0.048889972
183	0xbdbb4d88	-0.09145647
184	0xbe3d293f	-0.18472765
185	0xbe8b2265	-0.27174678
186	0x3e6874c4	0.22700793
187	0xbd76b66f	-0.060232576
188	0x3c85d0b3	0.016334867
189	0xbea01dad	-0.3127264
190	0x3c33a3c6	0.01096434
191	0xbb92e193	-0.004482457
192	0xbe88c9fb	-0.267166
193	0xbea30524	-0.3183986
194	0xbe9c5e15	-0.3054053
195	0xbeb7456e	-0.35795158
196	0x3e97ed13	0.2967306
197	0xbe388cc1	-0.18022443
198	0xbd9d9bdf	-0.07695746
199	0x3e744488	0.23854268
200	0x3dce34e5	0.100686826
201	0x3d26d6bd	0.040732134
202	0x3a1dcb00	0.0006019324
203	0x3b77e92b	0.0037828188
204	0x3a09ca35	0.00052562664
205	0xbe09c820	-0.13455248
206	0x3d16ad92	0.036786623
207	0x3e1fa80c	0.15591449
208	0xbe455b2d	-0.19273062
209	0x3e91827b	0.2841986
210	0x3daa2853	0.083084725
211	0xbddf1158	-0.1089198
212	0x3e1101c3	0.14160828
213	0x3e09598a	0.13413063
214	0x3e0f543a	0.13996974
215	0xbdca9727	-0.09892111
216	0x3e7a9a8d	0.24473019
217	0x3bf6e8cb	0.0075350753
218	0x3e8820fd	0.26587668
219	0xbe04df7b	-0.12975876
220	0xbe000596	-0.12502131
221	0x3e1ba37c	0.15199083
222	0x3d3b6e78	0.045759648
223	0x3dfb7397	0.122779064
224	0xbe44514a	-0.19171634
225	0xbcc721d0	-0.024308115
226	0x3eb4cbf3	0.3531185
227	0xbe218eae	-0.15777084
228	0x3e319348	0.1734134
229	0xbebb2323	-0.36550245
230	0x3e4a2a43	0.19742684
231	0x3e8b0886	0.2715494
232	0xb95c6bcf	-0.00021020997
233	0xbd9c20fb	-0.07623478
234	0x3e0fce1e	0.14043471
235	0x3d9a515b	0.075350486
236	0x3e41295e	0.18863437
237	0x3d488b58	0.048961014
238	0xbe97c034	-0.29638827
239	0xbe9413b8	-0.28921294
240	0x3e846015	0.25854555
241	0xbbc8fb9d	-0.0061335103
242	0x3e907120	0.28211308
243	0x3e428089	0.18994345
244	0xbe553288	-0.20820057
245	0xbe81b95c	-0.2533673
246	0x3e8081cd	0.2509903
247	0xbdeba00b	-0.11505135
248	0x3e676e9a	0.22600785
249	0xbe78dca3	-0.24302916
250	0xbd808901	-0.062761314
251	0x3d41c137	0.047303405
252	0xbcc87ecd	-0.024474526
253	0x3e949e45	0.29027
254	0xbcfa08bf	-0.030521749
255	0x3db68152	0.08911385

bias f4 [32]
0	0xbb443c84	-0.0029943297
1	0xbb431f21	-0.0029773193
2	0x3b231c5c	0.002488873
3	0x00000000	0.0
4	0xbb36a523	-0.0027869425
5	0xbb22a699	-0.0024818538
6	0xbb3a2a45	-0.0028406542
7	0xbb272e29	-0.0025509691
8	0x00000000	0.0
9	0x3a0c03ab	0.0005341123
10	0x3b431122	0.002976485
11	0x00000000	0.0
12	0xbb41ffc3	-0.0029601909
13	0xbb41d0ae	-0.0029573846
14	0xbb20dd2b	-0.002454589
15	0x3b417b5f	0.0029522998
16	0x3b44b47d	0.0030014806
17	0xbb34850e	-0.0027545127
18	0x00000000	0.0
19	0x3b441c68	0.0029924158
20	0xbb3abd49	-0.002849417
21	0xbb43da77	-0.0029884854
22	0x3b426d5d	0.0029667236
23	0xbb1dcb7a	-0.002407758
24	0x3aa4a26d	0.0012560614
25	0xbb442af4	-0.0029932829
26	0xbb445868	-0.002995992
27	0xbb44b2fc	-0.003001391
28	0xbb43bb98	-0.0029866453
29	0xbb27a5a1	-0.00255809
30	0xbb42b015	-0.0029707004
31	0x3b441c12	0.0029923958

weight f4 [32, 32]
0	0x3dfa9600	0.122356415
1	0xbe54d408	-0.20784009
2	0x3dbdbb0a	0.092641905
3	0xbdbd861d	-0.09254096
4	0x3e7315da	0.23738804
5	0xbcf368a2	-0.029712979
6	0xbe2388d4	-0.15970165
7	0xbe2cf077	-0.16888605
8	0xbdc79a02	-0.097461715
9	0x3d4ab17f	0.04948568
10	0xbca7bab2	-0.020474765
11	0x3deaef43	0.11471417
12	0xbe57299f	-0.21011971
13	0xbe204508	-0.15651333
14	0xbe1dca7a	-0.1540927
15	0x3e96a9e3	0.29426488
16	0x3e374ee5	0.1790119
17	0x3e385117	0.17999683
18	0xbdb64bd9	-0.089011855
19	0xbde0aa21	-0.109699495
20	0xbde62bf0	-0.11238849
21	0x3d8f2bfc	0.06990811
22	0x3e84a859	0.2590969
23	0x3e90359e	0.28165907
24	0x3e49349b	0.19648974
25	0x3e88ccf4	0.26718867
26	0x3e23231d	0.15931363
27	0xbe259378	-0.16169536
28	0x3e580413	0.21095304
29	0xbe426dad	-0.1898715
30	0x3e51a276	0.2047213
31	0xbdf040d3	-0.11731114
32	0x3e3cadd6	0.18425688
33	0x3e91bcee	0.28464454
34	0xbcf4f520	-0.029902041
35	0xbcfb3e95	-0.03066949
36	0xbe9aa050	-0.30200434
37	0x3dd0044f	0.10157072
38	0x3d616d2c	0.055035755
39	0xbe671bc8	-0.22569191
40	0xbe99452e	-0.29935592
41	0xbe211be9	-0.15733303
42	0x3d9fa724	0.077955514
43	0x3c8a9d4c	0.016920708
44	0xbda65fbe	-0.0812373
45	0xbe31f4cc	-0.17378539
46	0x3e99c8c7	0.30035993
47	0x3e27791a	0.1635479
48	0xbe0f120a	-0.13971725
49	0x3e7122bb	0.23548405
50	0x3d32adf2	0.04362292
51	0x3e21eca7	0.15812932
52	0xbd17b2ac	-0.03703563
53	0x3e51a07e	0.20471379
54	0xbe846ec0	-0.25865746
55	0x3e1590f3	0.14606075
56	0xbe019f67	-0.12658463
57	0xbb001c39	-0.0019548072
58	0xbe89da44	-0.26924336
59	0x3d856f17	0.06515329
60	0xbe8d13cb	-0.27554163
61	0xbe8f6517	-0.28006813
62	0xbe661d1b	-0.2247204
63	0xbc42852a	-0.011872569
64	0x3e8130d6	0.2523257
65	0x3e08876b	0.13332908
66	0x3e8a8069	0.27051094
67	0xbe5747ab	-0.21023433
68	0x3e97732b	0.29580054
69	0x3d700863	0.05860175
70	0x3d5ab4a5	0.053394932
71	0xbe54babf	-0.20774363
72	0x3e3eea08	0.18643963
73	0x3e7c1983	0.24619107
74	0xbe434307	-0.19068538
75	0x3db8e9e3	0.09028985
76	0xbe97e48e	-0.2966656
77	0xbe2c19c0	-0.16806698
78	0xbe6f9bc1	-0.23399259
79	0xbd541126	-0.051774167
80	0x3e317fbf	0.17333888
81	0x3e8d2240	0.27565193
82	0xbcbf6d55	-0.023367563
83	0x3d4832f1	0.048876707
84	0xbe576e22	-0.21038106
85	0x3e4cb9a8	0.19992697
86	0xbdd27c6d	-0.102776386
87	0xbc46f812	-0.0121441055
88	0xbe244fe1	-0.16046096
89	0xbe3986bb	-0.18117802
90	0xbddd10d2	-0.10794224
91	0x3e4b781e	0.1987004
92	0xbd905334	-0.0704712
93	0xbd1336ed	-0.035941053
94	0xbdff5a4c	-0.12468395
95	0x3e8fdc43	0.28097734
96	0xbe9ba4fa	-0.30399305
97	0xbe028b85	-0.12748535
98	0x3cd1e720	0.025622904
99	0x3d04c730	0.032416523
100	0x3da7f2dc	0.082006186
101	0x3e94db55	0.29073587
102	0xbe8a1d30	-0.26975393
103	0x3c258360	0.010102123
104	0x3e890ea5	0.26768985
105	0xbe053bcc	-0.13011092
106	0xbd81340e	-0.06308757
107	0xbc007480	-0.007840276
108	0x3e779fe2	0.24182084
109	0xbe9427da	-0.28936654
110	0xbe7e0059	-0.2480482
111	0x3e13a79e	0.1441941
112	0x3db4265c	0.08796379
113	0x3e547d82	0.20751002
114	0x3cce7ba0	0.025205433
115	0xbdf5f4ca	-0.120095804
116	0xbcd73490	-0.026270181
117	0xbe8bd5c3	-0.27311525
118	0x3e88c1e5	0.2671043
119	0x3dbe72fc	0.09299275
120	0xbe0e342d	-0.13887091
121	0xbe8bcdcf	-0.27305457
122	0xbdd7bf70	-0.10534561
123	0x3d353608	0.04424098
124	0xbe6fd1e8	-0.23419917
125	0x3e510eea	0.20415846
126	0xbe07e67f	-0.13271521
127	0xbe593294	-0.212107
128	0x3e979c74	0.29611552
129	0x3d55f87d	0.05223893
130	0x3dfac9d0	0.12245524
131	0xbe593442	-0.21211341
132	0xbe553cde	-0.20824
133	0x3d9668ab	0.073441826
134	0x3dfab09e	0.12240718
135	0x3e6259b8	0.22104537
136	0xbe189ecb	-0.14904325
137	0x3c7db439	0.015484863
138	0xbe33566d	-0.17513438
139	0x3e794c4a	0.24345508
140	0xbdf306cb	-0.1186653
141	0xbda441a6	-0.08020334
142	0xbdebd432	-0.115150824
143	0xbe7ad31d	-0.24494596
144	0x3d19c642	0.03754259
145	0x3e2e7f0f	0.17040657
146	0x3e453b64	0.19260937
147	0xbe626fd0	-0.22112966
148	0x3d930fb2	0.07180728
149	0xbc8d2aa1	-0.017232241
150	0x3e3d46ef	0.1848409
151	0x3c7b6b69	0.015345433
152	0xbe70dae0	-0.23520994
153	0x3e45edf0	0.19329047
154	0xbe0e8293	-0.13916998
155	0x3e31baec	0.17356461
156	0xbe31b18d	-0.17352886
157	0x3d770765	0.060309786
158	0x3d18ed97	0.03733596
159	0x3dc5ba6f	0.096547
160	0x3e715544	0.23567683
161	0x3e1d92a1	0.15387966
162	0x3e7cecbf	0.24699686
163	0xbd312d12	-0.043255873
164	0xbe7963a6	-0.24354419
165	0xbceca85f	-0.02888888
166	0xbe3247f9	-0.17410268
167	0x3dd5abc1	0.1043315
168	0x3e21f6af	0.15816759
169	0x3e47c35a	0.19508114
170	0x3e81ae89	0.25328472
171	0xbe5fed57	-0.21867882
172	0xbe84e1b6	-0.25953454
173	0xbdf0ee61	-0.11764217
174	0xbd9db899	-0.07701225
175	0xbdc0d9c0	-0.094165325
176	0x3c64db4a	0.013968298
177	0x3e3e0ba2	0.18559125
178	0xbe58546e	-0.21125957
179	0x3e9206f9	0.28520945
180	0xbe47cbcb	-0.19511335
181	0xbe023d76	-0.12718758
182	0x3c71bfe5	0.014755224
183	0x3dca5f28	0.09881431
184	0xbc3a0eeb	-0.011356096
185	0xbe9093a9	-0.28237656
186	0xbe0f8073	-0.14013843
187	0x3e9364c5	0.2878782
188	0x3e7eaccd	0.24870606
189	0x3e7e78c6	0.24850759
190	0xbe6a50dd	-0.2288241
191	0x3e1cc0eb	0.15307967
192	0x3dcbd420	0.09952569
193	0x3e771169	0.24127735
194	0xbe81c7e0	-0.25347805
195	0x3d1c33de	0.038135402
196	0xbe6bab6e	-0.23014614
197	0x3dc819f4	0.09770575
198	0xba1da442	-0.0006013551
199	0xbe22d6ac	-0.15902203
200	0xbd5bc78a	-0.053657092
201	0xbe0ae2eb	-0.13563125
202	0x3e04f8fe	0.12985608
203	0xbe0713a1	-0.13191082
204	0x3e6f0423	0.23341422
205	0x3e05d92b	0.13071124
206	0xbdbde089	-0.09271342
207	0x3d93c516	0.072153255
208	0xbd089c52	-0.033352204
209	0x3e632432	0.22181776
210	0xbe2006f4	-0.15627652
211	0x3db5f75a	0.08885069
212	0x3c233547	0.009961433
213	0xbd4ba263	-0.04971541
214	0x3e75bdb4	0.23998147
215	0x3e49c6e8	0.19704783
216	0xbe665fe1	-0.22497512
217	0x3d697e78	0.057005376
218	0xbe7a596f	-0.24448179
219	0xbd9f1c27	-0.077690415
220	0x3e224486	0.15846452
221	0xbe8948ae	-0.26813263
222	0x3e4dbdfe	0.20092008
223	0x3dcdb262	0.100437894
224	0x3e00254b	0.12514226
225	0xbe8b2cb6	-0.2718255
226	0x3d3a8403	0.045536052
227	0xbdbb3e87	-0.091427855
228	0x3d2e88db	0.042610984
229	0x3b86f39c	0.004118396
230	0xbc8b7ca8	-0.017027214
231	0x3da82686	0.08210473
232	0x3e911886	0.28339022
233	0x3e5aa52d	0.21352072
234	0x3e99eefe	0.3006515
235	0x3c249838	0.010046057
236	0xbe83ba35	-0.25728002
237	0x3e84a754	0.2590891
238	0xbd862c1c	-0.06551382
239	0xbd427411	-0.04747397
240	0xbe2b57ef	-0.16732763
241	0xbe643cee	-0.22288868
242	0xbe161943	-0.14658074
243	0x3e86eb23	0.2635127
244	0xbe444af4	-0.19169217
245	0xbe2bc9b7	-0.16776167
246	0x3e2e4087	0.17016803
247	0xbdefef86	-0.11715607
248	0x3e7aaee5	0.2448078
249	0xbe99b9d0	-0.30024576
250	0xbc2848f3	-0.010271299
251	0xbdeaf175	-0.114718355
252	0x3ded52c6	0.115880534
253	0x3e35c8d8	0.17752397
254	0x3cd03768	0.025417045
255	0xbe60be72	-0.21947649

bias f4 [5]
0	0x3aa417a8	0.0012519257
1	0xbb426dba	-0.0029667453
2	0xbb43ff97	-0.0029906982
3	0x3b3c8836	0.0028767711
4	0xbb44de23	-0.003003963

weight f4 [5, 32]
0	0x3d8170b6	0.06320326
1	0xbe81f0fa	-0.25379163
2	0x3d69d5d7	0.0570887
3	0x3db10e44	0.08645299
4	0x3eac2b64	0.33626854
5	0xbe8015a3	-0.25016508
6	0x3d444927	0.047921326
7	0x3de19aa8	0.110158265
8	0xbe86d40e	-0.2633366
9	0xbeb7a592	-0.35868508
10	0xbe01eaa5	-0.12687166
11	0xbdbd9a18	-0.09257907
12	0x3da7c00b	0.08190926
13	0x3ea1183c	0.31463802
14	0x3e1d7320	0.15375948
15	0x3e2e4353	0.1701787
16	0xbe54be7a	-0.20775786
17	0xbe57f54b	-0.21089666
18	0x3ce9b3e0	0.028528154
19	0xbe134878	-0.14383113
20	0xbeb61ec3	-0.35570344
21	0xbd89173b	-0.06693884
22	0xbeb4c338	-0.3530519
23	0x3e370a27	0.17874967
24	0xbdb57c2a	-0.08861573
25	0xbe0a644e	-0.13514826
26	0xbde6a0bb	-0.11261126
27	0x3e71855c	0.23586029
28	0xbeb06779	-0.34453943
29	0x3e56065c	0.20900863
30	0xbe98bcb8	-0.2983148
31	0xbe92ba37	-0.28657696
32	0x3e979506	0.29605883
33	0x3ec31584	0.38102353
34	0xbe825e3f	-0.2546253
35	0x3e942346	0.28933161
36	0x3e2bdfc6	0.16784582
37	0x3e9a02a9	0.30080155
38	0xbea41280	-0.32045364
39	0x3ecad8a1	0.396184
40	0x3dd67330	0.10471189
41	0xbdcd5f01	-0.10027886
42	0x3e25d145	0.16193111
43	0xbe3dd2c4	-0.18537432
44	0x3e8fd073	0.28088722
45	0xbea8002e	-0.32812637
46	0x3e327344	0.17426783
47	0x3ea11240	0.31459236
48	0x3dba81ab	0.091067635
49	0x3e17a873	0.14810352
50	0xbe4c1229	-0.19928803
51	0x3d3bf3a3	0.045886647
52	0x3e2b427f	0.16724585
53	0x3ebfc629	0.37455872
54	0xbe683cd6	-0.22679457
55	0x3ec0d844	0.37664998
56	0xbe63ccfa	-0.22246161
57	0x3e28fd33	0.16502838
58	0x3e5e0c45	0.21684368
59	0x3d7d2439	0.061802123
60	0x3e1150a6	0.14190921
61	0xbe0fee53	-0.14055757
62	0x3ec0a580	0.37626266
63	0xbecbfeac	-0.39842737
64	0x3eb53212	0.35389763
65	0x3ea22147	0.31666014
66	0xbeaec951	-0.34137967
67	0xbe1ad312	-0.1511958
68	0xbe4132e6	-0.18867072
69	0x3e83a39e	0.25710768
70	0x3e3400e4	0.17578465
71	0x3e675389	0.2259046
72	0x3ec10724	0.3770076
73	0xbd650b4e	-0.055918984
74	0x3e7f1a49	0.2491237
75	0x3e9ec638	0.31010604
76	0x3d50a68f	0.050940093
77	0x3d738ef4	0.059462503
78	0x3ec38044	0.38183796
79	0xbe48d5fb	-0.19612877
80	0xbdd3ebd0	-0.10347712
81	0xbeb962e1	-0.3620825
82	0x3eb10074	0.34570658
83	0xbe9a9f96	-0.3019988
84	0x3df51ca7	0.119683556
85	0xbe47e047	-0.19519149
86	0xbe35246b	-0.17689674
87	0x3dc2331a	0.09482403
88	0x3ea34fea	0.31896907
89	0x3d26f395	0.04075964
90	0x3d03c315	0.032168467
91	0x3eaa327c	0.33241642
92	0x3e958d5f	0.2920942
93	0x3d3ac1c7	0.045594957
94	0xbe8c64ca	-0.27420646
95	0xbdf422f9	-0.11920733
96	0xbd8a70e2	-0.06759812
97	0x3ecb2ef5	0.39684263
98	0x3eb26b30	0.34847403
99	0x3e19fe9c	0.15038532
100	0x3dc3048d	0.09522352
101	0x3caf48da	0.021397043
102	0x3ec544eb	0.38529143
103	0x3dba84d4	0.09107366
104	0x3d85e0dc	0.06537029
105	0x3e115b9a	0.141951
106	0x3ecce410	0.40017748
107	0xbeb3ce39	-0.35118273
108	0xbeacc764	-0.33745873
109	0xbdff31fa	-0.12460704
110	0xbe8623ae	-0.26199096
111	0x3e49594f	0.19662975
112	0x3e7d1037	0.24713217
113	0x3d531d83	0.051541816
114	0x3ddd7270	0.10812843
115	0xbe5f299a	-0.21793213
116	0x3d4c3742	0.049857385
117	0x3d2f68f6	0.042824708
118	0xbeaae950	-0.33381128
119	0xbd08d7ee	-0.03340905
120	0xbe04c642	-0.12966254
121	0xbe0e6f05	-0.13909538
122	0x3eb1c93f	0.3472385
123	0x3da30582	0.07960035
124	0x3c9a596b	0.018841466
125	0xbe852049	-0.26001194
126	0xbec8b5ae	-0.3920111
127	0xbd78f351	-0.06077892
128	0x3e92ba8f	0.28657958
129	0x3dea7670	0.114483714
130	0x3ea228e4	0.31671822
131	0x3d036ce8	0.032086283
132	0x3eab7a25	0.33491626
133	0x3dbd6a6a	0.092488125
134	0x3eaf6f3c	0.34264553
135	0xbea5a25d	-0.32350436
136	0x3e3a2854	0.18179446
137	0x3e0a180a	0.13485733
138	0xbeb78c33	-0.3584915
139	0xbc6f3500	-0.0146000385
140	0x3cfef82c	0.031124197
141	0x3ebea31a	0.37233812
142	0xbd805c41	-0.06267596
143	0xbe587b8f	-0.21140884
144	0xbe8dec64	-0.27719414
145	0x3e16cbb1	0.1472614
146	0x3e7d5c58	0.24742258
147	0xbeb3e0f3	-0.3513256
148	0x3e9af7b1	0.302671
149	0x3ec504c0	0.38480186
150	0x3eb68975	0.35651746
151	0x3e3deda9	0.18547691
152	0xbdd89bc1	-0.10576583
153	0x3e700e67	0.23442994
154	0x3d6a6769	0.057227526
155	0x3ec14467	0.377475
156	0x3c16ba71	0.0091997245
157	0x3e0e4119	0.1389202
158	0x3e880a10	0.26570177
159	0xbe62435a	-0.22096005
