graph_classification_model.pt (torch, 64802 bytes, 12 tensors)

att_src f4 [1, 1, 32]
00000000: 69d0 31bc afa4 abbe c23c 65be e93a ee3c
00000010: 5fea 583e c372 b03e c746 453e 3050 ff3e
00000020: 606d c5bd 4996 6dbe 1ebf 553d 2d27 0bbe
00000030: 7b18 b73d 3e84 58be 019b 63be 0a6d 26be
00000040: 97b7 0bbf 7cff 023f 51df 913e a1e8 e63e
00000050: c3bb a63e edaa b03d e196 af3d 7f1d 013f
00000060: e614 35be 6d5f 4cbe 341a 62be baa7 acbe
00000070: 87ae 65be 5c4e 8dbd b345 71be aa5a aabd
-0.0108529115 -0.3352408 -0.22386459 0.029080825 0.21183155 0.34462556 0.1926528 0.49865866
-0.09640002 -0.2320186 0.052184217 -0.13589163 0.08940216 -0.21144196 -0.22227098 -0.16252533
-0.5457701 0.5117109 0.2849069 0.45099357 0.32565126 0.086263515 0.085737 0.5043563
-0.17683753 -0.19958277 -0.22080308 -0.33721715 -0.22429858 -0.068997115 -0.23561744 -0.08318074

att_dst f4 [1, 1, 32]
00000000: 16eb 22be a51d 923e 8ecb 0bbe a7df d7bc
00000010: 335c 8e3e f812 7abe 3249 fe3e 442f a73e
00000020: a88c 84be 775e 78be e479 8d3d 2683 4c3c
00000030: d9db 19bd 259d 8f3d 9944 c2bd fe60 6a3e
00000040: 0144 86be 3746 853e 953e e93d 47dc 6bbe
00000050: c69d 9ebd c29e 48be 736b d4be e1cc 8dbd
00000060: 123f d9be b9b3 a43e 5143 c53e 4622 95be
00000070: a452 b13e 4f79 6f3e 087d 8c3e 01c6 78be
-0.1590999 0.28538242 -0.13651869 -0.026351763 0.27804717 -0.24421299 0.4966522 0.32653248
-0.25888562 -0.24254785 0.069080144 0.01248244 -0.03756318 0.07012395 -0.0948574 0.22888562
-0.26223758 0.26030132 0.1138889 -0.23033248 -0.07744937 -0.19591811 -0.41488227 -0.06923843
-0.4243093 0.32168368 0.3852792 -0.2912771 0.34633362 0.2338612 0.2743914 -0.24294282

bias f4 [32]
00000000: 9b3f 103d 3a6b a0bb ada0 d13c 92ec 2a3c
00000010: 8faf aa3c 0cbe 94bb 6cd7 2b3d 81bd f03c
00000020: 7e85 8dbc 1310 983d 6215 983b a718 0f3d
00000030: 2acc 8c3a 5d11 833a 0c3d 913c d7b6 95bc
00000040: 9c90 80bc eb31 c4bc 533f 94bc fa0e 14bc
00000050: a472 1d3b 2c88 103d 34a9 713d 2361 913c
00000060: d202 8cbc 8bbf f7bb 4a57 813d 0e48 ecbc
00000070: e062 92bb 8f55 423d b541 19bb 037d 14bc
0.03521691 -0.004895595 0.025589311 0.010432379 0.020835666 -0.004539257 0.04195349 0.029387238
-0.017275568 0.07424941 0.004641221 0.03493562 0.0010741998 0.0009999681 0.017729305 -0.018275661
-0.015693955 -0.023949584 -0.018096602 -0.009036774 0.002402463 0.035286114 0.058999255 0.017746514
-0.017091189 -0.0075606755 0.06315477 -0.028842952 -0.004467353 0.047444876 -0.0023385112 -0.009063008

weight f4 [32, 11]
00000000: bae2 d9be 2703 18be 02b9 8dbe 7e12 743e
00000010: 5360 31bd ca58 e23e 0627 03bf 65c2 5d3e
00000020: 353f 5bbe 8a8a 7b3e 5765 69bd 2c5b a33c
00000030: 3679 e63d e5f7 a8bd 9eca 9abe 259f 9cbe
00000040: 7bec ee3e aa9a 753c 89d4 a2be f889 433e
00000050: b2cc 933e 1bf0 883e bcfd 2abe 33aa 0cbe
00000060: 0887 9abe c99b 5bbe 8685 5fbb c238 973e
00000070: b1bb 91be 54c3 47be d9e8 48be c8e6 d03e
00000080: 8ce7 e0bd dfde a13e 157c 02bd cdab 2d3e
00000090: b027 82be 8996 643e 79bb c5be 7907 a13e
000000a0: b340 81be b8ff be3e 0c3d ad3e 707f 173e
000000b0: be1a e23e 9ced 4bbd 78bc 673d 12f7 7dbe
000000c0: 42e3 a33e 90d5 7abe 55dd 873e f015 b8bc
000000d0: 390a 3e3e 0fee 883e 1186 5abe 7b3a 7f3e
000000e0: 5b12 01bf 2544 86bd 12dc 03be 64d6 7ebe
000000f0: a139 193f 998a abbe 73b8 a4bd 88c1 d8bc
00000100: c6c9 5f3e d349 b0bd 77b2 4c3e 8a88 c6bd
00000110: a8e9 90be 5c80 2abe 2707 d7be 6bbd f53e
00000120: e572 f3be 60c3 17be 3102 42be 4984 293e
00000130: 318f bcbd 00fc be3c 47a7 91be 2b69 80bb
00000140: 33ac 803d 64e3 25be 7540 c13e 96b6 b2be
00000150: faa0 c03d 1fe8 63be ac6c c83e dbb8 4cbe
00000160: 912f e4bc 4707 96be d7aa 613e e882 71be
00000170: 7e76 563e 19a7 453e b24c c6bd 9b7a 2dbe
00000180: 9bdb e9bd ab7a b7be caf8 143e d24a c4be
00000190: 75d9 aebe c5f4 c6be 6982 713d b366 05be
000001a0: e922 1a3f 63ce 85be 8779 4f3e 61a2 74be
000001b0: f6f8 bfbd 99b5 a1be c5d5 8a3b 768e 5bbe
000001c0: e5ea 863e 8a29 89be e22a bf3d de97 90bd
000001d0: 133f ccbc 8f91 12be 7b40 323e dea6 c43e
000001e0: 5f5b a4be 0ca4 00bf aa9a bbbe 1a9d 99bd
000001f0: 2f3b 823e f8f1 063c 4dc1 9c3e 55f7 02bf
00000200: 8480 23bc 2fae 63be 80fe 873e 0109 14be
00000210: 2576 213d 2739 db3e 4231 be3e b8d5 a9be
00000220: 6fb1 4abe 7bd1 67be e313 98bb 70ee 8d3e
00000230: 19fe 5f3e 36ee b6bc 931e 43be 2c7f 843e
00000240: 4f69 54be 4d8e 51be f78a 2e3e 3000 a53d
00000250: f4e9 923e 672d 8ebe df10 5fbe 3fff 0fbe
00000260: 1114 ac3e 6e54 433e f4b2 693e 00d3 1d3e
00000270: 6ddd 443e 2692 d63d 75a0 61bd 07c3 99be
00000280: 03f0 713e 54a1 123d 01b4 9e3e e133 653e
00000290: a07e 5b3e aecb 95be fa4d a1be 84ba 273e
000002a0: 6d3c 0c3d b21f c4be 55e4 59be df30 4cbe
000002b0: 763a 69be 6117 7d3d aa46 c93d 03e0 5ebe
000002c0: 03f0 94be a0ac 463e 8fad 4b3e 5d50 173d
000002d0: e7ed ce3d f09f 4bbd 4e3d 1cbe f6fe b3bd
000002e0: f54e 35be cce4 bbbe 36d5 663e 26a6 d4bd
000002f0: 3e1b 953e 53da 0bbf d8cd 29be e736 27be
00000300: 5789 86be 4dd7 09be 467d a0be 7e06 dcbe
00000310: ca0d ad3e 916d c4be 5fb0 3bbe 5509 6dbd
00000320: b54a ec3c 36b6 9fbd 5cad 8ebd 5d2f 7e3e
00000330: 4fe9 e0bc 8c2b 0cbe 97c9 4d3c 9c8d 1c3e
00000340: 7618 6dbe 2fc2 b43d 8461 96be 518d 1cbe
00000350: da5a 9cba 1bb2 b53c 671b e43e 284a 3bbe
00000360: 42a8 3c3e cf1e 18bd be84 ad3e d34c 2dbe
00000370: 9df7 dcbd 35f9 493e fa25 b53d 105d df3d
00000380: a6dd 48be 3e1f 203d 714b b73e 10b0 0fbe
00000390: f7c8 333e 945c b4be 517f 643e 3cba 81bd
000003a0: 7dba 32bd cffa a6bd 4e46 633c d272 ae3c
000003b0: e07b b83e c9ba 10be 8492 89be 2e15 a4be
000003c0: 4264 a63e 4039 efbd 2cd2 d23e 07d9 953e
000003d0: ac16 dfbd 519f 46be 4ff7 da3e f047 a4be
000003e0: d7f2 c73e 9fd7 bcbd 5e3f 65bc 9131 a03d
000003f0: d904 bd3c a8d2 593e a3ce 34be 5cbb 993c
-0.4255579 -0.14844953 -0.27680212 0.23835179 -0.043304753 0.44208366 -0.5123142 0.21656187
-0.2141083 0.24564567 -0.05698141 0.019940935 0.11253588 -0.08250407 -0.3023271 -0.30590168
0.46664795 0.014990488 -0.31802776 0.190956 0.28867108 0.26745686 -0.16698354 -0.13736801
-0.30181146 -0.21446146 -0.0034106686 0.2953549 -0.2846351 -0.19508106 -0.19620074 0.40801072
-0.10981664 0.3161535 -0.031856615 0.16960068 -0.25420904 0.2232305 -0.38619593 0.31451014
-0.25244674 0.37304473 0.33835638 0.14794707 0.44161028 -0.04978715 0.056576222 -0.24801281
0.3200932 -0.2449553 0.2653605 -0.022471398 0.18558587 0.26744124 -0.21340205 0.24924652
-0.50418633 -0.06555966 -0.12876919 -0.24886471 0.5985356 -0.3350418 -0.080429934 -0.02645947
0.21854314 -0.08607831 0.19989954 -0.096940115 -0.28303266 -0.16650528 -0.41997644 0.47996077
-0.47548595 -0.14820623 -0.18946148 0.16554369 -0.09206999 0.023313522 -0.28447935 -0.003918787
0.062828444 -0.16200024 0.3774449 -0.34904927 0.09405704 -0.22256516 0.3914541 -0.19992392
-0.027854713 -0.29302427 0.22037826 -0.23585093 0.20943639 0.19302024 -0.09682597 -0.16941302
-0.114188395 -0.35835776 0.1454803 -0.38338333 -0.34150282 -0.3885862 0.05896226 -0.13027458
0.6020952 -0.26134023 0.20261203 -0.23890068 -0.093736574 -0.3158386 0.004236909 -0.21441063
0.26351085 -0.26789504 0.09334351 -0.07060216 -0.02493242 -0.14313339 0.1740741 0.3840856
-0.3210096 -0.50250316 -0.36641437 -0.07500668 0.25435778 0.008236401 0.30616227 -0.5115865
-0.009979371 -0.22234415 0.26561356 -0.1445656 0.039419312 0.4281704 0.37146956 -0.33170867
-0.19794248 -0.22638504 -0.0046410426 0.27720976 0.21874274 -0.022330385 -0.19054632 0.25878274
-0.20743297 -0.2046444 0.17045198 0.080566764 0.28694117 -0.27769014 -0.2178378 -0.14062212
0.3360906 0.19075176 0.22822171 0.15412521 0.19225092 0.10477094 -0.055084664 -0.30031607
0.23626713 0.035798386 0.30996707 0.22383071 0.21435022 -0.29256958 -0.31504804 0.16379744
0.034237314 -0.38305432 -0.21278508 -0.19940518 -0.22776207 0.061789874 0.09827931 -0.21765141
-0.29089364 0.19401789 0.19890426 0.036941875 0.1010397 -0.049713075 -0.15257761 -0.08788864
-0.17705901 -0.36697996 0.22542271 -0.10383253 0.29122347 -0.5463001 -0.1658243 -0.16329537
-0.26276657 -0.13461037 -0.31345576 -0.42973703 0.33799583 -0.38364843 -0.18328999 -0.057870228
0.028844217 -0.07798426 -0.069666594 0.24822755 -0.027455 -0.13688487 0.01256027 0.15288395
-0.23153862 0.088261 -0.29371274 -0.15288283 -0.0011928931 0.022179654 0.44552156 -0.18290007
0.1842356 -0.037138756 0.33890337 -0.16923837 -0.10789416 0.19723971 0.08845134 0.10906422
-0.19615802 0.039092295 0.35799745 -0.14032006 0.17557131 -0.35226882 0.22314192 -0.063343495
-0.04363488 -0.08153307 0.013871742 0.021294985 0.3603201 -0.14133753 -0.26869595 -0.3204741
0.32498366 -0.116808414 0.41175973 0.2926714 -0.10892996 -0.19396712 0.42766806 -0.32086134
0.3905246 -0.09220814 -0.013992159 0.07821954 0.0230736 0.21271765 -0.1765695 0.018766098

att_src f4 [1, 1, 32]
00000000: 51ad 31be 9706 a5be bcf0 63be 52df 5abe
00000010: 3abb a7be 04bf 8c3e d097 aebe e8e9 a73d
00000020: 46d2 b43e 6644 993e 71f3 903e 7cad a5bc
00000030: 0c74 15be b552 dfbe 5ba0 9e3e 5761 d0bb
00000040: 6f2e 703d c904 03bd 7ff0 d5be d553 39be
00000050: 8693 d53e 1249 00bd c9fe a33e cf98 1ebd
00000060: 2f77 58bc 12e1 02be 4595 d43b efc6 96bd
00000070: c675 fc3d c74d 18bf 568c edbe 3157 7a3d
-0.17351271 -0.3223159 -0.22259802 -0.21374252 -0.3276003 0.27489483 -0.341002 0.08198911
0.35316676 0.29934996 0.2831073 -0.020224325 -0.1459505 -0.43617788 0.30981717 -0.00635926
0.058638033 -0.031986985 -0.41785046 -0.18098386 0.41714114 -0.031319685 0.32030323 -0.03871995
-0.013212009 -0.1278117 0.006487521 -0.07362162 0.12327151 -0.5949368 -0.4639613 0.06111831

att_dst f4 [1, 1, 32]
00000000: cd52 acbd df21 da3e 0cd7 8bbe 874b 753e
00000010: 44cd ffbe f31c 8bbd 79a0 173e 238b b4be
00000020: afe9 bc3e 68e1 a33e efa1 f4bd 2792 31be
00000030: e395 01bf 0462 b8be 440f 013f 2c37 933e
00000040: 4338 953e 753b fb3e 7ad6 8dbe d871 af3e
00000050: 772b 09be c0ea 023f 4a3a 0d3e 331f ba3e
00000060: dc06 7a3e 7ca9 52bc 7e81 a1bc 30c8 e03d
00000070: 70a2 d3bd 988b 80bc 6b17 273e 8678 323d
-0.084142305 0.42603967 -0.27312505 0.23954593 -0.49961293 -0.06792631 0.14807309 -0.35262403
0.36897036 0.3200791 -0.11944949 -0.17340909 -0.50619334 -0.3601228 0.5041392 0.2875303
0.29144487 0.490688 -0.27702695 0.34266543 -0.13395487 0.5113945 0.13791767 0.36351928
0.24416679 -0.012857791 -0.019715067 0.10975683 -0.10333717 -0.015691563 0.16317527 0.04357197

bias f4 [32]
00000000: 9f06 edbc 1a1d b4bc 5583 293c 7dbe f23b
00000010: ab0f 93bc 9a76 fa3b 0895 febc 5210 d13c
00000020: 6f71 a7bc f70a f9bc c9ab 333c 047c b63c
00000030: ecaf 8c3d 725e 84bc f941 71bc 7646 09bc
00000040: 0000 0000 d500 bfbc f5f9 01bd 66d6 1bbc
00000050: 3bf7 24bd 0525 f83c b278 43bc 3c17 493a
00000060: 0bbc a8bc da38 7b3c 63f9 93bc ffca 25bc
00000070: 1c4d 9fbc e91a 883b 82de b43c 6de0 b13c
-0.028933821 -0.021986533 0.010346253 0.007407962 -0.017951807 0.007643533 -0.031076923 0.025520477
-0.020439832 -0.030400736 0.01096625 0.022275932 0.06869492 -0.016158316 -0.014725202 -0.008378616
0.0 -0.023315826 -0.03173252 -0.009511566 -0.04027484 0.03029109 -0.0119306315 0.00076710037
-0.020597478 0.015333379 -0.018063253 -0.010119199 -0.019445948 0.0041535986 0.022078756 0.02171346

weight f4 [32, 32]
00000000: ff04 543e a1c8 c83d b88a 683e ea1f 4cbe
00000010: 7173 8b3e e3cf 9a3c 7131 c73b 1bc7 7fbe
00000020: 32dd 633e 481a 2c3e 3b51 62be 4407 1b3d
00000030: c180 62be 3872 51be 04b7 64be 40ea 4b3d
00000040: 0b59 3e3e ae4b 8f3e 87e8 91bd fffe 173c
00000050: d62c 00be 6acb 2c3e fa09 7b3d e22a 37bd
00000060: bca7 47be ebda 53be faf6 a5bc 6d9f 6a3e
00000070: 01a3 853c c244 9cbd 8c47 1dbe 693b b33e
00000080: 4ed7 e0be 2924 94be 0991 30bd 8419 d63d
00000090: dfe1 233e 303d 993d ced5 e4be 1b10 57bd
000000a0: d2f1 753e f1ce 89be 6318 b1bc 03ec a5bd
000000b0: d278 943e c591 cabe c5d9 4bbe 9f70 8d3e
000000c0: cace 873d ea15 6a3e 330b 15bd 78b9 89be
000000d0: 05d2 6fbd c268 a5be ef13 063f e13b e53c
000000e0: 3ccc 9bbe b97f a0be 0d2d 21bd a17b 423d
000000f0: 6cd4 07be 0ce0 193e a401 82be cbe6 09be
00000100: 8047 ff3e 8da7 023e cf59 933e 3c46 83be
00000110: 3342 5dbe 302e 823e b616 9e3e 8777 d83e
00000120: de1a 20be 2243 9e3e 12a2 20be 28fb 013f
00000130: 6552 4fbe 6c77 613d 2f8c 26be c972 80be
00000140: 3777 2b3d b48d 883b 90fe c53e 5885 2dbc
00000150: 72f6 063d 1291 2f3e cb2d 9bbd 27b9 7f3d
00000160: 700a 28be 51e9 513e b46f 54be be6d 3c3e
00000170: f85a 29be 0359 5b3e ccd1 8d3d 576b 253d
00000180: a518 ec3e a654 753e 6859 d73e 7f41 e2bd
00000190: d9a2 87be 9642 303e c0a3 1b3d e637 a83e
000001a0: ffb3 1e3e c453 033f 3250 863e c320 9d3d
000001b0: 5d61 aabe c6d5 da3c 03b6 12be df4f d7bd
000001c0: 9420 003d a119 9f3d 2f74 edb9 f381 033f
000001d0: afa8 75be 4198 a43d 89ad 80be 6481 123e
000001e0: 0377 983d dab8 84be d7fb 93be 6d3b 9d3e
000001f0: f568 7d3e 5980 d23e 026d 42be 5d55 ef3c
00000200: 26af ae3d a206 683e 69c5 76be 407d bb3c
00000210: 3504 7bbe ddd0 bb3d afd4 e93b 3894 21be
00000220: 8554 33bd 4b8c 33be ba7d ea3d 4538 28be
00000230: 85bd 5d3e 7b96 133e d2c6 ddbd e533 673d
00000240: 1d10 78bc e710 183e 5c9e 2ebe 812a 9f3d
00000250: ea2e a3bb b672 92bd 1650 763e 5302 3c3e
00000260: 7815 76be a2fa 263d 533a 98be 9db3 b0bd
00000270: 2d8a 103e 50a3 87be 8793 3d3e ec8b b03d
00000280: 345d ba3e 8af7 3dbe a9ce 6a3e 87f2 2ebe
00000290: d900 643c 1dae 5e3e 184b 523e 516e a03e
000002a0: 6347 a73e e653 083f df3f 9b3e ae04 9e3e
000002b0: bc37 b5be 50c6 d43e 803c 0dbe a5fc 90bd
000002c0: 0bef ccbd c566 b2be 471a 9f3d 319d 003f
000002d0: 521b 77be 4169 673d 966d febd 8f51 85bd
000002e0: b49c 9e3e 8907 93be ab20 32be 1a65 5dbd
000002f0: d283 a23d 8635 b83e bbc3 423d 5ab0 afbe
00000300: 946d 9bbe bd7c f1be 55b1 3fbe 1134 1e3e
00000310: a52a 563e 4bb4 9c3d 74a7 e4be d210 35be
00000320: 8936 16be fb23 4bbe 6f66 cb3d 6908 01bd
00000330: a3bf 8d3e cd7b b1bd 6a8e 1fbe 45c7 b5bd
00000340: ce9f 50be 899f 013e 6769 bdbe 86f5 d3be
00000350: f246 90be 16bb 64be c60f 013f db02 48be
00000360: 9640 8dbd 52e3 77be 5a29 70bc b630 923e
00000370: b00c d3bd 6acb 0a3e 6de6 e33d c0c7 1cbe
00000380: 93d0 7f3d 7316 8d3e c597 0b3e a10d 1f3e
00000390: fc28 483e 6a22 0ebe d39f 92be bba4 82be
000003a0: 6c5a e13d 1e1a 5abe b8de 723e 0092 e63d
000003b0: 25bf cdbd 45b6 cbbc 4173 89be e5af 30be
000003c0: 713b f3bd 00f9 903e a8f6 e0bd 46e3 1c3e
000003d0: e0ea 00be 277b 103d 8c01 83bc 8886 763e
000003e0: 5685 493d 5f4c 053e 606d 093b f99d 9abe
000003f0: d783 4bbd 2468 33be 1a90 f6bd 195f f53d
0.20705031 0.09803892 0.22709167 -0.19934049 0.27236512 0.018897956 0.006078892 -0.24978296
0.22252348 0.168069 -0.221013 0.037848726 -0.22119428 -0.20453727 -0.2233544 0.049783945
0.18588655 0.27987427 -0.07124429 0.009277104 -0.12517104 0.16874471 0.06128881 -0.04471863
-0.1949758 -0.2068898 -0.02025937 0.22912379 0.016313078 -0.07630302 -0.15359324 0.35006264
-0.43914264 -0.28933838 -0.043107066 0.104540855 0.16004132 0.07482374 -0.4469437 -0.052505594
0.24018028 -0.26915696 -0.021618074 -0.08101656 0.2899843 -0.39564338 -0.19907291 0.27624986
0.06631239 0.22859922 -0.036387634 -0.26899314 -0.0585499 -0.32306486 0.52374166 0.027982654
-0.30429256 -0.31347445 -0.039349604 0.047481183 -0.13264626 0.15026873 -0.25391877 -0.13466947
0.49859238 0.12759228 0.28779456 -0.25639522 -0.21607284 0.25425863 0.30876702 0.42278692
-0.15635249 0.30910593 -0.15686825 0.5077386 -0.20246275 0.05504553 -0.16264413 -0.25087574
0.04186174 0.004167283 0.38670778 -0.010590874 0.032949872 0.17145184 -0.07577094 0.062432434
-0.16410232 0.2049916 -0.20745736 0.18401238 -0.16538608 0.21420674 0.06924781 0.04038557
0.46112552 0.23958072 0.420604 -0.11047649 -0.2649143 0.172129 0.03799796 0.32855147
0.1549835 0.5129969 0.2623306 0.076722644 -0.33277407 0.026713263 -0.14327244 -0.10513281
0.03128107 0.0776856 -0.00045290726 0.5137016 -0.23990129 0.08036853 -0.25132397 0.14307171
0.07444575 -0.2592228 -0.28903076 0.307094 0.24747069 0.41113546 -0.18986896 0.02921551
0.08529501 0.2265878 -0.24098743 0.022886872 -0.24513324 0.09170697 0.0071359496 -0.15779197
-0.043781776 -0.17533986 0.11449762 -0.16427715 0.21654327 0.14412872 -0.108289376 0.056445975
-0.01514056 0.14850198 -0.17052597 0.07771779 -0.004979958 -0.071507856 0.24053988 0.18360262
-0.24031627 0.040766366 -0.29731998 -0.086280085 0.1411521 -0.26491785 0.18513308 0.08620438
0.36399233 -0.1855146 0.22930397 -0.17084704 0.013916218 0.21746106 0.20536458 0.31334165
0.3267165 0.5325302 0.30322167 0.30862945 -0.35394084 0.4155755 -0.1379261 -0.07079438
-0.10006531 -0.34844032 0.07768684 0.50239855 -0.24131516 0.056496862 -0.124232456 -0.06509697
0.3097893 -0.28716686 -0.17395274 -0.054051496 0.07935299 0.35978335 0.047549944 -0.34314233
-0.3035704 -0.4716548 -0.1871999 0.1544955 0.20914705 0.07651576 -0.44659007 -0.17682198
-0.14669241 -0.19837944 0.09931647 -0.03150216 0.2768527 -0.08666191 -0.1558167 -0.08875898
-0.2037346 0.12658514 -0.36994478 -0.41398257 -0.28179127 -0.22336993 0.50414693 -0.1953234
-0.068970844 -0.2420781 -0.0146582965 0.28552788 -0.10305154 0.13554159 0.111279346 -0.15310574
0.06245477 0.2755619 0.13632114 0.15532543 0.19546884 -0.13880315 -0.2863756 -0.25516304
0.11003575 -0.21299025 0.23717773 0.11258316 -0.100462236 -0.024867186 -0.26845744 -0.17254598
-0.11876572 0.28314972 -0.10984546 0.15321073 -0.12589598 0.035273697 -0.015991949 0.24074757
0.049199425 0.13017415 0.0020969734 -0.3019865 -0.04968628 -0.17520195 -0.12039204 0.11981029

att_src f4 [1, 1, 4]
00000000: c3c3 903f 22f7 383f 7dae 93be fc2b fcbe
1.1309742 0.72252095 -0.28844061 -0.49252307

att_dst f4 [1, 1, 4]
00000000: 33cf 4abf 4f81 663f 7a03 f23e 7920 873f
-0.7922241 0.9004106 0.47268277 1.0556785

bias f4 [4]
00000000: 325e 2abc e129 c1bc a22f b8bc b2de 5bbc
-0.0103984345 -0.02357954 -0.02248365 -0.013419794

weight f4 [4, 32]
00000000: f15a a2bd 25aa cb3e 490d a43e 96dd c63d
00000010: b3be ae3d b790 04bd 8678 c63e 080b a23d
00000020: 2747 683d 81a7 163e b147 c83e e68d cabe
00000030: cc7a 36bf d56e 0ebe f62b 8cbe 537b 363e
00000040: 6095 7d3e 3df2 163d e2e9 c23d 5bb4 6dbe
00000050: d39e 3f3d f14d 923d dcd4 b4be a863 31bd
00000060: 3ae1 13be 9555 20be 4d80 ae3e 25fe 983d
00000070: 114c ef3b 5c79 8dbe 452d d2be c5e1 c7bd
00000080: 6d3f 9a3e 3b00 673d e296 093e 911d c0bc
00000090: 3801 a53e 0ffa 4f3d 3b63 b33e 7177 b2be
000000a0: 16d8 213e 6152 143e 5081 c6be c1fa 4fbe
000000b0: bdbf 89bd 3f68 b83e ce32 c6bd b974 15be
000000c0: 6552 8ebe c0de 0e3e fcf9 253e c725 c6be
000000d0: 5143 9e3e 03b1 8e3e 6b39 b43e bc08 2b3e
000000e0: 5f72 09be ae2c 5f3e b692 2a3d 3b06 b93e
000000f0: 5582 03bc 8558 f73d 8f25 7f3e 7244 6dbe
00000100: a656 9bbe 3058 bb3d 5a0e 2e3f a745 203f
00000110: d894 d8bd 5e9a b93e 98ae 1abe 45be f2bd
00000120: 0813 453d 90c3 97be 8eff 143e 265d 913e
00000130: cfe5 f8bd a98d ebbd 3a5c f53e 06e8 993e
00000140: 286b c5be dcc8 473e 3b76 8cbe 29ec bc3e
00000150: 40b7 babe c5c9 183f 8097 a03e 47cc 75bc
00000160: bdd7 c93e fa6c 58be 854b af3e 3448 a83e
00000170: 64ce 403d 82f6 3dbe e29d 98be e2a3 d7be
00000180: 0e42 b8be 0e4a a53e d42c 0fbe b030 abbe
00000190: bc10 0f3e b42f 1ebf d525 3f3d a03f 17be
000001a0: 8809 563e 56b5 77bd b0b1 8ebe e827 00bf
000001b0: fea0 14be b27d 90be 2871 45be 5a15 0abf
000001c0: 064f a33e 333e 2cbe 9ce4 aa3e 1c9a b73e
000001d0: 7f28 af3e 84a1 153d fdd1 523e 563f b2be
000001e0: f7fd 93bd f4b9 1cbe a758 b83e 3054 3dbc
000001f0: 6c65 863d ad3a a93e 83a6 39be d9f0 cebe
-0.07927502 0.39778247 0.32041386 0.09710233 0.08532467 -0.032364573 0.38763827 0.0791226
0.05670848 0.14712335 0.39117196 -0.39561385 -0.71281123 -0.13909467 -0.2737729 0.17820482
0.24764013 0.03685211 0.09517266 -0.23213331 0.046782326 0.071437724 -0.3531865 -0.04330793
-0.14441386 -0.15657647 0.3408226 0.07470349 0.007302769 -0.27631652 -0.41050163 -0.09759859
0.30126515 0.056396704 0.13436463 -0.023451598 0.32227492 0.050775584 0.35036644 -0.34856752
0.15805086 0.1448455 -0.38770533 -0.20310499 -0.06726024 0.36017033 -0.09677659 -0.14595307
-0.27797237 0.1395216 0.16208643 -0.38700697 0.30910733 0.27869424 0.35200056 0.1670255
-0.13422535 0.21794388 0.04164382 0.36137566 -0.008026679 0.12077431 0.24916671 -0.23170641
-0.30339545 0.0914768 0.6799065 0.6260628 -0.10575265 0.36250585 -0.15105665 -0.11852697
0.048113853 -0.2964139 0.14550611 0.2839138 -0.121532075 -0.11501629 0.47921926 0.30059832
-0.38558316 0.19510216 -0.27433953 0.36898926 -0.36467934 0.59682876 0.31365585 -0.015002317
0.39422408 -0.21135321 0.34237304 0.32867587 0.04707183 -0.18551067 -0.29807955 -0.4211722
-0.35987896 0.32283062 -0.13981944 -0.33435583 0.13971227 -0.6179154 0.04666694 -0.14770365
0.20902073 -0.06047567 -0.2786994 -0.5006089 -0.14514539 -0.28220898 -0.19281447 -0.5393883
0.31896228 -0.16820602 0.3337754 0.35859764 0.34210584 0.036530986 0.20587917 -0.34813946
-0.07226174 -0.1530531 0.36005136 -0.011555716 0.065623134 0.3305258 -0.18129925 -0.40418127
