graph_classification_model.pt (torch, 64740 bytes, 8 tensors)

bias f4 [64]
00000000: 0000 0000 0000 0000 0000 0000 0000 0000
00000010: 8a2e b7bb dfb7 823d 761f 583d bd64 643d
00000020: f171 2b3d 32c9 c7bb 0000 0000 1894 7b3d
00000030: 0000 0000 8009 793d 0000 0000 0000 0000
00000040: 0000 0000 1f49 433d 0000 0000 0000 0000
00000050: 0000 0000 0000 0000 3993 dfbb 0000 0000
00000060: 0000 0000 0000 0000 0000 0000 0000 0000
00000070: f309 ebbb 0000 0000 6dcb ac3c 21df 773d
00000080: 0bf3 dcbb c59a c4bb b7a5 7f3d f66b f4bb
00000090: 0000 0000 0000 0000 794f 4b3d 0000 0000
000000a0: d400 ff3b 0000 0000 15d2 0dbc 0000 0000
000000b0: 0000 0000 cf4e 533d 0000 0000 0000 0000
000000c0: 0000 0000 1158 36bc c73d bbbb 0000 0000
000000d0: 0000 0000 0000 0000 0000 0000 d93b 823d
000000e0: 0000 0000 9315 763d 3452 1d3d 54d0 21bc
000000f0: edc0 c4bb 7902 a53c 0000 0000 0000 0000
0.0 0.0 0.0 0.0 -0.0055902647 0.06382727 0.05276438 0.055760134
0.04185671 -0.0060969824 0.0 0.06142053 0.0 0.060800076 0.0 0.0
0.0 0.047677156 0.0 0.0 0.0 0.0 -0.00682297 0.0
0.0 0.0 0.0 0.0 -0.007172817 0.0 0.021093095 0.060515527
-0.00674284 -0.0059998953 0.062413897 -0.007459159 0.0 0.0 0.049636338 0.0
0.007782081 0.0 -0.0086560445 0.0 0.0 0.05158883 0.0 0.0
0.0 -0.011129395 -0.0057141515 0.0 0.0 0.0 0.0 0.06359071
0.0 0.06007917 0.038408473 -0.009876329 -0.006004444 0.02014278 0.0 0.0

weight f4 [64, 1]
00000000: e8f8 b6bd 1c63 76bd 8099 e3bd 044d 13be
00000010: d4a8 693e dbbb ac3e abcc 303e a24e a43e
00000020: 93ac 103e 001e 273d c07b f7bd 4aca ab3e
00000030: 9a2f 5ebe ca6b 8e3e f8ee 1ebd 34d4 f5bd
00000040: 00d7 beba 0ee6 693e cfd0 89be ed30 71be
00000050: 94c3 63bd b52d 9abe 7839 0f3d 5247 5cbe
00000060: c09f 8bbe 50c2 fcbd 0bb5 26be 005a cdba
00000070: 9066 493e c686 97bd 3045 a93d cdb1 3e3e
00000080: 86cd 923d 90b0 123c 99ad d83d c798 2f3e
00000090: f1a2 8bbe beca f7bd c054 9d3e 2036 a3bd
000000a0: b07d 4c3e fb8d 78be 3b8a 6f3d e086 11bc
000000b0: 301b 92be 2723 dc3d 30f9 03bd 9ffb 96be
000000c0: ca97 c1bd b57a 733e 6608 623d 63fb 3dbe
000000d0: db8e 20be ebf3 0dbe 6339 21be 214b e63d
000000e0: d50d 12be 874f 893e 020f 483e 59d4 573e
000000f0: ef8c 1bba f738 953e 123a 82be 8bda 27be
-0.08934194 -0.06015311 -0.11113262 -0.14384848 0.22818309 0.33737072 0.17265575 0.32091242
0.14128332 0.040800095 -0.1208415 0.33552772 -0.21697846 0.27816612 -0.038802117 -0.12003365
-0.0014559925 0.22841665 -0.2691712 -0.2355382 -0.05560644 -0.30112997 0.034966916 -0.21511582
-0.27270317 -0.1234175 -0.1628 -0.0015667081 0.1966803 -0.07398753 0.082651496 0.18622513
0.07168107 0.008953229 0.10579986 0.17148124 -0.27272752 -0.12099217 0.30728722 -0.07969308
0.19969821 -0.24272911 0.058481436 -0.008882254 -0.28536367 0.10748892 -0.032220066 -0.29488847
-0.094527796 0.23777278 0.05518379 -0.18552928 -0.15679495 -0.13862579 -0.15744548 0.112447985
-0.14263089 0.26818487 0.19536975 0.21077098 -0.00059337815 0.29145023 -0.2543493 -0.16391961

bias f4 [64]
00000000: 0000 0000 2bbf 383d 56c4 0dbc 0000 0000
00000010: c8e2 36bb 0000 0000 9923 533d 0000 0000
00000020: 3481 383d 0505 ee3c 0000 0000 b705 af3c
00000030: 9715 c6bb 8c48 583d 70c1 34bc de3a 92bb
00000040: 13d9 513d c969 553d 0000 0000 0000 0000
00000050: 0000 0000 06db c3bb c610 1bbc 609a ab3c
00000060: 928c 22bc fdcf dabb 0000 0000 ddf9 433d
00000070: 11db 413d 6614 93bb a731 97bb 0000 0000
00000080: d62b c6bb c163 e23a e571 f0bb 0d45 883d
00000090: a4bf 713d 5bf8 f0bb 82d6 ebbb 5b1d 30bc
000000a0: 0000 0000 972d 563d afc5 c4bb 5ac5 053d
000000b0: 0000 0000 0000 0000 3775 ee3c 219c 58bb
000000c0: 9c9a 743d 87d2 093d 0000 0000 4d79 cabb
000000d0: 0000 0000 2e7c 41bc 8a67 343d 8231 d93c
000000e0: 561b 4abc 0000 0000 f951 3d3c a843 333d
000000f0: e7de 743d 06b6 853d 0000 0000 0000 0000
0.0 0.045104187 -0.008652767 0.0 -0.0027906168 0.0 0.05154762 0.0
0.045045093 0.029055128 0.0 0.02136503 -0.006045054 0.05280356 -0.011032447 -0.004462584
0.05123241 0.052102838 0.0 0.0 0.0 -0.0059770374 -0.009464448 0.020947635
-0.00992121 -0.006677626 0.0 0.04784571 0.04732806 -0.0044885157 -0.0046140733 0.0
-0.006047706 0.0017272161 -0.007337796 0.066537954 0.059020653 -0.007353825 -0.007197202 -0.010749186
0.0 0.05228957 -0.006005011 0.032658912 0.0 0.0 0.029108627 -0.0033052044
0.05971776 0.03364804 0.0 -0.006179011 0.0 -0.011809392 0.044044055 0.026512865
-0.012335619 0.0 0.011555188 0.043765694 0.05978289 0.06528859 0.0 0.0

weight f4 [64, 64]
00000000: 8294 46be b8a6 4cbd 48f0 a33c af68 413e
00000010: 18c8 bebc 7a08 16be 480c dbbd e37b cbbd
00000020: fc64 3cbd 989f 56bd b929 2a3e d05f 1dbe
00000030: 7a11 df3d 7dd5 eebd 6c35 2c3d 1eee de3d
00000040: c220 db3d 8c5f 5a3d ffb1 5c3e d8b3 083d
00000050: 837f 003e e574 52be 8603 e43d 18b1 1ebe
00000060: 98e6 08bd f0cc 33bc b151 583e eb19 59be
00000070: 40cf 0dbc 6b23 443e b3f7 383e 2615 2bbe
00000080: 3429 a6bd aea4 9a3d 6f1c 233e 1058 0ebc
00000090: 866f 59be d644 853d c0ed 80bb b836 26be
000000a0: b4d3 203d 88b3 4dbe 751b 023e 5c12 31be
000000b0: fca1 99bd 1cee 5b3d a5fe 093e fcac 40be
000000c0: d611 36be 498f 5d3e 06bd d7bd f0f7 4bbe
000000d0: 6ccf 43be cd36 4e3e 400c 6bbd 258c 2f3e
000000e0: 6a11 4cbe a0dc 67bd 27c2 433e c0a8 3ebe
000000f0: c89b 8fbd 5510 093e 9f8c 233e 46fc 923d
00000100: 153f 0c3e 501f 97bd 1acd c3bd 23bd 193e
00000110: 95c0 3fbe fbd8 ea3c 779f 813e 4315 093e
00000120: e97e 353d 886c 65bd 8003 353c 6916 06bb
00000130: 8d4b 24be cef5 a1bc 4d56 5abe 9d55 483e
00000140: 57ab 52be e803 313d 1288 8b3d 9788 5abe
00000150: 0a93 f33d 80c7 b3bc 16b0 103c 10ca 9f3c
00000160: 58ec c9bc c4c2 743d 8e74 ac3d 1f72 2ebe
00000170: e38c c6bc d63f 39be 3627 cfbd 14f1 3c3e
00000180: 062b 3cbe fe94 93bc c5b5 d23d b5c1 f13d
00000190: 22ec 9a3d 6584 51be b814 863e 6014 943b
000001a0: 481f 073e 3c29 203d dc77 433e 2840 ee3c
000001b0: dcf4 bebd 8a26 593e a035 ad3c b7a1 3c3e
000001c0: eaf8 3abe f63e 353e 1c92 6fbd 8598 2f3e
000001d0: 0c41 41be c638 b03d e369 333e 8ef3 cf3d
000001e0: 3cd5 1cbd 3b90 643e 679a 12bd 21ad 86bd
000001f0: bd2b 063e 7e60 493e 6041 fcbd a371 59be
00000200: 869c 973d c88f a0bc b7e3 c6bd 8ed9 3abe
00000210: 9e97 393e 2a76 c3bd 400e 60bd 84e3 8abc
00000220: 41d4 2dbe 7698 0e3e 8882 92bd 3dd2 da3c
00000230: 54a9 1a3d b5bb 1a3d eb50 573e 8dfa 00be
00000240: 6474 edbd f81b d93d 9829 b4bc 4035 3fbc
00000250: ccb4 04bd 00ba d83a 309f 48bd 0cd3 583d
00000260: 8031 3cbe a83a b7bc 363f b93d b6f2 22be
00000270: 6a86 a4bd 0cf6 94bd 34a0 02be 00ff 123e
00000280: 7c80 e8bb 1b42 02be 5213 d63d a536 d7ba
00000290: 948d ccbd 1dbc 54be 7eb0 8cbb 412f 443e
000002a0: be56 3ebe 35c7 293e e427 193e 8c22 163d
000002b0: e27e 19be 689f b13d f7bb 383e b4d6 a0bd
000002c0: d440 02be 8730 393e e3c4 e23c 6cf7 f3bd
000002d0: 80cf 933b c096 773c 5152 3fbe 042f 03be
000002e0: c012 55bd 467b 63bd 2c3d 37be 72ee 423e
000002f0: af5b 463e eab3 9abd 351d 28be 821d d6bd
00000300: da63 a6bd 9607 26be dc0c a4bd 2e77 a73d
00000310: 94c8 16be d816 f9bd c6d4 5abe 20b6 7bbc
00000320: 9019 a9bc 0fd5 093e e179 eebd fcbb d5bd
00000330: c01f 02bb a01b 413c d805 023d f07d cfbd
00000340: 9c9d 063d 6e81 a93d f062 44be 248a 223d
00000350: 3f64 1d3e 00a1 dc3c bd84 57be 36df 24be
00000360: b49c 30be 3655 0fbe ea1a df3d b27b a7bd
00000370: 6c3c 07bd 9ae7 a73d b721 edbd cbcc 3ebe
00000380: 9803 c0bc 8a6b cc3d 027d d23d 20e3 0b3c
00000390: 0458 1bbd 80b6 30be 0764 4b3e 6498 703d
000003a0: 1a15 cf3d df18 473e 6465 34be 82e3 e4bd
000003b0: 75d0 4a3e 48a7 ecbc 0213 fc3d aa25 f33d
000003c0: 3412 fcbd e5c3 073e cac9 05be 98fd 47be
000003d0: efd0 233e c266 38be 35a7 083e 5040 e7bc
000003e0: 2071 3cbd c6f8 c03d 12e7 87bd 5dd4 583e
000003f0: 7411 253d 7f19 fcbd bcf4 163d c889 ff3c
-0.19392589 -0.049963683 0.020012036 0.1888759 -0.023288772 -0.14651671 -0.10695702 -0.09935739
-0.045994744 -0.052398294 0.16617478 -0.15368581 0.10892005 -0.116618134 0.042043135 0.10885261
0.106996074 0.053313777 0.21552275 0.033374637 0.12548642 -0.20552404 0.111334845 -0.15497243
-0.033423036 -0.010974154 0.21124913 -0.21201293 -0.008655369 0.19154136 0.1806324 -0.16707286
-0.081133276 0.075509414 0.15928815 -0.008687988 -0.21233949 0.0650727 -0.003934592 -0.16231811
0.039264396 -0.20088017 0.12705787 -0.1729216 -0.07501599 0.053693876 0.13476045 -0.18815988
-0.17780241 0.2163669 -0.105341 -0.199188 -0.19122094 0.20138092 -0.05738473 0.17143305
-0.19928518 -0.05660689 0.19117032 -0.1861906 -0.07012135 0.13385136 0.15971611 0.071770236
0.13695939 -0.07379019 -0.095606044 0.15013556 -0.18725808 0.028667917 0.25316975 0.13387017
0.044310484 -0.056011707 0.011048198 -0.0020460135 -0.16044445 -0.01977053 -0.21321984 0.19563909
-0.20573173 0.043216616 0.06813063 -0.21341167 0.1189328 -0.021945715 0.008831045 0.01950553
-0.02464883 0.059756055 0.084206685 -0.17035721 -0.024237102 -0.18090758 -0.10114901 0.18451339
-0.18375787 -0.018015381 0.10288576 0.11804525 0.0756457 -0.20460661 0.26187682 0.0045190305
0.13195527 0.039101824 0.19088691 0.029083326 -0.09324047 0.21206108 0.021143734 0.18421064
-0.18259016 0.17699799 -0.05848895 0.17148025 -0.1887247 0.08604579 0.17520861 0.10153876
-0.038289294 0.22320645 -0.03579178 -0.065759905 0.13102622 0.19665715 -0.12317157 -0.21234755
0.07402901 -0.01959981 -0.09711402 -0.18247053 0.18124244 -0.095440224 -0.05470109 -0.016954191
-0.169755 0.13925347 -0.07153803 0.026711578 0.03775914 0.037776668 0.21026962 -0.12595578
-0.115944654 0.10601038 -0.02199249 -0.011670411 -0.032398984 0.0016534925 -0.048979938 0.052935645
-0.18378258 -0.022366837 0.0904526 -0.159129 -0.0803345 -0.07273492 -0.12756425 0.14355087
-0.0070953947 -0.1272053 0.10452904 -0.0016419484 -0.099879414 -0.20774885 -0.0042935004 0.19158651
-0.18587777 0.16579898 0.14956623 0.03665404 -0.14989808 0.086729825 0.18040453 -0.07853451
-0.12720042 0.18084918 0.027681774 -0.11912426 0.00451082 0.015111625 -0.18683745 -0.12810904
-0.052019835 -0.055537485 -0.17894429 0.19036272 0.19370912 -0.07553847 -0.16417392 -0.10454847
-0.08124514 -0.16213831 -0.08010265 0.081770286 -0.14724952 -0.1216256 -0.21370229 -0.015363246
-0.020642072 0.13460182 -0.1164434 -0.10436246 -0.001985535 0.0117863715 0.031743854 -0.101314425
0.03286515 0.0827664 -0.19178367 0.039682522 0.15370272 0.02693224 -0.2104673 -0.16100773
-0.17247277 -0.13997349 0.10893805 -0.0817789 -0.033016607 0.08198471 -0.11578696 -0.1863281
-0.023439214 0.09981449 0.102777496 0.008538038 -0.037925735 -0.17257118 0.19862376 0.05873908
0.10111447 0.19443081 -0.17616802 -0.11176206 0.19806083 -0.02888836 0.12308313 0.11872418
-0.123081595 0.13258322 -0.13065258 -0.19530332 0.1599767 -0.18007949 0.13345034 -0.028228909
-0.046006322 0.0942245 -0.0663587 0.2117476 0.040299848 -0.123095505 0.03685449 0.031193629

bias f4 [64]
00000000: b8ac e63c c4b8 13bd 7d74 2d3d 8079 33bd
00000010: e156 0c3d ca1c b8bc bf8b 2c3d 4b8f 173d
00000020: d0ab 73bd 9545 b1bc 8653 0d3d 9e48 7ebc
00000030: 090e 76bd 52cc 6a3d 7999 d53c d13c fcbc
00000040: 4c96 023d 43bb 8cbc 853c ff3c f9b7 453d
00000050: d252 d33c 8c9b 6fbd 5985 37bc 2345 11bd
00000060: 3341 0c3d 7208 7f3d 9ac1 46bd d36e 30bd
00000070: 9710 1dbd 0650 49bd 1790 51bd b0d7 dcbc
00000080: c677 b43c 0196 253d 5897 9b3c 2163 923c
00000090: 86e1 983c 2f19 33bb bdce 19bd 325f 233d
000000a0: b87a 41bd c314 1f3d aba9 a93c 6d34 46bd
000000b0: 3013 263d 289b de3c ca34 38bd 381a e63a
000000c0: bd97 363c 025c e93c 4416 143d dd87 efb9
000000d0: eb19 3d3d 2276 26bd 34ac f9bc 3881 143d
000000e0: 5916 31bd dc73 69bd 955e 74bd 41c1 9d3b
000000f0: f4ae 143d eb1b 8abc 1108 2d3c 1df2 04bd
0.02815853 -0.036064878 0.04234742 -0.043817043 0.03426254 -0.022474665 0.04212546 0.03700189
-0.059490025 -0.021639625 0.034503482 -0.015520243 -0.06007198 0.05732376 0.026074158 -0.030790718
0.031881616 -0.017179137 0.031156788 0.048271153 0.025796328 -0.05849795 -0.011201226 -0.035466325
0.034241866 0.062263913 -0.048524477 -0.04307444 -0.0383459 -0.049148582 -0.051162805 -0.026958317
0.022029769 0.040426258 0.018993065 0.017869534 0.018662225 -0.0027328243 -0.037550677 0.039885707
-0.047236174 0.03883816 0.020710787 -0.04838984 0.040545642 0.027173594 -0.04497222 0.0017555421
0.011144576 0.028486256 0.036154047 -0.00045686858 0.046167295 -0.040640004 -0.03047762 0.036256045
-0.043234203 -0.056995258 -0.059660513 0.0048142974 0.03629966 -0.016859015 0.010561005 -0.03245746

weight f4 [64, 64]
00000000: 2047 50be 1bdd ed3d e3ad 5e3e da11 963d
00000010: 12f9 17be 8c4a 7f3d c64f 363e aa64 94bd
00000020: 2278 3c3d 82ee 6d3e 2085 d53b 202c 483e
00000030: ffd6 20be b763 9f3c 3132 4abc c5cb 0fbe
00000040: 3c01 13be a376 8f3d e222 46be 449c 21be
00000050: a5ca 043e f2d6 adbd 6bca c03d f2d4 39be
00000060: bf1c d9bd c311 393e 84b9 59be dfb2 f9bd
00000070: d3ff 8b3d 9519 103e a01a 263e fc28 203d
00000080: 0938 48be 15f1 a4bd 2023 b23d 012d 9d3d
00000090: 5f1d 25bc 364c 83bd 6784 0c3e dd55 433e
000000a0: 868d c93d e96a b03d e032 b0bd 8a99 04be
000000b0: 78a1 ebbd 3f1a 4d3e d27e a33d 4c0b aabd
000000c0: f27f 92bd 70d1 563e fddb 1fbe 989e 30be
000000d0: 5b57 163e 1d23 2bbe cbd3 e03b 535c 9b3d
000000e0: dc76 283e 7688 0cbe b0d3 1a3e f4c8 a0bd
000000f0: 4aed a43d 3d3b 3b3e f615 f33d fe42 e33d
00000100: 1816 4bbe 208e 3cbe bc47 52be 8003 af3c
00000110: 031c 0bbe c8a1 0fbd c4c2 55be 16ec 09be
00000120: d689 d23d 9628 18be 000a f2bc c4d3 d3bd
00000130: 88d1 0ebe 07a5 0cbc b1e9 513e 7c3e 1b3e
00000140: d953 373c 0585 15be 4c6a 6a3d 4ca8 06bd
00000150: 040d 223d bd1e ecbd dc9a 233d ca9c 34be
00000160: c8dc 65be b606 ebbd b433 6abd 237d fb3d
00000170: a17e b23d 7dd5 dfbd cca8 49be 7f72 1c3e
00000180: 04b7 433e e38d cfbd 634b 64bc ea06 a33d
00000190: 73a0 99bd 3d9d cc3d b812 dbbd 6eba d13d
000001a0: 72e0 c23d 792b 78be ea3a 4f3e cd0f 003e
000001b0: 145f 32bd 32ed b0bd 93f6 28be 92b8 703c
000001c0: 1b18 3ebd cdea 9cbd f536 563e 3e19 5a3d
000001d0: 68dc 54be 8a0e e73c 1c34 9cbb f079 db3d
000001e0: 9f5d 90bd d64c f73d 1c6d bebd 149a a8bd
000001f0: 0dda 20be 76c4 33be e80b c23c 5048 d03c
00000200: 9470 00be 811e 623e 3824 55be 029f 98bd
00000210: c777 383e c087 7ebd 8f51 cdbd e03d dd3b
00000220: 188a c93d a9be 083e 6ec0 b23d b419 43bd
00000230: 12f7 babb 69a8 0d3d 0aba 263e c0c8 213e
00000240: 7865 0fbd cdbb 713e df33 203e 1b68 1abe
00000250: 84fb 1bbe 4fe9 b63d ee6b 10bc bf04 3dbc
00000260: 00e5 ee3c 9ea0 a13d b974 1c3e 9a7d 733e
00000270: d334 ea3c 47a0 d0bc b46c 43be b36d 103e
00000280: 2ef2 dabd 3c45 683c 8b7b 893d 62c8 f93d
00000290: 27ac 14be b2c6 c73d d1ec c63d f2ed 1b3e
000002a0: b909 2bbe ad34 1abe 597f 543e c0de 8dbd
000002b0: 1496 c7bd 1a84 893d 7ddf 1bbd 5c77 d93d
000002c0: 2ecf 673d 38f6 423e 4058 da3b b646 36be
000002d0: 3e89 ff3d bbaa 29be d1d6 2ebd 3a06 1b3e
000002e0: 53ae 43be 502f 2e3c 074a cdbd 4b17 a83d
000002f0: 9b4f cd3d 055b 843e 660a f83d 12c6 00be
00000300: e5b6 193e a1b3 183e 557d 2bbe f172 4f3e
00000310: 06d9 83bd 3de2 043e be0b 63bd c350 273e
00000320: b66e cfbd af2f 55be 54c4 3abe 7c8e 59be
00000330: c3c8 b63d 5988 edbd e727 29be b738 0e3d
00000340: 0ae7 c9bc d651 8fbd 3c8a 19bd 5570 053e
00000350: b51d 4e3e 58f8 563e 22c6 aa3c 5f58 43be
00000360: 0000 3ebe e38c 5838 f285 903d f0ac 8dbd
00000370: f978 1f3e 7ec5 483e 09a6 1a3e 3ed9 03be
00000380: 9a8e cb3d 85ec 40bc 8d1d 11bc f905 03be
00000390: 732b 4fbd a192 51be 3c1a d2bd 58ab 59be
000003a0: 1c9f 5dbd c588 41be 50b7 47be 363d c1bd
000003b0: 8e5f b1bd 7cfe 6e3d 5eed 1b3e 4a37 3ebc
000003c0: b6a6 68bd 507e b43c 66f0 a93d d41b 0d3e
000003d0: d983 2c3e 08b6 d13d 253e edbc 95d9 c0bb
000003e0: 33d2 463e 617c 393e e043 b0bd d710 0e3e
000003f0: 8314 6cbd 8404 12be 0908 0ebe 2408 7cbd
-0.20339632 0.11614438 0.2174602 0.07327624 -0.14841107 0.062326953 0.17803869 -0.07245763
0.046013005 0.23235515 0.006516114 0.19548082 -0.15707015 0.019456727 -0.012341068 -0.14042576
-0.1435594 0.0700505 -0.19349244 -0.15782267 0.12967928 -0.08488263 0.09413608 -0.18147638
-0.10601186 0.18073182 -0.21262175 -0.1219232 0.06835904 0.14072259 0.16221094 0.039101586
-0.19552626 -0.08053795 0.08698106 0.076745994 -0.010077803 -0.064110205 0.13722382 0.19075723
0.098414466 0.086141415 -0.08603454 -0.12949196 -0.11505407 0.20029543 0.079831734 -0.08302936
-0.0715331 0.20978332 -0.15611263 -0.17247999 0.14681761 -0.16712613 0.006861185 0.07585969
0.16451591 -0.1372393 0.15119815 -0.07850829 0.08053072 0.18284316 0.11869423 0.11096762
-0.19832647 -0.18413591 -0.20535177 0.021363974 -0.13584904 -0.035066396 -0.20875078 -0.13468966
0.10280196 -0.14859232 -0.029545784 -0.103431255 -0.13947117 -0.008584267 0.20499302 0.15160555
0.011189424 -0.14601524 0.05723028 -0.032875344 0.039563194 -0.115293 0.039942607 -0.17637935
-0.22447503 -0.114758894 -0.057178214 0.12279727 0.08715559 -0.109293915 -0.19693297 0.15278052
0.19112784 -0.101344846 -0.013933989 0.07960303 -0.075013064 0.09990928 -0.1069693 0.10240637
0.09515466 -0.24235334 0.20237318 0.12506028 -0.043547705 -0.086389914 -0.1650031 0.0146924425
-0.046409708 -0.07661972 0.20919402 0.05324673 -0.20787203 0.028205175 -0.004766954 0.10716617
-0.07049107 0.12075202 -0.09298155 -0.08232513 -0.1570818 -0.17555413 0.023687318 0.025425106
-0.12542945 0.22081949 -0.20814598 -0.07452203 0.18014441 -0.06214118 -0.10025322 0.006751761
0.098407924 0.13353981 0.08728109 -0.047631934 -0.0057057226 0.034584437 0.16281906 0.15799236
-0.035008878 0.23606797 0.15644787 -0.15078776 -0.15232664 0.08931219 -0.008814795 -0.011536776
0.02916193 0.078919634 0.15278901 0.23778382 0.028589642 -0.025467051 -0.19084436 0.14104347
-0.10690723 0.014176663 0.06713017 0.12196423 -0.14518796 0.09754695 0.09713138 0.15227488
-0.16702928 -0.15059157 0.20751704 -0.06927252 -0.09745422 0.067146495 -0.038054932 0.10618469
0.056594066 0.19039237 0.0066633523 -0.17800412 0.12477349 -0.16569035 -0.042685334 0.15139094
-0.19109468 0.010631397 -0.10023885 0.08207568 0.10024949 0.25850692 0.12111358 -0.12575558
0.15011175 0.14912273 -0.16747029 0.2025869 -0.06437878 0.12976928 -0.05543112 0.16339402
-0.10128538 -0.20818971 -0.18238956 -0.2124576 0.08925011 -0.11598272 -0.16519128 0.034722056
-0.0246463 -0.06998031 -0.037485346 0.13031133 0.2012852 0.20993173 0.02084643 -0.1907668
-0.18554688 5.1629624e-05 0.07056798 -0.06917751 0.15573491 0.19606587 0.151024 -0.1287584
0.099393085 -0.011775141 -0.008857143 -0.12795247 -0.050578546 -0.2046609 -0.1025891 -0.21256769
-0.054106817 -0.1889983 -0.19503522 -0.09435503 -0.08660804 0.058348164 0.15227267 -0.011609862
-0.056799613 0.022032887 0.082978055 0.13780147 0.16847171 0.10239798 -0.028960297 -0.005885313
0.19416122 0.18113853 -0.08606696 0.13873611 -0.05763675 -0.14259535 -0.13870253 -0.0615312

weight f4 [5, 64]
00000000: c895 94bd 1836 2c3d 343c 1c3c 6c67 05be
00000010: 07b7 4ebd 9cb4 d3bd 51ac 6a3b 35e0 ba3c
00000020: bf89 203d 04fd c43d 3f43 09be 41a8 e53d
00000030: 04ac e7bd 6c8d 5a3d 5632 9cbd fede 543d
00000040: b475 1bbd 9b5a 4dbd 4a97 b23d 971e f6bc
00000050: aac3 52bc 28c3 f43c 3b12 d4bd 98c1 c6bd
00000060: e96d 853d 727d 9e3c 8dcc e43d b583 9e3d
00000070: 2c03 b93d b7a6 b0bd 1ace 96bd 1dc2 cabd
00000080: 4c62 fc3a 2ea6 4abc ff57 f8bd e1cb d23c
00000090: f429 a03d 4e88 7fbd 8a7a cd3d 945f e7bd
000000a0: ebe3 6b3d e058 ec3c ea8f 333d 7ae9 1d3d
000000b0: f493 7cbd b587 9cbd c90d c23d e07e b9bd
000000c0: bc44 2bbd e520 813d e310 bfbd 144f fa3c
000000d0: 6a5a c5bd 1488 c3bd a57c 5f3d e2a2 f3bc
000000e0: c8d9 b83c 48bc b7bd fd0c 8dbd 369d c93d
000000f0: 1cb5 dabc e5af 803c 3509 ec3c c764 a7bc
00000100: 9d84 903d 733b 663d 9df6 01be 3746 873d
00000110: 9389 fdbd bf16 a13d ccd4 5c3d d8ea 7dbd
00000120: 241e 503a de64 923c 6723 c53c 247a 383c
00000130: 8c87 debd fdcc 92bb 1e3d 9c3d 4b5c e33d
00000140: b777 ddbd 4c5d 60bd 605c 09bc a443 823d
00000150: 8c27 e6bd 9e95 483a 398c 8ebd b706 28bd
00000160: 6b36 99bd a728 5d3d 604e 1fbd f85d 18bc
00000170: 63d5 d53c e06c 83bc 134c 14bd 1c73 b23b
00000180: c5ff d13c e67a afbd 8f21 14be ef78 63bd
00000190: dfb7 be3d 7e18 61bc cc4a d63d a5ed c7bd
000001a0: f6a1 593d a26f 84bd 696c bbbd eacc 9cbd
000001b0: 091b 80bd aaaf 253d 3b26 b43d 4794 133d
000001c0: 4d11 e7bd f0a4 09be f0b4 4dbd 0ad4 d53d
000001d0: 1efc ecbd 3676 313a b34e a03d cf70 72bd
000001e0: afa4 c23d 4627 c53d dd22 a2bb cbce ae3d
000001f0: d9c5 cf3c d59c 1bbc fc69 2b3d 69e5 383d
00000200: 5b2f cb3d 5509 8cbd c9a2 51bc 49a8 10bd
00000210: 31ad b3bd 4392 a53d dc61 003e 4cbd 813d
00000220: d46c 593d 06f6 c23d 28ac 233d 44ed 9bbc
00000230: a7ed cfbc 78ff 9a3d df60 80bc 7f45 acbc
00000240: 0e7b 0e3e 5800 163d 6310 1bbd 617f f43d
00000250: 9bf1 77bc 1cd3 e9bd 82b8 c83d 6a2a e43b
00000260: 7332 fb3d fede f23d 3199 adbc 8d88 2cbd
00000270: e15a 913c 8eaf 10bd e53d 9bbb 2a4d 9d3d
00000280: eb97 b93a 4007 c93d d15f b4bd 436f ce3d
00000290: 186b a33d b449 b2bd 7631 ce3d a731 a73d
000002a0: 2144 93bd ca92 e13c b49c e03d fc5c 0abe
000002b0: 2b55 cd3d d703 12bd 274f 51bd 2324 98bd
000002c0: 515e d7bd 2da3 e23c 0204 b6bd 6eab 90bc
000002d0: 9451 5b3d 1d7d d4bd b53f c2bd 8ad4 6ebc
000002e0: 085b 0b3c e253 0ebe fcfe 23bd 5e52 9f3d
000002f0: a8df ef3d 40ec 4a3d 87e4 c0bd 9c6a d0bd
00000300: 0df0 e93b 63a1 e9bd 1a19 a23d 60de b6bd
00000310: 1563 113e 3704 25be 1d6e ee3d f9ac e8ba
00000320: d0d1 233c 301b 33bd 3d5e 143c eae0 1ebe
00000330: 009c 0bbe e55d d63d 30d0 453c a509 c3bd
00000340: 6464 023e 9632 fe3c 0d78 183e 3cbe 093e
00000350: 4e67 0f3e 273e 62bd 8bcd bcbd 6659 10bd
00000360: 743b d33c 7dbd f83d 8401 c3bd e2bd 4abc
00000370: 3753 07be fbf7 0bbe f250 83bd 51a5 b1bc
00000380: 07bd 5cbd 1108 343d 00fb 9d3d 286b 093d
00000390: bffd 8abd 2ccc ab3d 0ac2 26bd f7d8 663d
000003a0: 69a5 e4bd 0118 133e 5ecb 7f3d 0076 9abd
000003b0: 2f8b 143e 4f39 7f3d b767 63bd 37ac 083e
000003c0: c80a af3c c8b7 273e 1d42 b33c 4603 c93d
000003d0: 30e9 ab3c 2d89 28be a7ff 14be e3e2 8a3d
000003e0: 84a3 50bd 995e 02be 572a b3bd 281d ed3d
000003f0: 87ca 0bbd 8cdd b0bd c6cc c43d f2aa b0bc
-0.07255131 0.042043775 0.009535838 -0.13027734 -0.050467517 -0.10337183 0.0035808275 0.022811988
0.039193865 0.096185714 -0.13404559 0.112137325 -0.11312106 0.053357527 -0.07626788 0.051970474
-0.037954047 -0.050135236 0.08720262 -0.030043883 -0.012864033 0.029878214 -0.1035504 -0.09704894
0.06515104 0.019346926 0.111718275 0.07739965 0.09033808 -0.08625548 -0.073635295 -0.099003054
0.0019255369 -0.012368722 -0.12126159 0.025731983 0.07820502 -0.06238585 0.10033138 -0.11297527
0.057590406 0.028850973 0.04383842 0.03855274 -0.061664537 -0.076430716 0.094752856 -0.090574026
-0.041813597 0.06305102 -0.09329393 0.030555286 -0.09636386 -0.09547439 0.05456223 -0.029740755
0.022564784 -0.08971459 -0.06887243 0.09844439 -0.026697688 0.015708873 0.028812984 -0.020433797
0.07056544 0.05620904 -0.12691732 0.06605189 -0.12379756 0.078656666 0.053913876 -0.061991543
0.00079390616 0.017870363 0.024064733 0.011259589 -0.10865697 -0.004480003 0.07628845 0.11101588
-0.108138494 -0.054776475 -0.00838384 0.06360558 -0.11238012 0.0007651689 -0.06960339 -0.04102203
-0.074810825 0.053993847 -0.038893104 -0.009299748 0.026102727 -0.016043127 -0.036205363 0.005445851
0.025634656 -0.08568363 -0.14465927 -0.055535253 0.093124144 -0.01373875 0.10463485 -0.09762124
0.053132974 -0.06466605 -0.09151537 -0.07656272 -0.062551565 0.04045073 0.087963544 0.03603008
-0.11282597 -0.13441825 -0.050221384 0.10440834 -0.11571525 0.0006769629 0.07827511 -0.059189614
0.09504067 0.096266314 -0.0049480037 0.085355364 0.025362896 -0.009497841 0.04184912 0.045140658
0.09921142 -0.068377174 -0.012795159 -0.03531674 -0.08773268 0.08084538 0.1253733 0.06334934
0.053082302 0.095195815 0.039959103 -0.019034036 -0.025381876 0.07568258 -0.015671192 -0.021029232
0.13914129 0.03662142 -0.037857424 0.11938358 -0.015133287 -0.11417219 0.09800817 0.006963064
0.12265482 0.11858939 -0.021191211 -0.042122412 0.01774353 -0.035323672 -0.004737603 0.076807335
0.0014159655 0.09815836 -0.08807338 0.10079815 0.07979411 -0.08705464 0.10068028 0.08163767
-0.07190729 0.027535815 0.10967389 -0.13512033 0.1002601 -0.035648193 -0.051100876 -0.074287675
-0.10516036 0.027665699 -0.08887483 -0.017659869 0.053544596 -0.10375426 -0.094848074 -0.01457704
0.00850559 -0.13899186 -0.040038094 0.07779382 0.11712581 0.04954171 -0.09418588 -0.10176584
0.007139212 -0.11407735 0.07914944 -0.089291334 0.14197953 -0.16114889 0.11642096 -0.0017751745
0.009998754 -0.0437271 0.009055671 -0.15515485 -0.13633728 0.10467128 0.012073562 -0.09523324
0.12733608 0.03102998 0.14889546 0.13451475 0.14004251 -0.055235054 -0.09218892 -0.035241507
0.025785185 0.12145517 -0.095217735 -0.012374373 -0.13215338 -0.13668816 -0.064119235 -0.021685274
-0.053891208 0.043953005 0.0771389 0.033549458 -0.067866795 0.08388552 -0.040712394 0.056359258
-0.11164362 0.14364626 0.062449805 -0.07542038 0.1450622 0.062310513 -0.055518832 0.13346945
0.021367446 0.163787 0.021882111 0.098150775 0.020985216 -0.16458578 -0.14550649 0.067815565
-0.05093719 -0.12731399 -0.0874831 0.11577827 -0.034128692 -0.08636007 0.0960937 -0.021565888

bias f4 [5]
00000000: 1021 45bd 0eaa 83bd ff3c fd3d ad24 8a3d
00000010: 30b4 17be
-0.048127234 -0.0642892 0.1236515 0.067452766 -0.1481483
