graph_classification_model_fold0.pt (torch, 98134 bytes, 10 tensors)

bias f4 [64]
0.0 0.0 0.0 0.0 0.0008089848 0.00089738873 0.000990381 -0.00062866986
-0.0017824889 0.00077995734 0.0 0.0006934892 0.0 0.00055266026 0.0 0.0
0.0 -0.00047149262 0.0 0.0 0.0 0.0 -0.0012576175 0.0
0.0 0.0 0.0 0.0 -0.0005543632 0.0 -0.00097041286 -0.0010541468
0.0010631335 0.0012725681 0.0006123681 0.0026898757 0.0 0.0 -9.703552e-05 0.0
-0.0004794052 0.0 -3.932476e-05 0.0 0.0 0.0010726751 0.0 0.0
0.0 0.000932377 0.0007510032 0.0 0.0 0.0 0.0 0.00015724968
0.0 -0.0019318167 0.0017985597 -0.00481945 0.0004500534 0.0018384901 0.0 0.0
00000000: 0000 0000 0000 0000 0000 0000 0000 0000
00000010: 0d12 543a bd3e 6b3a accf 813a 52cd 24ba
00000020: 67a2 e9ba 0d76 4c3a 0000 0000 46cb 353a
00000030: 0000 0000 67e0 103a 0000 0000 0000 0000
00000040: 0000 0000 ab32 f7b9 0000 0000 0000 0000
00000050: 0000 0000 0000 0000 a4d6 a4ba 0000 0000
00000060: 0000 0000 0000 0000 0000 0000 0000 0000
00000070: af52 11ba 0000 0000 4e63 7eba 4c2b 8aba
00000080: d758 8b3a 4dcc a63a 5487 203a a048 303b
00000090: 0000 0000 0000 0000 8c7f cbb8 0000 0000
000000a0: ad58 fbb9 0000 0000 a4f0 24b8 0000 0000
000000b0: 0000 0000 0199 8c3a 0000 0000 0000 0000
000000c0: 0000 0000 c36a 743a f9de 443a 0000 0000
000000d0: 0000 0000 0000 0000 0000 0000 64e3 2439
000000e0: 0000 0000 0335 fdba a6bd eb3a 7aec 9dbb
000000f0: 25f5 eb39 7ef9 f03a 0000 0000 0000 0000

weight f4 [64, 1]
-0.08934194 -0.06015311 -0.11113262 -0.14384848 0.23616782 0.28419858 0.13548367 0.2723032
0.101318285 0.048105758 -0.1208415 0.28423706 -0.21697846 0.22497305 -0.038802117 -0.12003365
-0.0014559925 0.18624236 -0.2691712 -0.2355382 -0.05560644 -0.30112997 0.040016674 -0.21511582
-0.27270317 -0.1234175 -0.1628 -0.0015667081 0.20304942 -0.07398753 0.059504744 0.13617794
0.08280157 0.016216775 0.050183643 0.18156281 -0.27272752 -0.12099217 0.26848894 -0.07969308
0.19174919 -0.24272911 0.0678081 -0.008882254 -0.28536367 0.069170885 -0.032220066 -0.29488847
-0.094527796 0.25125 0.061705682 -0.18552928 -0.15679495 -0.13862579 -0.15744548 0.057367712
-0.14263089 0.2142637 0.16402133 0.2179134 0.005861261 0.27638197 -0.2543493 -0.16391961
00000000: e8f8 b6bd 1c63 76bd 8099 e3bd 044d 13be
00000010: fad5 713e 7a82 913e 3bbc 0a3e 536b 8b3e
00000020: f67f cf3d 8b0a 453d c07b f7bd 8587 913e
00000030: 9a2f 5ebe 565f 663e f8ee 1ebd 34d4 f5bd
00000040: 00d7 beba 51b6 3e3e cfd0 89be ed30 71be
00000050: 94c3 63bd b52d 9abe 86e8 233d 5247 5cbe
00000060: c09f 8bbe 50c2 fcbd 0bb5 26be 005a cdba
00000070: 30ec 4f3e c686 97bd 3fbb 733d 3b72 0b3e
00000080: df93 a93d 0bd9 843c 5d8d 4d3d 9aeb 393e
00000090: f1a2 8bbe beca f7bd 6277 893e 2036 a3bd
000000a0: e659 443e fb8d 78be f9de 8a3d e086 11bc
000000b0: 301b 92be 77a9 8d3d 30f9 03bd 9ffb 96be
000000c0: ca97 c1bd d7a3 803e 19bf 7c3d 63fb 3dbe
000000d0: db8e 20be ebf3 0dbe 6339 21be 68fa 6a3d
000000e0: d50d 12be f267 5b3e 35f5 273e b124 5f3e
000000f0: d20f c03b f081 8d3e 123a 82be 8bda 27be

bias f4 [64]
0.0 0.0006980331 -0.0008574425 0.0 0.0012199308 0.0 -0.0011566281 0.0
0.0 0.0 0.0 0.0019962864 0.0 -0.0008896981 -0.00014044762 0.001989075
-0.00088843034 0.0 0.0 0.0 0.0 -0.004292824 0.0016330639 0.0
0.00060634094 -0.0009351192 0.0 0.0 0.0 0.00056760584 -0.0023300978 0.0
-0.001209172 0.00039595301 0.0 -0.0020488373 -0.0054117045 0.0011908095 -0.00081587996 0.00076300616
0.0 -0.000539166 4.4416676e-05 0.0029046193 0.0 0.0 -0.0003388601 0.0
-0.00025860316 0.0024068276 0.0 0.0 0.0 0.0 0.0 -0.0028925873
-0.0021319226 0.0 0.0012585404 0.0007031775 0.0024199358 -0.00070063263 0.0 0.0
00000000: 0000 0000 35fc 363a fec5 60ba 0000 0000
00000010: 16e6 9f3a 0000 0000 009a 97ba 0000 0000
00000020: 0000 0000 0000 0000 0000 0000 21d4 023b
00000030: 0000 0000 a13a 69ba 1f45 13b9 245b 023b
00000040: 8de5 68ba 0000 0000 0000 0000 0000 0000
00000050: 0000 0000 d1aa 8cbb 880c d63a 0000 0000
00000060: daf2 1e3a ca22 75ba 0000 0000 0000 0000
00000070: 0000 0000 62cb 143a 8eb4 18bb 0000 0000
00000080: 147d 9eba ea97 cf39 0000 0000 c945 06bb
00000090: ab54 b1bb f014 9c3a c7e0 55ba 7a04 483a
000000a0: 0000 0000 d156 0dba 0b4c 3a38 6d5b 3e3b
000000b0: 0000 0000 0000 0000 08a9 b1b9 0000 0000
000000c0: 2195 87b9 debb 1d3b 0000 0000 0000 0000
000000d0: 0000 0000 0000 0000 0000 0000 9091 3dbb
000000e0: bab7 0bbb 0000 0000 9cf5 a43a 7155 383a
000000f0: c997 1e3b a9aa 37ba 0000 0000 0000 0000

weight f4 [64, 64]
-0.19392589 -0.049963683 0.020012036 0.1888759 -0.023288772 -0.14651671 -0.10695702 -0.09935739
-0.045994744 -0.052398294 0.16617478 -0.15368581 0.10892005 -0.116618134 0.042043135 0.10885261
0.106996074 0.053313777 0.21552275 0.033374637 0.12548642 -0.20552404 0.111334845 -0.15497243
-0.033423036 -0.010974154 0.21124913 -0.21201293 -0.008655369 0.19154136 0.1806324 -0.16707286
-0.081133276 0.075509414 0.15928815 -0.008687988 -0.21233949 0.0650727 -0.003934592 -0.16231811
0.039264396 -0.20088017 0.12705787 -0.1729216 -0.07501599 0.053693876 0.13476045 -0.18815988
-0.17780241 0.2163669 -0.105341 -0.199188 -0.19122094 0.20138092 -0.05738473 0.17143305
-0.19928518 -0.05660689 0.19117032 -0.1861906 -0.07012135 0.13385136 0.15971611 0.071770236
0.13695939 -0.07379019 -0.095606044 0.15013556 -0.2048813 -0.020825554 0.20339377 0.08485229
-0.005693569 -0.06224626 0.011048198 -0.05125418 -0.16044445 -0.06963923 -0.21321984 0.19563909
-0.20573173 -0.0007922675 0.06813063 -0.21341167 0.1189328 -0.021945715 -0.0011057532 0.01950553
-0.02464883 0.059756055 0.084206685 -0.17035721 -0.039420478 -0.18090758 -0.12553297 0.13489908
-0.19097583 -0.023980286 0.05302528 0.10315661 0.0756457 -0.20460661 0.21272656 0.0045190305
0.118277326 0.039101824 0.1843112 0.029083326 -0.09324047 0.1616016 0.021143734 0.18421064
-0.18259016 0.16527939 -0.06501591 0.17148025 -0.1887247 0.08604579 0.17520861 0.051676333
-0.038289294 0.1735542 -0.081454836 -0.077466786 0.12511335 0.17376103 -0.12317157 -0.21234755
0.07402901 -0.01959981 -0.09711402 -0.18247053 0.19063598 -0.07075077 -0.028282274 0.0048984713
-0.14690469 0.1453071 -0.07153803 0.051576346 0.03775914 0.06241758 0.21026962 -0.12595578
-0.115944654 0.12135514 -0.02199249 -0.011670411 -0.032398984 0.0016534925 -0.03909844 0.052935645
-0.18378258 -0.022366837 0.0904526 -0.159129 -0.07131522 -0.07273492 -0.12120452 0.1700857
-0.00041242206 -0.12127271 0.13244848 0.0074710455 -0.099879414 -0.20774885 0.017363375 0.19158651
-0.17699987 0.16579898 0.15597656 0.03665404 -0.14989808 0.11354551 0.18040453 -0.07853451
-0.12720042 0.18844247 0.033981696 -0.11912426 0.00451082 0.015111625 -0.18683745 -0.100499235
-0.052019835 -0.03144396 -0.16697511 0.19789994 0.19956583 -0.06780014 -0.16417392 -0.10454847
-0.08124514 -0.16213831 -0.08010265 0.081770286 -0.14724952 -0.1216256 -0.21370229 -0.015363246
-0.020642072 0.13460182 -0.1164434 -0.10436246 -0.001985535 0.0117863715 0.031743854 -0.101314425
0.03286515 0.0827664 -0.19178367 0.039682522 0.15370272 0.02693224 -0.2104673 -0.16100773
-0.17247277 -0.13997349 0.10893805 -0.0817789 -0.033016607 0.08198471 -0.11578696 -0.1863281
-0.023439214 0.09981449 0.102777496 0.008538038 -0.037925735 -0.17257118 0.19862376 0.05873908
0.10111447 0.19443081 -0.17616802 -0.11176206 0.19806083 -0.02888836 0.12308313 0.11872418
-0.123081595 0.13258322 -0.13065258 -0.19530332 0.1599767 -0.18007949 0.13345034 -0.028228909
-0.046006322 0.0942245 -0.0663587 0.2117476 0.040299848 -0.123095505 0.03685449 0.031193629
00000000: 8294 46be b8a6 4cbd 48f0 a33c af68 413e
00000010: 18c8 bebc 7a08 16be 480c dbbd e37b cbbd
00000020: fc64 3cbd 989f 56bd b929 2a3e d05f 1dbe
00000030: 7a11 df3d 7dd5 eebd 6c35 2c3d 1eee de3d
00000040: c220 db3d 8c5f 5a3d ffb1 5c3e d8b3 083d
00000050: 837f 003e e574 52be 8603 e43d 18b1 1ebe
00000060: 98e6 08bd f0cc 33bc b151 583e eb19 59be
00000070: 40cf 0dbc 6b23 443e b3f7 383e 2615 2bbe
00000080: 3429 a6bd aea4 9a3d 6f1c 233e 1058 0ebc
00000090: 866f 59be d644 853d c0ed 80bb b836 26be
000000a0: b4d3 203d 88b3 4dbe 751b 023e 5c12 31be
000000b0: fca1 99bd 1cee 5b3d a5fe 093e fcac 40be
000000c0: d611 36be 498f 5d3e 06bd d7bd f0f7 4bbe
000000d0: 6ccf 43be cd36 4e3e 400c 6bbd 258c 2f3e
000000e0: 6a11 4cbe a0dc 67bd 27c2 433e c0a8 3ebe
000000f0: c89b 8fbd 5510 093e 9f8c 233e 46fc 923d
00000100: 153f 0c3e 501f 97bd 1acd c3bd 23bd 193e
00000110: 67cc 51be 5a9a aabc 7546 503e 0ac7 ad3d
00000120: 1e91 babb eff5 7ebd 8003 353c e7ef 51bd
00000130: 8d4b 24be 039f 8ebd 4d56 5abe 9d55 483e
00000140: 57ab 52be 2cb0 4fba 1288 8b3d 9788 5abe
00000150: 0a93 f33d 80c7 b3bc ecee 90ba 10ca 9f3c
00000160: 58ec c9bc c4c2 743d 8e74 ac3d 1f72 2ebe
00000170: 5e77 21bd d63f 39be b78b 00be fc22 0a3e
00000180: 2b8f 43be 4e72 c4bc 0931 593d c643 d33d
00000190: 22ec 9a3d 6584 51be fed4 593e 6014 943b
000001a0: 623b f23d 3c29 203d 13bc 3c3e 2840 ee3c
000001b0: dcf4 bebd e47a 253e a035 ad3c b7a1 3c3e
000001c0: eaf8 3abe 003f 293e 1027 85bd 8598 2f3e
000001d0: 0c41 41be c638 b03d e369 333e 90aa 533d
000001e0: 3cd5 1cbd 31b8 313e cbd1 a6bd e8a6 9ebd
000001f0: b71d 003e 69ee 313e 6041 fcbd a371 59be
00000200: 869c 973d c88f a0bc b7e3 c6bd 8ed9 3abe
00000210: 1436 433e c8e5 90bd 3ab0 e7bc 5b83 a03b
00000220: 2f6e 16be 62cb 143e 8882 92bd b841 533d
00000230: 54a9 1a3d 94a9 7f3d eb50 573e 8dfa 00be
00000240: 6474 edbd 0b89 f83d 9829 b4bc 4035 3fbc
00000250: ccb4 04bd 00ba d83a b025 20bd 0cd3 583d
00000260: 8031 3cbe a83a b7bc 363f b93d b6f2 22be
00000270: b70d 92bd 0cf6 94bd 133a f8bd f22a 2e3e
00000280: 5a3a d8b9 d45d f8bd 93a0 073e accf f43b
00000290: 948d ccbd 1dbc 54be a33d 8e3c 412f 443e
000002a0: 743f 35be 35c7 293e 52b8 1f3e 8c22 163d
000002b0: e27e 19be 8c8a e83d f7bb 383e b4d6 a0bd
000002c0: d440 02be 10f7 403e 6430 0b3d 6cf7 f3bd
000002d0: 80cf 933b c096 773c 5152 3fbe 8bd2 cdbd
000002e0: c012 55bd 62cb 00bd 86fb 2abe 48a6 4a3e
000002f0: fc5a 4c3e cdda 8abd 351d 28be 821d d6bd
00000300: da63 a6bd 9607 26be dc0c a4bd 2e77 a73d
00000310: 94c8 16be d816 f9bd c6d4 5abe 20b6 7bbc
00000320: 9019 a9bc 0fd5 093e e179 eebd fcbb d5bd
00000330: c01f 02bb a01b 413c d805 023d f07d cfbd
00000340: 9c9d 063d 6e81 a93d f062 44be 248a 223d
00000350: 3f64 1d3e 00a1 dc3c bd84 57be 36df 24be
00000360: b49c 30be 3655 0fbe ea1a df3d b27b a7bd
00000370: 6c3c 07bd 9ae7 a73d b721 edbd cbcc 3ebe
00000380: 9803 c0bc 8a6b cc3d 027d d23d 20e3 0b3c
00000390: 0458 1bbd 80b6 30be 0764 4b3e 6498 703d
000003a0: 1a15 cf3d df18 473e 6465 34be 82e3 e4bd
000003b0: 75d0 4a3e 48a7 ecbc 0213 fc3d aa25 f33d
000003c0: 3412 fcbd e5c3 073e cac9 05be 98fd 47be
000003d0: efd0 233e c266 38be 35a7 083e 5040 e7bc
000003e0: 2071 3cbd c6f8 c03d 12e7 87bd 5dd4 583e
000003f0: 7411 253d 7f19 fcbd bcf4 163d c889 ff3c

bias f4 [64]
0.0010161195 0.0 0.0028005072 0.0 -0.0009936928 0.0 -0.003863945 0.0
0.0 0.0 0.0 0.00050524017 0.0060433666 0.0 0.0 0.0
-0.002546125 0.0 0.0022045327 -0.0027833555 0.005858321 -0.0027360935 -0.00025390717 0.0017399123
0.0035586182 0.0 0.0 0.0 0.0 -0.0009211121 0.0 0.0
0.0 0.00025012135 0.0013235096 0.0 -0.0034264524 0.0032434592 0.0 0.0
0.0 0.0 -0.0038217686 0.0 -0.0001253787 0.0 0.0034055444 -0.004228302
0.0006501372 -0.0020160682 0.0 -0.0013450956 0.0 0.0 0.0023340504 -0.00095051504
0.001346355 -0.0016643478 0.0 0.00347739 -0.0007129783 0.0 0.00097273395 0.0
00000000: 502f 853a 0000 0000 b788 373b 0000 0000
00000010: cc3e 82ba 0000 0000 3d3a 7dbb 0000 0000
00000020: 0000 0000 0000 0000 0000 0000 1872 043a
00000030: 6f07 c63b 0000 0000 0000 0000 0000 0000
00000040: e4dc 26bb 0000 0000 ec79 103b f568 36bb
00000050: 29f7 bf3b 0850 33bb d81e 85b9 c50d e43a
00000060: b537 693b 0000 0000 0000 0000 0000 0000
00000070: 0000 0000 c976 71ba 0000 0000 0000 0000
00000080: 0000 0000 b822 8339 9d79 ad3a 0000 0000
00000090: 558e 60bb 3790 543b 0000 0000 0000 0000
000000a0: 0000 0000 0000 0000 a376 7abb 0000 0000
000000b0: 1778 03b9 0000 0000 8e2f 5f3b 918d 8abb
000000c0: f86d 2a3a 0320 04bb 0000 0000 eb4d b0ba
000000d0: 0000 0000 0000 0000 def6 183b fc2b 79ba
000000e0: 2d78 b03a 3f26 daba 0000 0000 ece4 633b
000000f0: 2ae7 3aba 0000 0000 12ff 7e3a 0000 0000

weight f4 [64, 64]
-0.20339632 0.083368264 0.21046482 0.07327624 -0.15426074 0.062326953 0.14523822 -0.07245763
0.01439929 0.2040972 0.006516114 0.17480531 -0.15550897 -0.01357268 0.00014099287 -0.14720966
-0.17682156 0.040654853 -0.19349244 -0.15782267 0.12967928 -0.09080336 0.0716448 -0.20450012
-0.13075095 0.17376202 -0.21262175 -0.15387034 0.040643796 0.13380548 0.15740065 0.039101586
-0.20139728 -0.10265481 0.08819239 0.042998984 -0.043337826 -0.07108189 0.1312474 0.18933606
0.098414466 0.052927826 -0.09193516 -0.15421218 -0.11505407 0.20029543 0.05512903 -0.08670518
-0.104030415 0.17718971 -0.15611263 -0.18697013 0.14681761 -0.16943191 -0.024502307 0.044410985
0.16706295 -0.1372393 0.12811647 -0.10926543 0.047253408 0.15001245 0.11869423 0.11096762
-0.19832647 -0.14748757 -0.1880433 0.021363974 -0.12929943 -0.035066396 -0.17280331 -0.13468966
0.1376258 -0.11655048 -0.029545784 -0.08085337 -0.13193104 0.028032362 0.19874789 0.1587073
0.047919318 -0.115106516 0.05723028 -0.032875344 0.039563194 -0.1093077 0.059553042 -0.14867575
-0.19787455 -0.10669531 -0.057178214 0.15741344 0.117727235 -0.10185891 -0.19068694 0.15278052
0.19712265 -0.07083258 -0.0074356347 0.11604385 -0.038464487 0.10872336 -0.09842347 0.12742986
0.09515466 -0.20550603 0.20833038 0.14738576 -0.043547705 -0.086389914 -0.14576718 0.021248043
-0.010184512 -0.04054779 0.20919402 0.0664701 -0.20787203 0.05729936 0.029646784 0.13853674
-0.073611856 0.12075202 -0.06995346 -0.050017938 -0.12065157 -0.13939294 0.023687318 0.025425106
-0.12542945 0.16895068 -0.21068034 -0.07452203 0.18618122 -0.06214118 -0.15219834 0.006751761
0.043720827 0.08515458 0.08728109 -0.074559845 -0.010758847 -0.017923389 0.1670286 0.15430036
-0.087954424 0.18535765 0.15644787 -0.15078776 -0.15232664 0.09544646 -0.046266887 -0.0636937
-0.009132018 0.08392086 0.15278901 0.18404151 -0.023402333 -0.02909506 -0.19819674 0.14104347
-0.100602396 -0.023205679 0.05739917 0.06966717 -0.19833599 0.099695705 0.09824654 0.13820063
-0.16702928 -0.20283395 0.21358 -0.10162185 -0.09745422 0.067146495 -0.07181933 0.09545167
0.0045651942 0.13832796 0.0066633523 -0.2141701 0.12477349 -0.20801055 -0.09674587 0.10930722
-0.20711501 0.010631397 -0.122144476 0.044927258 0.047945134 0.20577157 0.12111358 -0.12575558
0.15011175 0.20042299 -0.15476522 0.2025869 -0.06996417 0.12976928 -0.0027339756 0.16339402
-0.047970355 -0.16069628 -0.18238956 -0.1736898 0.09265445 -0.063783005 -0.15825248 0.038975194
0.027071804 -0.015836313 -0.037485346 0.13031133 0.2012852 0.20396836 0.06938787 -0.13572286
-0.13602725 -0.0032990575 0.07056798 -0.017850623 0.20642795 0.20057474 0.15880395 -0.1287584
0.093407854 0.032838568 0.00023801625 -0.07606408 0.0009173006 -0.20308976 -0.099391304 -0.18194112
-0.054106817 -0.13811575 -0.20096889 -0.048220634 -0.08660804 0.058348164 0.19740145 -0.003971368
-0.005521849 0.07445262 0.082978055 0.17542799 0.16847171 0.14965604 0.023433417 0.046095595
0.2075683 0.18113853 -0.04818961 0.18014644 -0.0061956197 -0.09130475 -0.13870253 -0.0615312
00000000: 2047 50be fbbc aa3d 1784 573e da11 963d
00000010: 87f6 1dbe 8c4a 7f3d 54b9 143e aa64 94bd
00000020: 00eb 6b3c dbfe 503e 2085 d53b 2a00 333e
00000030: be3d 1fbe f25f 5ebc 7cd7 1339 21be 16be
00000040: b610 35be b485 263d e222 46be 449c 21be
00000050: a5ca 043e 1df7 b9bd 82ba 923d 7b68 51be
00000060: 94e3 05be acee 313e 84b9 59be 3090 1dbe
00000070: 1c7a 263d 4e04 093e a32d 213e fc28 203d
00000080: 173b 4ebe af3c d2bd 369e b43d b41f 303d
00000090: 0183 31bd 6293 91bd b865 063e 50e1 413e
000000a0: 868d c93d d9ca 583d 8048 bcbd cce9 1dbe
000000b0: 78a1 ebbd 3f1a 4d3e face 613d 7c92 b1bd
000000c0: e60d d5bd 3871 353e fddb 1fbe 1975 3fbe
000000d0: 5b57 163e 8f7f 2dbe 10b9 c8bc 4be8 353d
000000e0: 8d12 2b3e 7688 0cbe f730 033e 8ec6 dfbd
000000f0: ca8c 413d dd9c 193e f615 f33d fe42 e33d
00000100: 1816 4bbe fb06 17be 6c8e 40be 8003 af3c
00000110: 1267 04be c8a1 0fbd 5af3 30be 16ec 09be
00000120: c7ed 0c3e 05b2 eebd 000a f2bc 7496 a5bd
00000130: ee18 07be 20a4 e53c 9184 4b3e 2b84 223e
00000140: 0c47 443d f7bc ebbd 4c6a 6a3d 4ca8 06bd
00000150: 040d 223d b7dc dfbd e4ed 733d 753e 18be
00000160: a09f 4abe 1283 dabd b433 6abd fd30 213e
00000170: fa1a f13d 679b d0bd 7043 43be 7f72 1c3e
00000180: 85da 493e ac10 91bd a0a6 f3bb 66a8 ed3d
00000190: f08c 1dbd 5aaa de3d 3f92 c9bd f97c 023e
000001a0: 72e0 c23d 2c70 52be 8f54 553e 4bec 163e
000001b0: 145f 32bd 32ed b0bd fe43 15be 6010 ae3c
000001c0: f0dc 26bc 7015 26bd f536 563e 7a21 883d
000001d0: 68dc 54be bcb2 6a3d d0dd f23c 93dc 0d3e
000001e0: d0c1 96bd d64c f73d c243 8fbd 9cdf 4cbd
000001f0: 2c18 f7bd 06bd 0ebe e80b c23c 5048 d03c
00000200: 9470 00be 6801 2d3e 96bc 57be 029f 98bd
00000210: 4aa6 3e3e c087 7ebd e2d9 1bbe e03d dd3b
00000220: 9c14 333d 8665 ae3d 6ec0 b23d d5b2 98bd
00000230: e045 30bc 12d4 92bc 8c09 2b3e ea00 1e3e
00000240: 7321 b4bd 65ce 3d3e df33 203e 1b68 1abe
00000250: 84fb 1bbe 6f79 c33d 5982 3dbd d871 82bd
00000260: 769e 15bc b3de ab3d b974 1c3e 6175 3c3e
00000270: 40b6 bfbc c358 eebc 16f4 4abe b36d 103e
00000280: a108 cebd d619 bebc 641b 6b3d a9ad 8e3d
00000290: 9718 4bbe 432d cc3d 7b35 c93d 7784 0d3e
000002a0: b909 2bbe b4b3 4fbe b7b4 5a3e 1e1f d0bd
000002b0: 1496 c7bd 1a84 893d 0316 93bd 2a7c c33d
000002c0: a097 953b d8a5 0d3e 4058 da3b 684f 5bbe
000002d0: 3e89 ff3d b800 55be b322 c6bd 77dc df3d
000002e0: f515 54be 502f 2e3c e226 fabd a505 383d
000002f0: 1e62 443d c8b5 523e 660a f83d 12c6 00be
00000300: e5b6 193e af3b 4d3e c67a 1ebe f172 4f3e
00000310: 6049 8fbd 3de2 043e 802c 33bb c350 273e
00000320: 907c 44bd 918d 24be 54c4 3abe bddb 31be
00000330: 9ec1 bd3d aaa0 82bd f00c 22be 74a4 1f3d
00000340: b0c5 dd3c 28bb 81bc 3c8a 19bd 5570 053e
00000350: b51d 4e3e 15dd 503e 3a1b 8e3d effa 0abe
00000360: ba4a 0bbe 0035 58bb f285 903d 783b 92bc
00000370: d961 533e 7763 4d3e 819d 223e 3ed9 03be
00000380: 9e4c bf3d bc81 063d 0094 7939 7cc7 9bbd
00000390: 0077 703a c3f6 4fbe ab8d cbbd c64e 3abe
000003a0: 1c9f 5dbd 376e 0dbe caca 4dbe 0083 45bd
000003b0: 8e5f b1bd 7cfe 6e3d 9b23 4a3e 4022 82bb
000003c0: a0f0 b4bb 9e7a 983d 66f0 a93d 65a3 333e
000003d0: d983 2c3e 6f3f 193e 70f7 bf3c bcce 3c3d
000003e0: c98c 543e 617c 393e 7862 45bd 4f78 383e
000003f0: a004 cbbb fcfd babd 0908 0ebe 2408 7cbd

bias f4 [64]
0.0 0.0 0.0 0.0 0.0 0.0028525854 -0.003934622 0.0025840057
0.0 -0.0026896975 0.0 0.0 -0.00021693601 -0.00078970386 0.0007462792 0.0007542857
4.082753e-05 0.0 -0.0030123852 0.0 -0.005273675 0.0 0.0 0.0
0.0 0.0 0.0 0.0 0.0008372126 0.0 -0.0022074804 -0.004308449
0.0 0.0032431786 0.0046380404 0.0 -0.008182958 0.0 0.0 0.0
-0.002912176 -0.00069297507 -1.9650723e-05 -0.0074389693 0.0026814982 0.0 0.0069163805 0.0
0.00051697844 0.0 0.0 0.0008862425 0.0 0.0016039418 0.0 0.0
0.0039373073 0.0 0.0 0.0 0.0045624203 0.0027398337 0.0 0.0
00000000: 0000 0000 0000 0000 0000 0000 0000 0000
00000010: 0000 0000 71f2 3a3b 00ee 80bb 6c58 293b
00000020: 0000 0000 a345 30bb 0000 0000 0000 0000
00000030: 5179 63b9 2104 4fba f3a1 433a 42bb 453a
00000040: 3a3e 2b38 0000 0000 706b 45bb 0000 0000
00000050: cbce acbb 0000 0000 0000 0000 0000 0000
00000060: 0000 0000 0000 0000 0000 0000 0000 0000
00000070: 6378 5b3a 0000 0000 60ab 10bb e42d 8dbb
00000080: 0000 0000 828b 543b b4fa 973b 0000 0000
00000090: d011 06bc 0000 0000 0000 0000 0000 0000
000000a0: 35da 3ebb c5a8 35ba 9bd7 a4b7 99c2 f3bb
000000b0: 13bc 2f3b 0000 0000 cea2 e23b 0000 0000
000000c0: d685 073a 0000 0000 0000 0000 ba52 683a
000000d0: 0000 0000 5b3b d23a 0000 0000 0000 0000
000000e0: 8704 813b 0000 0000 0000 0000 0000 0000
000000f0: 5b80 953b c88e 333b 0000 0000 0000 0000

weight f4 [64, 64]
0.18194859 0.050869986 0.08533575 -0.11987644 -0.052652583 0.08301248 -0.11373902 -0.14878276
-0.11221564 -0.12251345 0.04494624 0.0620666 0.1632698 0.2118463 -0.07623808 0.05362974
-0.005881101 0.105726406 -0.19708274 0.17471425 0.093416765 -0.00026735663 0.14554138 0.03288056
0.20919685 -0.16258858 -0.18614079 -0.16009536 -0.069156036 -0.16593346 -0.12142777 0.20858894
-0.14275727 -0.11559819 -0.20079544 0.055346087 -0.014576569 0.20891507 -0.14587596 -0.17659634
-0.1776838 0.049521104 -0.15495744 -0.21566896 -0.0051113814 0.04688187 0.16302888 0.18437986
-0.2158694 0.109862074 0.15950601 0.04743482 -0.17204839 0.10853769 0.0058430284 0.1893496
0.14634754 0.036921218 0.20041786 0.007289216 -0.08995198 -0.12294254 -0.12030593 -0.10159149
-0.04058887 -0.050783157 0.082966045 -0.022838429 -0.19420701 0.012474999 -0.13333935 0.19755362
-0.050001264 0.108639404 -0.08407928 0.011965185 -0.19940577 0.08391614 -0.0069578737 0.13622232
0.18141098 -0.15725912 -0.1881496 -0.041733578 -0.0026779175 0.036713794 -0.12557933 0.2059169
-0.18447432 0.0049711317 0.19296835 -0.20608324 0.13193135 -0.11213331 0.031481892 -0.1506297
-0.08223003 -0.05053459 -0.03310521 -0.07197574 0.08427508 -0.1380325 0.10875626 0.10613887
-0.018773928 0.10759185 0.13447057 -0.1998712 -0.11074202 -0.12049318 -0.068539575 -0.08163063
-0.05340323 -0.16646987 0.17350678 -0.0015736371 -0.08946045 0.0058599263 0.03596343 -0.021983847
-0.03194283 -0.19568625 0.07120331 0.026413739 0.06853844 -0.15550892 0.14571102 0.1179529
0.053938344 -0.055530623 0.107680514 0.1727385 -0.028572306 0.12995319 -0.20431817 0.21248733
-0.08944066 -0.21152228 -0.120510496 0.005295247 -0.1907449 -0.20000704 0.20739041 0.11973606
0.06791918 0.06799783 -0.12522855 -0.18518546 -0.122688055 0.07659502 -0.18530457 -0.17324194
0.17050894 0.008697465 0.06389327 0.055902347 -0.1160711 -0.084343135 -0.006416157 0.08872874
-0.031450406 -0.16175225 0.116129234 0.037135586 0.02895005 0.20696397 -0.1376319 0.042620227
0.035644308 0.1544454 -0.10576374 0.048976526 0.018240854 0.07690786 0.08717053 -0.06679712
0.03702952 -0.084138036 -0.15735605 -0.08304812 0.21410917 0.17456661 0.035673067 0.16890053
-0.19419906 -0.04181689 -0.09825344 0.19183974 -0.06939638 -0.031877294 -0.090761796 -0.08492416
0.111523524 -0.14297636 -0.17704669 -0.038487583 0.190399 0.06708853 -0.09307511 -0.09022093
-0.10799353 0.19857623 -0.11305783 -0.14755794 -0.08948848 0.08669527 -0.118648574 -0.08190264
-0.0006971657 0.13359053 -0.058360696 0.027484536 -0.09424013 -0.08900803 -0.13683605 -0.08331171
0.20385762 -0.12478983 0.18457378 -0.0740813 -0.114349164 -0.13455126 0.15468521 0.15882076
-0.099770546 -0.17629127 -0.0106841475 -0.15732008 0.09620874 0.115244195 -0.0023900717 0.12770085
-0.116963364 -0.08800231 -0.040076092 -0.008255109 -0.092924945 0.21230324 -0.05895692 0.02452673
0.20445417 0.13430826 0.0117343515 0.13037623 -0.10801993 0.068094805 0.10222553 -0.14305611
0.12471934 0.14248283 -0.16715896 -0.13246408 0.13964154 -0.059833318 -0.05382116 0.20493658
00000000: bb50 3a3e 0c5d 503d 82c4 ae3d c781 f5bd
00000010: 3caa 57bd 7202 aa3d 01f0 e8bd 825a 18be
00000020: 50d1 e5bd 55e8 fabd 8c19 383d 8c39 7e3d
00000030: 3330 273e 3dee 583e b622 9cbd dcaa 5b3d
00000040: 40b6 c0bb 1687 d83d 0fd0 49be 4be8 323e
00000050: 4a51 bf3d 002c 8cb9 cd08 153e c4ad 063d
00000060: b337 563e 9f7d 26be b19b 3ebe 0af0 23be
00000070: aea1 8dbd 76ea 29be 1faf f8bd 5798 553e
00000080: f62e 12be bebe ecbd 529d 4dbe 94b2 623d
00000090: 90d2 6ebc d5ed 553e 8260 15be acd5 34be
000000a0: bef2 35be a4d6 4a3d 2aad 1ebe 53d8 5cbe
000000b0: 607d a7bb 3407 403d 0bf1 263e 13ce 3c3e
000000c0: de0c 5dbe 5eff e03d 8b55 233e 044b 423d
000000d0: 742d 30be 0249 de3d e076 bf3b dde4 413e
000000e0: 21dc 153e b43a 173d 573a 4d3e 60da ee3b
000000f0: be38 b8bd 4cc9 fbbd f562 f6bd 330f d0bd
00000100: 8440 26bd 0002 50bd 1aea a93d a817 bbbc
00000110: 34de 46be f063 4c3c 1c8a 08be 7f4b 4a3e
00000120: 20ce 4cbd 567e de3d c231 acbd a009 443c
00000130: 0731 4cbe 3adc ab3d e0fe e3bb dd7d 0b3e
00000140: cdc3 393e 8908 21be 4aaa 40be d4f0 2abd
00000150: 0080 2fbb 3461 163d de97 00be e1db 523e
00000160: d6e6 3cbe e0e4 a23b 7f99 453e 7c07 53be
00000170: 0319 073e 26a6 e5bd 28f3 003d ac3e 1abe
00000180: 3868 a8bd 5cfd 4ebd 5499 07bd 0468 93bd
00000190: 6a98 ac3d 6458 0dbe 9abb de3d 565f d93d
000001a0: c8cb 99bc 1e59 dc3d a7b2 093e 09ab 4cbe
000001b0: b6cc e2bd 21c5 f6bd 7a5e 8cbd f62d a7bd
000001c0: 58bd 5abd 1477 2abe c3ab 313e 8042 ceba
000001d0: 0a37 b7bd a004 c03b 644e 133d 7817 b4bc
000001e0: 7cd6 02bd fa61 48be 0ad3 913d a061 d83c
000001f0: e25d 8c3d bb3d 1fbe 4535 153e 4a91 f13d
00000200: 74ee 5c3d 1474 63bd 9a87 dc3d 5de2 303e
00000210: 7810 eabc 7312 053e c838 51be 4796 593e
00000220: aa2c b7bd 4c99 58be 35ce f6bd c083 ad3b
00000230: a252 43be a5ce 4cbe 275e 543e 2e38 f53d
00000240: 3619 8b3d 7242 8b3d ea3b 00be 42a1 3dbe
00000250: e043 fbbd dadd 9c3d 7bc0 3dbe 5666 31be
00000260: e599 2e3e d07f 0e3c 7ada 823d dcf9 643d
00000270: afb6 edbd 18bc acbd a03e d2bb 6ab7 b53d
00000280: 24d2 00bd 62a2 25be 2ad5 ed3d 7c1b 183d
00000290: a828 ed3c 5dee 533e 60ef 0cbe 8c92 2e3d
000002a0: c4ff 113d ef26 1e3e a99a d8bd 9c9b 483d
000002b0: d86d 953c de81 9d3d 7686 b23d eecc 88bd
000002c0: 44ac 173d 9050 acbd f221 21be 2215 aabd
000002d0: 6f3f 5b3e 97c1 323e ec1d 123d 43f4 2c3e
000002e0: 1edc 46be 3048 2bbd 1939 c9bd a371 443e
000002f0: b01f 8ebd c491 02bd 52e1 b9bd b8ec adbd
00000300: 7266 e43d 6568 12be ba4b 35be 28a5 1dbd
00000310: f5f7 423e b665 893d 2a9e bebd c0c5 b8bd
00000320: b62b ddbd 9157 4b3e dd8a e7bd 6e19 17be
00000330: bc45 b7bd 4a8d b13d 06fe f2bd 92bc a7bd
00000340: 00c2 36ba f5cb 083e a00b 6fbd 4027 e13c
00000350: f800 c1bd d849 b6bd c01e 0cbe 549f aabd
00000360: 0dc0 503e cf91 ffbd e900 3d3e f0b7 97bd
00000370: e52f eabd cec7 09be cd65 1e3e e9a1 223e
00000380: 8054 ccbd b385 34be 900c 2fbc 8418 21be
00000390: 1609 c53d 2605 ec3d c0a2 1cbb 03c4 023e
000003a0: 7d8a efbd 8e3a b4bd d426 24bd 7040 07bc
000003b0: 6f4f bebd 0566 593e d07c 71bd 48ec c83c
000003c0: 6f5c 513e 1b88 093e 7041 403c 5981 053e
000003d0: 8e39 ddbd 4a75 8b3d 9e5b d13d 4d7d 12be
000003e0: da6c ff3d 05e7 113e b82b 2bbe aaa4 07be
000003f0: 31fe 0e3e c813 75bd 9473 5cbd e5da 513e

bias f4 [5]
0.0027270305 -0.011369512 0.0020532056 0.017361196 -0.016151216
00000000: fbb7 323b 3147 3abc 138f 063b 1139 8e3c
00000010: 8e4f 84bc

weight f4 [5, 64]
-0.13434272 0.03344819 0.23143774 -0.22647345 -0.023866206 0.107591145 -0.1289309 -0.092006266
0.18489149 0.20565547 -0.1927369 0.014831603 -0.27248523 -0.25159508 -0.23772474 0.20790768
-0.20135804 0.22471303 0.08526892 -0.005402297 0.037838597 0.2477606 -0.2133632 -0.1689918
-0.08359705 0.24693471 -0.15820813 -0.1910862 0.27290303 0.09204519 -0.114411235 -0.003210784
0.2233069 0.17636767 0.03654256 0.23930383 -0.110161416 -0.005068183 0.21276724 -0.16193788
-0.1073006 -0.21953289 0.080084264 0.033792216 0.09372815 -0.18334293 0.09221761 0.24885446
-0.08183799 -0.06674756 0.17457446 0.24208634 -0.21882203 0.20383321 -0.27867174 -0.04534073
0.25386503 -0.27526075 -0.212211 0.10989487 0.078860134 0.09672512 -0.18107885 0.21814215
0.17206469 -0.11474909 0.08107281 -0.056266055 0.0084757805 -0.030732315 -0.019162752 -0.26353192
0.008629829 0.009878978 -0.28963783 -0.16978872 0.29185575 0.14602552 0.1496346 0.2612203
0.000394215 -0.055342168 0.24817853 -0.17557581 0.19877917 -0.19638436 -0.19616285 0.2862392
-0.2321246 0.10922614 -0.27901748 -0.058750063 -0.17003542 0.25160968 0.05911971 0.25632784
-0.05440083 0.11787086 0.22450303 0.05096516 0.13856216 0.20794183 -0.09136404 -0.23927687
0.13203807 0.16725856 0.015446718 0.19342886 -0.1099921 0.07275736 -0.11241427 -0.08258478
0.20125374 -0.06580897 0.10782796 0.105365016 -0.013462812 0.25070852 -0.017093211 -0.12825304
0.23672464 0.08313745 0.22823077 -0.18697578 0.09307398 -0.07679638 -0.056175172 -0.05787401
0.27813512 0.0043254495 -0.1485976 0.14983031 -0.13671051 0.052435078 -0.13226086 0.12234178
-0.102779284 0.09017167 0.056512624 0.28584832 -0.0024695522 -0.16251539 0.0013864856 0.124248594
0.26788402 0.046123266 0.11936139 0.020246416 -0.18206355 0.02801925 -0.24574426 -0.19955254
-0.097377405 -0.18429358 -0.063921124 -0.22498068 0.03871899 0.10761589 -0.13088296 0.22645481
-0.0873324 0.22528957 0.056826722 0.12202078 -0.270106 -0.13610166 -0.09709327 0.0828293
-0.017268982 -0.12284313 0.1756731 -0.23958045 -0.15538074 0.1046333 0.28750503 0.2264812
-0.037391532 0.18422332 0.25800574 0.25986838 -0.14475589 0.12884293 -0.17459124 0.14778337
0.0142588755 -0.015224338 0.16017672 -0.14522107 0.16452499 0.17350584 -0.022905588 0.18449867
-0.08774871 0.090192944 0.28369015 0.070218086 -0.13879494 0.057156164 0.020986732 0.22464865
0.039747328 -0.24157771 -0.0062155128 -0.08882055 0.11292298 0.109760456 0.14031942 0.28937536
-0.018213838 -0.25167027 -0.10540324 0.078042924 -0.28421757 -0.19077824 0.025682718 -0.27348027
-0.24410765 0.27280664 0.2610764 0.19345263 -0.19753322 0.23125696 -0.1326289 -0.00039158738
-0.1764765 0.01165613 0.23801966 -0.17267857 -0.12005826 -0.22092578 0.061437815 0.14665401
-0.24186856 -0.14374822 -0.22383368 -0.27700472 0.28269795 -0.15137334 0.18498626 0.088736445
0.023901533 0.2635978 0.27221954 0.084326506 -0.1492052 0.28340155 0.02376467 -0.27163783
0.26580113 0.13649854 0.047478497 -0.25062287 0.1390582 -0.16768499 0.29427254 -0.06734213
00000000: 2391 09be f800 093d 04fe 6c3e a8e8 67be
00000010: 1083 c3bc bf58 dc3d 7606 04be c86d bcbd
00000020: 3254 3d3e 5997 523e d25c 45be 4000 733c
00000030: 2f83 8bbe 12d1 80be 1d6e 73be c0e5 543e
00000040: cd30 4ebe 2c1b 663e 79a1 ae3d c005 b1bb
00000050: a5fc 1a3d f4b4 7d3e e27b 5abe 300c 2dbe
00000060: ee34 abbd 74dc 7c3e 5001 22be 1aac 43be
00000070: f2b9 8b3e 3082 bc3d 7050 eabd 046c 52bb
00000080: 90aa 643e ba99 343e a7ad 153d 100c 753e
00000090: 4f9c e1bd 0013 a6bb a8df 593e 0bd3 25be
000000a0: 6bc0 dbbd 3bcd 60be 3803 a43d b569 0a3d
000000b0: 8bf4 bf3d 40be 3bbe 96dc bc3d b4d3 7e3e
000000c0: ad9a a7bd f2b2 88bd a6c3 323e 7be5 773e
000000d0: e212 60be a7b9 503e 10ae 8ebe 34b7 39bd
000000e0: 99fa 813e faee 8cbe d74d 59be 9010 e13d
000000f0: 6c81 a13d d217 c63d bc6c 39be a860 5f3e
00000100: ba31 303e 9201 ebbd 8009 a63d 3c77 66bd
00000110: 00de 0a3c 56c2 fbbc 34fb 9cbc a8ed 86be
00000120: 2064 0d3c 70db 213c 694b 94be 18dd 2dbe
00000130: 1e6e 953e b787 153e d039 193e abbe 853e
00000140: a4ae ce39 78ae 62bd 8322 7e3e 25ca 33be
00000150: c48c 4b3e fb18 49be eade 48be f28d 923e
00000160: 12b2 6dbe f4b1 df3d 61db 8ebe e8a3 70bd
00000170: c41d 2ebe fcd2 803e 8227 723d 673d 833e
00000180: 68d3 5ebd 4766 f13d 1fe4 653e d8c0 503d
00000190: 3de3 0d3e b4ee 543e 121d bbbd ff04 75be
000001a0: fd34 073e d445 2b3e 3b14 7d3c 3712 463e
000001b0: 8a43 e1bd d001 953d 7439 e6bd 3622 a9bd
000001c0: 7615 4e3e dac6 86bd e8d4 dc3d 9dc9 d73d
000001d0: 2093 5cbc de5c 803e 1007 8cbc c454 03be
000001e0: f267 723e f843 aa3d 54b5 693e 9476 3fbe
000001f0: 929d be3d 6c47 9dbd f017 66bd 4c0d 6dbd
00000200: ba67 8e3e 80bc 8d3b f829 18be 1e6d 193e
00000210: d7fd 0bbe 2ac6 563d 646f 07be 548e fa3d
00000220: f27d d2bd edab b83d c879 673d b65a 923e
00000230: 36d8 21bb 6f6a 26be bdba b53a 0c76 fe3d
00000240: 1828 893e c0eb 3c3d bf73 f43d d0db a53c
00000250: de6e 3abe a088 e53c 62a4 7bbe 8057 4cbe
00000260: ce6d c7bd 75b7 3cbe 14e9 82bd 5661 66be
00000270: ce97 1e3d b865 dc3d 2f06 06be c5e3 673e
00000280: 54db b2bd 4fb2 663e 23c3 683d 08e6 f93d
00000290: 554b 8abe 3c5e 0bbe d6d8 c6bd 68a2 a93d
000002a0: ae77 8dbc 2e95 fbbd a6e3 333e 9454 75be
000002b0: 211c 1fbe fc49 d63d dc33 933e b0ea 673e
000002c0: dd27 19bd 0aa5 3c3e 5419 843e 780d 853e
000002d0: e33a 14be 67ef 033e 0cc8 32be 8654 173e
000002e0: 0f9e 693c 806f 79bc 5e05 243e d5b4 14be
000002f0: 3d79 283e 84ab 313e 80a4 bbbc 38ed 3c3e
00000300: 98b5 b3bd 14b7 b83d d63f 913e 80ce 8f3d
00000310: 4320 0ebe 951c 6a3d 5eec ab3c 4c0a 663e
00000320: 18ce 223d 2660 77be 80ab cbbb 8ce7 b5bd
00000330: 2a44 e73d 17ca e03d e5af 0f3e 0229 943e
00000340: 3035 95bc edda 80be a7dd d7bd f8d4 9f3d
00000350: f784 91be 5f5b 43be 9064 d23c 9b05 8cbe
00000360: 5bf7 79be 50ad 8b3e ceab 853e 7218 463e
00000370: 2646 4abe a0ce 6c3e dfcf 07be f84d cdb9
00000380: 41b6 34be 5af9 3e3c 6dbb 733e a7d2 30be
00000390: 1be1 f5bd 5e3a 62be 38a6 7b3d 782c 163e
000003a0: 64ac 77be bc32 13be a834 65be 90d3 8dbe
000003b0: c9bd 903e 9d01 1bbe 0a6d 3d3e 74bb b53d
000003c0: 26cd c33c 4af6 863e 5c60 8b3e 60b3 ac3d
000003d0: 3fc9 18be 021a 913e 20ae c23c 1d14 8bbe
000003e0: 1617 883e 46c6 0b3e d078 423d a451 80be
000003f0: 4665 0e3e 9db5 2bbe e4aa 963e acea 89bd
