graph_classification_model.pt (torch, 64674 bytes, 12 tensors)

att_src f4 [1, 1, 32]
0	0xbd91fbe1	-0.0712812
1	0xbed9fbc5	-0.42574897
2	0xbe9cd6f2	-0.3063274
3	0x3d838006	0.06420903
4	0x3e321a2d	0.17392798
5	0x3e8a9e8e	0.27074093
6	0x3df11b23	0.11772754
7	0x3edbd50c	0.4293598
8	0xbde0e2b1	-0.10980738
9	0xbe9b6899	-0.3035324
10	0xbc1f3e4e	-0.009719444
11	0xbe3fcf92	-0.18731526
12	0x3e172fe6	0.14764366
13	0xbe8b4c49	-0.27206638
14	0xbe29d9c4	-0.16586977
15	0xbdc6372c	-0.09678492
16	0xbec75dc4	-0.38938725
17	0x3ee0d0b2	0.43909222
18	0x3e1eef0c	0.15520877
19	0x3eb49bbe	0.35275072
20	0x3ecbbf0c	0.39794195
21	0x3c8d0f47	0.017219199
22	0x3c34d9b9	0.011038237
23	0x3ec98995	0.3936278
24	0xbdd6efcf	-0.104949586
25	0xbdfbef83	-0.123015426
26	0xbded4b13	-0.11586585
27	0xbeba25f0	-0.3635707
28	0xbe17345d	-0.14766069
29	0xbe169aa3	-0.14707427
30	0xbe28a4b8	-0.16469085
31	0xbd972dcb	-0.07381781

att_dst f4 [1, 1, 32]
0	0xbe74443f	-0.23854159
1	0x3e79dcfb	0.24400704
2	0xbe5541f7	-0.20825945
3	0x3daefae6	0.08543949
4	0x3e9fe7a5	0.31231418
5	0xbeaa0fe4	-0.3321525
6	0x3ec241b9	0.37940767
7	0x3e861dba	0.26194555
8	0xbeac1b5f	-0.33614632
9	0xbec5487c	-0.38531864
10	0x3d318c87	0.043346908
11	0xbd71a12f	-0.058991607
12	0xbba9d6d3	-0.0051830797
13	0x3cff3445	0.031152854
14	0x3d313543	0.043263685
15	0x3e74d00d	0.2390749
16	0xbe85bf1c	-0.26122367
17	0x3e2883a1	0.16456462
18	0x3d85ee32	0.06539573
19	0xbe8d5f06	-0.2761156
20	0x3c5998c1	0.013281048
21	0xbe813fa9	-0.2524388
22	0xbea0a57b	-0.31376252
23	0xbd4fc220	-0.05072224
24	0xbedd1dfa	-0.43186933
25	0x3ea776ca	0.32707816
26	0x3ec6dab4	0.38838732
27	0xbe98fc21	-0.2987986
28	0x3ea22daf	0.3167548
29	0x3e26bc68	0.16282809
30	0x3e907587	0.28214666
31	0xbddc6643	-0.107616924

bias f4 [32]
0	0xbc72b9ef	-0.014814838
1	0x3c93ce7d	0.018042797
2	0x3ca22e08	0.01979734
3	0x3c683f60	0.014175266
4	0xbc8dd48f	-0.01731327
5	0x3c7de395	0.015496154
6	0x3c4d2c32	0.012522744
7	0x3c7df782	0.015500905
8	0xbabd1bad	-0.0014427804
9	0x3c6a7a2a	0.014311353
10	0xbc8dc312	-0.01730493
11	0xbc725b73	-0.014792311
12	0xbb61f5b2	-0.0034478721
13	0x3c1ab417	0.009442351
14	0xbb4b1ad7	-0.003099134
15	0xbc8e5b55	-0.017377535
16	0xbc856132	-0.016281698
17	0x3ca07912	0.01958898
18	0xbc923770	-0.0178487
19	0xbb3c5381	-0.0028736296
20	0xbc8014fe	-0.01563501
21	0xbc937159	-0.017998384
22	0x3c6b534e	0.014363123
23	0x3c93e3f1	0.018053027
24	0xbc815628	-0.015788153
25	0xbc8fda68	-0.017560199
26	0x3c8ef430	0.017450422
27	0xbc9a46c3	-0.01883257
28	0xbc330428	-0.010926284
29	0xbbe5edf7	-0.007016893
30	0xbb8674ea	-0.0041032927
31	0x3be02cdf	0.0068412866

weight f4 [32, 11]
0	0xbe977442	-0.29580885
1	0x3e95bd0f	0.29245803
2	0xbe79df26	-0.2440153
3	0x3ea429fb	0.3206328
4	0x3deabec5	0.11462168
5	0x3e39c3cb	0.18141095
6	0xbebb6dfd	-0.36607352
7	0x3ea60eb5	0.32433096
8	0xbe5a31bf	-0.21308039
9	0x3de5740b	0.11203774
10	0xbdaf5c26	-0.08562498
11	0x3deaff1a	0.11474438
12	0x3e77551a	0.24153557
13	0xbcb2d6a0	-0.021830857
14	0xbe8f8a68	-0.28035283
15	0xbe3ce5de	-0.18447062
16	0x3e8d822a	0.2763837
17	0x3dcf7213	0.1012918
18	0xbe575f16	-0.21032366
19	0x3e692662	0.22768548
20	0x3e787566	0.24263534
21	0x3e98a280	0.29811478
22	0x3da778b1	0.08177317
23	0x3e48632e	0.19569084
24	0xbe8a7ea3	-0.2704974
25	0xbe1a64db	-0.15077536
26	0x3dc8135e	0.09769319
27	0x3c90f398	0.01769428
28	0xbdb8ad5e	-0.09017442
29	0xbdac7351	-0.08420432
30	0xbdf7c066	-0.12097244
31	0x3e978656	0.29594678
32	0xbe2ed1a9	-0.17072167
33	0x3e85ed78	0.26157737
34	0xbe9e7121	-0.30945686
35	0x3e11888c	0.14212245
36	0xbe967514	-0.293862
37	0x3e062c75	0.13102897
38	0xbe2ad1a4	-0.16681534
39	0x3e8f663b	0.28007683
40	0xbe8e10ec	-0.27747285
41	0x3ec5ab56	0.3860728
42	0x3eb56f1b	0.3543633
43	0x3e1d5f46	0.15368375
44	0x3eaff442	0.3436604
45	0xbebec65e	-0.37260717
46	0xbd07a9cd	-0.03312092
47	0xbea3cb59	-0.3199108
48	0x3e60028c	0.21875972
49	0xbd60839b	-0.05481301
50	0x3e53998c	0.20664042
51	0xbdc329bf	-0.09529447
52	0x3e0fb9e0	0.1403575
53	0x3e8cb283	0.27479944
54	0xbe8dfc07	-0.27731344
55	0x3eb51e6f	0.3537478
56	0xbeb3383e	-0.35003847
57	0xbc20cdce	-0.009814693
58	0xbda02b5c	-0.0782077
59	0xbdc591ff	-0.09646987
60	0x3ec4f736	0.38469857
61	0xbe5e47ba	-0.21707049
62	0x3cdac334	0.026704408
63	0x3d10d8bb	0.03536294
64	0x3e172d43	0.1476336
65	0xbd939bcc	-0.0720745
66	0x3e993611	0.29924062
67	0x3eb79024	0.35852158
68	0xbe6df417	-0.23237644
69	0xbdd7ab01	-0.10530663
70	0xbe865307	-0.2623522
71	0x3e6c9abb	0.231059
72	0xbea90daa	-0.33018237
73	0xbde008da	-0.10939188
74	0xbe341f04	-0.17589957
75	0x3d5b33b0	0.05351609
76	0xbde38d4e	-0.11110936
77	0x3e9ae156	0.30250043
78	0x3e01ea86	0.1268712
79	0x3dc00144	0.093752414
80	0x3e77ca14	0.2419818
81	0xbc8b5fe6	-0.017013501
82	0x3dcd387b	0.100205384
83	0xbe2bd1e6	-0.16779289
84	0x3e331430	0.1748817
85	0xbdccd504	-0.10001567
86	0x3e9888d5	0.29791895
87	0xbe14522f	-0.14484476
88	0xbd9c103b	-0.07620283
89	0xbeae97cd	-0.3410019
90	0x3e5f0958	0.21780908
91	0xbe69f60d	-0.22847767
92	0x3eaf78b0	0.34271765
93	0x3df3485d	0.118790366
94	0xbc723452	-0.014782982
95	0xbe1f3592	-0.15547779
96	0xbd9b33db	-0.0757825
97	0xbe906d0b	-0.28208193
98	0x3dd991e7	0.10623532
99	0xbebaebbd	-0.3650798
100	0xbe358d33	-0.17729644
101	0xbe760249	-0.24024309
102	0x3e09d4a8	0.13460028
103	0x3de785a5	0.113047875
104	0x3ea5ffc2	0.3242169
105	0xbd91cb62	-0.0711887
106	0x3ea025c6	0.3127882
107	0xbe77c581	-0.24196436
108	0xbe7e40e6	-0.24829444
109	0xbe90aed6	-0.2825839
110	0xbbfe0220	-0.007751718
111	0xbeb499f8	-0.3527372
112	0x3e71e967	0.23624192
113	0xbe9efdff	-0.3105316
114	0x3e107fd5	0.14111264
115	0xbe37fad7	-0.17966782
116	0xbbc2d55f	-0.005945846
117	0xbdf66800	-0.12031555
118	0x3e242ffb	0.16033928
119	0x3eac5369	0.33657387
120	0xbec4cb0a	-0.38436157
121	0xbeab6eb6	-0.33482903
122	0xbd383daf	-0.0449807
123	0xbb7644f3	-0.0037577718
124	0x3eaf2a11	0.34211782
125	0x3e192090	0.14953828
126	0xbc8c2384	-0.017106779
127	0xbeab8ab2	-0.33504254
128	0x3d89a7d9	0.067214675
129	0xbe20ece9	-0.15715374
130	0x3e02158d	0.12703533
131	0xbe1606c9	-0.14651026
132	0xbcb6f6bb	-0.022334447
133	0x3e8139ac	0.25239313
134	0x3eaa5cbf	0.33273885
135	0xbea941f3	-0.33058128
136	0xbe62f6be	-0.22164437
137	0xbe1ad257	-0.15119301
138	0xbcb8bbab	-0.022550425
139	0x3e8b00d7	0.27149078
140	0x3e646fa0	0.22308207
141	0xbd011bd7	-0.03152069
142	0xbe578cda	-0.21049824
143	0x3eaeb216	0.34120244
144	0xbdf996b5	-0.12186948
145	0xbe2ff48e	-0.17183134
146	0x3e34cf3b	0.17657177
147	0x3e638db3	0.22222023
148	0x3dfe7eea	0.12426551
149	0xbd95fc6e	-0.07323538
150	0xbe162eb1	-0.14666249
151	0xbdcb28c0	-0.09919882
152	0x3e91698a	0.28400832
153	0x3e5b1b7b	0.21397202
154	0x3e22ff64	0.15917736
155	0xbd0f7e84	-0.035032764
156	0x3e2c3072	0.16815355
157	0x3d442774	0.047889188
158	0xbe118f7d	-0.14214893
159	0xbe1f2141	-0.15540029
160	0x3e197f44	0.14989954
161	0x3c3b3cdc	0.011428084
162	0x3e921cb1	0.28537515
163	0x3e7f6e32	0.2494438
164	0x3e4b75ad	0.19869108
165	0xbe9a0d14	-0.30088103
166	0xbeb793ae	-0.35854858
167	0x3e15f754	0.1464513
168	0xbd1fb864	-0.038994208
169	0xbec662ca	-0.38747245
170	0xbe357d7d	-0.17723651
171	0xbe45b060	-0.19305563
172	0xbe833f06	-0.2563402
173	0x3d7219bc	0.059106573
174	0x3dd6569a	0.10465737
175	0xbe72c5d1	-0.23708273
176	0xbeab3d5e	-0.33445257
177	0x3e6eb73e	0.23312089
178	0x3e44a39c	0.19203037
179	0x3ddc0f83	0.10745146
180	0x3df11ca6	0.117730424
181	0xbd9163b4	-0.07099095
182	0xbd7058e1	-0.05867851
183	0xbddcaf0d	-0.10775576
184	0xbe37f996	-0.17966303
185	0xbe91bc37	-0.2846391
186	0x3e5a229a	0.21302262
187	0xbd286199	-0.0411087
188	0x3d0d27ae	0.03446167
189	0xbe954149	-0.2915137
190	0x3d092aad	0.033487964
191	0x3c4a879d	0.012361434
192	0xbe7bd212	-0.24591854
193	0xbe9be3cf	-0.30447242
194	0xbe9104a6	-0.2832386
195	0xbebc8e47	-0.368273
196	0x3ea37eb3	0.319326
197	0xbe29b82b	-0.16574161
198	0xbdbf6fae	-0.09347473
199	0x3e602004	0.21887213
200	0x3d9ed2fc	0.07755086
201	0x3cc1cac2	0.023656253
202	0xbcaf2b2a	-0.021382887
203	0xbc74faaf	-0.014952346
204	0xbc99bfbc	-0.018768184
205	0xbe1ee562	-0.1551719
206	0x3c834f96	0.01602916
207	0x3e093c5a	0.13401929
208	0xbe55a345	-0.20863064
209	0x3e92cbe4	0.2867118
210	0x3da00e66	0.07815246
211	0xbdda6aec	-0.10664925
212	0x3e136287	0.14393054
213	0x3e0ae824	0.13565117
214	0x3e0d180c	0.13778704
215	0xbdd5c8d9	-0.10438699
216	0x3e7fc4b9	0.24977387
217	0x3bdfff76	0.0068358732
218	0x3e88ffeb	0.2675775
219	0xbe02c122	-0.12768987
220	0xbe0df02f	-0.13861154
221	0x3e112fd9	0.14178409
222	0x3d09c61c	0.033636197
223	0x3ddd95e9	0.10819609
224	0xbe5155b7	-0.20442854
225	0xbd0d200a	-0.034454383
226	0x3eb08259	0.34474447
227	0xbe2ed87e	-0.17074773
228	0x3e2432ce	0.16035005
229	0xbec18dd2	-0.37803513
230	0x3e3d870f	0.18508552
231	0x3e85497d	0.2603263
232	0xbc195e7f	-0.0093609085
233	0xbdc271ba	-0.09494348
234	0x3e0454e7	0.12923013
235	0x3d7a07bc	0.061042532
236	0x3e36cdc4	0.17851931
237	0x3d1fe0d3	0.03903277
238	0xbe9da7c0	-0.30792046
239	0xbe99a800	-0.30010986
240	0x3e77fd7c	0.2421779
241	0xbc8b7970	-0.01702568
242	0x3e9818bf	0.2970638
243	0x3e54db76	0.20786843
244	0xbe42d55e	-0.19026706
245	0xbe7065d4	-0.23476344
246	0x3e89f1c6	0.2694227
247	0xbde81ca3	-0.11333587
248	0x3e65443e	0.22389314
249	0xbe67e2de	-0.22645137
250	0xbd39d9c1	-0.045373682
251	0x3d84e747	0.06489425
252	0xbc5fe716	-0.013665935
253	0x3e9e6676	0.30937546
254	0xbc3eb21e	-0.011639146
255	0x3de46cd2	0.11153568

att_src f4 [1, 1, 32]
0	0xbe8aa130	-0.270761
1	0xbe49cb4e	-0.19706461
2	0xbecee426	-0.40408438
3	0xbebcd81f	-0.36883637
4	0xbe80da52	-0.25166565
5	0x3ddad9c9	0.106860705
6	0xbe7a1f53	-0.24426012
7	0x3e6fc55c	0.2341513
8	0x3e994087	0.29932043
9	0x3d5d2269	0.053987894
10	0x3e872a32	0.2639938
11	0xbe72ec72	-0.23723009
12	0xbd748f0c	-0.059706733
13	0xbea0cc5e	-0.3140592
14	0x3e442251	0.19153716
15	0xbe81b0c3	-0.2533017
16	0x3d424e79	0.04743812
17	0x3d8280a0	0.063721895
18	0xbea0c803	-0.31402597
19	0xbec6c332	-0.38820797
20	0x3e6f49b7	0.23367964
21	0xbe3f8079	-0.18701352
22	0x3e768b2a	0.24076524
23	0x3d847223	0.06467082
24	0xbe188a3f	-0.14896487
25	0x3cb58eb0	0.022162765
26	0x3e51bbc8	0.20481789
27	0xbe87b800	-0.26507568
28	0x3e9882d4	0.29787314
29	0xbecad671	-0.3961673
30	0xbe66072b	-0.22463672
31	0x3d495719	0.04915533

att_dst f4 [1, 1, 32]
0	0xbe83ad0f	-0.2571797
1	0x3eb04e33	0.3443466
2	0xbecf3a63	-0.40474233
3	0x3dd26ee7	0.10275059
4	0xbe7a0efb	-0.24419777
5	0xbe26c8f0	-0.16287589
6	0x3dc9c4e8	0.0985201
7	0xbe526996	-0.2054809
8	0x3ed25b05	0.41085067
9	0x3e4a7f55	0.19775136
10	0xbcea71d8	-0.028618738
11	0xbe207955	-0.15671284
12	0xbeb04c11	-0.34433034
13	0xbec509f3	-0.38484153
14	0x3edbd47b	0.42935547
15	0x3e32935a	0.17439023
16	0x3e3813a7	0.17976247
17	0x3eb3d177	0.35120746
18	0xbe960819	-0.29303053
19	0x3ec1e113	0.3786703
20	0xbe7bbff4	-0.24584943
21	0x3eb00f1a	0.34386522
22	0x3d9ecfdc	0.0775449
23	0x3eb29654	0.34880316
24	0x3e97895d	0.29596987
25	0x3e06c9fc	0.13162988
26	0x3d2ad4c9	0.041706834
27	0xbc0de199	-0.008659744
28	0xbd04301c	-0.032272443
29	0x3d59256f	0.053014215
30	0x3e985a9d	0.29756632
31	0xbd34c031	-0.0441286

bias f4 [32]
0	0x3c00a1ab	0.007851045
1	0xbb8ea624	-0.0043533016
2	0xbaba7d9a	-0.0014228106
3	0x3b67eca2	0.0035388847
4	0x3c8e521d	0.017373139
5	0xbc7ad8bf	-0.015310465
6	0x00000000	0.0
7	0xbc8d22d1	-0.017228516
8	0xbc8aee75	-0.016959408
9	0x00000000	0.0
10	0xbc87e66a	-0.016589362
11	0xbc2740aa	-0.010208288
12	0xbb87799f	-0.0041343714
13	0xbbdeb331	-0.0067962636
14	0xbc71b542	-0.014752688
15	0x3c720b44	0.014773194
16	0x00000000	0.0
17	0x3bb10ee2	0.0054033855
18	0xbc0d97d8	-0.008642159
19	0x3c8c12e7	0.017098857
20	0xbbfc493d	-0.0076991604
21	0xbc140725	-0.0090349065
22	0x3c8809f6	0.016606312
23	0xbc41ece2	-0.011836262
24	0xbc91c9f0	-0.017796487
25	0x3b1b3fa8	0.0023689065
26	0xbc2fb355	-0.010723908
27	0xbbc2cae3	-0.005944596
28	0xbc902df4	-0.017600037
29	0x3bb24360	0.0054401606
30	0x3c89d298	0.016824052
31	0x3c7545e0	0.014970273

weight f4 [32, 32]
0	0x3e81061c	0.25199974
1	0x3e177e03	0.14794163
2	0x3e8a10d0	0.26965952
3	0xbe49fa99	-0.19724502
4	0x3e9dbe5b	0.30809292
5	0x3d482702	0.048865326
6	0x3d60bc30	0.05486697
7	0xbe5b22f1	-0.21400048
8	0x3e3c8319	0.18409385
9	0x3e7b2949	0.24527468
10	0xbe3602ca	-0.17774501
11	0x3dd37953	0.10325875
12	0xbe912d47	-0.28354856
13	0xbe394f04	-0.18096548
14	0xbe61b042	-0.22039893
15	0xbd19318b	-0.037400763
16	0x3e335c05	0.17515571
17	0x3e930cd2	0.2872072
18	0xbc0d13db	-0.008610691
19	0x3d140581	0.03613806
20	0xbe490c4f	-0.19633602
21	0x3e56be37	0.20970999
22	0xbde8f229	-0.113743134
23	0xbcac38d5	-0.021023193
24	0xbe170a2c	-0.14749974
25	0xbe2bc6d9	-0.16775073
26	0xbdf4d4b9	-0.11954636
27	0x3e5b7372	0.21430758
28	0xbd69a23e	-0.05703949
29	0xbc8d0192	-0.017212663
30	0xbde48e14	-0.11159912
31	0x3e968aca	0.29402763
32	0xbea016fe	-0.31267542
33	0xbdfa4f42	-0.122221485
34	0x3c6bec73	0.014399636
35	0x3d20a68f	0.039221343
36	0x3dc323c8	0.09528309
37	0x3e8e3bfc	0.2778014
38	0xbe8debfb	-0.277191
39	0xba535678	-0.0008061896
40	0x3e862ce7	0.26206133
41	0xbe050c40	-0.12992954
42	0xbd47a229	-0.048738632
43	0x3b0843ae	0.0020792293
44	0x3e81001a	0.2519539
45	0xbe9bd26c	-0.30433977
46	0xbe782b0e	-0.24235174
47	0x3e224784	0.15847594
48	0x3db00dd8	0.085963905
49	0x3e5919f8	0.21201313
50	0x3d1b9e1c	0.03799258
51	0xbe096cbb	-0.13420384
52	0xbca2ae71	-0.01985857
53	0xbe865791	-0.26238683
54	0x3e81a656	0.25322217
55	0x3da39b7f	0.07988643
56	0xbdff7059	-0.124726005
57	0xbe88dd5b	-0.2673138
58	0xbdec5ffa	-0.115417436
59	0x3d47eff6	0.04881283
60	0xbe623851	-0.22091796
61	0x3e5638af	0.2092006
62	0xbdf3d594	-0.11905971
63	0xbe4bc5e4	-0.19899708
64	0x3ea23691	0.31682256
65	0x3d689fda	0.05679307
66	0x3e119f1a	0.14220849
67	0xbe53de86	-0.20690355
68	0xbe42a1e7	-0.19007073
69	0x3db80aee	0.0898646
70	0x3e110a00	0.14163971
71	0x3e77e4de	0.242084
72	0xbe1d2cbe	-0.15349099
73	0x3cd0c087	0.02548243
74	0xbe20a079	-0.15686215
75	0x3e87cdb5	0.2652413
76	0xbddd95ef	-0.10819613
77	0xbda32a9f	-0.07967114
78	0xbde79eff	-0.11309623
79	0xbe6a403f	-0.2287607
80	0x3d07acfa	0.033123948
81	0x3e4336bd	0.1906385
82	0x3e58bd90	0.21166062
83	0xbe4de34f	-0.20106243
84	0x3d902986	0.0703917
85	0x397de496	0.00024213115
86	0x3e4ab058	0.19793832
87	0x3c7a16f7	0.015264264
88	0xbe5cf714	-0.21578628
89	0x3e48db1a	0.1961483
90	0xbe1c485e	-0.15261981
91	0x3e2da25c	0.16956466
92	0xbe23890c	-0.15970248
93	0x3d737a1e	0.059442632
94	0x3d683785	0.056693573
95	0x3deeef9d	0.11666796
96	0x3e824dc0	0.25449944
97	0x3e2587bb	0.16165058
98	0x3e898360	0.26858044
99	0xbce0d4cc	-0.02744522
100	0xbe601b53	-0.21885423
101	0xbc7209cb	-0.014772843
102	0xbe214a3a	-0.15750971
103	0x3df71520	0.12064576
104	0x3e195a5b	0.14975874
105	0x3e4f24fb	0.2022895
106	0x3e8e570d	0.2780079
107	0xbe4a3a8b	-0.19748895
108	0xbe74f994	-0.23923331
109	0xbde872ae	-0.113499984
110	0xbd897541	-0.067118175
111	0xbd90bf56	-0.070677444
112	0x3bc08fe1	0.0058765267
113	0x3e54516d	0.20734186
114	0xbe401625	-0.18758447
115	0x3e9673a2	0.29385096
116	0xbe4a2d9c	-0.19743961
117	0xbdddac9c	-0.10823938
118	0x3c2a01d0	0.010376409
119	0x3dd693cc	0.10477409
120	0x3bd7deab	0.0065878234
121	0xbe8a98f6	-0.27069825
122	0xbe13ff24	-0.14452797
123	0x3e96381c	0.29339683
124	0x3e8648fc	0.26227558
125	0x3e849cef	0.2590098
126	0xbe521a73	-0.20517902
127	0x3e2e85cf	0.17043231
128	0x3df6e638	0.120556295
129	0x3e85d3c3	0.26138124
130	0xbe6f454a	-0.23366275
131	0x3d6f5b1c	0.058436498
132	0xbe56b005	-0.20965584
133	0x3df1d1bc	0.11807582
134	0x3c9a805f	0.01886004
135	0xbe0d769a	-0.13814774
136	0xbd5794d0	-0.052632153
137	0xbde940ad	-0.11389289
138	0x3e19fa93	0.15036993
139	0xbde4b8d0	-0.11168063
140	0x3e81e8a3	0.253728
141	0x3e1b0719	0.15139426
142	0xbd943e55	-0.072384514
143	0x3dbd7be1	0.09252144
144	0xbd0f3e3a	-0.034971453
145	0x3e789f91	0.2427962
146	0xbe0c1e45	-0.13683422
147	0x3de00001	0.10937501
148	0x3cf4cfae	0.029884186
149	0xbcf7c03d	-0.030243034
150	0x3e834735	0.25640264
151	0x3e5e63d1	0.21717764
152	0xbe517083	-0.20453076
153	0x3d9e6561	0.0773418
154	0xbe662bf1	-0.224777
155	0xbd8a47d9	-0.06751985
156	0x3e373b72	0.1789377
157	0xbe81b496	-0.2533309
158	0x3e62a0b5	0.22131617
159	0x3df784ea	0.12085898
160	0x3de910ec	0.11380181
161	0xbe91d208	-0.28480554
162	0x3cfd8e7c	0.03095173
163	0xbdd5c3e3	-0.10437753
164	0x3cf72078	0.03016685
165	0xbc1ee4d6	-0.009698113
166	0xbcb39f1c	-0.021926455
167	0x3d8dafa5	0.06918267
168	0x3e9129dd	0.28352252
169	0x3e548b94	0.2075637
170	0x3e93a5c3	0.28837404
171	0xb9fe5915	-0.00048513027
172	0xbe893a5b	-0.26802334
173	0x3e7b100e	0.24517843
174	0xbd9f511e	-0.07779144
175	0xbd697afe	-0.05700206
176	0xbe2de95b	-0.1698355
177	0xbe7099a4	-0.23496109
178	0xbe207998	-0.15671384
179	0x3e80985e	0.25116247
180	0xbe513e2d	-0.20433874
181	0xbe340f33	-0.17583923
182	0x3e1f05fb	0.15529625
183	0xbe03da68	-0.12876284
184	0x3e6dc65e	0.23220202
185	0xbe9fe6ec	-0.31230867
186	0xbcd01b53	-0.025403654
187	0xbdfc36e5	-0.12315158
188	0x3dd3d926	0.10344152
189	0x3e2c2342	0.16810325
190	0x3c51abb3	0.012797284
191	0xbe6d8376	-0.2319468
192	0xbe22ab58	-0.15885675
193	0xbe932d2c	-0.287454
194	0xbdd84e7e	-0.10561846
195	0x3c6d40f7	0.014480821
196	0x3b390ac8	0.0028235186
197	0x3e94f352	0.2909189
198	0xbe851898	-0.25995326
199	0xbdd09591	-0.101847775
200	0xbde2605f	-0.110535376
201	0xbcbf72ce	-0.023370173
202	0xbc50c3ea	-0.012742022
203	0x3da1cd22	0.07900454
204	0x3e6ab352	0.22919968
205	0x3c9db4e1	0.019251289
206	0xbe948282	-0.2900582
207	0xbe53b148	-0.20673096
208	0xbe3a0079	-0.18164243
209	0x3dc5fb54	0.09667078
210	0xbe8cdcf8	-0.27512336
211	0xbe85d44e	-0.26138538
212	0xbe8cb7e6	-0.27484053
213	0xbdfdbb1a	-0.123892024
214	0x3e0e8a52	0.13919953
215	0xbe2c236b	-0.16810386
216	0x3dccbb57	0.0999667
217	0xbe80147c	-0.25015628
218	0xbdd12427	-0.10211974
219	0x3e83e4a2	0.2576037
220	0xbe4ab373	-0.19795017
221	0x3e7f0513	0.2490428
222	0x3e4e25dc	0.2013163
223	0xbe90ea6d	-0.28303853
224	0x3d8aec17	0.06783312
225	0x3e6f95bf	0.23396967
226	0x3db3d548	0.087809145
227	0x3de9f8f7	0.114244394
228	0x3e1c98dd	0.15292688
229	0xbe2470a4	-0.16058594
230	0xbe93e1ee	-0.28883308
231	0xbe909240	-0.2823658
232	0x3d90e4a2	0.07074858
233	0xbe3f1cfd	-0.18663402
234	0x3e484e6b	0.19561164
235	0x3e048af7	0.12943636
236	0xbe0f9d69	-0.14024891
237	0xbd8130fa	-0.0630817
238	0xbe9ebece	-0.31004947
239	0xbe551687	-0.20809375
240	0xbe0e4978	-0.13895214
241	0x3d6d780d	0.057975817
242	0xbe12628e	-0.14295408
243	0x3df7c1a1	0.12097479
244	0xbe297a61	-0.1655059
245	0x3cc4dc2d	0.02403077
246	0xbe92cbd2	-0.28671128
247	0x3e48427a	0.19556609
248	0x3c31a761	0.010843129
249	0x3db84d0f	0.08999073
250	0xbdde5dd8	-0.10857743
251	0xbe904997	-0.28181145
252	0xbdb2d52a	-0.08732064
253	0xbe42fd08	-0.19041836
254	0xbe247155	-0.16058858
255	0x3da3793f	0.0798211

att_src f4 [1, 1, 3]
0	0xbf75c43b	-0.9600255
1	0x3e8bca6a	0.27302867
2	0x3f945669	1.158887

att_dst f4 [1, 1, 3]
0	0x3f9126f2	1.134001
1	0xbe874343	-0.26418504
2	0x3eb92d60	0.3616743

bias f4 [3]
0	0xbc91163c	-0.017710797
1	0xbc1770a2	-0.009243162
2	0x3b67d531	0.0035374875

weight f4 [3, 32]
0	0x3eb6f460	0.35733318
1	0x3ea8410a	0.3286212
2	0xbeb9aa60	-0.36262798
3	0xbe38361e	-0.17989394
4	0xbe569fa9	-0.20959343
5	0x3e8179a5	0.2528812
6	0x3e3c35a6	0.1837984
7	0x3e62056f	0.22072385
8	0x3ebd97c7	0.3702986
9	0xbd5ee450	-0.054416955
10	0x3e7947b1	0.24343754
11	0x3e9ced9e	0.30650038
12	0x3d328b60	0.04358995
13	0x3d6d29a2	0.057901032
14	0x3ec43a79	0.3832586
15	0xbe5e9836	-0.21737751
16	0xbdd39738	-0.10331577
17	0xbec0fea2	-0.3769427
18	0x3eb134b6	0.34610528
19	0xbea75e0a	-0.32688934
20	0x3df5dfad	0.120055534
21	0xbe497930	-0.19675136
22	0xbe4ac071	-0.19799973
23	0x3db0dbf9	0.086357065
24	0x3ea0cedc	0.3140782
25	0x3cdee346	0.027207982
26	0x3c9b4dc6	0.018957984
27	0x3ead8a6f	0.3389468
28	0x3e930749	0.28716496
29	0x3cfaad86	0.03060032
30	0xbe9850ab	-0.29749045
31	0xbe0a5ee6	-0.13512763
32	0xbda5edd7	-0.08102005
33	0x3ece9996	0.40351552
34	0x3eb03f83	0.34423456
35	0x3e0b67d0	0.1361382
36	0x3db03955	0.08604685
37	0x3c24bb94	0.010054488
38	0x3ec951f9	0.39320353
39	0x3dab5cff	0.08367347
40	0x3d6ea934	0.058266833
41	0x3e1264a2	0.14296201
42	0x3ecc5740	0.39910316
43	0xbebd2c35	-0.3694779
44	0xbeb752fb	-0.35805497
45	0xbe0e89ea	-0.13919798
46	0xbe8f5901	-0.27997592
47	0x3e3dcef4	0.18535978
48	0x3e80971d	0.2511529
49	0x3d1689b8	0.036752433
50	0x3dd2d01b	0.10293599
51	0xbe71a670	-0.23598647
52	0x3d298ac6	0.04139211
53	0x3d05a6f3	0.03262992
54	0xbebaaa31	-0.3645797
55	0xbd2f3295	-0.04277285
56	0xbe149e55	-0.14513524
57	0xbe1ebaf9	-0.15501012
58	0x3eb07127	0.34461328
59	0x3d94be28	0.07262832
60	0x3bfbe5c6	0.0076873032
61	0xbe8f1756	-0.2794749
62	0xbed485f7	-0.41508457
63	0xbdad25cd	-0.084544756
64	0x3ea177d2	0.31536728
65	0x3df478ec	0.119371265
66	0x3eae5577	0.3404958
67	0x3cfae406	0.030626308
68	0x3eb39904	0.3507768
69	0x3dbd5689	0.09245021
70	0x3eb5f53f	0.3553867
71	0xbea6e8d4	-0.3259951
72	0x3e4332fb	0.19062416
73	0x3e11259a	0.141745
74	0xbeb9f771	-0.36321595
75	0xb9012b10	-0.0001231844
76	0x3ce643b7	0.02810846
77	0x3ec25399	0.37954405
78	0xbd85506c	-0.0650948
79	0xbe57cea3	-0.2107492
80	0xbe905738	-0.28191543
81	0x3e26733e	0.16254899
82	0x3e8407bc	0.2578715
83	0xbeb55589	-0.3541682
84	0x3e9e50ad	0.30920926
85	0x3ec9a0ea	0.3938058
86	0x3ebb8bb4	0.36630023
87	0x3e41c3ca	0.18922344
88	0xbdd15972	-0.102221385
89	0x3e7dbfa5	0.24780138
90	0x3d857297	0.06515997
91	0x3ec5fa1c	0.3866738
92	0x3c7b0202	0.015320303
93	0x3e17cced	0.14824267
94	0x3e8f1f30	0.27953482
95	0xbe6da04f	-0.23205684
