graph_classification_model.pt (torch, 34658 bytes, 12 tensors)

att_src f4 [1, 1, 32]
00000000: 36ab 543e 0b78 49bf 64a0 05be abcc 2cbe
00000010: 8b1f 5f3c f056 073f 6eaa ad3e d977 373f
00000020: 0ca0 eebe 2cdb eabe c6b3 23bd e666 023e
00000030: 11d3 91bd bde2 86bd e902 aebe 4c0c a83e
00000040: 05d0 34bf 5dd3 383f 733f 063f e39b 253f
00000050: a68a 063e 180e 843e af0d a9be e00c 323f
00000060: e8be 1abe 8840 c0be 1c0f c3be 6fb9 2bbf
00000070: e56e d6be e7cf 23bd 1952 d0be 017c a33e
0.20768437 -0.78698796 -0.13049465 -0.1687495 0.01361836 0.5286703 0.3391909 0.7166725
-0.4660648 -0.4587034 -0.039966367 0.12734565 -0.07120336 -0.06586216 -0.33986595 0.32821882
-0.7062991 0.72197515 0.52440566 0.6469099 0.13138828 0.25792003 -0.33018252 0.69550896
-0.15111887 -0.37549233 -0.38097465 -0.67079824 -0.4188148 -0.039993193 -0.40687636 0.31930545

att_dst f4 [1, 1, 32]
00000000: 7e08 f2be 9aaf a33e d1f3 c6be 46c5 313e
00000010: bb18 c33e 9563 80be ae45 933e ce57 063e
00000020: c3d1 b6be ef31 fcbe ea24 4e3d 653a b8be
00000030: c12f d63d d90f f33d 1bcd 2d3e e01b 533d
00000040: 7934 97be e5a6 f53c 4127 d7be 1af1 81be
00000050: d5ba 1f3e 0c2a babe d6d4 aebe 9c2b 853d
00000060: 2a0a eabe 8992 e03e 323a 113f a54d 6dbe
00000070: 1740 0f3f 65e5 68bc 47e9 b03e c22d 1bbc
-0.47272104 0.3196991 -0.38857892 0.1736041 0.38104805 -0.25075975 0.287641 0.13119432
-0.3570691 -0.49256846 0.050328173 -0.35982051 0.10458327 0.11868257 0.16972773 0.051540256
-0.2953222 0.029986808 -0.42022136 -0.25379258 0.15598615 -0.36360204 -0.34146756 0.065024585
-0.4571088 0.43861797 0.56729424 -0.2317415 0.5595717 -0.014214848 0.34552976 -0.009471359

bias f4 [32]
00000000: 836d f83c f210 ac3c 37fb b83c b206 b6b9
00000010: 036f b83c 6132 0dbd b821 c73c ff6f 8d3a
00000020: 285c 0f3d e89a 533c 720a 4e3b d4bc e33b
00000030: 1356 7abc 3ab0 d1bc 8ca0 a1bb 96ff a6bc
00000040: d8e8 0dbd bf8a 923d 03c5 95bc d502 a3bc
00000050: 74c5 503c a61e fc3b 08f9 8d3d d370 5f3b
00000060: ac75 08bd 287d 03b9 07a7 933c a1ba 7dbd
00000070: 73e7 cc3b 445b c03d 83a2 ac3c 7813 36bc
0.030325657 0.021004174 0.022580726 -0.00034718734 0.022513872 -0.034471873 0.02430807 0.0010790824
0.034999996 0.0129153505 0.0031439331 0.0069500003 -0.015279311 -0.025596727 -0.0049324688 -0.020385545
-0.034645885 0.0715537 -0.01828242 -0.019898811 0.012742389 0.0076940833 0.069322646 0.0034094348
-0.033315346 -0.00012539758 0.01802398 -0.06194556 0.006253177 0.093924075 0.021073585 -0.01111304

weight f4 [32, 11]
00000000: ecf7 55be a341 383e f2e7 ebbe 465f 183f
00000010: 636e 7d3d c30c 293d 5a1c 39bf 1402 203f
00000020: ea5b 50be 7382 803e 5dde 37be 1a77 813e
00000030: f0ad d13e 0d29 49bd 7b99 f0be b011 05be
00000040: 1950 993e f6e6 4b3c 8d2a d1be 5dbc 763e
00000050: 6166 d03d 349c d93e 30a4 69bc d3bb b33e
00000060: 00c0 0cbe 7bb4 d0be e953 043e 06d5 0c3e
00000070: 6b2b 883d 5ee0 a8be 7dda d8bd 758a 803e
00000080: 9362 16be c6d7 843e 0e3b 40be 8ca7 433e
00000090: 180d e8be 909d fe3d a103 aabd 02fb c03e
000000a0: 452c 02bf ab6e c03e 9c57 993e 73f5 433e
000000b0: ce8b c83e c8cd 46be 76c8 813d 188b ebbe
000000c0: 525a 883e b243 8d3d e486 b43e 9475 87be
000000d0: 9810 413e a226 913e d83a 6dbe 726d 403e
000000e0: b0c3 1abf 1ed4 0dbd fc36 fc3a 7fed 4abe
000000f0: e272 aa3e a046 7ebe 4d20 633d e7d8 3cbc
00000100: 8543 2b3e 0513 92be 21d1 ab3e afe6 3f3e
00000110: af49 b9be cacd 693e fdc6 8cbe 87aa 9e3d
00000120: 910b 2ebf 3568 393e 242a 55be 6037 463e
00000130: 85c8 5fbe 44a6 893e dbbe ecbd a4bb c5bd
00000140: 05ad e73e 9aba dbbd 59a8 14be e52e eabe
00000150: 166c d23e d0c8 31be 2892 c03e 3ac0 babe
00000160: 49b1 683d 83c6 15be 78c8 593e ebdd 12bf
00000170: ade6 ee3e 9c95 823e 3fc2 c2bd a33f debe
00000180: 5722 ee3d 8689 10bf 3ff3 613e e2c6 abbe
00000190: d01b 8bbb 320e c5be 7f24 5cbe 1e67 843e
000001a0: 33e4 0a3f 85e8 80be a4b9 ac3c 938c bfbc
000001b0: e9d7 05bf 4e02 bc3c a802 ed3c e6ef 29be
000001c0: 5247 a13e 491f d9be 8aea 163e 2963 0cbe
000001d0: 9769 b73b acfc adbe 61f9 473e 6165 983e
000001e0: 0c55 a8be aded 50be 3ddc 57bd aab1 54be
000001f0: a0fe 193f 94ae f43d 1ec8 2dbe d275 0cbf
00000200: 3a75 cc3e ded6 f9bd c410 4f3e fc18 4dbe
00000210: 2580 aabc 9aae a93e 777d b03e 47f6 a7be
00000220: 9202 86be e207 10be c4fb bc3b 25df a83d
00000230: 72f0 553e 2784 34bd b71e 5dbe be40 b03e
00000240: e2cc 3ebe cfa7 6cbe ae83 d23d cd0a 0f3e
00000250: c9bf e33b a2fa 67be 6d06 79bc 7ed3 0cbe
00000260: 0b91 863e c254 dc3d d3f4 503e d480 d33c
00000270: 8c29 493e 8938 cfbd 65f5 17be 44fa e6bd
00000280: 4f0e 633e ede5 b2bd 422f 933e f3f4 453e
00000290: d1b6 773e a29d a6be 7a60 eabe 7438 2f3e
000002a0: c4fc 4fbd 9fd4 c4be dafe 56be 929d 63be
000002b0: 8995 e9bd ffea 5c3d b589 033e 6103 87be
000002c0: 31b3 83bd 68e6 c93e 850d 1d3e 4b63 81be
000002d0: 1830 8f3e e97e bd3d 265d 40be 332d c6be
000002e0: 2844 8e3c efdc 11bf f1da a93e d37a a1bc
000002f0: 35d3 8ebd 4b7c 13bf 4bc5 dc3e 6b1e 7cbd
00000300: 7eda fabe 7d20 1dbf 2101 eabc 70b7 c1be
00000310: 2d6a db3e 8413 8cbe 3fb7 d2bd 8ac9 973d
00000320: e967 a83c 22d2 713e 7aa0 83bd 99bc e8bd
00000330: 6339 c3bd 62d1 c63c dc58 3abb c7fb 4c3e
00000340: 6fe7 99be c5bf 783e c602 dbbd 7e91 94be
00000350: 07d5 b93e fc81 943d 1fe2 54bd 1596 a2be
00000360: d4c2 013f 091c 5bbd 894b b33e ac36 9cbe
00000370: b7e3 cebd 581e 153e 939c 5a3d 9efc 6b3e
00000380: a125 31be ba14 efbc 3e22 af3e bc43 86bd
00000390: 937f 3c3e 4429 a5be e737 5c3e 82e9 d33e
000003a0: 98f3 8bbd f7ab 94be 9813 fa3e 6cf7 a2bd
000003b0: f72a fb3a 0289 31be b983 2bbc f321 6bbe
000003c0: 82ca a53e 66c3 edbd 2629 983e 0079 a63e
000003d0: 0fb7 15be cc7d d8be 9554 b03e de0b aebc
000003e0: 122b 873e 9a14 01bf 1234 d83c 4ac2 adbc
000003f0: 9c12 bc3d 3d55 693e ce4f 3abe 6f2a 483d
-0.20895356 0.17993788 -0.46075398 0.59520376 0.06187285 0.041271936 -0.72308886 0.6250317
-0.20347562 0.25099525 -0.17955919 0.2528618 0.40953016 -0.049111415 -0.46992096 -0.12995028
0.29943922 0.012445202 -0.40852776 0.24095292 0.10175777 0.42501986 -0.014260337 0.35104236
-0.13745117 -0.40762696 0.12922634 0.13753137 0.06648906 -0.3298368 -0.10588548 0.25105634
-0.1468604 0.25945872 -0.18772528 0.19106883 -0.4532249 0.124323964 -0.083014734 0.37691504
-0.508488 0.37584433 0.29949653 0.191366 0.39169163 -0.19414437 0.06337063 -0.46004558
0.2663141 0.068976775 0.35259163 -0.26456892 0.18853986 0.28349787 -0.23166978 0.1879175
-0.60454845 -0.03462612 0.0019242461 -0.1981716 0.33290774 -0.24831629 0.055450726 -0.011526323
0.16724975 -0.28530136 0.3355799 0.18740343 -0.3618903 0.22832409 -0.27495566 0.07747369
-0.679864 0.18106158 -0.20816857 0.19357061 -0.21853836 0.26884663 -0.1155984 -0.0965493
0.4524919 -0.10728951 -0.14517345 -0.45738903 0.41098088 -0.1736176 0.37611508 -0.36474782
0.056809697 -0.14626507 0.21267879 -0.5736987 0.46660367 0.25504768 -0.09509706 -0.43407926
0.116276436 -0.56459844 0.22065447 -0.33550173 -0.004245259 -0.38487393 -0.21498297 0.25859922
0.54254454 -0.25177398 0.021084614 -0.02338246 -0.5228258 0.022950318 0.02893193 -0.1659542
0.31499726 -0.4240668 0.14737907 -0.13709702 0.005597304 -0.33981836 0.19528724 0.29764846
-0.32877386 -0.20403166 -0.05270027 -0.20770898 0.6015415 0.11947361 -0.1697087 -0.5486728
0.39933187 -0.12199186 0.2022124 -0.20029062 -0.020813057 0.33141023 0.34470722 -0.32805082
-0.26173836 -0.14065507 0.0057673175 0.082456864 0.20892504 -0.044071343 -0.21593748 0.34424394
-0.18632844 -0.23110889 0.10279022 0.13968964 0.006950353 -0.22654203 -0.015199286 -0.13752553
0.26282534 0.10758354 0.20405893 0.025818266 0.19644755 -0.10118205 -0.14839704 -0.11278203
0.22173427 -0.08735261 0.28746992 0.19331722 0.24190833 -0.3254214 -0.4577673 0.17111379
-0.050778165 -0.38443467 -0.20995656 -0.22228077 -0.11405475 0.053935047 0.128455 -0.26369765
-0.064306624 0.394336 0.15337189 -0.25271067 0.2796638 0.09252722 -0.18785533 -0.3870636
0.017366484 -0.5697774 0.33174852 -0.019711887 -0.06973878 -0.5761153 0.43119273 -0.061552446
-0.4899482 -0.613777 -0.028564991 -0.37835264 0.42854443 -0.2735864 -0.10288858 0.074114874
0.02055736 0.23615316 -0.06427093 -0.11364097 -0.0953243 0.024269763 -0.0028434312 0.2001792
-0.30059382 0.24291904 -0.10693888 -0.29017252 0.3629534 0.07251355 -0.05197346 -0.31755129
0.5068791 -0.053493533 0.35018566 -0.3051046 -0.10102027 0.14562356 0.053371977 0.23045585
-0.1729951 -0.029184688 0.34205812 -0.06555888 0.1840804 -0.32258046 0.215057 0.4138909
-0.06833571 -0.2903745 0.48843074 -0.07957348 0.0019162585 -0.1733742 -0.010468417 -0.2296217
0.32381064 -0.11609535 0.29718894 0.3251419 -0.14620613 -0.42283475 0.3443953 -0.021245893
0.26400048 -0.5042206 0.026392017 -0.021210808 0.09183237 0.22786422 -0.18194506 0.048868593

att_src f4 [1, 1, 32]
00000000: 3dee a5be a037 d8be 5969 26be a045 01be
00000010: 8754 d7be a33d 9f3e 6e9b efbe ed3f 0a3f
00000020: 53d0 e83e 846f 073e b22f bb3e 6c30 c4be
00000030: 15a6 abbe cb1b 0ebf 2361 ca3e f012 e8be
00000040: fa57 813e b9eb 153e 8351 e1be 4023 05bf
00000050: 091b e43e 7668 043d 69d4 313e ac00 9c3e
00000060: a937 9dbc 8865 0ebe 8995 fc3e 9eae 04bf
00000070: 36f0 d13e d325 7abe b972 cebe 03ec 30be
-0.32408324 -0.42229939 -0.16251124 -0.12624216 -0.42056677 0.31101713 -0.4679827 0.54003793
0.4547144 0.13226134 0.36559826 -0.38318193 -0.33525148 -0.5551116 0.39527234 -0.45326948
0.25262433 0.14640702 -0.440075 -0.5200691 0.44551876 0.032326184 0.17366184 0.30469263
-0.01919158 -0.13905919 0.49332836 -0.51828945 0.4100358 -0.24428491 -0.403219 -0.17277531

att_dst f4 [1, 1, 32]
00000000: 630b 7ebe 05f6 c53e f72c ebbe d99e 053e
00000010: fbc2 59be de84 55be 83fd a03d bd39 1abe
00000020: af3d fc3e 4206 143e 5ccf 003c d953 51be
00000030: 8ac0 bdbe f719 dbbe 2575 eb3e 2341 223e
00000040: ff6b e93d eaaa 903e 01f2 c3be 0ad3 aa3e
00000050: a437 a1be b64c 9c3e 96ea 413c 5918 d93e
00000060: 3e42 b33e 8b9c 633e 0675 723d 25ef 00bd
00000070: 5e9b 853a 5081 b7bc 6e71 ba3e d27d a1bd
-0.24809031 0.3866426 -0.45932743 0.13048877 -0.21265785 -0.20851466 0.078608535 -0.15061088
0.4926581 0.14455512 0.007861938 -0.20442142 -0.37060958 -0.42793247 0.45987812 0.1584516
0.11397552 0.28255397 -0.38270572 0.33364135 -0.31487763 0.30527276 0.011835715 0.42401388
0.35011476 0.22227685 0.059193633 -0.031478066 0.0010193398 -0.022400528 0.36414665 -0.078853264

bias f4 [32]
00000000: 1fde a93d 59be ffbd e347 4bbb ea57 763b
00000010: b133 10bc fe52 1b3d 8f30 6fbd 47fb e73c
00000020: b1cd a8bc 90f8 82be 364f e33b fe09 903b
00000030: 5ad2 2f3d 1e60 3bbc 1d79 b7bb 82cf 803c
00000040: a8f8 8fbe d60e f63c 8a89 383c 51e4 b0bb
00000050: 1aa2 29be a841 ef3c bea1 4dbc 5737 9ab9
00000060: e379 e9bb a2b3 a13c 8f49 d3bc 9273 76bc
00000070: 0c41 e6bc 4f1d 00bc 00c1 db3c e11a a83d
0.08294319 -0.12487478 -0.003101819 0.0037589022 -0.008801387 0.037920944 -0.05839592 0.02831806
-0.020605894 -0.25580263 0.006936933 0.0043957224 0.042925216 -0.01143649 -0.0055991546 0.015723947
-0.28119397 0.030036371 0.011263261 -0.005398311 -0.16565743 0.029206112 -0.012550769 -0.000294144
-0.0071251257 0.019738976 -0.025791911 -0.015042203 -0.028107189 -0.007819488 0.026825428 0.08208252

weight f4 [32, 32]
00000000: 49ef c83c c4fa c63e 8f8f ab3e dcc9 9a3c
00000010: 6e2a f83e 9030 9e3d cc85 e3bd 65a3 ecbe
00000020: 75fd 883e 79bd 993e 815f 28bc 848d 1abe
00000030: 6cd2 e4bd baa2 a1be 1dc8 b5bd efcd 5f3d
00000040: cdcc 813e 5022 dc39 1b97 00be a8a2 36be
00000050: d5d0 7d3d 875c 2d3d 01c3 db3d c8fb 2cbe
00000060: c3e7 59bd 5834 02bd 29b3 083c 7cee 813e
00000070: 3bf4 093e bf45 f33d b5a6 0a3d 5d05 6f3e
00000080: 0ff7 03bf 0dd8 ac3d ce4c 5cbd f493 483e
00000090: 1c80 5a3e cf77 073e b055 dcbe 5661 70be
000000a0: 60a1 663e 8e2b 12be 53c3 6a3d 4573 70be
000000b0: 670e ce3e 218c 01bf 4293 27be cc5c 903d
000000c0: 540a 8f3c 34f2 46bd f8b9 bebd 2dfc afbe
000000d0: cc65 203e fbff f6be 3125 fb3e e744 1dbe
000000e0: cee3 70bd 2263 20be 1011 1b3e 2ab2 073d
000000f0: 9122 4ebd ef6c 0c3e 20f5 e13c ea25 06bf
00000100: 3d28 163f 22e3 9fbb 1fa0 3f3d b86e 84be
00000110: 77c6 48be 6865 653d adda 943e 54f4 e73e
00000120: b27c 77be 917a 023d 0972 5bbe c151 1b3f
00000130: d5b7 1cbe 8597 c23d ec0e fdbd 7dc4 dcbe
00000140: d3c7 a1bc fa1f d23e aff8 8c3e dca7 dc3c
00000150: 31f5 833c fb62 8e3e 6c5f 37be d4bd 863d
00000160: 5aee 2dbe a327 2e3e e5c7 04be b7a6 063e
00000170: a056 0fbe 3d06 0fbe 6e28 ab3d 2d75 763e
00000180: 063c 263f 127a e13d 4386 503e 3d21 03be
00000190: f33b 90be 883e edbc 8948 cc3d fed9 bb3e
000001a0: a074 753d 6cb9 6c3e 1399 213e d767 503e
000001b0: 5415 80be 172c 803d 1901 9ebd 2c90 9fbe
000001c0: 5723 9abd d491 063f f2d1 7abd 3b41 0e3f
000001d0: 6aab 7abe 72e0 5e3e 0907 82be b522 233e
000001e0: 8343 c03d 4502 8ebe 342d 16be e6f3 253e
000001f0: 1372 a03e 993c 1a3d 0d65 dabd f789 a83e
00000200: 4fa8 b8bb d939 723e a19b 88be 0bb8 fc3c
00000210: 122b 73be e607 ae3d 8877 a1bd 830e 55be
00000220: 6641 8ebd 3e38 1abe b9bd f83d 8bc4 54be
00000230: 0e2d 663e 2089 ec3d aa88 cbbd a8ed 7a3d
00000240: cb89 41bd b518 0f3d 5726 25be 23be 953d
00000250: 175d 0f3c 2384 ebbd 6878 883e 3a7b 493e
00000260: 4539 6ebe ac8f 4b3d fd39 74be 26a7 bcbd
00000270: 9cb1 1d3e 71d4 8cbe 1383 483e 41b4 c03d
00000280: f126 cb3e 775e edbe 6d9a a7bd 722d 41be
00000290: 3344 73bb 9a1f 303d d917 753e 9ccb 943e
000002a0: 509a 533e 2080 413e 69be 6c3e 85bf 7b3e
000002b0: a522 a4be cb37 c93e 5401 27bd 9f2a 1cbe
000002c0: 1364 80be 3a81 0f3d 5807 aebc 07ab f03e
000002d0: aa42 d9be 2f0e 893d 6d82 bfbd 8339 463d
000002e0: fe79 823e cb84 9abe e8dc 8fbd 94bf 09be
000002f0: e699 3cbd a081 c33c 169d 253c 7a8b 06bd
00000300: c3df bfbe 39f8 c5bd 6df1 35be 8ded 083e
00000310: 3e00 7f3d 2540 0f3e 6098 d8be 70cd b0be
00000320: bcdc e2bd a244 14bd e81e 323d 129b 2dbe
00000330: 48b2 b03e 593f 3fbe fbf6 74be 9090 8ebe
00000340: b168 6fbe 9950 3bbe bdca d3be 977c f5be
00000350: 51d3 c8bd 7943 b6be 9424 ca3e d4e5 d4be
00000360: 5360 0d3e eb6a 31be 29f3 1e3e 58ca 6d3e
00000370: 7bb9 40bd e9e7 4a3e 27b5 9e3e bd94 09bf
00000380: 769a d1bd ebd1 903e cd46 823e 43ee 243e
00000390: f438 503e 10e5 fabd 9b91 adbe 74f3 9dbe
000003a0: 80ab 4d3e 0b2a 12be 56cd 7b3e ab94 583b
000003b0: 38fb c5bd 5e73 74bd 6f7e 87be 2749 2abe
000003c0: f926 74bd 82f5 81bc 1ee7 f1bd 2bb4 053e
000003d0: fa71 edbd 83f9 1cbd 3baf 43be 4f4e 713e
000003e0: 3f8d 593d 9443 0b3e a856 83bd 0bec 73be
000003f0: 4d8d 2ebd 180b 683d 2656 e9bd 519f f33d
0.024528163 0.38863194 0.33507964 0.018895082 0.4846987 0.07724106 -0.11109504 -0.4621841
0.26755872 0.3002737 -0.010276676 -0.15093046 -0.11172947 -0.31569463 -0.08876059 0.054639753
0.25351563 0.00041987235 -0.12557642 -0.17835486 0.061966736 0.04232457 0.107305534 -0.16892922
-0.05319954 -0.0317882 0.008343496 0.25377262 0.13472073 0.118785374 0.03385039 0.2334189
-0.51548856 0.08439646 -0.053784184 0.1958769 0.21337932 0.13229297 -0.43034124 -0.2347463
0.22522497 -0.14274427 0.057315182 -0.23481472 0.40245363 -0.50604445 -0.16364768 0.070489496
0.01746098 -0.048570827 -0.093128145 -0.34372082 0.15663832 -0.48242173 0.49051812 -0.15358315
-0.058811 -0.15662816 0.15143228 0.033128895 -0.050325934 0.1371343 0.027582705 -0.524016
0.5865515 -0.0048793713 0.046783563 -0.25865722 -0.19606958 0.05600491 0.29073086 0.45303595
-0.24168661 0.03185517 -0.2143022 0.6067162 -0.15304501 0.09501556 -0.12356362 -0.4311866
-0.019748604 0.4104002 0.2753348 0.02693551 0.016108127 0.2780989 -0.17907494 0.065791756
-0.16985455 0.17007308 -0.12966879 0.13149534 -0.13997889 -0.13967223 0.08357321 0.24068137
0.6493534 0.11009611 0.20363717 -0.12805648 -0.28170738 -0.028960481 0.099747725 0.36689752
0.059925675 0.23117608 0.1578105 0.20352112 -0.25016272 0.062584095 -0.07715053 -0.31164682
-0.07526272 0.52566266 -0.061235376 0.55568284 -0.24479452 0.21765307 -0.25395992 0.15931208
0.09387877 -0.27736107 -0.14665681 0.16206321 0.31337032 0.037655447 -0.10663805 0.3291776
-0.0056352983 0.2365488 -0.26681235 0.030849477 -0.23746899 0.084976 -0.07884127 -0.20806317
-0.069460675 -0.15060517 0.12145562 -0.207781 0.22478124 0.11549592 -0.09938176 0.061261803
-0.04725055 0.03493567 -0.16127907 0.07311656 0.008750222 -0.114998125 0.26654363 0.19675913
-0.23264034 0.049697563 -0.23850246 -0.092115685 0.15399784 -0.2750583 0.19581251 0.09409381
0.39678147 -0.46361133 -0.08183751 -0.18864992 -0.0037119507 0.042998888 0.23934878 0.29061592
0.20664334 0.18896532 0.2311951 0.24584778 -0.32057682 0.3930038 -0.04077275 -0.15250634
-0.2507635 0.03503535 -0.021243736 0.47005484 -0.42433673 0.066921584 -0.093510486 0.04839469
0.25483698 -0.30179438 -0.070245564 -0.13451988 -0.046045206 0.023865521 0.010108253 -0.03284786
-0.37475404 -0.09666485 -0.17767878 0.13371868 0.06225609 0.13989313 -0.42303753 -0.34531736
-0.11077258 -0.036198266 0.043486506 -0.16953686 0.34511018 -0.18676509 -0.2392234 -0.27844667
-0.2337978 -0.18292464 -0.41365615 -0.47946617 -0.098059304 -0.35598353 0.39481032 -0.41581595
0.13806276 -0.17325942 0.15522446 0.2322172 -0.047051888 0.19815029 0.30997583 -0.5374258
-0.10234539 0.28285155 0.25444642 0.16106515 0.20334226 -0.122507215 -0.3390015 -0.30849802
0.20084953 -0.1427385 0.24590048 0.0033047597 -0.09667057 -0.059680335 -0.2646365 -0.16629468
-0.05960748 -0.015864138 -0.1181166 0.1305701 -0.11594005 -0.03832389 -0.19109814 0.23565029
0.05311322 0.13599998 -0.06413013 -0.23820512 -0.042615224 0.056651205 -0.11393385 0.118956216

att_src f4 [1, 1, 4]
00000000: 5878 8c3f 64a9 983f b13d fdbe 60cf 023c
1.0974226 1.1926694 -0.4946113 0.007984012

att_dst f4 [1, 1, 4]
00000000: 9c3b 5fbf 6497 5b3f f186 303e 1215 963f
-0.8720033 0.8577788 0.17238976 1.172518

bias f4 [4]
00000000: 1a48 65bc 5a95 acbc 6001 abbc e596 2dbc
-0.013994241 -0.02106731 -0.02087468 -0.010595058

weight f4 [4, 32]
00000000: aeb5 eebd b32b ce3e 9cb3 273e 66d8 67bd
00000010: 76f3 a93d 8200 133c 2cbc cd3e fcd6 923d
00000020: f708 5d3d 9251 e73d 695a c53e 7204 cfbe
00000030: c6fc f5be f406 10be 878f 93be b7f2 063e
00000040: 786d 383e 4822 f53c 1b86 ae3d 156f 6fbe
00000050: 3863 36bd cd13 36be 900e babe e119 4dbd
00000060: a1bd 19be cc2f 21be ce8b ab3e a74b 8a3d
00000070: 0832 553b 96ad 8dbe 7be9 d3be 1e3c 0ebe
00000080: d2be 333e c0f4 a63d 2ebb a43d 3649 aabe
00000090: 53bf a53e f260 8bbc dd0d 9f3e 0954 b6be
000000a0: 931f 283e 56d0 e63d 7cd6 c4be 6cf2 a5bd
000000b0: e2c4 a5bc 1dff b93e 47c6 b0bd d158 95be
000000c0: b378 c5be ed46 a63c 83cd 223e d726 bdbe
000000d0: 8b1a 2a3e 37da 353e 3d18 963e 06af 293e
000000e0: 1b7b 01be e740 5d3e 8cdd 2a3d 3f02 be3e
000000f0: 3719 febb e4d6 013e 0e57 7e3e 59d0 debe
00000100: 6cae d1be b548 0b3d 3914 423f 0c74 2a3f
00000110: beed ebbd 3343 8b3e 470f 1fbe d9c8 c6bd
00000120: c298 363d 64de 7ebe 72a5 083e beba a83d
00000130: 36c6 02be c003 13be caca d53e bcb3 273b
00000140: a5a8 15be b23d b43e 87d0 82be 973b 523e
00000150: 0698 f53c b0e1 063f 72ea e23e a88a 703d
00000160: a6f2 af3e 71a2 6ebe c902 fb3e c9be 993c
00000170: e3b9 9b3d 5ffa 37be 21ad 9abe ad0c 04bf
00000180: 4f50 cfbe ec59 a53e 910c d5ba 9cd3 8ebe
00000190: d036 123e 7edf b6be 9cd0 453d 527b 15be
000001a0: 1b82 593e 3ded 70bd 7cd2 8cbe d370 8bbe
000001b0: 749a 73be 7c5b 91be 6260 3fbe 47c7 96be
000001c0: 3420 a23e c92e 33be 6a97 a63e c895 bd3e
000001d0: 83fb a23e ed0d 423d f07f 513e e647 b1be
000001e0: 6244 8bbd c54c 1abe 78cd b93e 054a 433c
000001f0: dfe8 8b3d b3cd aa3e 8fcd 36be b8cb d2be
-0.116557464 0.40267715 0.1637711 -0.056602858 0.082983896 0.008972289 0.40182626 0.07169911
0.053963628 0.11294855 0.3854554 -0.4043308 -0.48044413 -0.14065152 -0.2882044 0.13178526
0.18010509 0.029923573 0.08521672 -0.23382218 -0.044528216 -0.17780991 -0.36339235 -0.05007351
-0.15013744 -0.1574089 0.335051 0.06752711 0.0032531042 -0.27671498 -0.4138907 -0.1389012
0.17553261 0.08152151 0.08043514 -0.3325898 0.3237253 -0.017014 0.31065264 -0.3561099
0.16418295 0.11270206 -0.3844489 -0.08102879 -0.020235483 0.36327448 -0.086315684 -0.29169324
-0.3856865 0.020297492 0.15898709 -0.36943695 0.16611688 0.17759024 0.29315367 0.16570672
-0.12644617 0.2160679 0.04171519 0.3711109 -0.0077544707 0.1267963 0.24837896 -0.43518332
-0.40953386 0.034004886 0.7581211 0.66583323 -0.11519955 0.27199706 -0.15533172 -0.097062774
0.044579275 -0.24889523 0.13344362 0.08238743 -0.12770924 -0.143569 0.41756278 0.0025589308
-0.14615114 0.3520332 -0.2554972 0.20530544 0.029979717 0.5268812 0.44319493 0.058725983
0.34364814 -0.23304154 0.49025562 0.018767731 0.076038145 -0.17966603 -0.30210212 -0.5158184
-0.40490958 0.32295167 -0.0016254355 -0.2789582 0.14278722 -0.35717386 0.04829465 -0.14597824
0.21241038 -0.058819998 -0.27504337 -0.27234516 -0.23789388 -0.2839011 -0.18689111 -0.29448912
0.31665194 -0.17498316 0.32537395 0.37028337 0.31832513 0.047376562 0.2045896 -0.34625167
-0.06800152 -0.15068348 0.36289573 0.011919503 0.06831526 0.3336006 -0.17851852 -0.4117105
