graph_classification_model_fold0.pt (torch, 98134 bytes, 10 tensors)

bias f4 [64]
0	0x00000000	0.0
1	0x00000000	0.0
2	0x00000000	0.0
3	0x00000000	0.0
4	0x3bb3d3b5	0.005487884
5	0x3b9eb677	0.004843529
6	0x3b69821e	0.0035630534
7	0xbb354fec	-0.0027666045
8	0xbaccbae7	-0.0015619666
9	0x3bf3f7ec	0.007445326
10	0x00000000	0.0
11	0x3bf12d44	0.0073601324
12	0x00000000	0.0
13	0x3ba89db2	0.005145752
14	0x00000000	0.0
15	0x00000000	0.0
16	0x00000000	0.0
17	0xbbd6c6a5	-0.006554442
18	0x00000000	0.0
19	0x00000000	0.0
20	0x00000000	0.0
21	0x00000000	0.0
22	0xbb948dd1	-0.0045335074
23	0x00000000	0.0
24	0x00000000	0.0
25	0x00000000	0.0
26	0x00000000	0.0
27	0x00000000	0.0
28	0xbb1d8a4b	-0.0024038728
29	0x00000000	0.0
30	0xba9c04ff	-0.0011903344
31	0xbb180895	-0.0023198475
32	0x3a2fb6ff	0.0006702989
33	0x3b2f4c4a	0.0026748353
34	0x3a9c5fb0	0.0011930373
35	0x3b8c449e	0.0042806407
36	0x00000000	0.0
37	0x00000000	0.0
38	0x3b07dce3	0.0020731024
39	0x00000000	0.0
40	0xbbcd9b40	-0.0062746108
41	0x00000000	0.0
42	0xbacf36fd	-0.0015809234
43	0x00000000	0.0
44	0x00000000	0.0
45	0x3b596781	0.0033173265
46	0x00000000	0.0
47	0x00000000	0.0
48	0x00000000	0.0
49	0x3ba8fc99	0.005157065
50	0x3bdc1371	0.006716185
51	0x00000000	0.0
52	0x00000000	0.0
53	0x00000000	0.0
54	0x00000000	0.0
55	0x39604a79	0.00021390048
56	0x00000000	0.0
57	0xbb814d28	-0.0039459653
58	0x3bc80cf7	0.006105061
59	0xbb9d183f	-0.00479415
60	0x3b157ae0	0.0022808835
61	0x3b885c4d	0.0041613937
62	0x00000000	0.0
63	0x00000000	0.0

weight f4 [64, 1]
0	0xbdb6f8e8	-0.08934194
1	0xbd76631c	-0.06015311
2	0xbde39980	-0.11113262
3	0xbe134d04	-0.14384848
4	0x3e769d42	0.24083427
5	0x3e93866d	0.28813496
6	0x3e0d5b87	0.13804446
7	0x3e8a5382	0.27016836
8	0x3dcffee0	0.101560354
9	0x3d60560a	0.054769553
10	0xbdf77bc0	-0.1208415
11	0x3e94f06a	0.2908967
12	0xbe5e2f9a	-0.21697846
13	0x3e6b14a6	0.22957096
14	0xbd1eeef8	-0.038802117
15	0xbdf5d434	-0.12003365
16	0xbabed700	-0.0014559925
17	0x3e38835c	0.1801886
18	0xbe89d0cf	-0.2691712
19	0xbe7130ed	-0.2355382
20	0xbd63c394	-0.05560644
21	0xbe9a2db5	-0.30112997
22	0x3d16802d	0.03674333
23	0xbe5c4752	-0.21511582
24	0xbe8b9fc0	-0.27270317
25	0xbdfcc250	-0.1234175
26	0xbe26b50b	-0.1628
27	0xbacd5a00	-0.0015667081
28	0x3e4e08e1	0.20120575
29	0xbd9786c6	-0.07398753
30	0x3d72de5e	0.059294097
31	0x3e0a298a	0.13492408
32	0x3da8c23f	0.082401745
33	0x3c904aef	0.017613856
34	0x3d4fd833	0.050743293
35	0x3e3b87be	0.183135
36	0xbe8ba2f1	-0.27272752
37	0xbdf7cabe	-0.12099217
38	0x3e8a92dc	0.2706517
39	0xbda33620	-0.07969308
40	0x3e3e6e3e	0.18596742
41	0xbe788dfb	-0.24272911
42	0x3d87bbbd	0.06627605
43	0xbc1186e0	-0.008882254
44	0xbe921b30	-0.28536367
45	0x3d9240a5	0.07141236
46	0xbd03f930	-0.032220066
47	0xbe96fb9f	-0.29488847
48	0xbdc197ca	-0.094527796
49	0x3e82cca6	0.2554676
50	0x3d8a9550	0.0676676
51	0xbe3dfb63	-0.18552928
52	0xbe208edb	-0.15679495
53	0xbe0df3eb	-0.13862579
54	0xbe213963	-0.15744548
55	0x3d6b3b35	0.05742951
56	0xbe120dd5	-0.14263089
57	0x3e595c99	0.2122673
58	0x3e2c5e07	0.16832744
59	0x3e5f3471	0.21797349
60	0x3bfbf619	0.0076892492
61	0x3e8eb184	0.2786981
62	0xbe823a12	-0.2543493
63	0xbe27da8b	-0.16391961

bias f4 [64]
0	0x00000000	0.0
1	0x3b10707d	0.0022039704
2	0xbb8b81b5	-0.0042574056
3	0x00000000	0.0
4	0x3bdc8dcd	0.006730771
5	0x00000000	0.0
6	0xbb8c67b5	-0.004284824
7	0x00000000	0.0
8	0xbaffe0cc	-0.0019521951
9	0x00000000	0.0
10	0x00000000	0.0
11	0x3bfc0256	0.007690708
12	0x00000000	0.0
13	0xbb250291	-0.0025178532
14	0xbac5d269	-0.0015092614
15	0x3b84389b	0.004035068
16	0x39d66936	0.0004089565
17	0x00000000	0.0
18	0x00000000	0.0
19	0x00000000	0.0
20	0x00000000	0.0
21	0xbb8fdd30	-0.0043903813
22	0x3ae47834	0.0017430843
23	0x00000000	0.0
24	0x3b9ee406	0.00484896
25	0xbba76d9e	-0.005109503
26	0x00000000	0.0
27	0x00000000	0.0
28	0x00000000	0.0
29	0x3b778ac2	0.0037771915
30	0xbbe624ad	-0.007023415
31	0x00000000	0.0
32	0x3a4e3e53	0.00078675634
33	0x3b3d90b6	0.0028925366
34	0x00000000	0.0
35	0xba3fd741	-0.0007318147
36	0xbbd5383a	-0.006506947
37	0x3b1cd031	0.0023927803
38	0xbb327d8a	-0.0027235472
39	0x3a92c88e	0.0011198686
40	0x00000000	0.0
41	0xbbb6f398	-0.005583238
42	0x39e4a26c	0.00043608563
43	0x3bf3a207	0.0074350866
44	0x00000000	0.0
45	0x00000000	0.0
46	0xbbc167ee	-0.005902282
47	0x00000000	0.0
48	0x3ab75cbb	0.0013989428
49	0x3b754034	0.0037422301
50	0x00000000	0.0
51	0x00000000	0.0
52	0x00000000	0.0
53	0x00000000	0.0
54	0x00000000	0.0
55	0xbb792a99	-0.0038019775
56	0xbbd28a7e	-0.006425201
57	0x00000000	0.0
58	0x3bf5aeef	0.0074976604
59	0x3bc4b8f2	0.0060034925
60	0x3bb130dd	0.0054074363
61	0xbbb91c2a	-0.0056491094
62	0x00000000	0.0
63	0x00000000	0.0

weight f4 [64, 64]
0	0xbe469482	-0.19392589
1	0xbd4ca6b8	-0.049963683
2	0x3ca3f048	0.020012036
3	0x3e4168af	0.1888759
4	0xbcbec818	-0.023288772
5	0xbe16087a	-0.14651671
6	0xbddb0c48	-0.10695702
7	0xbdcb7be3	-0.09935739
8	0xbd3c64fc	-0.045994744
9	0xbd569f98	-0.052398294
10	0x3e2a29b9	0.16617478
11	0xbe1d5fd0	-0.15368581
12	0x3ddf117a	0.10892005
13	0xbdeed57d	-0.116618134
14	0x3d2c356c	0.042043135
15	0x3ddeee1e	0.10885261
16	0x3ddb20c2	0.106996074
17	0x3d5a5f8c	0.053313777
18	0x3e5cb1ff	0.21552275
19	0x3d08b3d8	0.033374637
20	0x3e007f83	0.12548642
21	0xbe5274e5	-0.20552404
22	0x3de40386	0.111334845
23	0xbe1eb118	-0.15497243
24	0xbd08e698	-0.033423036
25	0xbc33ccf0	-0.010974154
26	0x3e5851b1	0.21124913
27	0xbe5919eb	-0.21201293
28	0xbc0dcf40	-0.008655369
29	0x3e44236b	0.19154136
30	0x3e38f7b3	0.1806324
31	0xbe2b1526	-0.16707286
32	0xbda62934	-0.081133276
33	0x3d9aa4ae	0.075509414
34	0x3e231c6f	0.15928815
35	0xbc0e5810	-0.008687988
36	0xbe596f86	-0.21233949
37	0x3d8544d6	0.0650727
38	0xbb80edc0	-0.003934592
39	0xbe2636b8	-0.16231811
40	0x3d20d3b4	0.039264396
41	0xbe4db388	-0.20088017
42	0x3e021b75	0.12705787
43	0xbe31125c	-0.1729216
44	0xbd99a1fc	-0.07501599
45	0x3d5bee1c	0.053693876
46	0x3e09fea5	0.13476045
47	0xbe40acfc	-0.18815988
48	0xbe3611d6	-0.17780241
49	0x3e5d8f49	0.2163669
50	0xbdd7bd06	-0.105341
51	0xbe4bf7f0	-0.199188
52	0xbe43cf6c	-0.19122094
53	0x3e4e36cd	0.20138092
54	0xbd6b0c40	-0.05738473
55	0x3e2f8c25	0.17143305
56	0xbe4c116a	-0.19928518
57	0xbd67dca0	-0.05660689
58	0x3e43c227	0.19117032
59	0xbe3ea8c0	-0.1861906
60	0xbd8f9bc8	-0.07012135
61	0x3e091055	0.13385136
62	0x3e238c9f	0.15971611
63	0x3d92fc46	0.071770236
64	0x3e0c3f15	0.13695939
65	0xbd971f50	-0.07379019
66	0xbdc3cd1a	-0.095606044
67	0x3e19bd23	0.15013556
68	0xbe4fbcff	-0.2028694
69	0xbc9a6b98	-0.018850133
70	0x3e5263e6	0.2054592
71	0x3db1ebc2	0.08687545
72	0xbb65af63	-0.0035047166
73	0xbd768139	-0.06018183
74	0x3c350380	0.011048198
75	0xbd49d772	-0.04927773
76	0xbe244b8d	-0.16044445
77	0xbd8a7ede	-0.06762479
78	0xbe5a564d	-0.21321984
79	0x3e48559d	0.19563909
80	0xbe52ab57	-0.20573173
81	0x3aaad2ab	0.0013032755
82	0x3d8b8812	0.06813063
83	0xbe5a8897	-0.21341167
84	0x3df3930a	0.1189328
85	0xbcb3c780	-0.021945715
86	0x3aa08879	0.0012247703
87	0x3c9fca10	0.01950553
88	0xbcc9ec58	-0.02464883
89	0x3d74c2c4	0.059756055
90	0x3dac748e	0.084206685
91	0xbe2e721f	-0.17035721
92	0xbd18ec27	-0.037334587
93	0xbe393fd6	-0.18090758
94	0xbdfc76d3	-0.123273514
95	0x3e0c4826	0.13699397
96	0xbe4161cb	-0.18884961
97	0xbcb36327	-0.021897865
98	0x3d61aded	0.05509751
99	0x3dd770ea	0.105195835
100	0x3d9aec22	0.0756457
101	0xbe518465	-0.20460661
102	0x3e5bde5a	0.21471539
103	0x3b941460	0.0045190305
104	0x3df68480	0.12036991
105	0x3d20293c	0.039101824
106	0x3e3efe94	0.18651801
107	0x3cee4028	0.029083326
108	0xbdbef4dc	-0.09324047
109	0x3e279b44	0.16367823
110	0x3cad35a0	0.021143734
111	0x3e3ca1b7	0.18421064
112	0xbe3af8ea	-0.18259016
113	0x3e2b4ac9	0.16727747
114	0xbd80e2fa	-0.06293292
115	0x3e2f9885	0.17148025
116	0xbe41410c	-0.1887247
117	0x3db038c6	0.08604579
118	0x3e3369e3	0.17520861
119	0x3d5c2059	0.053741787
120	0xbd1cd53c	-0.038289294
121	0x3e33d55e	0.17561862
122	0xbda29dfd	-0.0794029
123	0xbd9a68ed	-0.07539544
124	0x3e01d6e1	0.12679626
125	0x3e33f596	0.17574152
126	0xbdfc4160	-0.12317157
127	0xbe5971a3	-0.21234755
128	0x3d979c86	0.07402901
129	0xbca08fc8	-0.01959981
130	0xbdc6e3b7	-0.09711402
131	0xbe3ad98e	-0.18247053
132	0x3e3f1537	0.18660437
133	0xbd9912fe	-0.074743256
134	0xbd04b8dd	-0.032402862
135	0x3a66d331	0.00088052737
136	0xbe1ab4f9	-0.15108098
137	0x3e108cd6	0.14116225
138	0xbd928288	-0.07153803
139	0x3d42eb21	0.047587518
140	0x3d1aa954	0.03775914
141	0x3d6f1965	0.058373827
142	0x3e5750eb	0.21026962
143	0xbe00fa8d	-0.12595578
144	0xbded7464	-0.115944654
145	0x3df021ef	0.11725222
146	0xbcb42998	-0.02199249
147	0xbc3f3540	-0.011670411
148	0xbd04b4cc	-0.032398984
149	0x3ad8ba00	0.0016534925
150	0xbd31a64c	-0.043371484
151	0x3d58d30c	0.052935645
152	0xbe3c3180	-0.18378258
153	0xbcb73aa8	-0.022366837
154	0x3db93f36	0.0904526
155	0xbe22f2b6	-0.159129
156	0xbd9a6816	-0.07539384
157	0xbd94f60c	-0.07273492
158	0xbe006ef6	-0.12542328
159	0x3e29edfc	0.1659469
160	0xbb965f4f	-0.0045889984
161	0xbe00718d	-0.12543316
162	0x3e0357db	0.12826483
163	0x3b5e4058	0.0033912864
164	0xbdcc8d94	-0.099879414
165	0xbe54bc1d	-0.20774885
166	0x3c5acb73	0.01335417
167	0x3e442f41	0.19158651
168	0xbe3971d4	-0.18109828
169	0x3e29c735	0.16579898
170	0x3e1b6575	0.15175422
171	0x3d16228c	0.03665404
172	0xbe197ee2	-0.14989808
173	0x3ddfff0d	0.10937319
174	0x3e38bbf7	0.18040453
175	0xbda0d6b4	-0.07853451
176	0xbe0240d4	-0.12720042
177	0x3e3cd8d1	0.18442084
178	0x3cf462bc	0.029832236
179	0xbdf3f76c	-0.11912426
180	0x3b93cf80	0.00451082
181	0x3c7796c0	0.015111625
182	0xbe3f5251	-0.18683745
183	0xbdd66786	-0.10468964
184	0xbd5512c0	-0.052019835
185	0xbd1179fb	-0.03551672
186	0xbe2f2bf6	-0.17106614
187	0x3e467b1c	0.193829
188	0x3e482d32	0.1954849
189	0xbd930bee	-0.0718001
190	0xbe281d35	-0.16417392
191	0xbdd61d82	-0.10454847
192	0xbda663da	-0.08124514
193	0xbe260796	-0.16213831
194	0xbda40cdc	-0.08010265
195	0x3da7772e	0.081770286
196	0xbe16c894	-0.14724952
197	0xbdf916d8	-0.1216256
198	0xbe5ad4c6	-0.21370229
199	0xbc7bb620	-0.015363246
200	0xbca91990	-0.020642072
201	0x3e09d50f	0.13460182
202	0xbdee79e1	-0.1164434
203	0xbdd5bbfc	-0.10436246
204	0xbb021fc0	-0.001985535
205	0x3c411ba0	0.0117863715
206	0x3d0205d8	0.031743854
207	0xbdcf7df0	-0.101314425
208	0x3d069d9c	0.03286515
209	0x3da9816e	0.0827664
210	0xbe4462f0	-0.19178367
211	0x3d228a24	0.039682522
212	0x3e1d643f	0.15370272
213	0x3cdca100	0.02693224
214	0xbe5784bd	-0.2104673
215	0xbe24df36	-0.16100773
216	0xbe309cb4	-0.17247277
217	0xbe0f5536	-0.13997349
218	0x3ddf1aea	0.10893805
219	0xbda77bb2	-0.0817789
220	0xbd073c6c	-0.033016607
221	0x3da7e79a	0.08198471
222	0xbded21b7	-0.11578696
223	0xbe3ecccb	-0.1863281
224	0xbcc00398	-0.023439214
225	0x3dcc6b8a	0.09981449
226	0x3dd27d02	0.102777496
227	0x3c0be320	0.008538038
228	0xbd1b5804	-0.037925735
229	0xbe30b680	-0.17257118
230	0x3e4b6407	0.19862376
231	0x3d709864	0.05873908
232	0x3dcf151a	0.10111447
233	0x3e4718df	0.19443081
234	0xbe346564	-0.17616802
235	0xbde4e382	-0.11176206
236	0x3e4ad075	0.19806083
237	0xbceca748	-0.02888836
238	0x3dfc1302	0.12308313
239	0x3df325aa	0.11872418
240	0xbdfc1234	-0.123081595
241	0x3e07c3e5	0.13258322
242	0xbe05c9ca	-0.13065258
243	0xbe47fd98	-0.19530332
244	0x3e23d0ef	0.1599767
245	0xbe3866c2	-0.18007949
246	0x3e08a735	0.13345034
247	0xbce74050	-0.028228909
248	0xbd3c7120	-0.046006322
249	0x3dc0f8c6	0.0942245
250	0xbd87e712	-0.0663587
251	0x3e58d45d	0.2117476
252	0x3d251174	0.040299848
253	0xbdfc197f	-0.123095505
254	0x3d16f4bc	0.03685449
255	0x3cff89c8	0.031193629

bias f4 [64]
0	0x3ac6588a	0.0015132588
1	0x00000000	0.0
2	0x3bcbf880	0.006224692
3	0x00000000	0.0
4	0xbb217176	-0.0024634278
5	0x00000000	0.0
6	0xbb56cc24	-0.0032775486
7	0x00000000	0.0
8	0x00000000	0.0
9	0x00000000	0.0
10	0x00000000	0.0
11	0xb947a130	-0.00019038166
12	0x3bb5e242	0.0055506537
13	0x00000000	0.0
14	0xba82743b	-0.0009952852
15	0x00000000	0.0
16	0xbab49ce6	-0.001377967
17	0x00000000	0.0
18	0x3b945320	0.004526511
19	0xbbbaa246	-0.005695614
20	0x3bf77476	0.007551725
21	0xbb7c0f5e	-0.0038461308
22	0x3b1a0e62	0.0023507108
23	0x3b9f0a74	0.004853541
24	0x3bc6f3e3	0.006071554
25	0x00000000	0.0
26	0x00000000	0.0
27	0x3b9a63bc	0.0047115963
28	0x3b1b7369	0.0023719913
29	0x3adc2afc	0.0016797478
30	0x00000000	0.0
31	0x00000000	0.0
32	0x00000000	0.0
33	0xbacb105d	-0.0015492548
34	0x3b34f165	0.0027609703
35	0x00000000	0.0
36	0xbb4c7042	-0.003119484
37	0x3bb56d89	0.0055367392
38	0x00000000	0.0
39	0x00000000	0.0
40	0x00000000	0.0
41	0x00000000	0.0
42	0xbb8a2934	-0.0042163376
43	0x00000000	0.0
44	0x3b17c086	0.0023155524
45	0xbab405fc	-0.0013734694
46	0x3bcd7077	0.0062695104
47	0xbbddbfea	-0.0067672627
48	0x3be8cdd5	0.007104615
49	0xbbb21023	-0.0054340526
50	0x00000000	0.0
51	0xbb783d90	-0.003787849
52	0x00000000	0.0
53	0x00000000	0.0
54	0x3b949e24	0.0045354534
55	0x3a58e9aa	0.0008274565
56	0x3be5cd83	0.0070130243
57	0xba95bc25	-0.0011423869
58	0x00000000	0.0
59	0x3bd36f35	0.006452466
60	0xbb7dd085	-0.0038729024
61	0x00000000	0.0
62	0x399da09e	0.00030065043
63	0x00000000	0.0

weight f4 [64, 64]
0	0xbe504720	-0.20339632
1	0x3dad3a28	0.08458358
2	0x3e58e428	0.21180785
3	0x3d9611da	0.07327624
4	0xbe1c934e	-0.15290567
5	0x3d7f4a8c	0.062326953
6	0x3e16188a	0.14657798
7	0xbd9464aa	-0.07245763
8	0x3c8b44de	0.017000612
9	0x3e50fedb	0.2040972
10	0x3bd58520	0.006516114
11	0x3e34649c	0.17616504
12	0xbe1f3dbe	-0.15550897
13	0xbc47882b	-0.012178461
14	0x3abc43af	0.0014363433
15	0xbe155356	-0.14582571
16	0xbe338f87	-0.1753522
17	0x3d2685b4	0.040654853
18	0xbe4622e2	-0.19349244
19	0xbe219c44	-0.15782267
20	0x3e04caa5	0.12967928
21	0xbdb6c4f9	-0.08924288
22	0x3d95486b	0.07289203
23	0xbe51687b	-0.20450012
24	0xbe04a3fe	-0.12953183
25	0x3e335644	0.17513376
26	0xbe59b984	-0.21262175
27	0xbe1d9030	-0.15387034
28	0x3d267a1c	0.040643796
29	0x3e0a4a23	0.13504843
30	0x3e227bbe	0.15867516
31	0x3d2028fc	0.039101586
32	0xbe4cc7ca	-0.19998088
33	0xbdcfa8cf	-0.101396196
34	0x3db49e36	0.08819239
35	0x3d361ff9	0.044464085
36	0xbd2b98d0	-0.04189378
37	0xbd8ef06a	-0.06979449
38	0x3e080664	0.13283688
39	0x3e432706	0.19057855
40	0x3dc98d86	0.098414466
41	0x3d5e75c9	0.054311547
42	0xbdb7c251	-0.0897261
43	0xbe1c97b2	-0.15292242
44	0xbdeba178	-0.11505407
45	0x3e4d1a3f	0.20029543
46	0x3d67b820	0.05657208
47	0xbdb1927c	-0.08670518
48	0xbdd2927d	-0.10281847
49	0x3e36bfd2	0.17846611
50	0xbe1fdbfd	-0.15611263
51	0xbe3f7519	-0.18697013
52	0x3e16575b	0.14681761
53	0xbe2d7f8f	-0.16943191
54	0xbcc8b910	-0.024502307
55	0x3d3bba4f	0.045831975
56	0x3e2c7cc6	0.16844472
57	0xbe0c8876	-0.1372393
58	0x3e046f1f	0.12933014
59	0xbddcfedf	-0.107908
60	0x3d46c45f	0.048527118
61	0x3e1b0cbe	0.1514158
62	0x3df315f6	0.11869423
63	0x3de342fe	0.11096762
64	0xbe4b1618	-0.19832647
65	0xbe1706fb	-0.14748757
66	0xbe408e6c	-0.1880433
67	0x3caf0380	0.021363974
68	0xbe046712	-0.12929943
69	0xbd0fa1c8	-0.035066396
70	0xbe30f35a	-0.17280331
71	0xbe09ec16	-0.13468966
72	0x3e0cedc7	0.1376258
73	0xbdeeb205	-0.11655048
74	0xbcf20a00	-0.029545784
75	0xbda59674	-0.08085337
76	0xbe0718ee	-0.13193104
77	0x3ce5a420	0.028032362
78	0x3e4b8491	0.19874789
79	0x3e22842b	0.1587073
80	0x3d44470c	0.047919318
81	0xbdebbcf7	-0.115106516
82	0x3d6a6a4c	0.05723028
83	0xbd06a84c	-0.032875344
84	0x3d220d04	0.039563194
85	0xbddfdcb7	-0.1093077
86	0x3d73ede4	0.059553042
87	0xbe183e75	-0.14867575
88	0xbe4a9fa0	-0.19787455
89	0xbdda8312	-0.10669531
90	0xbd6a33b4	-0.057178214
91	0x3e2130fd	0.15741344
92	0x3df11afa	0.117727235
93	0xbdd09b67	-0.10185891
94	0xbe434370	-0.19068694
95	0x3e1c727f	0.15278052
96	0x3e49da85	0.19712265
97	0xbd9110ac	-0.07083258
98	0xbbf3a6a0	-0.0074356347
99	0x3deda866	0.11604385
100	0xbd1d8cf0	-0.038464487
101	0x3ddeaa5a	0.10872336
102	0xbdc9923f	-0.09842347
103	0x3e027cf9	0.12742986
104	0x3dc2e072	0.09515466
105	0xbe52702c	-0.20550603
106	0x3e55548f	0.20833038
107	0x3e16ec4b	0.14738576
108	0xbd325f14	-0.043547705
109	0xbdb0ed32	-0.086389914
110	0xbe1543fe	-0.14576718
111	0x3cae1060	0.021248043
112	0xbc26dcf0	-0.010184512
113	0xbd261570	-0.04054779
114	0x3e5636f5	0.20919402
115	0x3d88217a	0.0664701
116	0xbe54dc68	-0.20787203
117	0x3d6ab2bc	0.05729936
118	0x3cf2ddd0	0.029646784
119	0x3e0ddc93	0.13853674
120	0xbd96c1d0	-0.073611856
121	0x3df74cd6	0.12075202
122	0xbd8f43c2	-0.06995346
123	0xbd4cdf9c	-0.050017938
124	0xbdf7182c	-0.12065157
125	0xbe0ebd06	-0.13939294
126	0x3cc20be8	0.023687318
127	0x3cd04850	0.025425106
128	0xbe007094	-0.12542945
129	0x3e32d65b	0.17464583
130	0xbe51a725	-0.20473917
131	0xbd989f02	-0.07452203
132	0x3e44b33c	0.19208997
133	0xbd7e87c0	-0.06214118
134	0xbe15e634	-0.14638597
135	0x3bdd3de0	0.006751761
136	0x3d3db3c7	0.046314027
137	0x3dae6586	0.08515458
138	0x3db2c06e	0.08728109
139	0xbd8c9fa1	-0.06866384
140	0xbc3045e0	-0.010758847
141	0xbc46428c	-0.012100827
142	0x3e30ec9b	0.17277758
143	0x3e242483	0.16029553
144	0xbda7feed	-0.0820292
145	0x3e3dce65	0.18535765
146	0x3e2033df	0.15644787
147	0xbe1a681b	-0.15078776
148	0xbe1bfb84	-0.15232664
149	0x3dcfd996	0.10148923
150	0xbd2578bb	-0.04039834
151	0xbd8271d8	-0.0636937
152	0xbb67ba83	-0.0035358972
153	0x3db8254f	0.08991491
154	0x3e1c74b9	0.15278901
155	0x3e3c7561	0.18404151
156	0xbcbfb640	-0.023402333
157	0xbcbcc9e7	-0.023045493
158	0xbe44ba17	-0.19211613
159	0x3e106db3	0.14104347
160	0xbdc1fce2	-0.09472062
161	0xbc8c42e5	-0.017121742
162	0x3d6b1b64	0.05739917
163	0x3d9af00c	0.075653166
164	0xbe44d85f	-0.19223164
165	0x3dd844d0	0.1056
166	0x3dd58823	0.10426357
167	0x3e13693d	0.14395614
168	0xbe2b09b9	-0.16702928
169	0xbe4982d2	-0.1967881
170	0x3e605d8d	0.21910687
171	0xbdc45865	-0.095871724
172	0xbdc79614	-0.09745422
173	0x3d89841a	0.067146495
174	0xbd86b54e	-0.0657755
175	0x3dc37c2a	0.09545167
176	0x3c2772f2	0.010220276
177	0x3e13aa39	0.14420404
178	0x3bda5840	0.0066633523
179	0xbe5b4f68	-0.2141701
180	0x3dff893e	0.12477349
181	0xbe5500b8	-0.20801055
182	0xbdc622b3	-0.09674587
183	0x3debfc81	0.11522771
184	0xbe4dd00e	-0.20098898
185	0x3c2e2f50	0.010631397
186	0xbdeed817	-0.116623096
187	0x3d5096d0	0.050925076
188	0x3d5c0b4f	0.053721722
189	0x3e58ebaf	0.21183656
190	0x3df80a66	0.12111358
191	0xbe00c612	-0.12575558
192	0x3e19b6e5	0.15011175
193	0x3e4d3baf	0.20042299
194	0xbe1e7ac6	-0.15476522
195	0x3e4f72f1	0.2025869
196	0xbd8f4960	-0.06996417
197	0x3e04e23d	0.12976928
198	0xbb332c80	-0.0027339756
199	0x3e2750c3	0.16339402
200	0xbd447c90	-0.047970355
201	0xbe248d91	-0.16069628
202	0xbe3ac454	-0.18238956
203	0xbe31dbbd	-0.1736898
204	0x3dbdc19e	0.09265445
205	0xbd82a0aa	-0.063783005
206	0xbe220cf0	-0.15825248
207	0x3d1fa474	0.038975194
208	0x3cddc5b0	0.027071804
209	0xbc81bb28	-0.015836313
210	0xbd198a3c	-0.037485346
211	0x3e057055	0.13031133
212	0x3e4e1db5	0.2012852
213	0x3e50dd15	0.20396836
214	0x3d8e1b3a	0.06938787
215	0xbe0afaef	-0.13572286
216	0xbe0b4aba	-0.13602725
217	0xbb583500	-0.0032990575
218	0x3d9085f2	0.07056798
219	0xbc923b78	-0.017850623
220	0x3e5361d9	0.20642795
221	0x3e4d6377	0.20057474
222	0x3e229d81	0.15880395
223	0xbe03d93e	-0.1287584
224	0x3dbf4c9e	0.093407854
225	0x3d0681bc	0.032838568
226	0x39799400	0.00023801625
227	0xbd9bc77c	-0.07606408
228	0x3a707700	0.0009173006
229	0xbe4ff6c3	-0.20308976
230	0xbdcb8dab	-0.099391304
231	0xbe3a4ec6	-0.18194112
232	0xbd5d9f1c	-0.054106817
233	0xbe0d6e37	-0.13811575
234	0xbe4dcaca	-0.20096889
235	0xbd458300	-0.048220634
236	0xbdb15f8e	-0.08660804
237	0x3d6efe7c	0.058348164
238	0x3e4a239b	0.19740145
239	0xbb822240	-0.003971368
240	0xbbb4f0a0	-0.005521849
241	0x3d987a9e	0.07445262
242	0x3da9f066	0.082978055
243	0x3e33a365	0.17542799
244	0x3e2c83d9	0.16847171
245	0x3e193f6f	0.14965604
246	0x3cbff770	0.023433417
247	0x3d3ccebc	0.046095595
248	0x3e548cc9	0.2075683
249	0x3e397c61	0.18113853
250	0xbd456278	-0.04818961
251	0x3e38784f	0.18014644
252	0xbbcb04a0	-0.0061956197
253	0xbdbafdfc	-0.09130475
254	0xbe0e0809	-0.13870253
255	0xbd7c0824	-0.0615312

bias f4 [64]
0	0xbb4d29af	-0.0031305363
1	0x00000000	0.0
2	0x00000000	0.0
3	0x00000000	0.0
4	0x00000000	0.0
5	0x3bfd14e2	0.0077234367
6	0xbbf6b9bb	-0.007529465
7	0x3b9e239d	0.004826023
8	0x00000000	0.0
9	0xbb783d96	-0.0037878505
10	0x00000000	0.0
11	0x00000000	0.0
12	0x3aea715c	0.0017886567
13	0xbba4c5cf	-0.0050284634
14	0x3b29cffb	0.002591132
15	0x3bb84162	0.0056230286
16	0x3b3f2cec	0.0029171063
17	0x00000000	0.0
18	0xbb783d98	-0.003787851
19	0x00000000	0.0
20	0xbbcea9c7	-0.00630686
21	0x00000000	0.0
22	0x00000000	0.0
23	0x00000000	0.0
24	0x00000000	0.0
25	0x00000000	0.0
26	0x3b6e118d	0.003632638
27	0x00000000	0.0
28	0x3b2b7465	0.0026161906
29	0x00000000	0.0
30	0xbbc351b0	-0.0059606656
31	0xbb89deb4	-0.0042074565
32	0x00000000	0.0
33	0x3be44d0e	0.0069671934
34	0x3bd9c4d7	0.0066457796
35	0x00000000	0.0
36	0xbbc6b3de	-0.0060639223
37	0x00000000	0.0
38	0x00000000	0.0
39	0x00000000	0.0
40	0xbb7da371	-0.0038702155
41	0xbb15c6e0	-0.0022854134
42	0xbb920403	-0.0044560446
43	0xbbcabb9c	-0.0061869156
44	0x3ad58103	0.0016289059
45	0x00000000	0.0
46	0x3bf93599	0.0076052663
47	0x00000000	0.0
48	0x3b523d9a	0.0032080174
49	0x00000000	0.0
50	0x00000000	0.0
51	0x3bd5f6e9	0.006529678
52	0x00000000	0.0
53	0x3bd9f1db	0.006651146
54	0x00000000	0.0
55	0x00000000	0.0
56	0x3bf65adc	0.0075181555
57	0x00000000	0.0
58	0x00000000	0.0
59	0x00000000	0.0
60	0x3bec2897	0.007206987
61	0x3be9d68e	0.0071361726
62	0x00000000	0.0
63	0x00000000	0.0

weight f4 [64, 64]
0	0x3e3815a8	0.17977011
1	0x3d505d0c	0.050869986
2	0x3da9e9ec	0.0829657
3	0xbdf581c7	-0.11987644
4	0xbd609c72	-0.054836698
5	0x3daa0272	0.08301248
6	0xbded63f0	-0.11591327
7	0xbe185a82	-0.14878276
8	0xbde5d150	-0.11221564
9	0xbdfae855	-0.12251345
10	0x3d38198c	0.04494624
11	0x3d74e54f	0.059789
12	0x3e24f1e5	0.161079
13	0x3e58ee3d	0.2118463
14	0xbd9c2276	-0.076237604
15	0x3d5baadc	0.05362974
16	0xbc054ce7	-0.008136011
17	0x3dd88716	0.105726406
18	0xbe4c05b6	-0.19924054
19	0x3e30ade4	0.17253834
20	0x3dba9fe2	0.091125265
21	0xbb117b3c	-0.0022198698
22	0x3e12ba2b	0.1432883
23	0x3cfa1a0b	0.030529996
24	0x3e53ae8f	0.20672058
25	0xbe267d9f	-0.16258858
26	0xbe3e9bb1	-0.18614079
27	0xbe26e2bc	-0.1629743
28	0xbd9339f6	-0.071887895
29	0xbe2c516e	-0.16827938
30	0xbdf8af1f	-0.12142777
31	0x3e559857	0.20858894
32	0xbe122ef6	-0.14275727
33	0xbdf17182	-0.11789228
34	0xbe4fd68b	-0.20296685
35	0x3d62b294	0.055346087
36	0xbc89eb93	-0.016835963
37	0x3e538a53	0.20658235
38	0xbe156082	-0.14587596
39	0xbe34d5ac	-0.17659634
40	0xbe35f2be	-0.1776838
41	0x3d4ad6a4	0.049521104
42	0xbe20e3c8	-0.15711892
43	0xbe5cd853	-0.21566896
44	0xbbfd21c3	-0.007724972
45	0x3d3ac61a	0.04559908
46	0x3e24b049	0.16082872
47	0x3e3a911f	0.18219422
48	0xbe5f6d87	-0.21819125
49	0x3ddc74bf	0.10764455
50	0x3e23558b	0.15950601
51	0x3d424b04	0.04743482
52	0xbe302d74	-0.17204839
53	0x3dde4902	0.10853769
54	0x3b669424	0.0035183514
55	0x3e3f8056	0.187013
56	0x3e1385d7	0.14406525
57	0x3d0e50eb	0.03474514
58	0x3e4d3a57	0.20041786
59	0x3ba7f0d7	0.005125146
60	0xbdbcf217	-0.092258625
61	0xbdfbc94c	-0.12294254
62	0xbdfb97eb	-0.122848354
63	0xbdd00f33	-0.10159149
64	0xbd264084	-0.04058887
65	0xbd500200	-0.050783157
66	0x3da9ea1a	0.082966045
67	0xbcbb17a8	-0.022838429
68	0xbe46de34	-0.19420701
69	0x3c4c63f0	0.012474999
70	0xbe088a1c	-0.13333935
71	0x3e4a4b7f	0.19755362
72	0xbd4cce20	-0.050001264
73	0x3dde7e56	0.108639404
74	0xbdac31c2	-0.08407928
75	0x3c4409a0	0.011965185
76	0xbe4c3107	-0.19940577
77	0x3dabdc3a	0.08391614
78	0xbbe3fee0	-0.0069578737
79	0x3e0b7ddd	0.13622232
80	0x3e39c3cd	0.18141098
81	0xbe210889	-0.15725912
82	0xbe40aa4a	-0.1881496
83	0xbd2af0d4	-0.041733578
84	0xbb2f8000	-0.0026779175
85	0x3d166134	0.036713794
86	0xbe0097de	-0.12557933
87	0x3e52dbe1	0.2059169
88	0xbe3ce6d6	-0.18447432
89	0x3ba2e4e0	0.0049711317
90	0x3e45997f	0.19296835
91	0xbe53077c	-0.20608324
92	0x3e071903	0.13193135
93	0xbde5a626	-0.11213331
94	0x3d00f328	0.031481892
95	0xbe1a3eac	-0.1506297
96	0xbda86838	-0.08223003
97	0xbd4efd5c	-0.05053459
98	0xbd079954	-0.03310521
99	0xbd936804	-0.07197574
100	0x3dac986a	0.08427508
101	0xbe0d5864	-0.1380325
102	0x3ddebb9a	0.10875626
103	0x3dd95f56	0.10613887
104	0xbc99cbc8	-0.018773928
105	0x3ddc591e	0.10759185
106	0x3e09b2a7	0.13447057
107	0xbe4cab09	-0.1998712
108	0xbde2ccb6	-0.11074202
109	0xbdf6c521	-0.12049318
110	0xbd8c5e7a	-0.068539575
111	0xbda72df6	-0.08163063
112	0xbd5abd58	-0.05340323
113	0xbe2a7714	-0.16646987
114	0x3e31abc3	0.17350678
115	0xbace4280	-0.0015736371
116	0xbdb7370a	-0.08946045
117	0x3bc004a0	0.0058599263
118	0x3d134e64	0.03596343
119	0xbcb41778	-0.021983847
120	0xbd02d67c	-0.03194283
121	0xbe4861fa	-0.19568625
122	0x3d91d30a	0.07120331
123	0x3cd861a0	0.026413739
124	0x3d8c5de2	0.06853844
125	0xbe1f3dbb	-0.15550892
126	0x3e153545	0.14571102
127	0x3df1914a	0.1179529
128	0x3d5cee74	0.053938344
129	0xbd637414	-0.055530623
130	0x3ddc879a	0.107680514
131	0x3e30e25d	0.1727385
132	0xbcea1078	-0.028572306
133	0x3e051273	0.12995319
134	0xbe5138c8	-0.20431817
135	0x3e599647	0.21248733
136	0xbdb72caa	-0.08944066
137	0xbe58994c	-0.21152228
138	0xbdf6ce35	-0.120510496
139	0x3bad83c0	0.005295247
140	0xbe4352a2	-0.1907449
141	0xbe4ccea5	-0.20000704
142	0x3e545e27	0.20739041
143	0x3df5382e	0.11973606
144	0x3d8b1936	0.06791918
145	0x3d8b4272	0.06799783
146	0xbe003bea	-0.12522855
147	0xbe3da142	-0.18518546
148	0xbdfb43e0	-0.122688055
149	0x3d9cddda	0.07659502
150	0xbe3dc07b	-0.18530457
151	0xbe316656	-0.17324194
152	0x3e2e99e5	0.17050894
153	0x3c0e7fd0	0.008697465
154	0x3d82da7a	0.06389327
155	0x3d64f9dc	0.055902347
156	0xbdedb6af	-0.1160711
157	0xbdacbc18	-0.084343135
158	0xbbd23ea0	-0.006416157
159	0x3db5b76a	0.08872874
160	0xbd00d224	-0.031450406
161	0xbe25a262	-0.16175225
162	0x3dedd52a	0.116129234
163	0x3d181b7c	0.037135586
164	0x3ced28a8	0.02895005
165	0x3e53ee5d	0.20696397
166	0xbe0cef60	-0.1376319
167	0x3d2e928c	0.042620227
168	0x3d11ffc4	0.035644308
169	0x3e1e26ef	0.1544454
170	0xbdd89aa9	-0.10576374
171	0x3d489b9c	0.048976526
172	0x3c956dd8	0.018240854
173	0x3d9d81de	0.07690786
174	0x3db28676	0.08717053
175	0xbd88ccee	-0.06679712
176	0x3d17ac44	0.03702952
177	0xbdac5090	-0.084138036
178	0xbe2121f2	-0.15735605
179	0xbdaa1522	-0.08304812
180	0x3e5b3f6f	0.21410917
181	0x3e32c197	0.17456661
182	0x3d121dec	0.035673067
183	0x3e2cf443	0.16890053
184	0xbe46dc1e	-0.19419906
185	0xbd2b4830	-0.04181689
186	0xbdc93919	-0.09825344
187	0x3e4471a3	0.19183974
188	0xbd8e1fb0	-0.06939638
189	0xbd0291c4	-0.031877294
190	0xbdb9e152	-0.090761796
191	0xbdadecb8	-0.08492416
192	0x3de46672	0.111523524
193	0xbe126865	-0.14297636
194	0xbe354bba	-0.17704669
195	0xbd1da528	-0.038487583
196	0x3e42f7f5	0.190399
197	0x3d8965b6	0.06708853
198	0xbdbe9e2a	-0.09307511
199	0xbdb8c5c0	-0.09022093
200	0xbddd2bb6	-0.10799353
201	0x3e4b5791	0.19857623
202	0xbde78add	-0.11305783
203	0xbe17196e	-0.14755794
204	0xbdb745bc	-0.08948848
205	0x3db18d4a	0.08669527
206	0xbdf2fe06	-0.118648574
207	0xbda7bc92	-0.08190264
208	0xba36c200	-0.0006971657
209	0x3e08cbf5	0.13359053
210	0xbd6f0ba0	-0.058360696
211	0x3ce12740	0.027484536
212	0xbdc100f8	-0.09424013
213	0xbdb649d8	-0.08900803
214	0xbe0c1ec0	-0.13683605
215	0xbdaa9f54	-0.08331171
216	0x3e50c00d	0.20385762
217	0xbdff91cf	-0.12478983
218	0x3e3d00e9	0.18457378
219	0xbd97b7f0	-0.0740813
220	0xbdea2fe5	-0.114349164
221	0xbe09c7ce	-0.13455126
222	0x3e1e65cd	0.15468521
223	0x3e22a1e9	0.15882076
224	0xbdcc5480	-0.099770546
225	0xbe3485b3	-0.17629127
226	0xbc2f0c90	-0.0106841475
227	0xbe211884	-0.15732008
228	0x3dc50916	0.09620874
229	0x3dec0526	0.115244195
230	0xbb1ca2c0	-0.0023900717
231	0x3e02c403	0.12770085
232	0xbdef8a7d	-0.116963364
233	0xbdb43a8e	-0.08800231
234	0xbd2426d4	-0.040076092
235	0xbc074070	-0.008255109
236	0xbdbe4f6f	-0.092924945
237	0x3e596605	0.21230324
238	0xbd717cd0	-0.05895692
239	0x3cc8ec48	0.02452673
240	0x3e515c6f	0.20445417
241	0x3e09881b	0.13430826
242	0x3c404170	0.0117343515
243	0x3e058159	0.13037623
244	0xbddd398e	-0.10801993
245	0x3d8b754a	0.068094805
246	0x3dd15b9e	0.10222553
247	0xbe127d4d	-0.14305611
248	0x3dff6cda	0.12471934
249	0x3e11e705	0.14248283
250	0xbe2b2bb8	-0.16715896
251	0xbe07a4aa	-0.13246408
252	0x3e0efe31	0.13964154
253	0xbd7513c8	-0.059833318
254	0xbd5c7394	-0.05382116
255	0x3e51dae5	0.20493658

bias f4 [5]
0	0x3b19f32e	0.0023490894
1	0xbbc14b20	-0.005898848
2	0x3b947ba5	0.004531341
3	0x3be63433	0.0070252656
4	0xbbf8ebe0	-0.007596478

weight f4 [5, 64]
0	0xbe0751af	-0.13214754
1	0x3d0900f8	0.03344819
2	0x3e6cfe04	0.23143774
3	0xbe67e8a8	-0.22647345
4	0xbcc38310	-0.023866206
5	0x3de127e1	0.109939344
6	0xbe01f69c	-0.1269173
7	0xbdb7ec4a	-0.089806154
8	0x3e3d5432	0.18489149
9	0x3e5671b5	0.20941813
10	0xbe455cd2	-0.1927369
11	0x3c730040	0.014831603
12	0xbe8a9186	-0.2706415
13	0xbe7f5ae8	-0.24937022
14	0xbe714c61	-0.23564292
15	0x3e573128	0.21014845
16	0xbe4c2192	-0.19934681
17	0x3e661b2c	0.22471303
18	0x3db65c1a	0.08904286
19	0xbbb105c0	-0.005402297
20	0x3d1d7912	0.03844554
21	0x3e7db4f4	0.2477606
22	0xbe5a7be2	-0.2133632
23	0xbe2d0c30	-0.1689918
24	0xbdab34ee	-0.08359705
25	0x3e7cdc74	0.24693471
26	0xbe1f4a4e	-0.15555689
27	0xbe43ac1a	-0.1910862
28	0x3e8cd229	0.2750409
29	0x3dbc8230	0.09204519
30	0xbde880ee	-0.113527164
31	0xba860927	-0.0010226116
32	0x3e64aa90	0.2233069
33	0x3e36bf5e	0.17846438
34	0x3d1ee898	0.038796037
35	0x3e750c10	0.23930383
36	0xbde1b6b2	-0.110211745
37	0xbba61300	-0.005068183
38	0x3e59dfa8	0.21276724
39	0xbe25d30b	-0.16193788
40	0xbdd79c8a	-0.10527904
41	0xbe600028	-0.2187506
42	0x3da818a6	0.08207826
43	0x3d0a4025	0.03375258
44	0x3dc3c0b5	0.0955824
45	0xbe3bbe40	-0.18334293
46	0x3dc11c82	0.094292656
47	0x3e7ed3b4	0.24885446
48	0xbda35375	-0.079749025
49	0xbd88b2f2	-0.06674756
50	0x3e32c3a6	0.17457446
51	0x3e7a374c	0.24435157
52	0xbe6012e2	-0.21882203
53	0x3e52d2f9	0.20588292
54	0xbe8eae10	-0.27867174
55	0xbd39b734	-0.04534073
56	0x3e832013	0.25610408
57	0xbe8ceefa	-0.27526075
58	0xbe594dd7	-0.212211
59	0x3de11090	0.10989487
60	0x3da5cb77	0.080954485
61	0x3dca69e2	0.09883477
62	0xbe396cbc	-0.18107885
63	0x3e5f60a8	0.21814215
64	0x3e2db90e	0.16965124
65	0xbdeb0192	-0.11474909
66	0x3da60980	0.08107281
67	0xbd66773c	-0.056266055
68	0x3c0ade00	0.0084757805
69	0xbd150694	-0.036383227
70	0xbcc463c5	-0.023973355
71	0xbe89ccbe	-0.26914018
72	0x3c0d6420	0.008629829
73	0x3bc9928a	0.006151502
74	0xbe944b69	-0.28963783
75	0xbe2ddd18	-0.16978872
76	0x3e937498	0.2879989
77	0x3e1004e4	0.14064366
78	0x3e1423c3	0.14466767
79	0x3e8317e1	0.25604156
80	0xbb84e9e6	-0.004056203
81	0xbd62ae78	-0.055342168
82	0x3e7a492a	0.24441972
83	0xbe33ca25	-0.17557581
84	0x3e47830e	0.19483587
85	0xbe4918fb	-0.19638436
86	0xbe48deea	-0.19616285
87	0x3e928df2	0.2862392
88	0xbe6db212	-0.2321246
89	0x3ddfb1f4	0.10922614
90	0xbe90683f	-0.28204533
91	0xbd70a3e8	-0.058750063
92	0xbe340fd0	-0.17584157
93	0x3e80d2fc	0.25160968
94	0x3d65c75f	0.05609834
95	0x3e80b446	0.25137538
96	0xbd5ed368	-0.05440083
97	0x3de7e27c	0.11322495
98	0x3e6040eb	0.21899764
99	0x3d50c0d8	0.05096516
100	0x3e0a6163	0.13513713
101	0x3e54eeb4	0.20794183
102	0xbdbb1d12	-0.09136404
103	0xbe7504ff	-0.23927687
104	0x3e02ad0f	0.12761329
105	0x3e286863	0.1644607
106	0x3c3c2e1e	0.011485605
107	0x3e42a002	0.1900635
108	0xbde95215	-0.11392609
109	0x3d9501d0	0.07275736
110	0xbdefb65f	-0.117047064
111	0xbda92236	-0.08258478
112	0x3e48a6f8	0.19594944
113	0xbd86c6da	-0.06580897
114	0x3ddcd4e8	0.10782796
115	0x3dcd025a	0.10010214
116	0xbc5c9320	-0.013462812
117	0x3e7b5c8e	0.24547026
118	0xbc8c0710	-0.017093211
119	0xbe0354c4	-0.12825304
120	0x3e6cc973	0.23123722
121	0x3daa43f8	0.08313745
122	0x3e69b554	0.22823077
123	0xbe3f7694	-0.18697578
124	0x3db44b48	0.08803421
125	0xbda82f94	-0.082122
126	0xbd6617f0	-0.056175172
127	0xbd6d0d4c	-0.05787401
128	0x3e8d46c0	0.2759304
129	0x3b8dbc80	0.0043254495
130	0xbe1829f8	-0.1485976
131	0x3e196d1e	0.14983031
132	0xbe0bfdd7	-0.13671051
133	0x3d6825f3	0.056676816
134	0xbe02c5ec	-0.12770814
135	0x3e021d93	0.12706594
136	0xbdd27df2	-0.102779284
137	0x3dc06370	0.09393966
138	0x3d6779c8	0.056512624
139	0x3e925ab6	0.28584832
140	0x3ad484bc	0.0016213874
141	0xbe21ca9e	-0.15799949
142	0x3bbad409	0.005701546
143	0x3e03c672	0.1286867
144	0x3e8b4228	0.2719891
145	0x3d3cebc0	0.046123266
146	0x3dfc2f44	0.12313703
147	0x3ca5dbd0	0.020246416
148	0xbe34f659	-0.17672099
149	0x3ce588a0	0.02801925
150	0xbe7ba462	-0.24574426
151	0xbe4c5780	-0.19955254
152	0xbdc76dce	-0.097377405
153	0xbe3cb775	-0.18429358
154	0xbd86a1eb	-0.06573852
155	0xbe666156	-0.22498068
156	0x3d31e3ce	0.043430142
157	0x3ddc65b8	0.10761589
158	0xbe03f3c9	-0.12885965
159	0x3e6c6498	0.23085248
160	0xbdb2db54	-0.0873324
161	0x3e6b0d75	0.22954352
162	0x3d7a17d4	0.06105788
163	0x3df9e608	0.12202078
164	0xbe87cbc8	-0.2652266
165	0xbe0b5e3c	-0.13610166
166	0xbdc6d8d6	-0.09709327
167	0x3da9a268	0.0828293
168	0xbc528e70	-0.012851343
169	0xbdf8703d	-0.12130783
170	0x3e33d896	0.1756309
171	0xbe70352f	-0.23457788
172	0xbe1ac65d	-0.15114732
173	0x3dd649fc	0.1046333
174	0x3e954a63	0.29158315
175	0x3e67eab0	0.2264812
176	0xbd07e587	-0.03317788
177	0x3e3ca50a	0.18422332
178	0x3e841954	0.25800574
179	0x3e872b3e	0.2640018
180	0xbe143ae3	-0.14475589
181	0x3e07ce24	0.1326223
182	0xbe32c80c	-0.17459124
183	0x3e175486	0.14778337
184	0x3c94d65a	0.018168617
185	0xbc796f80	-0.015224338
186	0x3e24055e	0.16017672
187	0xbe14b4d5	-0.14522107
188	0x3e2cb4d5	0.16865857
189	0x3e359c11	0.17735316
190	0xbcbba480	-0.022905588
191	0x3e3ced38	0.18449867
192	0xbdadb48b	-0.084817015
193	0x3db8b714	0.090192944
194	0x3e913fd6	0.28369015
195	0x3d8fce80	0.070218086
196	0xbe0e2043	-0.13879494
197	0x3d831b48	0.06401688
198	0x3cd6201b	0.026138356
199	0x3e6c6f5a	0.23089352
200	0x3d22ce18	0.039747328
201	0xbe739855	-0.23788579
202	0xbbcbab80	-0.0062155128
203	0xbdb5e78c	-0.08882055
204	0x3defe945	0.117144145
205	0x3dedfc3d	0.11620376
206	0x3e15c5b8	0.14626205
207	0x3e97339a	0.29531556
208	0xbc5593bd	-0.013035712
209	0xbe80daed	-0.25167027
210	0xbdd033be	-0.10166119
211	0x3d9fd4f8	0.078042924
212	0xbe8f284c	-0.27960432
213	0xbe435b5f	-0.19077824
214	0x3cd26490	0.025682718
215	0xbe8c059b	-0.27348027
216	0xbe79f75b	-0.24410765
217	0x3e8bad50	0.27280664
218	0x3e8752ad	0.26430264
219	0x3e461872	0.19345263
220	0xbe43cf4c	-0.19122046
221	0x3e6ccea0	0.23125696
222	0xbe025b80	-0.12730217
223	0x3bac0644	0.0052497704
224	0xbe34b641	-0.1764765
225	0x3c8a63f0	0.016893357
226	0x3e7abb05	0.24485405
227	0xbe30d2a7	-0.17267857
228	0xbded5923	-0.11589267
229	0xbe623a5e	-0.22092578
230	0x3d7ba638	0.061437815
231	0x3e162c78	0.14665401
232	0xbe72ef7b	-0.23724167
233	0xbe0dce4e	-0.1384823
234	0xbe604e5e	-0.21904895
235	0xbe8bd8ba	-0.27313787
236	0x3e92d55e	0.2867841
237	0xbe1b019d	-0.15137334
238	0x3e42fa92	0.19040897
239	0x3db5bb74	0.088736445
240	0x3cfc37f2	0.030788396
241	0x3e86f64a	0.2635978
242	0x3e8b605c	0.27221954
243	0x3db9c3ba	0.09070535
244	0xbe18c93f	-0.1492052
245	0x3e94b30b	0.2904285
246	0x3cc2ae20	0.02376467
247	0xbe8b141d	-0.27163783
248	0x3e8bab69	0.27279213
249	0x3e0bc646	0.13649854
250	0x3d4278d0	0.047478497
251	0xbe8051a4	-0.25062287
252	0x3e14b165	0.14520796
253	0xbe249caf	-0.16075395
254	0x3e96aae4	0.29427254
255	0xbd89eaac	-0.06734213
