graph_classification_model.pt (torch, 113410 bytes, 10 tensors)

bias f4 [64]
0	0x00000000	0.0
1	0x00000000	0.0
2	0x00000000	0.0
3	0x00000000	0.0
4	0x3a322bda	0.00067966955
5	0x3d4cca30	0.04999751
6	0xbc164bb5	-0.009173323
7	0x3d3517e7	0.04421225
8	0x3d39bdbe	0.045346968
9	0x3d20f961	0.039300326
10	0x00000000	0.0
11	0xbc941545	-0.018076548
12	0x00000000	0.0
13	0x3d1ec98a	0.03876642
14	0x00000000	0.0
15	0x00000000	0.0
16	0x00000000	0.0
17	0x3d247c07	0.040157344
18	0x00000000	0.0
19	0x00000000	0.0
20	0x00000000	0.0
21	0x00000000	0.0
22	0x3d14bcda	0.036312915
23	0x00000000	0.0
24	0x00000000	0.0
25	0x00000000	0.0
26	0x00000000	0.0
27	0x00000000	0.0
28	0x3cfce8cf	0.03087273
29	0x00000000	0.0
30	0x3d3dd3df	0.046344634
31	0x3d0bf978	0.03417346
32	0xbc9bd6bc	-0.019023292
33	0xbbc4ff71	-0.0060118963
34	0xbbbea201	-0.005817652
35	0x3d3b9c26	0.04580321
36	0x00000000	0.0
37	0x00000000	0.0
38	0xbb422e20	-0.0029629543
39	0x00000000	0.0
40	0x3d4aa136	0.04947015
41	0x00000000	0.0
42	0x3d4985cd	0.049199868
43	0x00000000	0.0
44	0x00000000	0.0
45	0x3d526926	0.05136981
46	0x00000000	0.0
47	0x00000000	0.0
48	0x00000000	0.0
49	0x3d20a1bc	0.039216742
50	0xbbe2a7a9	-0.0069169593
51	0x00000000	0.0
52	0x00000000	0.0
53	0x00000000	0.0
54	0x00000000	0.0
55	0x3d423b95	0.047420103
56	0x00000000	0.0
57	0x3d522fe0	0.05131519
58	0x3c222162	0.009895654
59	0xbcc4b8fd	-0.02401399
60	0xbbc4c9cd	-0.006005502
61	0x3d2d6a08	0.042337447
62	0x00000000	0.0
63	0x00000000	0.0

weight f4 [64, 1]
0	0xbdb6f8e8	-0.08934194
1	0xbd76631c	-0.06015311
2	0xbde39980	-0.11113262
3	0xbe134d04	-0.14384848
4	0x3e71ad95	0.23601373
5	0x3e97a591	0.29618505
6	0x3e464439	0.19361962
7	0x3e8f6f46	0.28014582
8	0x3dd365ed	0.10322175
9	0x3d361cb9	0.044460986
10	0xbdf77bc0	-0.1208415
11	0x3e98b8f9	0.29828623
12	0xbe5e2f9a	-0.21697846
13	0x3e6c7beb	0.23094146
14	0xbd1eeef8	-0.038802117
15	0xbdf5d434	-0.12003365
16	0xbabed700	-0.0014559925
17	0x3e394527	0.18092786
18	0xbe89d0cf	-0.2691712
19	0xbe7130ed	-0.2355382
20	0xbd63c394	-0.05560644
21	0xbe9a2db5	-0.30112997
22	0x3ca0b7e6	0.01961894
23	0xbe5c4752	-0.21511582
24	0xbe8b9fc0	-0.27270317
25	0xbdfcc250	-0.1234175
26	0xbe26b50b	-0.1628
27	0xbacd5a00	-0.0015667081
28	0x3e3e5919	0.18588676
29	0xbd9786c6	-0.07398753
30	0x3d4ead43	0.050458204
31	0x3df4bb90	0.11949837
32	0x3dd98797	0.10621565
33	0x3c113997	0.008863828
34	0x3d355bb2	0.0442769
35	0x3e27c2db	0.16382925
36	0xbe8ba2f1	-0.27272752
37	0xbdf7cabe	-0.12099217
38	0x3ed8e859	0.42364767
39	0xbda33620	-0.07969308
40	0x3e4a8830	0.19778514
41	0xbe788dfb	-0.24272911
42	0x3d88253d	0.06647728
43	0xbc1186e0	-0.008882254
44	0xbe921b30	-0.28536367
45	0x3d95e900	0.07319832
46	0xbd03f930	-0.032220066
47	0xbe96fb9f	-0.29488847
48	0xbdc197ca	-0.094527796
49	0x3e860cd6	0.26181668
50	0x3d575391	0.05256993
51	0xbe3dfb63	-0.18552928
52	0xbe208edb	-0.15679495
53	0xbe0df3eb	-0.13862579
54	0xbe213963	-0.15744548
55	0x3d7adaf9	0.061243985
56	0xbe120dd5	-0.14263089
57	0x3e5752db	0.210277
58	0x3e03807f	0.12841986
59	0x3e9a59b8	0.30146575
60	0xba1bf344	-0.000594903
61	0x3e8b5213	0.27211055
62	0xbe823a12	-0.2543493
63	0xbe27da8b	-0.16391961

bias f4 [64]
0	0x3d20917d	0.03920125
1	0x3d47d212	0.048784323
2	0xbbc79927	-0.006091255
3	0x00000000	0.0
4	0x3d5315bb	0.051534396
5	0x3d05a35a	0.032626487
6	0xbbf9762b	-0.0076129637
7	0x00000000	0.0
8	0x00000000	0.0
9	0x3d383845	0.044975538
10	0x3d4540db	0.048157554
11	0x3d57b0a9	0.05265871
12	0x00000000	0.0
13	0x3d44d6fa	0.04805658
14	0x3c974fd6	0.018470686
15	0xbb7fd307	-0.0039035694
16	0xbae62ebf	-0.0017561539
17	0x3d84f335	0.064917006
18	0xbb7fea79	-0.0039049669
19	0x00000000	0.0
20	0xbbe108de	-0.006867512
21	0xbc57a016	-0.013160726
22	0x3d3926b7	0.045202937
23	0xbc0f8b43	-0.00876123
24	0x3d61be80	0.055113316
25	0xbbc8dbc1	-0.0061297123
26	0x00000000	0.0
27	0x00000000	0.0
28	0x00000000	0.0
29	0xbbdffa71	-0.006835275
30	0x3d832b45	0.064047374
31	0xbce3dd4f	-0.02781549
32	0xbbd40a45	-0.006470951
33	0x3d260e04	0.04054071
34	0x00000000	0.0
35	0x3d829787	0.06376558
36	0xbc693ba7	-0.014235414
37	0x3d06e389	0.03293184
38	0x3d731e48	0.05935505
39	0x3ba5503b	0.0050449646
40	0x3d5d2374	0.05398889
41	0xbbd7c6bd	-0.0065849707
42	0x3d8692a2	0.06570937
43	0x3d7b44a2	0.06134475
44	0xbbe13455	-0.0068726935
45	0x00000000	0.0
46	0xbbf66b39	-0.007520106
47	0x00000000	0.0
48	0xbc093666	-0.008374786
49	0x3d88ad0e	0.066736326
50	0x00000000	0.0
51	0x3d29eebe	0.041487448
52	0x00000000	0.0
53	0xbc6c0582	-0.01440561
54	0x3d53ea98	0.051737398
55	0xbc103026	-0.008800542
56	0xbc198f36	-0.009372523
57	0xbbb865f1	-0.0056273867
58	0x3d895562	0.067057386
59	0x3d81f149	0.063448496
60	0xbc548314	-0.012970705
61	0x3d8828e1	0.06648422
62	0x00000000	0.0
63	0x00000000	0.0

weight f4 [64, 64]
0	0xbe469482	-0.19392589
1	0xbd4ca6b8	-0.049963683
2	0x3ca3f048	0.020012036
3	0x3e4168af	0.1888759
4	0xbcaae21b	-0.020859769
5	0xbe01b9a4	-0.12668473
6	0xbebb708e	-0.3660931
7	0xbda43f10	-0.08019841
8	0xbcd6060f	-0.026125936
9	0xbd06cd43	-0.032910597
10	0x3e2a29b9	0.16617478
11	0xbec12f5e	-0.3773145
12	0x3ddf117a	0.10892005
13	0xbdce3cef	-0.10070216
14	0x3d2c356c	0.042043135
15	0x3ddeee1e	0.10885261
16	0x3ddb20c2	0.106996074
17	0x3d9337c3	0.0718837
18	0x3e5cb1ff	0.21552275
19	0x3d08b3d8	0.033374637
20	0x3e007f83	0.12548642
21	0xbe5274e5	-0.20552404
22	0x3e049067	0.1294571
23	0xbe1eb118	-0.15497243
24	0xbd08e698	-0.033423036
25	0xbc33ccf0	-0.010974154
26	0x3e5851b1	0.21124913
27	0xbe5919eb	-0.21201293
28	0x3bb73218	0.0055906884
29	0x3e44236b	0.19154136
30	0x3e4d226a	0.20032659
31	0xbe1bb9c2	-0.1520758
32	0xbecb64a1	-0.3972521
33	0x3d9aa436	0.07550852
34	0x3e212926	0.15738353
35	0x3c3dcb26	0.011584079
36	0xbe596f86	-0.21233949
37	0x3d8544d6	0.0650727
38	0xbdda21b8	-0.106509626
39	0xbe2636b8	-0.16231811
40	0x3d767aa8	0.060175568
41	0xbe4db388	-0.20088017
42	0x3e16aced	0.14714403
43	0xbe31125c	-0.1729216
44	0xbd99a1fc	-0.07501599
45	0x3d97152b	0.07377084
46	0x3e09fea5	0.13476045
47	0xbe40acfc	-0.18815988
48	0xbe3611d6	-0.17780241
49	0x3e6d5807	0.23178111
50	0xbddb6e13	-0.10714354
51	0xbe4bf7f0	-0.199188
52	0xbe43cf6c	-0.19122094
53	0x3e4e36cd	0.20138092
54	0xbd6b0c40	-0.05738473
55	0x3e447531	0.1918533
56	0xbe4c116a	-0.19928518
57	0xbd1197ed	-0.03554528
58	0x3e4b5143	0.19855218
59	0xbe56aa1b	-0.20963328
60	0xbd8f9bc8	-0.07012135
61	0x3e18ca1a	0.14920846
62	0x3e238c9f	0.15971611
63	0x3d92fc46	0.071770236
64	0x3e0c3f15	0.13695939
65	0xbd971f50	-0.07379019
66	0xbdc3cd1a	-0.095606044
67	0x3e19bd23	0.15013556
68	0xbe449f98	-0.19201505
69	0x3b901e96	0.0043981774
70	0x3e1c0832	0.15237501
71	0x3de00e5a	0.10940237
72	0x3ca81054	0.020515598
73	0xbd15f11a	-0.036606885
74	0x3c350380	0.011048198
75	0xbdd94758	-0.10609311
76	0xbe244b8d	-0.16044445
77	0xbd43c57b	-0.047795754
78	0xbe5a564d	-0.21321984
79	0x3e48559d	0.19563909
80	0xbe52ab57	-0.20573173
81	0x3cb70e62	0.022345725
82	0x3d8b8812	0.06813063
83	0xbe5a8897	-0.21341167
84	0x3df3930a	0.1189328
85	0xbcb3c780	-0.021945715
86	0x3cbeda2a	0.023297388
87	0x3c9fca10	0.01950553
88	0xbcc9ec58	-0.02464883
89	0x3d74c2c4	0.059756055
90	0x3dac748e	0.084206685
91	0xbe2e721f	-0.17035721
92	0xbca357d0	-0.019939333
93	0xbe393fd6	-0.18090758
94	0xbdcbc88d	-0.099503614
95	0x3e207903	0.15671162
96	0xbe489c0f	-0.19590782
97	0xbc944571	-0.018099518
98	0x3d779b33	0.060450744
99	0x3e031946	0.1280261
100	0x3d9aec22	0.0756457
101	0xbe518465	-0.20460661
102	0x3e35b7c2	0.1774588
103	0x3b941460	0.0045190305
104	0x3e135a65	0.14389952
105	0x3d20293c	0.039101824
106	0x3e57c93e	0.21072862
107	0x3cee4028	0.029083326
108	0xbdbef4dc	-0.09324047
109	0x3e4092da	0.1880602
110	0x3cad35a0	0.021143734
111	0x3e3ca1b7	0.18421064
112	0xbe3af8ea	-0.18259016
113	0x3e3f014d	0.1865284
114	0xbd69223d	-0.056917418
115	0x3e2f9885	0.17148025
116	0xbe41410c	-0.1887247
117	0x3db038c6	0.08604579
118	0x3e3369e3	0.17520861
119	0x3da08bfc	0.078392
120	0xbd1cd53c	-0.038289294
121	0x3e4c4b80	0.19950676
122	0xbd90128c	-0.070347875
123	0xbd8b07cc	-0.067885965
124	0x3e05e328	0.13074934
125	0x3e47b4b2	0.19502524
126	0xbdfc4160	-0.12317157
127	0xbe5971a3	-0.21234755
128	0x3d979c86	0.07402901
129	0xbca08fc8	-0.01959981
130	0xbdc6e3b7	-0.09711402
131	0xbe3ad98e	-0.18247053
132	0x3e396550	0.18105054
133	0xbdaf071c	-0.08546278
134	0xbd0c53cd	-0.034259606
135	0xbc1f1935	-0.0097106
136	0xbe2d7d1c	-0.16942257
137	0x3df336d7	0.11875694
138	0xbd928288	-0.07153803
139	0x3d3afb67	0.045649912
140	0x3d1aa954	0.03775914
141	0x3d41e5f4	0.04733844
142	0x3e5750eb	0.21026962
143	0xbe00fa8d	-0.12595578
144	0xbded7464	-0.115944654
145	0x3dd5a482	0.10431768
146	0xbcb42998	-0.02199249
147	0xbc3f3540	-0.011670411
148	0xbd04b4cc	-0.032398984
149	0x3ad8ba00	0.0016534925
150	0xbd86b428	-0.06577331
151	0x3d58d30c	0.052935645
152	0xbe3c3180	-0.18378258
153	0xbcb73aa8	-0.022366837
154	0x3db93f36	0.0904526
155	0xbe22f2b6	-0.159129
156	0xbdb07ecd	-0.08617935
157	0xbd94f60c	-0.07273492
158	0xbe1649b1	-0.14676549
159	0x3e1b22e4	0.15150028
160	0xbbd7897e	-0.0065776696
161	0xbe024be7	-0.12724267
162	0x3e018476	0.12648186
163	0xbc2a1b67	-0.01038251
164	0xbdcc8d94	-0.099879414
165	0xbe54bc1d	-0.20774885
166	0x3c3c03b6	0.011475494
167	0x3e442f41	0.19158651
168	0xbe472ac0	-0.19449902
169	0x3e29c735	0.16579898
170	0x3e05efd2	0.13079765
171	0x3d16228c	0.03665404
172	0xbe197ee2	-0.14989808
173	0x3db5043e	0.088387
174	0x3e38bbf7	0.18040453
175	0xbda0d6b4	-0.07853451
176	0xbe0240d4	-0.12720042
177	0x3e32141c	0.17390484
178	0x3ce571cb	0.028008362
179	0xbdf3f76c	-0.11912426
180	0x3b93cf80	0.00451082
181	0x3c7796c0	0.015111625
182	0xbe3f5251	-0.18683745
183	0xbe018256	-0.12647375
184	0xbd5512c0	-0.052019835
185	0xbd455c54	-0.048183754
186	0xbe39c764	-0.18142468
187	0x3e411ecb	0.18859403
188	0x3e464544	0.1936236
189	0xbda7884a	-0.08180292
190	0xbe281d35	-0.16417392
191	0xbdd61d82	-0.10454847
192	0xbda663da	-0.08124514
193	0xbe260796	-0.16213831
194	0xbda40cdc	-0.08010265
195	0x3da7772e	0.081770286
196	0xbe16c894	-0.14724952
197	0xbdf916d8	-0.1216256
198	0xbe5ad4c6	-0.21370229
199	0xbc7bb620	-0.015363246
200	0xbca91990	-0.020642072
201	0x3e09d50f	0.13460182
202	0xbdee79e1	-0.1164434
203	0xbdd5bbfc	-0.10436246
204	0xbb021fc0	-0.001985535
205	0x3c411ba0	0.0117863715
206	0x3d0205d8	0.031743854
207	0xbdcf7df0	-0.101314425
208	0x3d069d9c	0.03286515
209	0x3da9816e	0.0827664
210	0xbe4462f0	-0.19178367
211	0x3d228a24	0.039682522
212	0x3e1d643f	0.15370272
213	0x3cdca100	0.02693224
214	0xbe5784bd	-0.2104673
215	0xbe24df36	-0.16100773
216	0xbe309cb4	-0.17247277
217	0xbe0f5536	-0.13997349
218	0x3ddf1aea	0.10893805
219	0xbda77bb2	-0.0817789
220	0xbd073c6c	-0.033016607
221	0x3da7e79a	0.08198471
222	0xbded21b7	-0.11578696
223	0xbe3ecccb	-0.1863281
224	0xbcc00398	-0.023439214
225	0x3dcc6b8a	0.09981449
226	0x3dd27d02	0.102777496
227	0x3c0be320	0.008538038
228	0xbd1b5804	-0.037925735
229	0xbe30b680	-0.17257118
230	0x3e4b6407	0.19862376
231	0x3d709864	0.05873908
232	0x3dcf151a	0.10111447
233	0x3e4718df	0.19443081
234	0xbe346564	-0.17616802
235	0xbde4e382	-0.11176206
236	0x3e4ad075	0.19806083
237	0xbceca748	-0.02888836
238	0x3dfc1302	0.12308313
239	0x3df325aa	0.11872418
240	0xbdfc1234	-0.123081595
241	0x3e07c3e5	0.13258322
242	0xbe05c9ca	-0.13065258
243	0xbe47fd98	-0.19530332
244	0x3e23d0ef	0.1599767
245	0xbe3866c2	-0.18007949
246	0x3e08a735	0.13345034
247	0xbce74050	-0.028228909
248	0xbd3c7120	-0.046006322
249	0x3dc0f8c6	0.0942245
250	0xbd87e712	-0.0663587
251	0x3e58d45d	0.2117476
252	0x3d251174	0.040299848
253	0xbdfc197f	-0.123095505
254	0x3d16f4bc	0.03685449
255	0x3cff89c8	0.031193629

bias f4 [64]
0	0xbc81debd	-0.01585328
1	0x00000000	0.0
2	0x3d6645cf	0.05621892
3	0xbbaae8db	-0.005215747
4	0x3d9ab78b	0.07554539
5	0x00000000	0.0
6	0x3da29f09	0.0794049
7	0xbbf0fa6f	-0.0073540728
8	0x00000000	0.0
9	0x00000000	0.0
10	0x3d8f6807	0.070022635
11	0xbbc4c91b	-0.006005419
12	0xbbc48e62	-0.0059984187
13	0x00000000	0.0
14	0xbc03d51d	-0.008046416
15	0x00000000	0.0
16	0xba9a9a7a	-0.0011795305
17	0x00000000	0.0
18	0x3d8a63fb	0.06757351
19	0x3bbe34bb	0.005804626
20	0xbbc4c9d2	-0.006005504
21	0xbbc4e9e0	-0.0060093254
22	0x3dade7dc	0.08491489
23	0x3d891fdd	0.066955306
24	0x3d7c2828	0.061561733
25	0x00000000	0.0
26	0x00000000	0.0
27	0x00000000	0.0
28	0x3da18275	0.07886211
29	0xbbc597d5	-0.0060300627
30	0xbc85d990	-0.016339093
31	0xbbb66e0c	-0.005567318
32	0x00000000	0.0
33	0xbc6e2c34	-0.014536906
34	0xbbc545f1	-0.0060203006
35	0x00000000	0.0
36	0xbc9e3c9f	-0.019316016
37	0x3d81358d	0.06309042
38	0x00000000	0.0
39	0x3d85db05	0.06535915
40	0x00000000	0.0
41	0x00000000	0.0
42	0xbbcc853f	-0.00624147
43	0x00000000	0.0
44	0x3d7a84c3	0.061161768
45	0xbbb6270c	-0.005558854
46	0x3d91c0c3	0.071168445
47	0x3c89a227	0.016800953
48	0x3d57e758	0.05271086
49	0xbc0f2d0c	-0.008738767
50	0x00000000	0.0
51	0x3d812873	0.06306543
52	0xbb0e2bc9	-0.0021693578
53	0x3d6bf6a3	0.057608258
54	0x3d818700	0.06324577
55	0x3d9cbf71	0.07653702
56	0xbc226173	-0.009910929
57	0xbbc59d91	-0.0060307463
58	0x3d55c8a4	0.0521933
59	0x3d624826	0.055244587
60	0x3ce25441	0.027628066
61	0xbae9dba0	-0.0017841943
62	0x3d8354e9	0.0641268
63	0x3d90bf88	0.07067782

weight f4 [64, 64]
0	0xbe706d7d	-0.23479266
1	0x3d6c182e	0.057640247
2	0x3e5151be	0.20441338
3	0x3d9611da	0.07327624
4	0xbe40088e	-0.18753263
5	0x3d0316ff	0.032004353
6	0x3e000e50	0.1250546
7	0xbd9464aa	-0.07245763
8	0x3c6beb00	0.01439929
9	0x3e3837d1	0.17990042
10	0xbcb76642	-0.022387628
11	0x3e1954d0	0.1497376
12	0xbe1f3dbe	-0.15550897
13	0xbd1c0222	-0.03808797
14	0xbc3b601e	-0.01143649
15	0xbe1e93f1	-0.15486123
16	0xbe42da9b	-0.19028704
17	0x3c8a9219	0.016915368
18	0xbe4622e2	-0.19349244
19	0xbe219c44	-0.15782267
20	0x3dfaa296	0.12238042
21	0xbde22a99	-0.11043281
22	0x3d28c23c	0.04120086
23	0xbe55e222	-0.20887044
24	0xbe2082c1	-0.15674879
25	0x3e2bc37b	0.16773789
26	0xbe59b984	-0.21262175
27	0xbe1d9030	-0.15387034
28	0x3d267a1c	0.040643796
29	0x3e02e7d1	0.12783743
30	0x3e083da9	0.13304771
31	0x3d2028fc	0.039101586
32	0xbe546a44	-0.20743662
33	0xbdffb3e8	-0.12485486
34	0x3db49e36	0.08819239
35	0x3c844bd3	0.016149437
36	0xbd75c8d9	-0.060005996
37	0xbdc67eca	-0.09692152
38	0x3ddc9d2b	0.10772165
39	0x3e370840	0.17874241
40	0x3d871290	0.065953374
41	0x3d379784	0.04482223
42	0xbdedf8bc	-0.11619708
43	0xbe39fd8c	-0.18163127
44	0xbe017add	-0.12644525
45	0x3e4d1a3f	0.20029543
46	0x3d478e8e	0.048719935
47	0xbdb1927c	-0.08670518
48	0xbde363d7	-0.11103027
49	0x3e1bb0fb	0.15204231
50	0xbe1fdbfd	-0.15611263
51	0xbe5ff9e9	-0.21872677
52	0x3e16575b	0.14681761
53	0xbe3c58f5	-0.1839331
54	0xbd451b6b	-0.04812185
55	0x3d1c9ef2	0.03823752
56	0x3e1cf195	0.15326531
57	0xbe1068e8	-0.14102519
58	0x3dcf9039	0.1013493
59	0xbe0a7617	-0.1352161
60	0x3d25778b	0.04039721
61	0x3dfdbca7	0.12389498
62	0x3df315f6	0.11869423
63	0x3de342fe	0.11096762
64	0xbe4b1618	-0.19832647
65	0xbe1706fb	-0.14748757
66	0xbe408e6c	-0.1880433
67	0x3caf0380	0.021363974
68	0xbe046712	-0.12929943
69	0xbd0fa1c8	-0.035066396
70	0xbe30f35a	-0.17280331
71	0xbe09ec16	-0.13468966
72	0x3e0cedc7	0.1376258
73	0xbdeeb205	-0.11655048
74	0xbcf20a00	-0.029545784
75	0xbda59674	-0.08085337
76	0xbe0718ee	-0.13193104
77	0x3ce5a420	0.028032362
78	0x3e4b8491	0.19874789
79	0x3e22842b	0.1587073
80	0x3d44470c	0.047919318
81	0xbdebbcf7	-0.115106516
82	0x3d6a6a4c	0.05723028
83	0xbd06a84c	-0.032875344
84	0x3d220d04	0.039563194
85	0xbddfdcb7	-0.1093077
86	0x3d73ede4	0.059553042
87	0xbe183e75	-0.14867575
88	0xbe4a9fa0	-0.19787455
89	0xbdda8312	-0.10669531
90	0xbd6a33b4	-0.057178214
91	0x3e2130fd	0.15741344
92	0x3df11afa	0.117727235
93	0xbdd09b67	-0.10185891
94	0xbe434370	-0.19068694
95	0x3e1c727f	0.15278052
96	0x3e49da85	0.19712265
97	0xbd9110ac	-0.07083258
98	0xbbf3a6a0	-0.0074356347
99	0x3deda866	0.11604385
100	0xbd1d8cf0	-0.038464487
101	0x3ddeaa5a	0.10872336
102	0xbdc9923f	-0.09842347
103	0x3e027cf9	0.12742986
104	0x3dc2e072	0.09515466
105	0xbe52702c	-0.20550603
106	0x3e55548f	0.20833038
107	0x3e16ec4b	0.14738576
108	0xbd325f14	-0.043547705
109	0xbdb0ed32	-0.086389914
110	0xbe1543fe	-0.14576718
111	0x3cae1060	0.021248043
112	0xbc26dcf0	-0.010184512
113	0xbd261570	-0.04054779
114	0x3e5636f5	0.20919402
115	0x3d88217a	0.0664701
116	0xbe54dc68	-0.20787203
117	0x3d6ab2bc	0.05729936
118	0x3cf2ddd0	0.029646784
119	0x3e0ddc93	0.13853674
120	0xbd96c1d0	-0.073611856
121	0x3df74cd6	0.12075202
122	0xbd8f43c2	-0.06995346
123	0xbd4cdf9c	-0.050017938
124	0xbdf7182c	-0.12065157
125	0xbe0ebd06	-0.13939294
126	0x3cc20be8	0.023687318
127	0x3cd04850	0.025425106
128	0xbdddc722	-0.10828997
129	0x3e4832d9	0.19550647
130	0xbe5d1587	-0.21590243
131	0xbd989f02	-0.07452203
132	0x3e567147	0.2094165
133	0xbd45fb9d	-0.04833566
134	0xbe0ba12d	-0.13635702
135	0x3bdd3de0	0.006751761
136	0x3d33149c	0.043720827
137	0x3ddfe71c	0.109327525
138	0x3ddfa44d	0.1092001
139	0xbd412975	-0.047158677
140	0xbc3045e0	-0.010758847
141	0x3c060089	0.0081788385
142	0x3e36ef2c	0.17864674
143	0x3e228722	0.15871862
144	0xbd9e05ba	-0.07715936
145	0x3e5bc5c2	0.21462157
146	0x3e2033d0	0.15644765
147	0xbe1a681b	-0.15078776
148	0xbe160529	-0.14650406
149	0x3dfb7b13	0.12279334
150	0xbcc0d6ef	-0.023539988
151	0xbd16e699	-0.03684101
152	0x3c8b6fa3	0.017021006
153	0x3da00fb9	0.07815499
154	0x3e1c74b9	0.15278901
155	0x3e3c7561	0.18404151
156	0xbcbfb640	-0.023402333
157	0xbd071a58	-0.032984108
158	0xbe2b1c75	-0.16710074
159	0x3e0bd14f	0.13654064
160	0xbddb07d9	-0.10694856
161	0xbcc58349	-0.024110453
162	0x3d6b1b64	0.05739917
163	0x3dc4b059	0.09603948
164	0xbe30bab5	-0.17258723
165	0x3df87c26	0.121330544
166	0x3e01c537	0.12672888
167	0x3dfa4c82	0.12221624
168	0xbe151b53	-0.14561205
169	0xbe55d629	-0.20882477
170	0x3e788774	0.24270421
171	0xbd9c2576	-0.076243326
172	0xbdab9956	-0.08378856
173	0x3d89841a	0.067146495
174	0xbd741d72	-0.059598394
175	0x3dc37c2a	0.09545167
176	0x3c17af4e	0.0092581045
177	0x3e2a8305	0.16651542
178	0x3bda5840	0.0066633523
179	0xbe41095b	-0.18851225
180	0x3dff893e	0.12477349
181	0xbe3e35f1	-0.18575265
182	0xbd8f117a	-0.06985755
183	0x3de68420	0.112556696
184	0xbe411f63	-0.1885963
185	0x3c8d50d4	0.017250456
186	0xbdc22cd2	-0.09481205
187	0x3d951dab	0.07281049
188	0x3d7456a6	0.059652947
189	0x3e6f19fd	0.23349757
190	0x3df80a66	0.12111358
191	0xbe00c612	-0.12575558
192	0x3e188ff8	0.1489867
193	0x3e4a294c	0.19742316
194	0xbe1e7ac6	-0.15476522
195	0x3e4f72f1	0.2025869
196	0xbd90046c	-0.070320934
197	0x3e034412	0.12818936
198	0xbbb394e5	-0.005480396
199	0x3e2750c3	0.16339402
200	0xbd447c90	-0.047970355
201	0xbe263af1	-0.16233422
202	0xbe3ac454	-0.18238956
203	0xbe33fe41	-0.17577459
204	0x3dbdc19e	0.09265445
205	0xbd895098	-0.06704825
206	0xbe220ddb	-0.15825598
207	0x3d1fa474	0.038975194
208	0x3cd46270	0.025925845
209	0xbc95d9b6	-0.01829229
210	0xbd198a3c	-0.037485346
211	0x3e057055	0.13031133
212	0x3e4ce01a	0.20007363
213	0x3e4e1e9e	0.20128867
214	0x3d8e1b3a	0.06938787
215	0xbe0afaef	-0.13572286
216	0xbe0df824	-0.1386419
217	0xbb583500	-0.0032990575
218	0x3d9085f2	0.07056798
219	0xbc923b78	-0.017850623
220	0x3e5361d9	0.20642795
221	0x3e4d6377	0.20057474
222	0x3e1fa097	0.15588604
223	0xbe03d93e	-0.1287584
224	0x3dbf4c9e	0.093407854
225	0x3d0681bc	0.032838568
226	0x39799400	0.00023801625
227	0xbd9f1e5d	-0.07769463
228	0xb9c4fb78	-0.00037571392
229	0xbe52ff6d	-0.2060525
230	0xbdd2c496	-0.10291402
231	0xbe3a4ec6	-0.18194112
232	0xbd62fb7e	-0.055415623
233	0xbe0d6e37	-0.13811575
234	0xbe51792f	-0.20456384
235	0xbd4b55a4	-0.04964222
236	0xbdb3d053	-0.08779969
237	0x3d6efe7c	0.058348164
238	0x3e4991ce	0.19684526
239	0xbb822240	-0.003971368
240	0xbbbfb5a1	-0.0058505093
241	0x3d918ba6	0.07106714
242	0x3da9f066	0.082978055
243	0x3e320c41	0.17387487
244	0x3e2c83d9	0.16847171
245	0x3e161ad1	0.14658667
246	0x3cb0dbdb	0.02158921
247	0x3d3ccebc	0.046095595
248	0x3e53e785	0.20693786
249	0x3e38a31c	0.18030971
250	0xbd4f45d9	-0.05060372
251	0x3e35ac75	0.17741568
252	0xbbd18404	-0.0063939113
253	0xbdbe80f4	-0.093019396
254	0xbe0e0809	-0.13870253
255	0xbd7c0824	-0.0615312

bias f4 [64]
0	0xbc253867	-0.010084248
1	0x00000000	0.0
2	0x00000000	0.0
3	0x00000000	0.0
4	0xbc12245b	-0.008919801
5	0x3da15c03	0.07878878
6	0xbbc4c9d6	-0.006005506
7	0x3a57fe32	0.0008239477
8	0xbce807c5	-0.028324017
9	0x3d9f1032	0.07766761
10	0x00000000	0.0
11	0x00000000	0.0
12	0x3d97367c	0.07383439
13	0xbbc4c985	-0.0060054683
14	0x3d31abe7	0.04337683
15	0x3d97e4da	0.07416697
16	0x3d768128	0.060181767
17	0x00000000	0.0
18	0xbcce9150	-0.025215775
19	0x3d81dca6	0.063409135
20	0x3da1020e	0.0786172
21	0x00000000	0.0
22	0x00000000	0.0
23	0x00000000	0.0
24	0x00000000	0.0
25	0x3c59e80c	0.013299953
26	0xbbb62757	-0.005558889
27	0x00000000	0.0
28	0xbbc4c9d5	-0.0060055056
29	0x3b5c9d23	0.0033662997
30	0x3d305237	0.043047156
31	0x3d8d8586	0.06910233
32	0x00000000	0.0
33	0x3d3a71ef	0.04551881
34	0xbbc4c9c9	-0.0060055
35	0x00000000	0.0
36	0x3da6457e	0.08118723
37	0x00000000	0.0
38	0x3d81d057	0.06338566
39	0x00000000	0.0
40	0x3d921cc2	0.07134391
41	0x3da84592	0.082163945
42	0x3d81cffb	0.06338497
43	0x3d4c1512	0.04982478
44	0xbc08d3ce	-0.008351279
45	0x3d9de71d	0.07710097
46	0x3d830d64	0.063990384
47	0x00000000	0.0
48	0x3d862a3b	0.065510236
49	0x00000000	0.0
50	0x3d384383	0.04498626
51	0x3d8918d7	0.06694191
52	0x3cb0ba97	0.021573348
53	0xbbc4c9d3	-0.0060055046
54	0x00000000	0.0
55	0x00000000	0.0
56	0x3dbfa4a8	0.093575776
57	0x3d990471	0.0747155
58	0x00000000	0.0
59	0x00000000	0.0
60	0x3da75013	0.0816957
61	0x3d5578da	0.052117206
62	0xbc06e9bb	-0.008234437
63	0x00000000	0.0

weight f4 [64, 64]
0	0x3e25dd69	0.16197743
1	0x3d505d0c	0.050869986
2	0x3d7a24e6	0.061070345
3	0xbdf58985	-0.119891204
4	0xbd9d7286	-0.07687859
5	0x3daa0272	0.08301248
6	0xbe0c187d	-0.13681217
7	0xbe26c2d6	-0.16285262
8	0xbde5d150	-0.11221564
9	0xbdfae855	-0.12251345
10	0x3ca65b3d	0.020307178
11	0x3d7e398c	0.0620666
12	0x3e2a041d	0.16603132
13	0x3e58ee3d	0.2118463
14	0xbdb183d7	-0.086677246
15	0x3d5baadc	0.05362974
16	0xbc5d9340	-0.013523877
17	0x3dd88716	0.105726406
18	0xbe64850f	-0.22316383
19	0x3e2a9f45	0.16662319
20	0x3dbf514a	0.093416765
21	0xb98c2c00	-0.00026735663
22	0x3df914ca	0.12162168
23	0x3c086431	0.008324669
24	0x3e3d4500	0.18483353
25	0xbe267d9f	-0.16258858
26	0xbe3e9bb1	-0.18614079
27	0xbe23f00a	-0.16009536
28	0xbdc07c19	-0.0939867
29	0xbe2e1920	-0.17001772
30	0xbdf8aefe	-0.12142752
31	0x3e4feb63	0.20304637
32	0xbe122ef6	-0.14275727
33	0xbdecbcec	-0.115594715
34	0xbe49cf9f	-0.19708107
35	0x3d62b294	0.055346087
36	0xbd0cc033	-0.034362983
37	0x3e3cd7d1	0.18441702
38	0xbe156082	-0.14587596
39	0xbe4d6504	-0.20058066
40	0xbe35f2be	-0.1776838
41	0x3d4ad6a4	0.049521104
42	0xbe1b698b	-0.1517698
43	0xbe5cd853	-0.21566896
44	0xbcf24c96	-0.029577535
45	0x3d2aa2fa	0.041659333
46	0x3e0f44e5	0.13991125
47	0x3e3cc91c	0.18436092
48	0xbe7773fc	-0.24165338
49	0x3dd1bb21	0.1024077
50	0x3e23558b	0.15950601
51	0x3cd85035	0.026405433
52	0xbe3736a6	-0.1789194
53	0x3da9e6a1	0.08295942
54	0xbc9af633	-0.018916225
55	0x3e29c132	0.16577604
56	0x3e0da9bd	0.13834281
57	0x3d27efaf	0.041000064
58	0x3e352476	0.1768969
59	0xbc82666b	-0.015917977
60	0xbde5956e	-0.11210142
61	0xbe07e219	-0.13269843
62	0xbe122efe	-0.14275739
63	0xbe01c70a	-0.12673584
64	0xbd264084	-0.04058887
65	0xbd500200	-0.050783157
66	0x3da9ea1a	0.082966045
67	0xbcbb17a8	-0.022838429
68	0xbe46de34	-0.19420701
69	0x3c4c63f0	0.012474999
70	0xbe088a1c	-0.13333935
71	0x3e4a4b7f	0.19755362
72	0xbd4cce20	-0.050001264
73	0x3dde7e56	0.108639404
74	0xbdac31c2	-0.08407928
75	0x3c4409a0	0.011965185
76	0xbe4c3107	-0.19940577
77	0x3dabdc3a	0.08391614
78	0xbbe3fee0	-0.0069578737
79	0x3e0b7ddd	0.13622232
80	0x3e39c3cd	0.18141098
81	0xbe210889	-0.15725912
82	0xbe40aa4a	-0.1881496
83	0xbd2af0d4	-0.041733578
84	0xbb2f8000	-0.0026779175
85	0x3d166134	0.036713794
86	0xbe0097de	-0.12557933
87	0x3e52dbe1	0.2059169
88	0xbe3ce6d6	-0.18447432
89	0x3ba2e4e0	0.0049711317
90	0x3e45997f	0.19296835
91	0xbe53077c	-0.20608324
92	0x3e071903	0.13193135
93	0xbde5a626	-0.11213331
94	0x3d00f328	0.031481892
95	0xbe1a3eac	-0.1506297
96	0xbda86838	-0.08223003
97	0xbd4efd5c	-0.05053459
98	0xbd079954	-0.03310521
99	0xbd936804	-0.07197574
100	0x3dac986a	0.08427508
101	0xbe0d5864	-0.1380325
102	0x3ddebb9a	0.10875626
103	0x3dd95f56	0.10613887
104	0xbc99cbc8	-0.018773928
105	0x3ddc591e	0.10759185
106	0x3e09b2a7	0.13447057
107	0xbe4cab09	-0.1998712
108	0xbde2ccb6	-0.11074202
109	0xbdf6c521	-0.12049318
110	0xbd8c5e7a	-0.068539575
111	0xbda72df6	-0.08163063
112	0xbd5abd58	-0.05340323
113	0xbe2a7714	-0.16646987
114	0x3e31abc3	0.17350678
115	0xbace4280	-0.0015736371
116	0xbdb7370a	-0.08946045
117	0x3bc004a0	0.0058599263
118	0x3d134e64	0.03596343
119	0xbcb41778	-0.021983847
120	0xbd02d67c	-0.03194283
121	0xbe4861fa	-0.19568625
122	0x3d91d30a	0.07120331
123	0x3cd861a0	0.026413739
124	0x3d8c5de2	0.06853844
125	0xbe1f3dbb	-0.15550892
126	0x3e153545	0.14571102
127	0x3df1914a	0.1179529
128	0x3d5cee74	0.053938344
129	0xbd637414	-0.055530623
130	0x3ddc879a	0.107680514
131	0x3e30e25d	0.1727385
132	0xbcea1078	-0.028572306
133	0x3e051273	0.12995319
134	0xbe5138c8	-0.20431817
135	0x3e599647	0.21248733
136	0xbdb72caa	-0.08944066
137	0xbe58994c	-0.21152228
138	0xbdf6ce35	-0.120510496
139	0x3bad83c0	0.005295247
140	0xbe4352a2	-0.1907449
141	0xbe4ccea5	-0.20000704
142	0x3e545e27	0.20739041
143	0x3df5382e	0.11973606
144	0x3d8b1936	0.06791918
145	0x3d8b4272	0.06799783
146	0xbe003bea	-0.12522855
147	0xbe3da142	-0.18518546
148	0xbdfb43e0	-0.122688055
149	0x3d9cddda	0.07659502
150	0xbe3dc07b	-0.18530457
151	0xbe316656	-0.17324194
152	0x3e2e99e5	0.17050894
153	0x3c0e7fd0	0.008697465
154	0x3d82da7a	0.06389327
155	0x3d64f9dc	0.055902347
156	0xbdedb6af	-0.1160711
157	0xbdacbc18	-0.084343135
158	0xbbd23ea0	-0.006416157
159	0x3db5b76a	0.08872874
160	0xbd00d224	-0.031450406
161	0xbe25a262	-0.16175225
162	0x3dedd52a	0.116129234
163	0x3d181b7c	0.037135586
164	0x3ced28a8	0.02895005
165	0x3e53ee5d	0.20696397
166	0xbe0cef60	-0.1376319
167	0x3d2e928c	0.042620227
168	0x3d11ffc4	0.035644308
169	0x3e1e26ef	0.1544454
170	0xbdd89aa9	-0.10576374
171	0x3d489b9c	0.048976526
172	0x3c956dd8	0.018240854
173	0x3d9d81de	0.07690786
174	0x3db28676	0.08717053
175	0xbd88ccee	-0.06679712
176	0x3d17ac44	0.03702952
177	0xbdac5090	-0.084138036
178	0xbe2121f2	-0.15735605
179	0xbdaa1522	-0.08304812
180	0x3e5b3f6f	0.21410917
181	0x3e32c197	0.17456661
182	0x3d121dec	0.035673067
183	0x3e2cf443	0.16890053
184	0xbe46dc1e	-0.19419906
185	0xbd2b4830	-0.04181689
186	0xbdc93919	-0.09825344
187	0x3e4471a3	0.19183974
188	0xbd8e1fb0	-0.06939638
189	0xbd0291c4	-0.031877294
190	0xbdb9e152	-0.090761796
191	0xbdadecb8	-0.08492416
192	0x3de46672	0.111523524
193	0xbe126865	-0.14297636
194	0xbe354bba	-0.17704669
195	0xbd1da528	-0.038487583
196	0x3e42f7f5	0.190399
197	0x3d8965b6	0.06708853
198	0xbdbe9e2a	-0.09307511
199	0xbdb8c5c0	-0.09022093
200	0xbddd2bb6	-0.10799353
201	0x3e4b5791	0.19857623
202	0xbde78add	-0.11305783
203	0xbe17196e	-0.14755794
204	0xbdb745bc	-0.08948848
205	0x3db18d4a	0.08669527
206	0xbdf2fe06	-0.118648574
207	0xbda7bc92	-0.08190264
208	0xba36c200	-0.0006971657
209	0x3e08cbf5	0.13359053
210	0xbd6f0ba0	-0.058360696
211	0x3ce12740	0.027484536
212	0xbdc100f8	-0.09424013
213	0xbdb649d8	-0.08900803
214	0xbe0c1ec0	-0.13683605
215	0xbdaa9f54	-0.08331171
216	0x3e50c00d	0.20385762
217	0xbdff91cf	-0.12478983
218	0x3e3d00e9	0.18457378
219	0xbd97b7f0	-0.0740813
220	0xbdea2fe5	-0.114349164
221	0xbe09c7ce	-0.13455126
222	0x3e1e65cd	0.15468521
223	0x3e22a1e9	0.15882076
224	0xbdcc5480	-0.099770546
225	0xbe3485b3	-0.17629127
226	0xbc2f0c90	-0.0106841475
227	0xbe211884	-0.15732008
228	0x3dc50916	0.09620874
229	0x3dec0526	0.115244195
230	0xbb1ca2c0	-0.0023900717
231	0x3e02c403	0.12770085
232	0xbdef8a7d	-0.116963364
233	0xbdb43a8e	-0.08800231
234	0xbd2426d4	-0.040076092
235	0xbc074070	-0.008255109
236	0xbdbe4f6f	-0.092924945
237	0x3e596605	0.21230324
238	0xbd717cd0	-0.05895692
239	0x3cc8ec48	0.02452673
240	0x3e515c6f	0.20445417
241	0x3e09881b	0.13430826
242	0x3c404170	0.0117343515
243	0x3e058159	0.13037623
244	0xbddd398e	-0.10801993
245	0x3d8b754a	0.068094805
246	0x3dd15b9e	0.10222553
247	0xbe127d4d	-0.14305611
248	0x3dff6cda	0.12471934
249	0x3e11e705	0.14248283
250	0xbe2b2bb8	-0.16715896
251	0xbe07a4aa	-0.13246408
252	0x3e0efe31	0.13964154
253	0xbd7513c8	-0.059833318
254	0xbd5c7394	-0.05382116
255	0x3e51dae5	0.20493658

bias f4 [64]
0	0x3d0ace0a	0.0338879
1	0x3ce05b76	0.027387362
2	0x3d37980d	0.04482274
3	0x3d8c6986	0.068560645
4	0x3c3def8c	0.011592757
5	0xbdb68d05	-0.08913616
6	0xbd7fdf6b	-0.062468927
7	0xbdbd705c	-0.092499465
8	0xbdb2c082	-0.08728124
9	0xbdd2bb19	-0.10289592
10	0xbd904327	-0.07044058
11	0xbdb24573	-0.08704653
12	0xbde40d83	-0.1113539
13	0xbd97582b	-0.073898636
14	0xbd6bf0ac	-0.05760257
15	0xbda1ace5	-0.07894305
16	0xbdcba773	-0.09944048
17	0xbdbfb1ad	-0.09360061
18	0xbe031b1c	-0.1280331
19	0xbde96099	-0.11395378
20	0xbd93f7fe	-0.07225035
21	0xbd9e746e	-0.07737051
22	0xbd91a238	-0.07111019
23	0xbdd7cc6b	-0.105370365
24	0xbd9aae00	-0.07552719
25	0xbe08dcbd	-0.13365455
26	0xbdac5f3b	-0.08416601
27	0xbda0fc4d	-0.078606226
28	0xbdbb6461	-0.09150005
29	0xbd94dab0	-0.07268274
30	0xbd8f03fd	-0.069831826
31	0xbded5932	-0.11589278
32	0xbde36504	-0.111032516
33	0xbdcfbdf1	-0.1014365
34	0xbd9bb759	-0.0760333
35	0xbdc2655e	-0.094919905
36	0xbd965f35	-0.07342378
37	0xbd842e13	-0.064541005
38	0xbdf578d8	-0.1198594
39	0xbda2f4ca	-0.07956846
40	0xbde77b84	-0.113028556
41	0xbd87d912	-0.066332
42	0xbd955f24	-0.07293537
43	0xbdaf6a5c	-0.08565208
44	0xbd95f73a	-0.07322545
45	0xbd852700	-0.06501579
46	0xbd8e1a40	-0.069386005
47	0xbdbe45c3	-0.0929065
48	0xbdb30178	-0.087405145
49	0xbdbe7458	-0.092995346
50	0xbd7efd8a	-0.062253512
51	0xbdc3636c	-0.095404476
52	0xbdd1e978	-0.10249609
53	0xbe13c0ce	-0.14429018
54	0xbdfe8c4c	-0.12429103
55	0xbda94b44	-0.08266309
56	0xbdb65ed0	-0.08904803
57	0xbd897e65	-0.06713561
58	0xbddfbf5c	-0.10925171
59	0xbd856567	-0.065134816
60	0xbd936d4c	-0.07198581
61	0xbd80b6cc	-0.06284866
62	0xbd8c6432	-0.06855048
63	0xbd873048	-0.06601006

weight f4 [64, 64]
0	0xbaec7354	-0.0018039742
1	0xbe57cdad	-0.21074553
2	0x3e2017e1	0.15634109
3	0xbba84f60	-0.0051364154
4	0x3e5bef49	0.21477999
5	0x3e3c1507	0.18367396
6	0xbda56d9c	-0.08077547
7	0xbd3bfc57	-0.045894947
8	0xbd1ca2e2	-0.038241275
9	0xbb14ca04	-0.0022703419
10	0x3c67e870	0.0141545385
11	0xbdeec75c	-0.116591185
12	0x3e6a9308	0.2290765
13	0xbe1f21cb	-0.15540235
14	0x3d92d32e	0.071691856
15	0xbd033d36	-0.032040797
16	0xbd92e48a	-0.071724966
17	0xbcc99bb8	-0.024610385
18	0xbd5db71c	-0.054129705
19	0xbe2a38a7	-0.16623174
20	0xbc296f6e	-0.010341508
21	0xbe0ae378	-0.13563335
22	0x3e5288dd	0.20560022
23	0xbe38dd82	-0.18053249
24	0xbe2abff4	-0.16674787
25	0xbdccefd7	-0.10006683
26	0xbde53590	-0.11191857
27	0x3db8a92a	0.090166405
28	0x3d3a365b	0.045461994
29	0xbd1acfe3	-0.037795912
30	0x3d419cce	0.04726868
31	0x3e3ae06b	0.18249671
32	0x3e4060e1	0.18786956
33	0xbe16cb02	-0.14725879
34	0x3c51414a	0.012771914
35	0xbe2af728	-0.16695845
36	0x3d7d45c6	0.06183412
37	0x3dd00e8a	0.10159023
38	0x3e00864a	0.12551227
39	0x3e4fe5df	0.20302533
40	0x3ca043e2	0.019563619
41	0x3da29299	0.079381175
42	0x3e421432	0.18953016
43	0xbdd2f396	-0.103003666
44	0xbe17051a	-0.1474804
45	0x3e2cd7f7	0.16879259
46	0x3e754dfa	0.23955527
47	0xbdb2e2f2	-0.08734693
48	0x3d9345a9	0.07191021
49	0x3d47fb14	0.04882343
50	0x3de64582	0.11243726
51	0x3d427780	0.047477245
52	0x3e325a59	0.17417277
53	0x3dc575ce	0.0964161
54	0xbdc84851	-0.09779418
55	0x3e1cf003	0.15325932
56	0x3e51eff7	0.20501696
57	0x3e3bcd9a	0.1834015
58	0xbe406735	-0.1878937
59	0xbd5d2398	-0.053989023
60	0x3dc8c562	0.09803273
61	0x3e5fd3a4	0.21858078
62	0xbe149da8	-0.14513266
63	0xbd1f8b2c	-0.038951084
64	0xbe131278	-0.14362514
65	0xbdd63b70	-0.104605556
66	0xbd04693c	-0.03232692
67	0xbe508c7c	-0.2036609
68	0xbd31b90c	-0.043389365
69	0x3e687e4a	0.22704425
70	0xbe3ddfc6	-0.18542394
71	0x3dc1efd5	0.094695725
72	0x3d172d7c	0.03690861
73	0x3e6a4d58	0.22881067
74	0xbdc8d346	-0.09805922
75	0x3dea809a	0.1145031
76	0x3d9f2c32	0.077721015
77	0xbd6d1629	-0.05788246
78	0xbc4c9b4e	-0.012488199
79	0x3dbc0920	0.09181428
80	0x3dd9bf87	0.10632234
81	0xbe2f8338	-0.171399
82	0xbd028927	-0.03186908
83	0x3dbe871f	0.09303116
84	0x3c807ab7	0.015683515
85	0x3db4c6ee	0.08827005
86	0x3dd1d266	0.102452084
87	0x3b933e60	0.0044935197
88	0xbda9763e	-0.08274506
89	0xbdad5f6d	-0.08465467
90	0x3e22e845	0.15908916
91	0xbe534d66	-0.20634994
92	0xb9e15f88	-0.0004298652
93	0xbda36e08	-0.07979971
94	0xbe14bbdb	-0.14524786
95	0x3dbb68a4	0.09150818
96	0x3e20498b	0.15653054
97	0x3bcf88d9	0.006333452
98	0x3d2925a5	0.041295666
99	0x3e070cbf	0.13188456
100	0x3dd58c71	0.10427178
101	0xbd264ac8	-0.04059866
102	0xbd541ce2	-0.051785357
103	0xbcff02b8	-0.031129226
104	0x3e812b7a	0.25228482
105	0xbca02e72	-0.019553397
106	0x3e1a4c4e	0.1506817
107	0x3e61536b	0.22004478
108	0x3bcef9b8	0.00631639
109	0x3e4afaa1	0.1982217
110	0xbd6c3383	-0.057666313
111	0x3d99a156	0.075014755
112	0x3d855b23	0.065115236
113	0xbe0ad300	-0.13557053
114	0x3d836fc1	0.064178
115	0xbd0aa8a2	-0.033852227
116	0xbe07fdf5	-0.1328047
117	0xbda7b7ab	-0.08189329
118	0x3e1d9d1d	0.15391965
119	0x3d53ed0c	0.051739737
120	0x3d0c2504	0.03421499
121	0x3e851328	0.25991178
122	0xbdc1080f	-0.09425365
123	0xbd173068	-0.0369114
124	0x3c6d69e5	0.014490579
125	0xbdd21207	-0.10257345
126	0x3db82e28	0.089931786
127	0x3e11962f	0.14217447
128	0xbe3a66d0	-0.18203282
129	0xbba0f100	-0.004911542
130	0x3e08b4c9	0.13350214
131	0xbc91f710	-0.017818004
132	0xbe081744	-0.13290125
133	0x3dd998a7	0.10624819
134	0xbe53f9b4	-0.20700723
135	0x3e25c770	0.1618936
136	0x3e019097	0.12652813
137	0x3e1b35b2	0.15157202
138	0xbe0030dc	-0.12518638
139	0xbe597e4b	-0.21239583
140	0x3dc5e146	0.09662108
141	0x3e5d8456	0.21632513
142	0xbca34896	-0.019932073
143	0x3d1755c6	0.036947034
144	0x3e2ad2c4	0.16681963
145	0xbda727d2	-0.08161892
146	0x3e11fa6e	0.14255688
147	0x3dc86f44	0.09786847
148	0x3e5228ee	0.20523426
149	0xbe1e0942	-0.15433219
150	0x3e0b31a3	0.13593154
151	0x3dfdfc92	0.124016896
152	0x3d1ac874	0.037788823
153	0xbc76274d	-0.0150240185
154	0x3e1eff0c	0.1552698
155	0xbe51116d	-0.20416804
156	0xbe3502a8	-0.17676795
157	0x3e0ca32a	0.13734117
158	0x3e025a95	0.12729867
159	0x3dd9bb04	0.106313735
160	0x3e552871	0.20816208
161	0x3d6b5481	0.057453636
162	0xbe077dee	-0.13231632
163	0xbd32bc64	-0.043636695
164	0x3dd86acc	0.10567245
165	0xbdcda0a3	-0.10040405
166	0x3e4bdf6e	0.1990945
167	0xbc992168	-0.018692687
168	0x3d31ccfa	0.04340837
169	0x3d9eea5c	0.07759544
170	0xbe0c6205	-0.13709266
171	0xbd8e6c72	-0.06954278
172	0xbe3cbc9e	-0.18431327
173	0x3e491de0	0.19640303
174	0x3e0d5069	0.13800205
175	0xbd4d16b4	-0.05007048
176	0xbd8ef763	-0.06980779
177	0xbd570b6c	-0.052501127
178	0x3db2804e	0.087158784
179	0x3d77d8b2	0.06050939
180	0xbd9b3f9b	-0.07580491
181	0xbda49717	-0.080366306
182	0xbe3a8192	-0.1821349
183	0x3b795ac0	0.0038048476
184	0x3e200122	0.15625432
185	0x3e2bfb74	0.1679514
186	0xbe24bab2	-0.16086844
187	0x3e521fe3	0.20519976
188	0x3e2d3278	0.16913784
189	0x3dd05ba7	0.10173731
190	0xbe46f771	-0.19430329
191	0xbda8364c	-0.08213481
192	0xbe054138	-0.1301316
193	0x3d031d64	0.03201045
194	0xbe4f0172	-0.20215395
195	0xbe26c9ba	-0.1628789
196	0xbca4344e	-0.020044472
197	0x3e6853b5	0.22688182
198	0xbe317804	-0.17330939
199	0xbdf0105e	-0.11721872
200	0x3e054c22	0.13017324
201	0xbc48cc84	-0.012255792
202	0x3dcc41a2	0.09973456
203	0xbdbac5de	-0.091197714
204	0x3e647ed8	0.22314012
205	0xbe4b2e8d	-0.19841976
206	0x3e62ad23	0.22136359
207	0x3e0ce06f	0.1375749
208	0x3e68100f	0.22662376
209	0x3e3373f7	0.17524706
210	0xbdc60e3b	-0.09670683
211	0x3e4b19f9	0.19834127
212	0x3e0dc12d	0.13843222
213	0xbe08e2d4	-0.13367778
214	0x3d4636e4	0.04839219
215	0xbb4ea140	-0.0031529218
216	0x3e1fd8cd	0.15610047
217	0x3e07c61b	0.13259165
218	0xbe30502e	-0.17218086
219	0x3e02c81b	0.12771647
220	0x3de2277e	0.11042689
221	0xbca5fd64	-0.020262428
222	0x3e3c00a3	0.18359618
223	0xbdc2b780	-0.09507656
224	0x3e3973a7	0.18110524
225	0x3e46b28d	0.19404049
226	0x3e1550a3	0.14581542
227	0x3e294a7d	0.16532321
228	0xbd62a57f	-0.05533361
229	0x3d7a9d3c	0.061185107
230	0x3dc739bc	0.09727809
231	0x3d72994c	0.059228227
232	0x3b346c44	0.0027530352
233	0xbd8e047e	-0.069344506
234	0x3dd957eb	0.10612472
235	0x3e499544	0.19685847
236	0xbe5000fc	-0.20312876
237	0x3d3547dd	0.044257987
238	0xbd3b5a26	-0.04574027
239	0xbe358ed8	-0.17730272
240	0x3e64ba23	0.2233663
241	0x3ce49640	0.027903676
242	0x3e5a2281	0.21302225
243	0x3db48f0c	0.088163465
244	0x3df543a4	0.11975792
245	0xbc052f67	-0.008128977
246	0x3e14307f	0.14471625
247	0x3ddbdb6e	0.10735212
248	0x3d7b975d	0.06142365
249	0x3e3ff255	0.18744786
250	0x3e23df3b	0.16003124
251	0x3b3ced40	0.0028827935
252	0xbd4d2362	-0.05008257
253	0xbda481f2	-0.080325976
254	0xbd3aca09	-0.045602832
255	0x3e37b8f3	0.17941646
