graph_classification_model.pt (torch, 225362 bytes, 23 tensors)

bias f4 [64]
00000000: d5c2 a8bb 0549 a73a 6664 3c3c 1dfa f23b
00000010: e871 7dbb 9d7c a9bb 5378 51bb 3838 e03b
00000020: d8ed d63a c1f8 443c 48e8 a93b 3978 e63b
00000030: 4850 253c adc6 3a3c 7dcb 02bc 1498 9fba
00000040: b858 10bc cde7 8ebb b1d5 dabb 94b3 5d3a
00000050: 2fdd 343c 7915 e3ba 4e4d acbb e79e a8bb
00000060: b60e 3b3c 369b 363c ac22 243c aa36 3ebb
00000070: 4320 0dbc c77a 843a c32b fcbb 42df b33b
00000080: 6c37 f63b d688 3439 6629 f4bb de64 febb
00000090: 6396 11bc 459d 3a3b f211 91ba 1768 84bb
000000a0: 0e34 29bc 9091 3f3c 70b9 b3ba 0dc9 2bbb
000000b0: d8ff 293b d38c f53a 1809 96bb a5a9 d9b9
000000c0: b705 393c 19aa 953b 371f 0cbb 8933 303c
000000d0: e363 67bb 7c89 433c 8823 273c eeba 50b9
000000e0: 32d1 143c 7fb2 15bc 9b73 0dbc deb2 193c
000000f0: 060d 08bb 77ca 973b 962a a13a 2b33 163c
-0.005150179 0.001276285 0.011498546 0.0074150697 -0.003867263 -0.0051723258 -0.0031962588 0.0068426393
0.0016397787 0.012022198 0.005185161 0.0070333746 0.010089941 0.011399907 -0.007983086 -0.001217606
-0.008810215 -0.004361129 -0.006678306 0.000845724 0.011039062 -0.0017325125 -0.005258239 -0.0051458958
0.011417082 0.011145404 0.010018032 -0.0029024282 -0.008613649 0.0010107391 -0.0076956465 0.005489261
0.007513931 0.00017217113 -0.007451224 -0.007763489 -0.008885953 0.0028475088 -0.001106797 -0.004040729
-0.010327352 0.01169242 -0.0013711881 -0.0026212365 0.0025939848 0.0018733985 -0.004578721 -0.0004151586
0.011292866 0.0045673964 -0.002138091 0.010754474 -0.003530734 0.011934634 0.010201342 -0.00019906063
0.009083079 -0.009136795 -0.0086335195 0.009381024 -0.0020759716 0.00463229 0.0012296017 0.009167473

weight f4 [64, 1]
00000000: 577d 05be e073 523e 5f98 80be 6903 ed3d
00000010: 80d1 80be f061 c43d 6e39 1abe 96ef 653e
00000020: ffa4 69be 56d9 a03e b4f8 903e 6ee3 f13d
00000030: bed8 9a3e eef2 8ebe 157e 97bc 1f01 78be
00000040: 3ac4 3c3e 3ab4 17bd a8d7 2f3e 6c34 82bd
00000050: 4b2a 0e3e 8a6f 733e 5be1 5ebe b8b2 8b3e
00000060: 0985 92be f10e 5bbc ad98 7ebd cd81 c1bd
00000070: c5e6 953e d55b 41be 14ff 643b 62de ba3c
00000080: 9354 e83d 3e4a 8bbd 216e 663e 7d32 8d3e
00000090: 2d80 3ebe 4f77 b6bd 346c 5bbe f538 313e
000000a0: 0e72 95be 0575 b8bd 87b2 11be a5cc fe3c
000000b0: 4fd2 cbbd caec 713e bd84 b33d 1984 8d3d
000000c0: e04f 473e fd01 a9bc 8596 883d 8a3d 06be
000000d0: 2862 f73d b288 a7bd cd07 753e 433d f7bd
000000e0: 8d49 24bd 29f8 8cbe 2ba3 323e abd0 34be
000000f0: 8575 8a3e 1495 c43d 1911 3ebc 85c5 dabd
-0.13036095 0.20552015 -0.2511625 0.11572916 -0.25159836 0.095889926 -0.1506097 0.22454676
-0.22816847 0.31415814 0.28314745 0.11810957 0.30243486 -0.27919716 -0.018492738 -0.24219178
0.1843423 -0.03703711 0.1717211 -0.06357655 0.13883321 0.23773018 -0.21765654 0.2728479
-0.28617123 -0.0133702615 -0.06215732 -0.09448586 0.29277626 -0.18882687 0.0034942077 0.022811119
0.11344256 -0.0680127 0.22502948 0.27577582 -0.18603583 -0.08909475 -0.21427995 0.17306884
-0.2918858 -0.09006695 -0.14228259 0.031103441 -0.099522226 0.23625484 0.08765552 0.06909961
0.19464064 -0.02063083 0.06669334 -0.13109413 0.12079269 -0.081803694 0.23928757 -0.120722316
-0.040109206 -0.2753308 0.17445056 -0.17657726 0.27042785 0.09598747 -0.011600756 -0.10682205

weight f4 [64, 1]
00000000: c30b 8abd aecb 5fbe 79dc a43d 559a 95be
00000010: 4868 07be fc5c 53be fb52 e03d eeaf c83d
00000020: dad6 853e e359 6ebd 8a8c 7a3e 6568 5bbe
00000030: 590e 4cbe 2614 6cbe 6352 6e3c 7e1f 8fbe
00000040: d0f1 583e 258c 6ebe ac7e 0a3e 04f1 09be
00000050: 7e4d 8fbb 776b b3bd 90e6 183e 7c44 943e
00000060: e77e 9fbe bf9b 88be 65d2 09bd 5772 453c
00000070: 8528 983e 4faf 023e 5b21 d93b 073f 88be
00000080: 15e2 703d f7a0 e9bd 4cfb ee3d 6085 d0bd
00000090: d44e d8bb 5e2c 553e 8785 8c3e e434 87be
000000a0: 88d0 31be 7e82 03be 31a9 25bc 4043 563e
000000b0: d6b1 353e 99d0 cabc 6b14 26be 9336 873e
000000c0: 9275 f4bd 65a9 11be c407 103e bfdc 213e
000000d0: 9096 c53d c26c abbd 009a 03be aaf9 c8bd
000000e0: 95b5 593e 6019 353e 0c7f 0f3e 78d9 02bd
000000f0: bd16 153e db79 073d 023e ffbd c327 01be
-0.067405246 -0.21855041 0.08049864 -0.29219308 -0.13223374 -0.2064094 0.10953327 0.09799181
0.2614048 -0.05819119 0.24467674 -0.21426542 -0.19927348 -0.23054561 0.01454601 -0.27953714
0.21185994 -0.23295648 0.13524884 -0.13470846 -0.0043732515 -0.08760732 0.14931703 0.289585
-0.31151506 -0.26681325 -0.033647913 0.0120511865 0.29718414 0.12762187 0.0066262907 -0.26610586
0.05880936 -0.11407655 0.11669025 -0.10181689 -0.006601194 0.20817706 0.27445623 -0.2640754
-0.17364705 -0.12842748 -0.010111139 0.20924091 0.1774362 -0.02475767 -0.16218726 0.26408824
-0.11936487 -0.14224775 0.14065462 0.15806864 0.09647858 -0.08370353 -0.12851715 -0.09813245
0.21260674 0.17685461 0.14013308 -0.031945676 0.14559455 0.033075195 -0.12462999 -0.12612824

weight f4 [64, 1]
00000000: 683b 063e 89da fe3a 3aab 7a3e 3597 593e
00000010: b59f 2e3e 1ae3 71be 9388 8cbe 71ea 053e
00000020: fac4 83bc df89 94be 900d 09be 761b 10be
00000030: 888c 53be 8e97 973d 9cd1 bd3d 60c6 33be
00000040: 336f 80be f1de 473e 036d 273e 4a94 b73d
00000050: d014 f13d 99b3 1cbd fdc2 03bd 3c24 86bd
00000060: ec09 20be be6a 5bbe cef4 473e 452c 4fbd
00000070: 6eb9 1b3c bf2f 82be 230f 483b ef21 3eba
00000080: d16b 61be bb6f 89be 657c 74be 1a9b 90be
00000090: 78de 6f3e db67 19be 1e3b 8abd d391 3f3e
000000a0: cf1c 8d3d 1b90 213d bb92 7f39 85fe 6a3a
000000b0: fe54 75b9 f02c e7bd 5cfa ce3c 4cfb 083e
000000c0: 5742 1cbe 4d50 753e c67c 863d 584b b5bd
000000d0: b286 e23d 5bad f53d cdde f93d 8840 a4bd
000000e0: 4d86 593e 2c7e 1eba 1547 553e 78fe e4bd
000000f0: f3ac c5bd 1162 0a3e e5f4 473d b850 e03d
0.13108599 0.0019443791 0.2447938 0.21249087 0.17053111 -0.23621789 -0.27447948 0.13077714
-0.016085137 -0.29011437 -0.1338408 -0.14072976 -0.20659077 0.07401954 0.092684954 -0.17556143
-0.25084838 0.19518639 0.16350178 0.08963831 0.11771548 -0.038257215 -0.032168377 -0.0654988
-0.15628785 -0.21427438 0.1952698 -0.050579328 0.009504659 -0.25427052 0.00305266 -0.00072529813
-0.22013785 -0.26843056 -0.23875578 -0.28243333 0.23424709 -0.14981024 -0.06749557 0.18707971
0.068902604 0.03944407 0.00024373356 0.0008964318 -0.00023396683 -0.11287868 0.025265865 0.13377112
-0.15259682 0.23956414 0.065667674 -0.08852261 0.11060847 0.119959556 0.12200699 -0.08020121
0.21242638 -0.0006046023 0.20827897 -0.111813486 -0.09652128 0.13513972 0.048817534 0.10952896

weight f4 [64, 1]
00000000: 1b88 1cbe ed90 a2bc 496b 8e3e 5c1a 09be
00000010: 68da 1a3e c739 95be 9b3e 253e 9980 603e
00000020: b693 5c3c 49f5 91bd dc1f f93d 9f00 6e3d
00000030: 0e5d 2b3e eeb6 fa3c c9dd 6dbe c913 73be
00000040: a4fe 533e 3b49 8a3a 61e5 713e 5206 2a3e
00000050: 127b 35be 6d32 58be 7991 4e3e 3070 cdbd
00000060: cd60 373e 4240 4ebe fd1e 67bd 5d7e 403d
00000070: 8a70 86bc c173 7c3e 0478 6abc 92ed 963d
00000080: ed8f 733e 30e5 95be 2afc 863d 96ca 493e
00000090: ae99 11bd a9c2 443d ab0d 413e e9f9 f73d
000000a0: 845f 97bd 0128 753e 2816 23be 8844 603e
000000b0: a1d4 973e ce1b 543e 0d1d b43d e01d 26be
000000c0: cf03 5f3e 7aaa debc 89a6 74be 2a2f 383e
000000d0: 3f59 453d 4473 413e 1acd b2bd 7856 1b3d
000000e0: 092a 8f3d 2230 16be 8a3b b43d 57c3 523e
000000f0: 96ff 563e 0827 da3d e9a1 4d3e f2c0 bebd
-0.15286295 -0.019844497 0.27816227 -0.13388962 0.15122378 -0.29145643 0.16137163 0.21924056
0.013462951 -0.071268626 0.1216428 0.05810606 0.16734716 0.030604806 -0.23229136 -0.23738016
0.20702606 0.0010550389 0.23622657 0.16603974 -0.17722729 -0.21112986 0.20172681 -0.10031164
0.1790802 -0.201417 -0.056426037 0.04699551 -0.016411085 0.24653532 -0.0143108405 0.07369532
0.23785372 -0.2927642 0.06591065 0.19706187 -0.03554695 0.048037205 0.1885287 0.121082135
-0.07391265 0.23941042 -0.1592642 0.21901143 0.2965441 0.20713732 0.087946035 -0.16222334
0.21778797 -0.027180899 -0.23891653 0.17986742 0.048180815 0.18891627 -0.08730526 0.03792426
0.069904394 -0.14666799 0.08800419 0.20582329 0.20995936 0.10651976 0.20081295 -0.09314145

weight f4 [64, 1]
00000000: 836c d7bd f090 2dbd bdf6 973e 8ada d9bd
00000010: 002c 44be 16f5 113e e023 82ba 976b 30be
00000020: eaa2 6dbe 5d19 763e cd7c a33d 7179 873e
00000030: 0726 40be 7eac 913e 813d 89bd 4f85 b3bb
00000040: bac8 d53d 73c2 32be 383c 9dbd d169 b9bd
00000050: 3eae 423e a79d 5dbe 83db 853d 6d98 78be
00000060: 2baa b7bd fae5 c9bd 8a7b f9bd 0a37 00be
00000070: 2ddb 8f3d 1428 3bbe 34c1 d8bd 9b44 23be
00000080: 1149 1d3d 6b88 1b3d 3ec7 14be 7d71 513c
00000090: 431e 803e af72 99bc 9a3a 4abe 9a1a 94be
000000a0: 9e4d 7b3e caa1 063e 9f2b 603e c854 4a3e
000000b0: 434c 8fbd d178 243d 84e8 703d b01f e73d
000000c0: a0be b7bd 0dce 93be 9818 943e 0769 333e
000000d0: e7be 73bc 5b73 5b3e 3613 bcbd 4340 8dbe
000000e0: 9c36 0d3d 3d42 61be 41c5 42be 0842 763e
000000f0: 1512 2bbe daa5 243e 61bf 6a3e f6b0 5abe
-0.10518744 -0.04237455 0.29680434 -0.10637386 -0.1915741 0.14253649 -0.0009928904 -0.17228542
-0.23206678 0.24033113 0.07982788 0.2645984 -0.18764506 0.28451914 -0.06701184 -0.005478538
0.10438676 -0.17456989 -0.076775014 -0.09053386 0.1901178 -0.21642171 0.06536009 -0.24276896
-0.08968004 -0.09858318 -0.12181766 -0.12520996 0.07024226 -0.18277007 -0.105837256 -0.1594414
0.03839976 0.037971895 -0.1452913 0.012783405 0.25023088 -0.018731443 -0.19748917 -0.28926545
0.24541327 0.13147655 0.2189164 0.19758904 -0.06996968 0.040154282 0.058815494 0.11285341
-0.08971906 -0.28868142 0.28925014 0.17520534 -0.014877058 0.21430723 -0.09183352 -0.2758809
0.034475908 -0.21997924 -0.19020559 0.24048626 -0.16706116 0.16078892 0.22924568 -0.21356568

weight f4 [64, 1]
00000000: 3622 67bd 1b55 97be fd93 75be 1839 463d
00000010: 540f 043e 13fd 3c3e 331c 9d3d 4ac3 9a3e
00000020: 4e14 c8bd e7b3 73be 39a6 34bb dd01 17be
00000030: 21b0 e23d a607 5dbe 1c57 cfbd 623d 7fbd
00000040: 5753 8fbe a42a 9d3e 0938 eb3d 3049 723e
00000050: bdbf 913e 9a28 8cba e480 dd3a a8a7 8c3e
00000060: 2721 9cbd 27cc b1bd a981 a9bd 8c57 89be
00000070: 72ae b1bd 1460 ffbd c7c9 c7bd 6eea 51bd
00000080: d0eb 3fbe 9fc2 3e3e e8d1 20be 58f0 9c3d
00000090: 5593 673e e8ab 7dbe 5d3c 863e aa26 383e
000000a0: 5a8e 62be be4d 97be b27c b13c af51 5ebd
000000b0: f8dc 7fbc ed85 d93c fcbe 2e3d 55c8 203e
000000c0: 8189 3ebe 8a46 d23d ac69 2e3d 1c58 5dbe
000000d0: ab09 dd3c ba88 4bbe 7a39 69be 33ea 2bbd
000000e0: 99c3 9ebe a8e8 6b3e e8dc 843e 5b64 65be
000000f0: 88fb 6b3e d210 de3d 883d 503e 98f5 bdbd
-0.05642911 -0.29557118 -0.23982234 0.048394293 0.12896472 0.18455915 0.07671394 0.3022712
-0.09769498 -0.23799096 -0.0027564897 -0.14746805 0.1106875 -0.21584949 -0.10124037 -0.0623144
-0.2799327 0.30696595 0.11485297 0.23660731 0.28466597 -0.0010693253 0.0016899374 0.27471662
-0.07623511 -0.08681517 -0.08276684 -0.26824605 -0.08675851 -0.12469497 -0.09755283 -0.05124896
-0.18742299 0.1862893 -0.15705073 0.076630294 0.22614796 -0.24772608 0.2621793 0.17983499
-0.22124615 -0.295515 0.021665905 -0.05427712 -0.015616648 0.026553119 0.042662606 0.1570142
-0.18607141 0.102673605 0.042581245 -0.21615642 0.02698215 -0.19876376 -0.22775832 -0.041971397
-0.31008604 0.2303797 0.25949788 -0.22401564 0.2304517 0.10843052 0.20335972 -0.09275359

bias f4 [64]
00000000: 4771 13bb 645c cabb 9a97 ecba 92da ceb9
00000010: c8de 8c3b ec8b 6fbb 5e05 3f3c 3b4d 21bb
00000020: d179 a03a 937b 3dbb 31f3 a2ba da44 58ba
00000030: fae3 013b e7a1 3d3c 7266 79bb 7846 b93b
00000040: 18ea 2e3c 191b 133c 58e0 203b 58ea a0bb
00000050: ff6c 363c f17d aebb ba0c a63b a22c 47bb
00000060: 6a9c f5bb 855a 353c 5918 e7bb b771 f2bb
00000070: 12f1 3a3c a671 003c 5c56 303c b9c4 5a3b
00000080: 189a edbb 9275 a33b 1e21 f2bb cadb 12bc
00000090: 8195 343c 1b5e f53b 4921 413c f19f 3c3c
000000a0: cc93 f3bb 8345 98bb 4c3f 3f3c 086a 433c
000000b0: 11bd 76bb 468c 0cbc 5d5b 283b 6117 e6ba
000000c0: bf45 953b 48f1 e93b 8893 463b d8a6 133c
000000d0: 4459 013c 9b23 c93b 01eb ad3b 174d d23a
000000e0: c4e7 3e3c c3d6 643b c492 1b3c d9f5 04bc
000000f0: fdd7 023c 6501 5b3b 7536 9abb e39d 1bbb
-0.0022497938 -0.0061755646 -0.0018050552 -0.0003945423 0.0042990185 -0.0036551906 0.0116589945 -0.0024612683
0.0012243335 -0.0028912767 -0.0012432096 -0.0008250006 0.0019819723 0.011574245 -0.0038055447 0.0056541525
0.0106759295 0.008978629 0.0024547782 -0.0049107485 0.011134385 -0.005325072 0.005067435 -0.0030391593
-0.0074954526 0.011068945 -0.007052463 -0.00739881 0.011410015 0.007839596 0.010762777 0.0033381416
-0.0072510354 0.0049883807 -0.007389202 -0.008963535 0.011021973 0.007488025 0.011787721 0.011512742
-0.0074333902 -0.0046469583 0.011672806 0.011927135 -0.0037649313 -0.008578366 0.0025689222 -0.0017554575
0.0045554335 0.0071393587 0.0030300338 0.009011947 0.007894818 0.0061382777 0.0053075557 0.0016044703
0.011651937 0.0034918047 0.009495441 -0.008115255 0.007986066 0.003341758 -0.004706199 -0.002374523

weight f4 [64, 64]
00000000: 531e 253d e79e 4fbe 73f7 523d e9c4 fc3d
00000010: 485b 6ebc 163d 573d a7ec 0e3e 5803 f63d
00000020: cef3 0bbe 67dc 57be 31f1 f4bc dd91 b0bb
00000030: 770a 413e 85c4 513e e279 22be a541 b93d
00000040: 63c6 3ebe 129f 5cbe 0920 4dbd a747 8d3d
00000050: 7a3f 55be c82d 0ebe 3624 d8bd 21eb 313e
00000060: 98f3 3e3e 9ae0 76bd a789 f33c 3dd9 34be
00000070: ec08 bebc 3f97 aebd 6e26 133d 9ac8 043e
00000080: b98f babd e0e1 03be 7161 e43d 8761 31be
00000090: f354 2e3e b513 0fbe 3cfd d83d d680 23be
000000a0: 4d74 59be a6bb 343d c994 96bc 0455 c03d
000000b0: c76e 92bd 9ecc 763d 953b b23c 2925 1cbe
000000c0: 93ab f3bd 8081 c03d 0347 103c 0034 183e
000000d0: 7a13 8d3d d6d6 85bd d88d 173e 11f2 d23d
000000e0: b7c3 233e 4002 37bd da13 1dbe 8e63 283e
000000f0: 1880 9d3d 9e3a f7bd c3cb 63bd 2b27 10be
00000100: 019b a9bc ad3f 1d3e f6c9 aabc 52b8 80bd
00000110: 9a4c d53d a08e da3c 5f33 93bd 0db1 283e
00000120: 3fbb 14be d9e6 17bb c0e0 e2bd 7ddf 11be
00000130: a483 dbbd 0e21 1fbe f246 88bd 70f5 1e3d
00000140: 743e 713d 5b06 ed3c f4e8 febc bcfc 05be
00000150: 893f 383e 11bb 2fbe 41cf c23d d4eb 2c3e
00000160: d06b 273e a498 3ebd d99c 77bd db0b 49be
00000170: 0e95 9fbd 142a ef3d 1e94 3f3c 0f58 be3b
00000180: aef0 5b3d 65b0 8d3d c437 d93d 583e 4e3e
00000190: 61b7 fe3d 2684 5dbe 3525 63be f126 3a3e
000001a0: 9d68 a4bd 6dfb 0e3e c7e9 a5bc 6352 64be
000001b0: af30 89bd ddc1 f33d 9d9d 463e 71a4 4f3e
000001c0: 2d5e 7d3c 3449 4c3e 8c6f 6f3d 88f5 363e
000001d0: 324a 89bd 645f 2a3e 7560 233d 509f 4a3e
000001e0: 6909 07be 1801 35be d2dc bf3d c646 e8bc
000001f0: 70bd 33be 2c4c 21be c1da 473e 53b0 b6bd
00000200: 63a4 c93d 3de4 103e 5768 173d dd34 25bd
00000210: f092 233e b620 8d3d 327b 01be a6a0 3c3d
00000220: e03d d73d 1d9e 463d bbea 53be f144 073e
00000230: 7043 03be 3cad 04be fb8a 5a3e ca41 0e3d
00000240: 30b0 2fbd 159b c13b d451 59be 10a5 29be
00000250: 5034 e03d a764 c53c c630 27bd 60d1 123e
00000260: 7d85 3cbe 6076 c3bd e09b 11be 0480 cf3d
00000270: aab9 ecbc 9ad0 eabd c0f0 d8bd 5e9a c03d
00000280: fe3f 083e b404 0d3e 20b4 19be ead4 953d
00000290: 7713 a7bd 863b 263e 0443 d03d fbe4 d33c
000002a0: ea99 533c b07a 53be 9ba2 3abe e8d3 7dbd
000002b0: be4e 6f3d 642a 973d 0c51 9abd e16e 43be
000002c0: 1242 08bd 6501 52be 1ee5 223e 41ed e9bd
000002d0: 1657 713d 6f64 51be db8d 203d 2284 3abe
000002e0: 0218 a9bd 7ea5 ab3c 139f a83d c22f 39bd
000002f0: 0758 a63d 657e 30be 1fdf 073d 62a1 48bd
00000300: eb17 1c3e 332d b4bd 0a44 bc3d a72a 293d
00000310: 8aac 093e 821e 59be 5650 47be 6ae7 c33d
00000320: 46ff 94bd b568 403e a685 833d 18d7 b8bd
00000330: 5eae 1f3e 289d 90bc 4d78 b3bd 3dd3 cf3d
00000340: 08ba 263e 1816 2fbe 094a 0cbe 62f8 6dbc
00000350: fbc1 903b 8341 34bd 1b26 bebd 0cb4 fb3c
00000360: aec7 f23d aa6c c1bd f85b 56be 31cb 1dbe
00000370: 25f2 68bd f905 06be cecb c4bc 1f8b 133e
00000380: 31c4 0fbe 1257 20be c23a 533d 9ff8 00be
00000390: 0fe2 563e 6e61 5c3d f949 393e be83 ae3d
000003a0: f719 973d 88ae 533e e073 8b3d 93ce f23c
000003b0: affa 2f3e 0e58 07be 968f 323e 06c3 353e
000003c0: b243 59be a03d fbbc 5fda 973d d148 52bd
000003d0: 12e4 fbbb 08e3 ea3d 94d0 c7bd 8bb5 8ebc
000003e0: d6a4 78bc fbdb 2fbe 66dc 25bc aa4f 8e3b
000003f0: 3b2a 4e3e b3a2 4fbe e824 0fbd c2e3 39be
0.040312123 -0.2027546 0.051505517 0.12342245 -0.01454813 0.05254849 0.13957463 0.120123565
-0.13667223 -0.2108017 -0.029900165 -0.005388482 0.18851648 0.20485123 -0.15866807 0.09045724
-0.18630366 -0.21545056 -0.05007938 0.06898432 -0.20824996 -0.13884652 -0.10553782 0.17374851
0.18647611 -0.06027279 0.029728724 -0.17660995 -0.023197614 -0.08524942 0.03592532 0.12967148
-0.09109444 -0.12879133 0.11151398 -0.1732236 0.17024593 -0.13972361 0.105951756 -0.15967116
-0.21235771 0.044124268 -0.018381493 0.093912154 -0.07150035 0.060253732 0.021756927 -0.1524855
-0.118979596 0.093997 0.008805993 0.14863586 0.068884805 -0.06535117 0.14800203 0.10300077
0.15992628 -0.04467988 -0.15339604 0.16444227 0.076904476 -0.12071727 -0.055614244 -0.14077441
-0.020703794 0.15356322 -0.020848256 -0.06285156 0.10415001 0.026679337 -0.07187533 0.1647379
-0.14524554 -0.0023178367 -0.11078024 -0.1424541 -0.10718468 -0.15539953 -0.06654157 0.038808286
0.05889745 0.028933695 -0.03111694 -0.13084692 0.17992987 -0.17161204 0.09512187 0.16886836
0.16349721 -0.04653229 -0.060452316 -0.19633429 -0.07792102 0.11677948 0.011693029 0.0058088372
0.053696327 0.0691841 0.106063396 0.2014097 0.124373205 -0.21632442 -0.22182162 0.18178917
-0.08027766 0.13963099 -0.020253075 -0.22297053 -0.06698739 0.11902211 0.19396062 0.20277573
0.015464348 0.199498 0.05845599 0.178671 -0.06703605 0.16637951 0.03988691 0.19787335
-0.13187183 -0.17676198 0.0936829 -0.02835406 -0.17552733 -0.15751714 0.19517042 -0.0892035
0.098458074 0.14149566 0.03696474 -0.040333617 0.15974021 0.06891005 -0.12644652 0.046051644
0.105098486 0.048490632 -0.20695011 0.13209893 -0.12818694 -0.12956709 0.2134208 0.03473071
-0.042892635 0.00590838 -0.21222621 -0.16566873 0.10947478 0.024095846 -0.040818 0.14337683
-0.18410297 -0.095440626 -0.14219618 0.10131839 -0.028897125 -0.11465569 -0.105927944 0.09404443
0.13305661 0.13771325 -0.15010118 0.07316001 -0.081580095 0.16233644 0.10169032 0.025866022
0.012915114 -0.2065227 -0.18226092 -0.061969668 0.058424704 0.07381132 -0.0753499 -0.19085266
-0.033266135 -0.20508344 0.15907714 -0.11422206 0.058920942 -0.20448469 0.039197784 -0.18214467
-0.08256532 0.020952936 0.08233466 -0.04521156 0.08122259 -0.17235716 0.03317177 -0.04898203
0.15243499 -0.087976836 0.09192665 0.041300442 0.13444725 -0.21203044 -0.1946424 0.09565623
-0.07275252 0.18789943 0.06421976 -0.09025401 0.1559386 -0.017653063 -0.0876318 0.101477124
0.16281903 -0.17098272 -0.13700117 -0.014524551 0.0044176555 -0.04400779 -0.09284612 0.030725501
0.11854492 -0.09444554 -0.20933521 -0.15409543 -0.056871552 -0.13088216 -0.024022963 0.14408539
-0.14039685 -0.15658215 0.051569708 -0.12594841 0.20984672 0.053803854 0.18094625 0.085212216
0.07377999 0.20672047 0.06809211 0.029639518 0.17185472 -0.13217184 0.17437586 0.17750177
-0.2121723 -0.030669034 0.07414698 -0.051338974 -0.0076871 0.11469084 -0.0975658 -0.01742055
-0.015176019 -0.1717376 -0.010123348 0.004342993 0.20133297 -0.20276909 -0.034947306 -0.18153289

weight f4 [64, 64]
00000000: 297d f23d 9321 2fbe 2742 6dbd 7a1f 5f3e
00000010: 0ae4 c53d 3a6e dc3c c760 c3bd 794b a1bd
00000020: 519d 383d c21d 54be a87a 25be 20a2 b53d
00000030: 212a 433d 3ac2 febd 629d 9cbd a7d9 c53d
00000040: f616 f33d 6915 57be 11bf 6d3d a8a6 fcbd
00000050: 55e7 ddbd 1e31 073d 4bf2 3f3d bc6c 02be
00000060: ddde 55bc a7ff 3b3d 849e bd39 541b 66bd
00000070: c3fd 863d 11eb 0cbe da52 d3bd c03f ea3c
00000080: 9f69 453e db05 adbc 9b29 0c3d 1c85 84bc
00000090: 8d8b ed3c 7ed6 213e 517b 06be 364c a4bd
000000a0: f258 34be 0689 d8bc 0593 493e 109b ebbd
000000b0: b2e4 eabb 16b4 d13d 1153 3b3e 93fe 253d
000000c0: 9b7f f93d 3fa1 efbd d502 c6bd e951 81bc
000000d0: 7e34 273e e0f3 2ebe 05ee e23d 4f14 4abe
000000e0: 65d2 d43d a22e 3fbe 6774 c4bd 50b2 493e
000000f0: e9a4 f5bd 96e7 b5bd 7e82 d13d 284e fabd
00000100: 4e6a 9ebd c7b8 213e c6ff 213d dd0d 15be
00000110: 5862 483e 02f5 213c 559f 38bc 249f 10be
00000120: d40a 063e b207 0e3e 142b 213c cae8 3a3e
00000130: d5a7 dc3d f1e4 453e 91d0 13be a151 b93d
00000140: 4b51 123e 28ed a1bd c110 3f3e 85d9 e4bd
00000150: e199 57bd dd0e 95bd 83ee 733d 6e6a 853d
00000160: 8e50 abbd 1421 0fbe f5f5 1cbe 01b3 383e
00000170: 084a f13c b4d4 78bd 6443 183e ccd6 44be
00000180: 7da8 0ebe c657 abbd 66ba 1b3d fcf8 53be
00000190: 9c54 00bd 3ba2 efbd 7136 663c b333 cf3d
000001a0: 53d3 d1bd b275 a3bd e542 1b3e 2105 843d
000001b0: 7be9 f4bc 0a1f 543e 8257 2d3e 4c18 cb3d
000001c0: 7515 8e3d b036 803c f9d0 80bd 51dd 083d
000001d0: 4ab3 1d3b 6940 073d 6dd9 a63d c673 be3d
000001e0: 3d0f b43c cf82 e5bd 3c8a dc3d 3217 faba
000001f0: e926 40be 7054 2fbd b617 79bd 0b55 833c
00000200: beea 0bbe c47b 96bd 5693 a8bd 928f 293e
00000210: 7cfc bcbd c851 17be 3ea9 4cbe efa1 233e
00000220: e015 c0bd 8ddb 2c3d e741 e43d 4d9c c7bc
00000230: 0b3a 183d 747e 243e d159 293d b431 c1bd
00000240: f1b7 e13d 3287 373e 25fa 513e 8009 283e
00000250: f4e3 bb3c 5ae7 663b d12e ba3c 491f a2bc
00000260: 1702 543e d28f 33be c874 1fbe 5bd4 de3d
00000270: f728 29bd 116f 383e 5078 553e e2d7 e93c
00000280: acf2 4a3e d502 573d 83c8 483e 4916 83bd
00000290: 2b5b b33d 2a05 2dbe b059 843d fb7a 443e
000002a0: 4514 5d3e 615f 09be 8d94 c1bb 05c5 293c
000002b0: b92f 3cbc 2d07 213e 844a 06be e8ec ee3d
000002c0: cfdf 9fbd 962d ccbd 1bf0 473e 2135 d13c
000002d0: cd6e 363e c1cb 9cbd f861 543e 9b8a 0d3e
000002e0: c209 0abe 73a3 0a3e 3970 f33c cf1b d63d
000002f0: 0bc0 193e 18ae b4bd cc76 273e 63cf 49be
00000300: dea2 f7bd f35c 21be 7f39 ff3d cc91 2dbc
00000310: 275d 46be 8247 373d c2dd c4bd ed9e fbbd
00000320: cf14 93bd ee27 c53d 635c 513d c06c 533e
00000330: 049a bbbd 9a31 10be c78a 5f3d 7d1d 4dbe
00000340: f424 583d 5e31 1a3c bf07 15be 6694 59be
00000350: b323 4c3d 7ccc 2a3e e2cd 383c cca1 ad3d
00000360: 9aed b3bc 532d 6bbc e8d3 053e 549c 8d3d
00000370: f9ff 8e3d addf 18be 6f81 2d3e 14a2 29be
00000380: aca0 c1bd d53e 093e fe5c 29be 8ab0 063e
00000390: 51ea 29be 39d9 083d 7499 b2bd 6b5f 6bbd
000003a0: 08b4 ddbd d586 e73d 5eb8 0b3e a1fd 64bd
000003b0: ab1e 7d3c dfe3 f23d 107b 0bbe 46ac 293e
000003c0: 5e95 c53d d728 46be af64 3b3e a718 eabd
000003d0: 6ea0 70bd 4e69 2e3e 9e9f f53d 4fab 75bd
000003e0: fdeb 093e 0a66 13be b86e c83b 6aba 80bd
000003f0: 3368 24be 9796 0ebe abe6 923d 8b2f 2fbd
0.11840279 -0.17102651 -0.057924416 0.21789351 0.096626356 0.026908029 -0.09539943 -0.078757234
0.045071904 -0.20714477 -0.16160071 0.088688135 0.0476476 -0.124393895 -0.07647206 0.096606545
0.11869614 -0.21004261 0.058043543 -0.12336475 -0.10835139 0.033005826 0.046861928 -0.12736791
-0.013053623 0.045898106 0.00036166993 -0.056178406 0.0659137 -0.13761546 -0.10318537 0.028594851
0.19278572 -0.021120956 0.034219366 -0.016176753 0.028997207 0.15804479 -0.13132979 -0.080223486
-0.17612055 -0.026432525 0.1968499 -0.11504185 -0.007168376 0.10239427 0.18293406 0.040525984
0.12182542 -0.11700677 -0.09668509 -0.015786128 0.16328618 -0.17085218 0.11080555 -0.1973431
0.10391692 -0.18670133 -0.095925145 0.19696927 -0.11994345 -0.08882062 0.102299675 -0.12221938
-0.0773512 0.15793143 0.039550565 -0.1455607 0.19568765 0.009885075 -0.0112684565 -0.14123207
0.13090068 0.13870123 0.009836931 0.18252864 0.10774199 0.19325615 -0.1443503 0.090487726
0.14288823 -0.07906562 0.18658735 -0.11174301 -0.052636985 -0.072782256 0.059553634 0.065144405
-0.08364974 -0.13977462 -0.153282 0.18037035 0.029454246 -0.060749725 0.14869457 -0.19222564
-0.1393146 -0.08366351 0.03801956 -0.20700449 -0.03133069 -0.11700865 0.014051066 0.10117283
-0.10245385 -0.07981433 0.15162237 0.06446291 -0.029896488 0.20714965 0.16927913 0.09916744
0.06937686 0.015651077 -0.06289858 0.03341419 0.0024063163 0.03302041 0.081469394 0.09299426
0.021979922 -0.112065904 0.107685536 -0.0019080399 -0.18764843 -0.042805135 -0.060813628 0.016031763
-0.13663766 -0.07347825 -0.08231227 0.16558674 -0.09227845 -0.14777291 -0.19986436 0.15979742
-0.09379172 0.042201567 0.111453824 -0.024366522 0.03716473 0.16063863 0.04134542 -0.09433308
0.11021412 0.17922667 0.20505579 0.16409874 0.022935845 0.003523311 0.022727402 -0.019790309
0.20703922 -0.17535332 -0.15571892 0.10880347 -0.041298833 0.18011118 0.20846677 0.028545324
0.19819134 0.052492935 0.19607739 -0.06400735 0.08757623 -0.16896501 0.06462419 0.19187538
0.21589763 -0.1341529 -0.005907601 0.0103619145 -0.011485987 0.15725394 -0.13114363 0.1166628
-0.0780636 -0.09969632 0.19525187 0.02553803 0.17815705 -0.076560505 0.20740497 0.13822405
-0.13480285 0.13538913 0.029716598 0.10454523 0.15014665 -0.08822268 0.16353911 -0.19708018
-0.12091611 -0.15758114 0.124621384 -0.010593843 -0.19371472 0.04474593 -0.096126094 -0.12286172
-0.07181703 0.096267566 0.051113497 0.20646954 -0.091602355 -0.14081421 0.054575708 -0.2003078
0.052769616 0.009411184 -0.14553736 -0.21248016 0.049838733 0.16679567 0.011279555 0.08478126
-0.021963883 -0.014354068 0.13069117 0.06914583 0.06982417 -0.14929076 0.16943906 -0.16565734
-0.09454474 0.13402875 -0.1653938 0.13153282 -0.16593291 0.033410285 -0.08720675 -0.057464045
-0.10825354 0.11305014 0.13644549 -0.055905942 0.015449206 0.11859869 -0.13621163 0.16569623
0.0964763 -0.19351517 0.18300126 -0.11430483 -0.058746748 0.17032358 0.11993335 -0.059977826
0.13468929 -0.14394394 0.0061167143 -0.06285556 -0.16055374 -0.13924633 0.07172903 -0.04276995

weight f4 [64, 64]
00000000: cb2c f2bd fea6 273d d6f6 a5bb ef51 49bd
00000010: 961f d2bd 2031 56bc 66eb 853d 3d8c 58be
00000020: 5357 513e b737 0abd dfe9 a9bd 8842 6f3d
00000030: d056 3abe 8b38 51be e05a eb3d 1a2d c93d
00000040: 05f9 443e 279b b0bd 11a6 453e 5ab7 9f3d
00000050: fcbf 2f3d 5ce0 47be d4e4 573e dcf8 ac3d
00000060: c45a 84bd 4440 06be 01de 3bbe 2ff0 4f3e
00000070: 5b95 233e eaf0 073d 9297 a8bd c964 7d3d
00000080: c0d5 c1bd 7173 343e 2bcf 2dbe 511f a23d
00000090: a8f7 453e 175c 533d da6f 4b3e 6cef 723d
000000a0: dab5 a0bd af3b d43c 4740 353e d8fa 423e
000000b0: c673 743d c8d8 22be 3034 b33d f97f 52be
000000c0: c836 29be 4274 023e 7429 92bd 84ec 6fbc
000000d0: 705b 4d3d 6035 063e cc0e 19be 021b 26be
000000e0: e40b 2bbd eb1d 29bd 8860 3cbe 0efa 4d3e
000000f0: e1e7 aabc 130b f03c b59b 91bd e6ad 403d
00000100: c8ad a9bd 74cd 673d 4650 09be b466 163e
00000110: 49ea a13d 4629 163e 116d b33d 2934 10be
00000120: a823 05be e7fe c6bd 2d0f d33d e76c 603c
00000130: c50e 3b3e f018 8abd 9909 acbc 6560 1c3e
00000140: 14ec 23be fc5b fc3c 81c3 d93d f961 d73b
00000150: 50ae 753d f841 d43b 2253 e63b 575e a83c
00000160: 8dc4 23be 9640 31bc 6075 38bd 26b2 443e
00000170: 2ec2 07bd 3e6a 283e 192b 94bd 07ba e1bd
00000180: dd89 243d 9f17 53be ed59 543e 090f 143c
00000190: b421 d6bd 29cf 423e 0db7 30bd 171e 993c
000001a0: d37e 63bd 580b f13d 6cc5 17bd ceb8 2dbe
000001b0: a6ec 403e 7379 43be 9513 3fbe 6b47 473e
000001c0: 2015 273e b7a6 4939 f569 0ebe 33a9 d93d
000001d0: b520 02bd bec6 7bbd 0ede 02bd d59b f2bd
000001e0: f692 9abd 698b 26be 788e 373e a507 6239
000001f0: 5a4e 463d 8005 c9bc 263e 4f3e 5bfc 0a3e
00000200: afb9 efbd 9e0e de3d b9ee ff3d 8fbf 23bd
00000210: 8825 2abe 5fac 803d 57b2 02be 061f a73c
00000220: d0df 0cbd 611e 04be 4aa2 313c 5c85 533d
00000230: 2680 e33c 6e32 0fbe 561a bb3d faa2 8a3d
00000240: aa07 3cbd eb8b 1b3e c45a 083e a54a 993d
00000250: 6ee5 47be f395 28be 4872 453e 2a89 87bd
00000260: fcdd 0a3e d234 493c f1db 57be 9f1d 30be
00000270: 5b0d 9bbd 5d5c 2abe 47e0 163c d359 233e
00000280: c2c2 98bc 9063 233e 53d6 0abb 6f2e 58be
00000290: 137f 81bd 0a67 80bd cf94 febd db00 48be
000002a0: de6b f33d 543d f2bb a471 fcbc c732 64bd
000002b0: 7619 3fbe 7623 03be 9754 323d fd0d e23b
000002c0: feeb 293e ba05 4b3c 4e9e 563e 8741 3ebe
000002d0: 23ea b6ba cd16 033e 1632 1b3e 18b7 c4bd
000002e0: e491 83bd f4cf 213e ac48 35be 64c2 c5bd
000002f0: 72d9 cfbc dd9f d2bc b421 383d 0669 bfbd
00000300: ecdb 2dbd 1532 b1bd 82d7 263e 4c1b 36be
00000310: a401 24bd 6b27 ee3a 6e1d c93d 371a 88bd
00000320: c59f 97bc f959 1ebe 2725 c9bd 0bc5 403d
00000330: f5e9 4d3e 5e2e f8bd 8acb d53d 4216 c83d
00000340: c0c8 a7bd ae6f 5cbd 3553 aabd 1f2e 8839
00000350: b2eb 62be b267 a03d 68ff 383e b465 bfbd
00000360: 56f6 65bd 6996 23be f8c4 0d3c c8e7 7c3d
00000370: f4b4 3ebc c5b8 dabd fccd b93c 859b 38be
00000380: f12e 98bd 00d1 223e e975 8bbd a0a5 363d
00000390: 584c 93bd 5781 4abe 9bb6 51be 50dd d63d
000003a0: 0767 02ba 034b 20bb 10fe 363e 9f1b 0c3e
000003b0: d37c a0bd ec75 3abd ebf8 8c3c f23a a43c
000003c0: bd78 1c3d 5baf 483d ee9a 3b3e 96d3 8fbc
000003d0: 484d 673d 6304 f3bd d05a f13d 07f7 6b3c
000003e0: 1938 5fbd ae98 2c3d f4d0 4dbe 74c3 b93d
000003f0: 7848 aabd e0e6 0cbe 735b 16bc 8b5d bfbd
-0.1182495 0.04093074 -0.0050648255 -0.049150404 -0.10259931 -0.013073236 0.06539039 -0.21147247
0.20443468 -0.03374454 -0.082965605 0.05841306 -0.18197179 -0.20431726 0.114919424 0.098230556
0.19235618 -0.08623343 0.1930163 0.077986434 0.0429077 -0.1951918 0.21083385 0.08445904
-0.06462625 -0.13110453 -0.18346407 0.20306467 0.15974943 0.033188738 -0.08232035 0.061863694
-0.09464598 0.17622162 -0.1697356 0.079161294 0.19332755 0.051601496 0.19866887 0.05931036
-0.078471854 0.025907366 0.17700301 0.19041002 0.059680723 -0.15903008 0.08750188 -0.2055663
-0.16524804 0.12739661 -0.07136813 -0.014643792 0.05013603 0.13106298 -0.14947051 -0.1622124
-0.041759387 -0.041288298 -0.18396199 0.2011492 -0.020862522 0.029302156 -0.07109777 0.047040842
-0.08285099 0.05659242 -0.13409528 0.14687616 0.079060145 0.14664182 0.08761037 -0.14082398
-0.13001883 -0.097165875 0.10305629 0.013697839 0.18267353 -0.06743038 -0.02100067 0.15271147
-0.16008025 0.03080558 0.106329925 0.0065729585 0.05998069 0.0064775907 0.007028953 0.020552797
-0.15992947 -0.010818621 -0.045033813 0.19208583 -0.03314417 0.16446778 -0.07234783 -0.1102181
0.04017054 -0.2061448 0.20737429 0.009036788 -0.10455647 0.19024338 -0.04314332 0.018691106
-0.05554087 0.11769742 -0.03705351 -0.16965029 0.18840274 -0.19089298 -0.18659814 0.19460838
0.16316652 0.0001923096 -0.13907607 0.10627975 -0.031769473 -0.061468832 -0.03195005 -0.11846129
-0.07547562 -0.16264118 0.17925441 0.00021555887 0.048414566 -0.024538755 0.20238551 0.13572828
-0.11705338 0.10842632 0.124967046 -0.039977606 -0.1661588 0.06282877 -0.12763344 0.020400535
-0.03439313 -0.12902214 0.010841915 0.051640853 0.027771067 -0.13984081 0.091358826 0.067693666
-0.045905747 0.15190093 0.13315874 0.074849404 -0.19521114 -0.16463451 0.19281876 -0.06617959
0.13561243 0.01228066 -0.21079995 -0.171988 -0.07570907 -0.16636796 0.009208745 0.15952234
-0.018647555 0.15955949 -0.0021184876 -0.21111463 -0.063230656 -0.06269653 -0.12430727 -0.19531576
0.118858084 -0.007392565 -0.030815907 -0.055712488 -0.18662056 -0.12806496 0.043537702 0.00689864
0.1659393 0.012391502 0.20958826 -0.18579684 -0.0013955276 0.12801667 0.15155825 -0.09605235
-0.06424311 0.15801984 -0.17703503 -0.09656218 -0.02537224 -0.025710994 0.044954017 -0.093462035
-0.042446062 -0.086521305 0.16293147 -0.1778385 -0.040040627 0.0018169706 0.098200664 -0.06645625
-0.018508801 -0.1546401 -0.09821539 0.047062915 0.20108779 -0.12118219 0.104392126 0.0976987
-0.08192587 -0.053817444 -0.08316652 0.00025974304 -0.22160223 0.07832278 0.1806618 -0.0934557
-0.056143127 -0.15975346 0.008652918 0.06174448 -0.011639822 -0.10679773 0.022681229 -0.18028076
-0.07430828 0.1590004 -0.06809599 0.044591546 -0.07192296 -0.19775902 -0.20479815 0.10491431
-0.0004974459 -0.0024458773 0.17870355 0.13682412 -0.07836308 -0.045522615 0.017208537 0.020047639
0.038201082 0.048995357 0.1832082 -0.017556947 0.056470186 -0.11866071 0.11784899 0.014402158
-0.05449686 0.042137794 -0.2009924 0.09070483 -0.083146036 -0.13759947 -0.009177077 -0.09344014

weight f4 [64, 64]
00000000: a487 98bd 5d03 353e 9383 2c3e b7c0 92bd
00000010: a597 d13d fd6c 123e d219 01be 157e 253e
00000020: 9242 963d 0719 7abd c76d a4bd 6111 193e
00000030: fb04 853d 0da7 e93d 6002 5d3e 99ea 3e3d
00000040: 7be2 a33d 3dd7 1a3d ca0e 0ebe 3e5c df3c
00000050: c8e6 00be 75d7 75bd 62c5 80bd 3504 42be
00000060: 904e b43c fa56 363d 774a 43be ee57 14bc
00000070: 7bd6 363e 8f01 b9bd 3a72 13be e7d0 f0bc
00000080: 8f0b 873d a55e 58be 9969 36bc ac21 d93c
00000090: b2a4 02be 59a1 5cbe 40bb 0ebe 933b 813d
000000a0: de8b 29be 6d59 10be a0e3 533e eeed 283d
000000b0: 20d3 123e b22b 213e 58a3 053e 1207 cfbc
000000c0: 8b31 4e3c c18e c73d e6ad 37be 050e 0cbe
000000d0: 406f 2d3e e691 39be 6ed4 23be 55e6 4f3e
000000e0: b25f 853d 5ffc 27be 1b15 3ebc c794 673d
000000f0: 28f3 8dbd 80a1 ab3d 40fd dd3d e325 533e
00000100: e808 bdbd 6182 dcbd c6a5 e13b 1f69 41be
00000110: 366b e3bd ffa3 22bd e0d1 ed3c 576a c8bb
00000120: 791b db3d 414e 2a3e 8255 a4bd c03e b1bd
00000130: 469b 403e d580 2e3e 71ff 313d 1c4c 9fbc
00000140: 0434 2d3e ecb2 c13d 9d9e 3d3d 1d45 fbbd
00000150: 6d53 0cbd 9bf1 42bc 947e c3bd 486c 143e
00000160: 59e0 733c 7a4e f93c 3e6d d3bd 978c 923d
00000170: f2c9 343e 8443 e6bc 16c4 603d d70f 2cbd
00000180: 6e2b 473e 10d4 da3d baeb 533d a8af 19be
00000190: ebee 3cbe 5e8b 95bc 09e2 2fbe 12c3 44be
000001a0: e536 b2bc 5929 d1bc 9550 01be 4bec cbbc
000001b0: ce11 a63d 8aa7 29be 62b6 c3bd 4c9d 4cbe
000001c0: 2ba7 4e3e bcbd 30be 33d4 8c3c bf15 39be
000001d0: 5372 3f3e 2e17 e63d 69f0 e23d 9da4 cabd
000001e0: 687c 053e 9bdb 18bd 1413 2abe d857 56be
000001f0: e9ef c5bd 9197 283e 0342 2dbe 9ccb e1bd
00000200: dca2 293e 4112 173e 3f16 013d d9dc e3bd
00000210: 4085 773d ebad c53d 7f05 2ebe 5e70 d43d
00000220: 6644 f33d 3ef8 3ebd 545c 4f3e bf5c 39be
00000230: 8981 273e de67 043d 2a3d 33be 63b5 2ebd
00000240: 0cfe f6bd 83c2 953d cc71 3f3d 1c25 473e
00000250: a874 b23c 6532 5f3e bc50 283e a7da 5a3e
00000260: 8afd fbbb e511 63bd bb5f febd 95a5 f9bd
00000270: d897 20be 1ce2 87bd ed2c 7dbd 0187 1ebe
00000280: 1dba dfbd e5dc c73d e07a 2abd 824d 20be
00000290: ecbf 47be 4e3b a8bc eb76 32bd bf58 523e
000002a0: e2d2 b4bd 1ff0 02be 1103 903d 1539 283e
000002b0: 1374 cc3d 8ede 2abe 7651 27be 485f 56be
000002c0: 094b 9fbd cd9e 8a3d 236a 4cbe 4819 1abe
000002d0: e2d6 393e cb72 0f3e 01ee 63bd 1c6a 5abe
000002e0: f173 5d3b 3dcd ee3d 6fa5 193e 2992 1b3e
000002f0: 5392 f73d a4a9 4ebe f8df 0d3e 40fc 45be
00000300: b8a2 0dbe e951 263e c9fc c3bd f84f 07be
00000310: 692e 183e ce40 3ebd ccd7 573d 5dbd 4ebe
00000320: 91b2 e1bd e198 433e c2bb 163e f741 10be
00000330: c58c 4ebe c0df 923c 7efb 5a3e 768d 6dbd
00000340: 2b4f 083e 99a3 53be 1bff c23c 2a85 093e
00000350: f118 883d bbf9 353d 97a7 013e f348 e7bd
00000360: db2f d6bd d1d4 75bc edc8 e0bd d2c0 43be
00000370: 1a08 9abb 48de 933d a6ed f63d 57e9 8b3d
00000380: f26f 1b3c dd9d 20be db08 bbbd e479 633d
00000390: 480d 013e bee7 0bbe e2b7 1bbd b857 88bd
000003a0: 2f15 213c 05c2 1c3e 9384 6e3d 13c3 14bc
000003b0: f1c3 9ebd 6eda 4d3e 89af 80bd 1df5 a63c
000003c0: 0152 dcbd aafc 623e 34ba 4d3e 4563 cdbd
000003d0: 57ef a2bd 74fa f13d cd59 46be 21e4 03be
000003e0: 7bd8 ea3b c840 473e b16b 0c3c 0033 b8bd
000003f0: 3aa4 87bc 34b6 0f3e d1ad fdbd fe41 92bd
-0.074477464 0.17677064 0.16847067 -0.07165664 0.10234002 0.14299388 -0.12607506 0.16161378
0.07336916 -0.061059024 -0.08028751 0.14948036 0.064950906 0.114088155 0.21582937 0.04661045
0.08002182 0.037802923 -0.13872829 0.027265664 -0.12588036 -0.06001993 -0.06287648 -0.18946917
0.022010118 0.04451654 -0.19071375 -0.009054167 0.17855255 -0.090335004 -0.14399043 -0.029396487
0.065940015 -0.21129854 -0.011133575 0.026505314 -0.12758139 -0.21545924 -0.13938618 0.06310191
-0.16557261 -0.14096613 0.20692301 0.041242532 0.1433835 0.15739325 0.13050592 -0.025271926
0.012585054 0.09744025 -0.1793743 -0.13677223 0.1693697 -0.18122062 -0.15999004 0.20302708
0.06512393 -0.16404866 -0.011601712 0.05653837 -0.06931144 0.08380413 0.10839319 0.20619921
-0.09230214 -0.10767055 0.006886217 -0.18887757 -0.11104433 -0.03970718 0.02903074 -0.0061161923
0.10698599 0.16631414 -0.08024122 -0.08654547 0.18809232 0.17041333 0.0434565 -0.019445471
0.16914374 0.09457955 0.046293844 -0.12269042 -0.03425925 -0.011898424 -0.09545627 0.14494431
0.014885032 0.030432928 -0.10323571 0.07155722 0.17655161 -0.028108366 0.054874502 -0.042007294
0.19450161 0.10684979 0.05173848 -0.15008414 -0.18450515 -0.018254932 -0.1717607 -0.19215038
-0.021754691 -0.025532411 -0.12628396 -0.024892947 0.08108865 -0.16567817 -0.09556271 -0.19981879
0.20180957 -0.17259878 0.017191028 -0.18074702 0.18695955 0.1123489 0.11081011 -0.09894679
0.13035738 -0.037318807 -0.1660884 -0.20931947 -0.096649 0.16464068 -0.16919713 -0.110251635
0.16566032 0.14753057 0.031515356 -0.11126108 0.06042981 0.09652313 -0.16994284 0.10372995
0.1187828 -0.04662346 0.20250064 -0.18101786 0.16358007 0.032325618 -0.17503801 -0.042653453
-0.12060174 0.07312491 0.046739385 0.1944775 0.021784142 0.21796568 0.16437048 0.21372472
-0.0076901363 -0.055436987 -0.12420603 -0.121897854 -0.15682924 -0.06634924 -0.061810423 -0.15481187
-0.1092417 0.09758929 -0.04162109 -0.15654567 -0.19506806 -0.020536091 -0.04357044 0.20541666
-0.08829285 -0.12786911 0.07031835 0.16428025 0.09983077 -0.1668646 -0.16339669 -0.20934784
-0.07777984 0.0676857 -0.19962363 -0.15048707 0.18148378 0.14008634 -0.0556469 -0.2132954
0.003379103 0.1166024 0.15004514 0.15192474 0.12088456 -0.201819 0.13854969 -0.19334507
-0.13831604 0.16242184 -0.09569699 -0.132141 0.14861454 -0.04644852 0.052696034 -0.20189424
-0.11020387 0.19101287 0.14720061 -0.14087664 -0.20170887 0.017928958 0.21384999 -0.057996236
0.1331145 -0.20667876 0.023803284 0.13429704 0.06645382 0.044427615 0.12661587 -0.11293211
-0.104583465 -0.015004353 -0.109758236 -0.19116524 -0.004700673 0.07220131 0.120570466 0.068316154
0.009487139 -0.1568522 -0.091325484 0.055536166 0.12602723 -0.13662621 -0.03801716 -0.06657356
0.009831711 0.15308388 0.0582319 -0.009079712 -0.077522166 0.20102856 -0.06283481 0.020380551
-0.107578285 0.22166696 0.20090562 -0.100287 -0.07955807 0.11815348 -0.19370194 -0.12879993
0.0071669198 0.19458306 0.0085705975 -0.089941025 -0.016557802 0.14034349 -0.123866685 -0.07141493

weight f4 [64, 64]
00000000: 1226 2fbc 4a9d 9e3d cadc c03d 4b15 34be
00000010: b403 4e3e 77fc e93b 3e35 d5bd 03c0 3cbe
00000020: 2865 443d 42d8 79bc fc6d 993d d56d 3dbe
00000030: 2d20 5a3e 939e 353d 59f1 4abe 948d 18be
00000040: f5d4 7dba be7b a3bd 41b6 b2bd 6c69 c53b
00000050: 3dc5 df3d 30af c9bd 9486 2bbd 9fef 5b3d
00000060: 4006 fe3d fa30 1fbe 822a 0b3e a144 1fbc
00000070: 2156 b1bc 3011 f7bd ef56 42be eedb 11be
00000080: 18d3 cc3c 4c62 d33b 91ed 39be 64dd d1bb
00000090: 2165 7d3c 7033 3d3e 3dc7 0bbe 4ee3 7cbc
000000a0: 1291 a4bd 3746 bdbd 4ee3 ccbd 7814 a93d
000000b0: 09f0 86bc 22b5 3e3e 0a39 043e c276 063e
000000c0: 4588 3d3e 03f8 f0bd c079 933d 4beb a03b
000000d0: b8cc 063c 5d30 063e 8b68 34bd 9cda 333c
000000e0: 40f1 26be dee0 793d ba9b bcbd 5b38 bfbd
000000f0: 43c3 bd3d efaa 84bd 9dac 383d bcff 403d
00000100: 2a60 5ebe 8764 2cbe 015c 4bbe e3f5 3cbe
00000110: 100a 87bd 86f3 90bd 2acc f93d 2c02 813d
00000120: f214 85bd d6d4 92bc 8e99 293e fda4 f6bd
00000130: a5b9 833d 2cc6 533e 2f97 193e f8f8 773d
00000140: 2ab0 813d f875 13be 352b fd3d dbaa 4bbe
00000150: ba2d 23be 56bf ac3d 0586 cbbd 1472 8b3d
00000160: c2d8 65be 9d36 2abe e000 c4bc c128 2c3e
00000170: 2fc7 353e 7aee 22be 59ce 3dbe 3644 d8bd
00000180: 112a ebbc 5319 db3d 0049 903d 7277 0f3e
00000190: 540c 4fbe 84bb 503e 783d 16be 8bff 95bd
000001a0: 257c 15bd dec5 ae3d 97fd 58be 002a 953d
000001b0: c1da 7dbd 343f 44be d342 f939 8a9f 433d
000001c0: e331 37be 8494 f4bd 32bc 913d a322 31be
000001d0: 6136 e0bd ebfd 5bbe 9cd1 3d3d 5830 6b3c
000001e0: 972f 26be 011a e83d 1b41 8e3d 3b4e 10be
000001f0: dd28 96bc 7416 a63d 2c23 b53d 3843 353e
00000200: ce9b c33d 7315 2fbe a9db 89bd 63e2 10be
00000210: 36ed 083d 84b8 e03d 0186 17be c9be eebd
00000220: ba81 0bbe 5187 fabd 1de9 1cbe b584 173e
00000230: 59dd 363d d448 5abe e6c5 c3bc b01a 223e
00000240: ef86 3e3d d39f 28be b6de 20bd 5326 633e
00000250: 3f50 403e d26a be3c c287 dfbd 1b0e 32be
00000260: bd80 d13d e8d7 d33b 7bbf eabc 08ff 0f3e
00000270: 4a00 553e e240 863b 978c 283c 30f6 c83d
00000280: 19fa 0abe a58d 733d 5c74 c63d 8481 4f3d
00000290: 1b6f 2b3e 72f0 adbd cbae c93d baf0 b33d
000002a0: 7253 993b 4934 2bbe b3ad fa3d 9d0f e13d
000002b0: af03 c23d 54f2 573d 92f0 dc3c e8e9 c73d
000002c0: 1673 f7bd b367 5f3e 9279 223e dae5 423e
000002d0: 3943 353e 6315 4b3d 1111 35be 5c47 663c
000002e0: ff77 57be 2613 febc 69c5 9d3d 4413 063e
000002f0: 7880 543e ff2e 26be d1d6 1d3e 9f5c d3bd
00000300: 5a03 4c3d 7b82 263e 8530 553e d8ef 3b3d
00000310: 1112 12be 4ffe af3d 0d70 03be 4bc0 29be
00000320: 55c3 52bd 716e 1fbe 21c9 03bd e70a 08bd
00000330: 3f1a f1bd 7e98 3dbe 4f82 04bd e089 e63d
00000340: 1467 213d 76d8 573e bdea 98bd bcd7 d0bd
00000350: 82e0 05be 26df e83c ac06 c2bd 8175 42be
00000360: 9636 43be f072 fbbb 299d 203e ec2d 103e
00000370: 88fb 9abd 5a9f 8d3d 8820 c73d 5c5a 5a3d
00000380: 175c c53d 3f50 f6bc 3815 a5bd f5d7 093e
00000390: aa38 1fbd 878d 173e 916e 103e 679d 383e
000003a0: 9c08 e5bb dc3d 383e dc7c 26be 58ea 123e
000003b0: 9267 84bd e342 0f3c 9af5 a0bd 8ce4 2c3e
000003c0: 7ba4 3a3e a124 c9bd 64a8 9b3c 3205 043e
000003d0: e971 30be f4da 8e3c edf4 263e 7ef6 113e
000003e0: 98ea 18be a978 4d3e a794 4f3e 9aeb 4e3e
000003f0: 860b c43b 551a 24bd 2e0a 0dbe b5ee e7bd
-0.010690229 0.07744844 0.09417112 -0.17586248 0.201186 0.007140692 -0.10410546 -0.18432622
0.047948033 -0.015249314 0.07491681 -0.18498929 0.21301337 0.04434068 -0.1981863 -0.14897758
-0.0009682917 -0.07982586 -0.087261684 0.00602453 0.10926292 -0.098478675 -0.04187639 0.053695317
0.12403536 -0.15546027 0.13590434 -0.009720952 -0.021647515 -0.12063825 -0.18978475 -0.14244053
0.025003001 0.006450927 -0.1815703 -0.0064045656 0.015466006 0.18476653 -0.13650222 -0.015435053
-0.080354825 -0.09241908 -0.100042924 0.08255857 -0.01647188 0.18623784 0.12912384 0.1313124
0.18509014 -0.117660545 0.07200956 0.0049108616 0.00822752 0.13104387 -0.044045012 0.0109774135
-0.16302967 0.061005466 -0.0920939 -0.09336921 0.09265759 -0.064779155 0.04508649 0.047118887
-0.21716371 -0.16835223 -0.19859315 -0.18453173 -0.06593716 -0.070776984 0.12197144 0.062992424
-0.064981356 -0.017923754 0.16562483 -0.12043188 0.06431893 0.20681065 0.14999078 0.06054017
0.06332429 -0.1440047 0.12361757 -0.19889395 -0.15935412 0.08434932 -0.099376716 0.06808868
-0.22445968 -0.16622396 -0.023926198 0.16812421 0.17751764 -0.15911284 -0.18535747 -0.10559885
-0.028706582 0.106981896 0.07045174 0.14010409 -0.20219547 0.20384032 -0.14671886 -0.073241316
-0.036495347 0.08533834 -0.21190487 0.072834015 -0.061976198 -0.19164735 0.0004754277 0.04775957
-0.17890124 -0.119423896 0.071159735 -0.17298369 -0.10947872 -0.21483581 0.046342477 0.014354788
-0.16229092 0.11333085 0.06946012 -0.14092343 -0.018330032 0.08109751 0.08844599 0.17701423
0.09551202 -0.17098026 -0.0673135 -0.1414886 0.033429347 0.109726936 -0.14797212 -0.11657483
-0.13623706 -0.12232841 -0.153233 0.14796717 0.044644687 -0.21316844 -0.023898076 0.15830493
0.0465154 -0.16467218 -0.039274894 0.22182588 0.18780611 0.023244295 -0.109145656 -0.17388193
0.10229633 0.006464947 -0.028655758 0.1406213 0.20800892 0.00409709 0.0102874255 0.098125815
-0.13571967 0.059461255 0.096901625 0.050660625 0.16741602 -0.08493127 0.09847792 0.08786149
0.004679137 -0.16719164 0.12240162 0.10989306 0.09473359 0.052721336 0.026970182 0.09761411
-0.12082498 0.21816902 0.15866688 0.19032994 0.17701425 0.049580943 -0.17682292 0.014055099
-0.21041869 -0.03101499 0.077036686 0.13093287 0.20752132 -0.16228865 0.15413977 -0.103204004
0.049807884 0.16260712 0.2081929 0.04588303 -0.14264704 0.085934274 -0.12835713 -0.1657726
-0.051455814 -0.15569474 -0.032174233 -0.033213522 -0.11772584 -0.18515202 -0.032350834 0.11256766
0.039404944 0.21078667 -0.07466648 -0.10197398 -0.13073924 0.028426718 -0.09473929 -0.18990137
-0.19063792 -0.0076736137 0.15684952 0.14080018 -0.07567507 0.069151595 0.09723002 0.05330883
0.09636705 -0.030067561 -0.08060688 0.13461287 -0.0388724 0.14800082 0.14104678 0.18028794
-0.0069895517 0.17992347 -0.16258568 0.14347208 -0.06465067 0.008743974 -0.07859345 0.16884059
0.18226807 -0.098214395 0.019001193 0.12892607 -0.17230953 0.01743839 0.1630437 0.14254186
-0.1493324 0.2006556 0.2027155 0.20207062 0.005982819 -0.040064175 -0.13773414 -0.11324827

weight f4 [64, 64]
00000000: dc5e 013e 5478 cf3d 1691 253d 91a3 5bbe
00000010: b254 c13c fd31 803c 29ac 45be 2776 6b3b
00000020: 6f9b 9c3d 10cf 8c3d 5084 36be ef65 05bd
00000030: 2766 4abe c596 43bd 6a56 523e 63a9 af3d
00000040: a370 cebd e161 403e c4c2 c23d 4172 58be
00000050: 6bb2 8f3d 39c0 4b3e 940c e3bd 8ed4 503e
00000060: c8b4 38be 1b19 c7bd e066 5bbe 1743 0b3d
00000070: bba8 c33d e8e7 a8bd 908b 05bc 4f43 28be
00000080: b54a dfbc 1889 013e 8e2b 3f3e 88b3 5ebd
00000090: 8cac d13d 6f3f 773c d163 073e 2253 193e
000000a0: 996a 3abe 1624 37be 0f93 5abe dfaf b03d
000000b0: 9576 10be f600 30bd 1684 d8bd 8c09 2f3c
000000c0: bdc8 a33d 8adc 4ebe 1168 34be dec1 003d
000000d0: 7e81 c83d 5634 9a3d 61ed d63d 5f39 5dbd
000000e0: 7ef7 4b3e 1d3b c83d b40e eabb 2f9f 323e
000000f0: ef01 61be 4235 37be 7b4b af3d 5351 9abd
00000100: 8eb3 123e 6a20 523e 820e 3f3d 05e5 d6bd
00000110: c9b5 b0bd 04c5 82bd 22b5 863d 9e59 1ebe
00000120: f611 4fbe a814 02be 6122 e4bd c193 0abd
00000130: a877 5d3e 8845 ef3d 7a6e 42be a61e b23d
00000140: a20f 4b3e 7cb0 48bd 0e20 c5bd b979 bfbd
00000150: 4547 27bc a49f 473e 2c5e 8dbc 2680 38be
00000160: 93ae db3c bef9 2dbe 79e0 08be 3204 273d
00000170: 7c7e f9bb cd81 923d 0657 273e 437e 4d3e
00000180: 59d8 253c bf56 dd3b 157d 01be 4eee f73c
00000190: abd2 a43d db90 9cbd d089 b93d d011 18be
000001a0: 68c1 ab3d 80e1 bebc b969 7a3d 660c 01be
000001b0: 7ffe 0a3e 7f38 9cbd a7b4 5dbd 7504 3a3e
000001c0: 4339 963d b9bf 84bd 2a48 8dbc 9e9b 263e
000001d0: eb59 2c3e 686f 5b3e f542 4cbe db2d 02bd
000001e0: 716a 27be e06b f83c 31d2 11bc 0ad4 143d
000001f0: 10ec 30be 7b97 d0bd 1500 04be a0df 533d
00000200: 8810 443e 73d6 16bd e930 bf3d 2ebe 48be
00000210: 9a35 073e 514d 3b3c c9c4 b83d 0bab a83b
00000220: 3b2e 903d d078 1c3e 23dc 013e cd6c 98bc
00000230: ad43 9dbc c6dd 5e3e 465c b53c e000 f6bd
00000240: e33d c93d a6d0 4fbe 9eee 31be ea00 46be
00000250: b0bb 043e f378 a1bd 566d 2ebd 5426 243d
00000260: 3cad 47be b446 41be 02b3 cc3d 233e 473d
00000270: 4542 483d 0e41 d0bd 4dbc 35be 4a01 99bc
00000280: b2cd f8bd 6b9d 3cbe 7c1a 973d 03b0 1f3d
00000290: 46bd 0dbe 0c34 313e eae7 76bd cbf6 19bd
000002a0: a33a 913d 122e 933c 38fd 183e 5681 073e
000002b0: 9caa 4a3e 8eea 313d f43c 61bd 002f 0cbe
000002c0: b190 2e3e b776 0d3e 2122 56be 3b66 c0bd
000002d0: a14c 503a dc01 e3bd 2268 813a db4b 7dbd
000002e0: df25 42be aeba 9f3d 8fa6 08be 41be 973d
000002f0: 152c 273d 2bc1 b03d 2238 e2bd db66 41bd
00000300: 5ef5 7c3d e21f 3fbd d390 2d3e 10d4 493e
00000310: de1e 29be 0ff8 3cbe 1544 d3bd 9aa9 46bd
00000320: d309 30be 969f 153e 0e40 2a3e ebbe 0c3e
00000330: b833 08bd 0633 2cbe 4411 53bc 79be 99bd
00000340: 387c c2bd df1a 09be 0812 113e 4038 4c3e
00000350: 42b9 5dbd 27ad 393d 9644 edbd 9144 3ebe
00000360: 52d7 fe3c b5ce 31be e132 163e 74aa b43d
00000370: ae52 273c 2afb fbbd fe65 3bbd 3d8a 03be
00000380: 518a 093d 379d 2ebe dd0d 39be cf0b 483d
00000390: 9360 b23d 4f3c aabc 403e 23be 0126 01be
000003a0: ba2e 2e3d 6e71 c8bc 2506 cf3d ee5a e5bc
000003b0: 017a 7a3c 38a3 083d e0aa 15be e8bc 8f3d
000003c0: 068c 35bd d30c e1bb 9092 543e 0452 6cbd
000003d0: 4d59 47be 4610 7d3d 0ce3 193d b2ce 53be
000003e0: b683 3a3e 12a0 ccbd 21b1 a8bc 0817 273e
000003f0: b5af 083e 5bd3 983d 8788 9c3d f14a 54be
0.12633842 0.10130373 0.040421568 -0.21449114 0.023599956 0.015648836 -0.19303955 0.0035928579
0.07646834 0.068754315 -0.1782391 -0.032567915 -0.1976553 -0.047751207 0.20540777 0.0857723
-0.100800775 0.18787338 0.09509805 -0.21137334 0.070164524 0.19897546 -0.110863835 0.20393583
-0.18037713 -0.09721585 -0.21425962 0.03399953 0.09553667 -0.082473576 -0.00815095 -0.16431926
-0.027257303 0.12649953 0.18668959 -0.054370433 0.10237989 0.015090807 0.1322167 0.14973119
-0.18204726 -0.1788486 -0.21345161 0.08627295 -0.14107735 -0.042969666 -0.105720684 0.0106834285
0.07997272 -0.20201316 -0.17617823 0.031434886 0.09790324 0.075295135 0.10494495 -0.05400979
0.1991863 0.097769 -0.007142866 0.17443536 -0.21973394 -0.1789141 0.08559319 -0.075350426
0.14326307 0.20520177 0.046644695 -0.10492901 -0.08628423 -0.06385234 0.06577517 -0.15463874
-0.20221695 -0.12703192 -0.1113937 -0.033832315 0.21627676 0.11683184 -0.18987456 0.08697252
0.19830182 -0.048996434 -0.096252546 -0.09349389 -0.010209863 0.19494492 -0.017256819 -0.18017635
0.026816642 -0.169898 -0.1336688 0.040775485 -0.007613955 0.07153664 0.1634179 0.20067696
0.010122382 0.0067547257 -0.12645371 0.030265 0.08047994 -0.076448165 0.09059489 -0.14850545
0.08386499 -0.023300886 0.06113598 -0.12602386 0.13573645 -0.07627963 -0.05412736 0.18165763
0.073351406 -0.06481881 -0.017246325 0.16270301 0.16831176 0.21429217 -0.19947417 -0.031782012
-0.16349198 0.030324876 -0.008900211 0.03633503 -0.1727755 -0.101851426 -0.12890656 0.051726937
0.19146931 -0.03682561 0.09335501 -0.19603798 0.13204041 0.011432008 0.09021909 0.005147343
0.07040068 0.15280461 0.12681632 -0.018606568 -0.01919731 0.21764287 0.022138726 -0.12011886
0.09826257 -0.20294437 -0.17376181 -0.19336286 0.12962222 -0.07884397 -0.04258474 0.040075615
-0.19499677 -0.18874627 0.099950805 0.048643243 0.048891325 -0.10168658 -0.17747612 -0.018677372
-0.12148608 -0.18419425 0.07378098 0.038986217 -0.13841733 0.1730501 -0.060279764 -0.037588876
0.07091262 0.017966304 0.14940345 0.13232931 0.19791645 0.04343658 -0.05498977 -0.13689804
0.17047383 0.13814817 -0.20911457 -0.09394499 0.0007945989 -0.11084339 0.0009872953 -0.06183992
-0.18959759 0.07799278 -0.13344787 0.07409335 0.040813524 0.08630594 -0.11045863 -0.04721723
0.061757438 -0.046661265 0.16949777 0.19709802 -0.16515681 -0.18454002 -0.1031572 -0.04850159
-0.17191248 0.14611658 0.16625997 0.13744704 -0.033252448 -0.16816339 -0.012882534 -0.07507033
-0.09496349 -0.13389157 0.14167035 0.19943333 -0.054131754 0.045331147 -0.11585347 -0.18580844
0.031108532 -0.17364009 0.14667846 0.08821574 0.0102125835 -0.12303765 -0.045751564 -0.12845702
0.033579174 -0.1705216 -0.18071695 0.048839387 0.08709826 -0.02078071 -0.15941715 -0.12612154
0.04252503 -0.02446815 0.10108594 -0.02799746 0.015287877 0.033358783 -0.14615965 0.07018453
-0.04432299 -0.006867984 0.20759034 -0.057695404 -0.1946766 0.061783098 0.037570044 -0.20684317
0.18214306 -0.099914685 -0.020592274 0.1631738 0.13348277 0.07462188 0.07643228 -0.20731713
