graph_classification_model_fold1.pt (torch, 98134 bytes, 10 tensors)

bias f4 [64]
0.0 0.0 0.0 0.0 -0.49231982 -0.4879464 -0.46336326 -0.65810823
-0.60055023 -0.45558205 0.0 -0.48791358 0.0 -0.47390437 0.0 0.0
0.0 -0.66467714 0.0 0.0 0.0 0.0 -0.60054964 0.0
0.0 0.0 0.0 0.0 -0.65961766 0.0 -0.6005497 -0.82873017
-0.4523496 -0.44484103 -0.4482923 -0.4831502 0.0 0.0 -0.49584386 0.0
-0.6747502 0.0 -0.6005445 0.0 0.0 -0.46177223 0.0 0.0
0.0 -0.49145475 -0.4467477 0.0 0.0 0.0 0.0 -0.45777828
0.0 -0.6649271 -0.47036234 -0.69832563 -0.46369398 -0.47965702 0.0 0.0
00000000: 0000 0000 0000 0000 0000 0000 0000 0000
00000010: 5811 fcbe 1cd4 f9be f33d edbe c879 28bf
00000020: a9bd 19bf 0d42 e9be 0000 0000 cfcf f9be
00000030: 0000 0000 98a3 f2be 0000 0000 0000 0000
00000040: 0000 0000 4828 2abf 0000 0000 0000 0000
00000050: 0000 0000 0000 0000 9fbd 19bf 0000 0000
00000060: 0000 0000 0000 0000 0000 0000 0000 0000
00000070: b4dc 28bf 0000 0000 a0bd 19bf a927 54bf
00000080: 5e9a e7be 34c2 e3be 9186 e5be 775f f7be
00000090: 0000 0000 0000 0000 3fdf fdbe 0000 0000
000000a0: 6ebc 2cbf 0000 0000 49bd 19bf 0000 0000
000000b0: 0000 0000 696d ecbe 0000 0000 0000 0000
000000c0: 0000 0000 f59f fbbe 1dbc e4be 0000 0000
000000d0: 0000 0000 0000 0000 0000 0000 ea61 eabe
000000e0: 0000 0000 aa38 2abf 55d3 f0be 78c5 32bf
000000f0: 4c69 edbe 9b95 f5be 0000 0000 0000 0000

weight f4 [64, 1]
-0.08934194 -0.06015311 -0.11113262 -0.14384848 -0.25756487 -0.20575368 -0.3296119 -0.3853486
-0.49743414 -0.4082361 -0.1208415 -0.20604467 -0.21697846 -0.249658 -0.038802117 -0.12003365
-0.0014559925 -0.47544137 -0.2691712 -0.2355382 -0.05560644 -0.30112997 -0.55926454 -0.21511582
-0.27270317 -0.1234175 -0.1628 -0.0015667081 -0.4558903 -0.07398753 -0.54006475 -0.5799749
-0.37083814 -0.42998317 -0.3987795 -0.30543828 -0.27272752 -0.12099217 -0.22795546 -0.07969308
-0.47731513 -0.24272911 -0.5326952 -0.008882254 -0.28536367 -0.39363325 -0.032220066 -0.29488847
-0.094527796 -0.24168572 -0.38593826 -0.18552928 -0.15679495 -0.13862579 -0.15744548 -0.40057078
-0.14263089 -0.44831398 -0.30862093 -0.47389078 -0.45827848 -0.20557901 -0.2543493 -0.16391961
00000000: e8f8 b6bd 1c63 76bd 8099 e3bd 044d 13be
00000010: 8bdf 83be 18b1 52be e4c2 a8be 694c c5be
00000020: b0af febe 5204 d1be c07b f7bd 60fd 52be
00000030: 9a2f 5ebe 59a6 7fbe f8ee 1ebd 34d4 f5bd
00000040: 00d7 beba 0d6d f3be cfd0 89be ed30 71be
00000050: 94c3 63bd b52d 9abe f62b 0fbf 5247 5cbe
00000060: c09f 8bbe 50c2 fcbd 0bb5 26be 005a cdba
00000070: 746a e9be c686 97bd af41 0abf 3c79 14bf
00000080: 7fde bdbe c126 dcbe d42c ccbe 6862 9cbe
00000090: f1a2 8bbe beca f7bd 286d 69be 2036 a3bd
000000a0: a662 f4be fb8d 78be b65e 08bf e086 11bc
000000b0: 301b 92be 4c8a c9be 30f9 03bd 9ffb 96be
000000c0: ca97 c1bd 767c 77be b399 c5be 63fb 3dbe
000000d0: db8e 20be ebf3 0dbe 6339 21be 9d17 cdbe
000000e0: d50d 12be 6989 e5be 9003 9ebe d0a1 f2be
000000f0: 7aa3 eabe 4e83 52be 123a 82be 8bda 27be

bias f4 [64]
-0.5558758 -0.45753247 -0.6005479 0.0 -0.45746627 -0.37186074 -0.6005497 -0.55584484
-0.45441353 -0.4277525 0.0 -0.45385623 -0.5521059 -0.6005476 -0.60054874 -0.48472792
-0.60054755 0.0 0.0 0.0 0.0 -0.6005504 -0.45937443 -0.5347047
-0.47553518 -0.6005484 -0.4038453 -0.4671061 0.0 -0.492228 -0.60055 -0.55588937
-0.6005487 -0.46611854 0.0 -0.60055006 -0.6005504 -0.44801158 -0.6005496 -0.4641883
-0.5516831 -0.6005486 -0.6005493 -0.43946767 0.0 0.0 -0.600549 -0.55588937
-0.46172768 -0.46620563 0.0 -0.19567133 -0.5558886 -0.39466244 -0.41883972 -0.60055035
-0.60055006 -0.3557493 -0.48919886 -0.46449405 -0.4269522 -0.60054946 -0.43559733 -0.4149841
00000000: e04d 0ebf b241 eabe 82bd 19bf 0000 0000
00000010: 0539 eabe 8864 bebe a0bd 19bf d94b 0ebf
00000020: e4a8 e8be 6002 dbbe 0000 0000 d85f e8be
00000030: d056 0dbf 7dbd 19bf 90bd 19bf 422e f8be
00000040: 7cbd 19bf 0000 0000 0000 0000 0000 0000
00000050: 0000 0000 acbd 19bf 2033 ebbe 68e2 08bf
00000060: 5979 f3be 8abd 19bf d0c4 cebe 8828 efbe
00000070: 0000 0000 4f05 fcbe a5bd 19bf c44e 0ebf
00000080: 8fbd 19bf 17a7 eebe 0000 0000 a6bd 19bf
00000090: acbd 19bf c661 e5be 9ebd 19bf 17aa edbe
000000a0: 1b3b 0dbf 8ebd 19bf 99bd 19bf e801 e1be
000000b0: 0000 0000 0000 0000 94bd 19bf c44e 0ebf
000000c0: 9267 ecbe 81b2 eebe 0000 0000 115e 48be
000000d0: b74e 0ebf 3211 cabe 2972 d6be abbd 19bf
000000e0: a6bd 19bf c624 b6be 4678 fabe 2ad2 edbe
000000f0: 7b99 dabe 9cbd 19bf 9d06 dfbe cc78 d4be

weight f4 [64, 64]
-0.19392589 -0.049963683 0.020012036 0.1888759 -0.57914895 -0.7023801 -0.6628087 -0.65507036
-0.045994744 -0.6082366 0.16617478 -0.70954925 0.10892005 -0.6724776 0.042043135 0.10885261
0.106996074 -0.49176878 0.21552275 0.033374637 0.12548642 -0.20552404 0.111334845 -0.15497243
-0.033423036 -0.010974154 0.21124913 -0.21201293 -0.5627431 0.19154136 0.1806324 -0.37482536
-0.6369778 -0.48032156 -0.39655074 -0.564544 -0.21233949 0.0650727 -0.55979687 -0.16231811
-0.5110345 -0.20088017 0.12705787 -0.1729216 -0.07501599 -0.50214845 0.13476045 -0.18815988
-0.17780241 -0.3394942 -0.6611821 -0.199188 -0.19122094 0.20138092 -0.05738473 -0.38440746
-0.19928518 -0.6117916 -0.36468405 -0.7415492 -0.62594944 -0.4220111 0.15971611 0.071770236
0.13695939 -0.07379019 -0.095606044 0.15013556 -0.6627242 -0.478668 -0.25444221 -0.34917012
0.5947712 -0.5201051 0.011048198 -0.5090966 -0.16044445 -0.5274623 -0.21321984 0.19563909
-0.20573173 -0.01526357 0.06813063 -0.21341167 0.1189328 -0.021945715 0.5993874 0.01950553
-0.02464883 0.059756055 0.084206685 -0.17035721 -0.33326825 -0.18090758 0.47495443 0.6412933
-0.6488331 -0.4818855 -0.40487054 -0.35470372 0.0756457 -0.20460661 -0.24510224 0.0045190305
0.014630704 0.039101824 0.7847946 0.029083326 -0.09324047 -0.29626456 0.021143734 0.18421064
-0.18259016 -0.29255146 -0.5228763 0.17148025 -0.1887247 0.08604579 0.17520861 -0.40618205
-0.038289294 -0.21433216 -0.5392896 -0.4804053 -0.3327695 -0.28408587 -0.12317157 -0.21234755
0.07402901 -0.01959981 -0.09711402 -0.18247053 -0.4096933 -0.6710394 -0.62869346 -0.59540045
-0.7473403 -0.4551464 -0.07153803 -0.54871225 0.03775914 -0.5379214 0.21026962 -0.12595578
-0.115944654 -0.4790157 -0.02199249 -0.011670411 -0.032398984 0.0016534925 -0.63955146 0.052935645
-0.18378258 -0.022366837 0.0904526 -0.159129 -0.67167234 -0.07273492 -0.72166 -0.43032473
-0.6008585 -0.7216372 -0.46800527 -0.59290355 -0.099879414 -0.20774885 -0.58293855 0.19158651
-0.7773665 0.16579898 -0.4444758 0.03665404 -0.14989808 -0.48690572 0.18040453 -0.07853451
-0.12720042 -0.4118743 -0.56647223 -0.11912426 0.00451082 0.015111625 -0.18683745 -0.7009542
-0.052019835 -0.63179195 -0.76736414 -0.40244526 -0.40050593 -0.66809535 -0.16417392 -0.10454847
-0.08124514 -0.16213831 -0.08010265 0.081770286 -0.14724952 -0.1216256 -0.21370229 -0.015363246
-0.020642072 0.13460182 -0.1164434 -0.10436246 -0.001985535 0.0117863715 0.031743854 -0.101314425
0.03286515 0.0827664 -0.19178367 0.039682522 0.15370272 0.02693224 -0.2104673 -0.16100773
-0.17247277 -0.13997349 0.10893805 -0.0817789 -0.033016607 0.08198471 -0.11578696 -0.1863281
-0.023439214 0.09981449 0.102777496 0.008538038 -0.037925735 -0.17257118 0.19862376 0.05873908
0.10111447 0.19443081 -0.17616802 -0.11176206 0.19806083 -0.02888836 0.12308313 0.11872418
-0.123081595 0.13258322 -0.13065258 -0.19530332 0.1599767 -0.18007949 0.13345034 -0.028228909
-0.046006322 0.0942245 -0.0663587 0.2117476 0.040299848 -0.123095505 0.03685449 0.031193629
00000000: 8294 46be b8a6 4cbd 48f0 a33c af68 413e
00000010: 1b43 14bf 2fcf 33bf d5ad 29bf b1b2 27bf
00000020: fc64 3cbd 65b5 1bbf b929 2a3e 05a5 35bf
00000030: 7a11 df3d 7e27 2cbf 6c35 2c3d 1eee de3d
00000040: c220 db3d 1ec9 fbbe ffb1 5c3e d8b3 083d
00000050: 837f 003e e574 52be 8603 e43d 18b1 1ebe
00000060: 98e6 08bd f0cc 33bc b151 583e eb19 59be
00000070: ef0f 10bf 6b23 443e b3f7 383e 1ce9 bfbe
00000080: fa10 23bf b5ec f5be b308 cbbe f585 10bf
00000090: 866f 59be d644 853d d94e 0fbf b836 26be
000000a0: 28d3 02bf 88b3 4dbe 751b 023e 5c12 31be
000000b0: fca1 99bd cd8c 00bf a5fe 093e fcac 40be
000000c0: d611 36be 2fd2 adbe 3b43 29bf f0f7 4bbe
000000d0: 6ccf 43be cd36 4e3e 400c 6bbd 0ed1 c4be
000000e0: 6a11 4cbe 609e 1cbf deb7 babe 2bd6 3dbf
000000f0: 393e 20bf d711 d8be 9f8c 233e 46fc 923d
00000100: 153f 0c3e 501f 97bd 1acd c3bd 23bd 193e
00000110: 4ba8 29bf f913 f5be 4046 82be 6dc6 b2be
00000120: ed42 183f 9c25 05bf 8003 353c 2854 02bf
00000130: 8d4b 24be c507 07bf 4d56 5abe 9d55 483e
00000140: 57ab 52be 0d14 7abc 1288 8b3d 9788 5abe
00000150: 0a93 f33d 80c7 b3bc 7471 193f 10ca 9f3c
00000160: 58ec c9bc c4c2 743d 8e74 ac3d 1f72 2ebe
00000170: 23a2 aabe d63f 39be 3a2d f33e cc2b 243f
00000180: ed19 26bf b2b9 f6be 314b cfbe ba9b b5be
00000190: 22ec 9a3d 6584 51be 15fc 7abe 6014 943b
000001a0: 9fb5 6f3c 3c29 203d 4de8 483f 2840 ee3c
000001b0: dcf4 bebd fdaf 97be a035 ad3c b7a1 3c3e
000001c0: eaf8 3abe 4ec9 95be 39db 05bf 8598 2f3e
000001d0: 0c41 41be c638 b03d e369 333e 18f7 cfbe
000001e0: 3cd5 1cbd e479 5bbe e20e 0abf aff7 f5be
000001f0: c460 aabe b473 91be 6041 fcbd a371 59be
00000200: 869c 973d c88f a0bc b7e3 c6bd 8ed9 3abe
00000210: 52c3 d1be 3dc9 2bbf 0ef2 20bf 2a6c 18bf
00000220: b251 3fbf f308 e9be 8882 92bd 6878 0cbf
00000230: 54a9 1a3d 38b5 09bf eb50 573e 8dfa 00be
00000240: 6474 edbd 8c41 f5be 9829 b4bc 4035 3fbc
00000250: ccb4 04bd 00ba d83a a5b9 23bf 0cd3 583d
00000260: 8031 3cbe a83a b7bc 363f b93d b6f2 22be
00000270: b8f2 2bbf 0cf6 94bd b6be 38bf 8653 dcbe
00000280: ddd1 19bf 37bd 38bf 639e efbe 87c8 17bf
00000290: 948d ccbd 1dbc 54be 763b 15bf 412f 443e
000002a0: 7e01 47bf 35c7 293e 5592 e3be 8c22 163d
000002b0: e27e 19be b54b f9be f7bb 383e b4d6 a0bd
000002c0: d440 02be 30e1 d2be 5304 11bf 6cf7 f3bd
000002d0: 80cf 933b c096 773c 5152 3fbe bc71 33bf
000002e0: c012 55bd 1ebd 21bf fa71 44bf 4e0d cebe
000002f0: 1d0f cdbe 4c08 2bbf 351d 28be 821d d6bd
00000300: da63 a6bd 9607 26be dc0c a4bd 2e77 a73d
00000310: 94c8 16be d816 f9bd c6d4 5abe 20b6 7bbc
00000320: 9019 a9bc 0fd5 093e e179 eebd fcbb d5bd
00000330: c01f 02bb a01b 413c d805 023d f07d cfbd
00000340: 9c9d 063d 6e81 a93d f062 44be 248a 223d
00000350: 3f64 1d3e 00a1 dc3c bd84 57be 36df 24be
00000360: b49c 30be 3655 0fbe ea1a df3d b27b a7bd
00000370: 6c3c 07bd 9ae7 a73d b721 edbd cbcc 3ebe
00000380: 9803 c0bc 8a6b cc3d 027d d23d 20e3 0b3c
00000390: 0458 1bbd 80b6 30be 0764 4b3e 6498 703d
000003a0: 1a15 cf3d df18 473e 6465 34be 82e3 e4bd
000003b0: 75d0 4a3e 48a7 ecbc 0213 fc3d aa25 f33d
000003c0: 3412 fcbd e5c3 073e cac9 05be 98fd 47be
000003d0: efd0 233e c266 38be 35a7 083e 5040 e7bc
000003e0: 2071 3cbd c6f8 c03d 12e7 87bd 5dd4 583e
000003f0: 7411 253d 7f19 fcbd bcf4 163d c889 ff3c

bias f4 [64]
-0.4420311 -0.47742724 -0.47221982 -0.61258376 -0.60054934 -0.52287334 -0.6399081 -0.53160375
0.0 -0.5261859 -0.6801 -0.44951934 -0.40362647 -0.70827806 -0.3527922 -0.31302932
-0.6009253 -0.5936925 -0.46764103 -0.6126392 -0.38764814 -0.6005503 -0.48800182 -0.40879777
-0.43252972 -0.4450637 -0.4383025 -0.37296548 -0.55588937 -0.60530496 -0.40939444 -0.58985066
-0.53746384 -0.37638822 -0.4261512 0.0 -0.60393125 -0.44369176 0.0 -0.51614344
-0.53470474 -0.4989581 -0.60055035 -0.6442104 -0.27786335 -0.5335599 -0.45501044 -0.6005499
-0.5906221 -0.6171546 -0.5970677 -0.6005502 -0.34220263 -0.5228749 -0.4688781 -0.606443
-0.48821542 -0.65061367 -0.5347046 -0.3547226 -0.37660766 -0.47159895 -0.6005408 0.0
00000000: e651 e2be 5871 f4be ccc6 f1be 4ad2 1cbf
00000010: 9abd 19bf 07db 05bf 04d1 23bf 2f17 08bf
00000020: 0000 0000 1fb4 06bf 091b 2ebf 6627 e6be
00000030: 21a8 cebe b651 35bf 2ea1 b4be 6145 a0be
00000040: 3ed6 19bf 3bfc 17bf a56e efbe ecd5 1cbf
00000050: d179 c6be aabd 19bf 60db f9be f14d d1be
00000060: 8974 ddbe 64df e3be 2f69 e0be 55f5 bebe
00000070: c44e 0ebf 44f5 1abf 269c d1be 7400 17bf
00000080: 3b97 09bf f5b5 c0be 7d30 dabe 0000 0000
00000090: 3d9b 1abf 912b e3be 0000 0000 fa21 04bf
000000a0: 69e2 08bf 7077 ffbe abbd 19bf f9ea 24bf
000000b0: 1b44 8ebe 6297 08bf 21f7 e8be a3bd 19bf
000000c0: 0333 17bf d8fd 1dbf 6ed9 18bf a8bd 19bf
000000d0: 2f35 afbe 21db 05bf ca10 f0be d93f 1bbf
000000e0: 5ff7 f9be 9e8e 26bf 67e2 08bf 339e b5be
000000f0: b8d2 c0be 6b75 f1be 0bbd 19bf 0000 0000

weight f4 [64, 64]
-0.7592806 -0.37037528 0.81089056 0.07327624 -0.60910803 0.062326953 0.74562675 -0.6239406
-0.5414904 0.2040972 0.006516114 -0.28026247 -0.15550897 0.5868261 0.6005085 -0.60273534
0.42361513 0.040654853 -0.19349244 -0.15782267 0.12967928 0.50966847 -0.38278064 -0.21777721
-0.5842865 0.7742048 -0.7685119 -0.15387034 0.040643796 -0.32173464 0.7578746 -0.51678634
0.39902535 -0.55797577 0.08819239 0.64345014 0.5571412 -0.5259385 0.7317159 -0.26466823
-0.27339894 0.653375 0.5085315 -0.6085278 -0.11505407 0.20029543 0.65558445 -0.64258856
-0.55814415 -0.27757508 -0.15611263 -0.74289376 -0.40887085 -0.16943191 -0.024502307 0.64483804
0.76752967 -0.1372393 -0.32540715 -0.56436133 -0.4072744 0.750465 0.11869423 -0.4449218
-0.19832647 -0.6587941 -0.1880433 0.021363974 0.39306358 -0.37196717 -0.17280331 -0.13468966
-0.26647872 -0.45048112 -0.029545784 -0.5943596 0.38073954 0.028032362 0.19874789 -0.3621305
0.047919318 -0.115106516 0.05723028 -0.032875344 0.039563194 -0.1093077 -0.46097 -0.14867575
0.32456142 -0.10669531 -0.52248156 0.15706915 0.117727235 -0.10185891 -0.19068694 0.15278052
0.19712265 -0.07083258 -0.0074356347 0.11604385 -0.038464487 0.6314797 -0.09842347 0.12742986
0.09515466 -0.20550603 0.20833038 0.6700856 -0.043547705 -0.086389914 -0.14576718 0.021248043
0.51255953 -0.561283 0.20919402 -0.45237908 -0.20787203 -0.41711098 -0.44944808 0.13853674
-0.073611856 -0.28882462 0.45277423 -0.050017938 0.40130493 -0.13939294 -0.31045625 -0.42597347
-0.6813146 -0.2940122 0.38956615 -0.07452203 -0.27979147 -0.06214118 0.4479366 -0.54437727
-0.6926252 0.08515458 0.08728109 -0.54059607 -0.010758847 0.582245 0.7671033 -0.312482
0.5123258 0.18535765 0.15644787 -0.15078776 -0.15232664 0.6958394 -0.51131094 -0.5983811
-0.47296765 0.6842222 -0.62541103 0.18404151 -0.023402333 -0.49449766 0.40224496 -0.4148446
0.49963433 -0.4853983 0.05739917 0.6699932 0.40208688 -0.36776784 0.6986655 -0.32449123
-0.46724012 0.3974865 0.81403387 -0.56791437 -0.09745422 0.067146495 0.5285268 -0.46043268
-0.4619804 -0.32867202 0.0066633523 -0.83019066 -0.43094444 -0.20801055 -0.09674587 0.709552
0.3932686 -0.24450855 -0.5862779 -0.41677386 -0.41997826 0.8061108 0.12111358 -0.8991358
0.15011175 0.7060712 -0.15476522 0.2025869 0.45282578 -0.17008893 -0.0027339756 0.16339402
-0.42755765 -0.46219444 -0.18238956 0.3382278 0.6070659 -0.063783005 -0.15825248 0.55874676
0.027071804 -0.015836313 -0.037485346 0.13031133 0.2012852 0.20396836 0.5884026 -0.13572286
0.38677347 -0.0032990575 -0.46190077 -0.018312993 0.20642795 0.20057474 0.15880395 -0.1287584
0.093407854 0.032838568 0.00023801625 -0.07606408 0.0009173006 0.31975776 -0.099391304 -0.18194112
-0.054106817 -0.13811575 -0.20096889 0.47461557 -0.08660804 0.058348164 0.19740145 -0.003971368
0.51732427 0.5938903 0.082978055 -0.4191 0.16847171 -0.2786222 -0.41097838 0.046095595
0.2075683 -0.206516 0.47465262 0.18014644 0.5163583 -0.09130475 -0.43499795 -0.56610715
00000000: 3760 42bf d4a1 bdbe 8696 4f3f da11 963d
00000010: 81ee 1bbf 8c4a 7f3d 65e1 3e3f 92ba 1fbf
00000020: 1d9f 0abf dbfe 503e 2085 d53b 907e 8fbe
00000030: be3d 1fbe 3c3a 163f edba 193f dd4c 1abf
00000040: 15e4 d83e b485 263d e222 46be 449c 21be
00000050: a5ca 043e a279 023f d3fb c3be fd00 5fbe
00000060: cd93 15bf 4932 463f 32bd 44bf 3090 1dbe
00000070: 1c7a 263d 67ba a4be 1204 423f 1c4c 04bf
00000080: 0d4d cc3e 80d7 0ebf 369e b43d 26b9 243f
00000090: cea0 0e3f e8a3 06bf bc51 3b3f 9882 87be
000000a0: f2fa 8bbe 9643 273f 1f2f 023f 7ac8 1bbf
000000b0: 78a1 ebbd 3f1a 4d3e 62d4 273f af80 24bf
000000c0: 89e2 0ebf 521e 8ebe fddb 1fbe 492e 3ebf
000000d0: 8557 d1be 8f7f 2dbe 10b9 c8bc 1b14 253f
000000e0: d37c 443f 7688 0cbe c49b a6be fc79 10bf
000000f0: 4586 d0be 791e 403f f615 f33d cacc e3be
00000100: 1816 4bbe bba6 28bf 6c8e 40be 8003 af3c
00000110: a13f c93e 7b72 bebe 5af3 30be 16ec 09be
00000120: e66f 88be 76a5 e6be 000a f2bc f327 18bf
00000130: 4bf0 c23e 20a4 e53c 9184 4b3e 2b69 b9be
00000140: 0c47 443d f7bc ebbd 4c6a 6a3d 4ca8 06bd
00000150: 040d 223d b7dc dfbd 4304 ecbe 753e 18be
00000160: ea2c a63e 1283 dabd 5ac1 05bf bcd6 203e
00000170: fa1a f13d 679b d0bd 7043 43be 7f72 1c3e
00000180: 85da 493e ac10 91bd a0a6 f3bb 66a8 ed3d
00000190: f08c 1dbd a7a8 213f 3f92 c9bd f97c 023e
000001a0: 72e0 c23d 2c70 52be 8f54 553e bb8a 2b3f
000001b0: 145f 32bd 32ed b0bd fe43 15be 6010 ae3c
000001c0: 1a37 033f 3eb0 0fbf f536 563e 3b9e e7be
000001d0: 68dc 54be 928f d5be 0f1e e6be 93dc 0d3e
000001e0: d0c1 96bd d2e0 93be 06d2 e73e 9cdf 4cbd
000001f0: d777 cd3e 06bd 0ebe 1ff4 9ebe 3219 dabe
00000200: a26a 2ebf c488 96be 3775 c73e 029f 98bd
00000210: d440 8fbe c087 7ebd f257 e53e 4f5c 0bbf
00000220: e34f 31bf 8665 ae3d 6ec0 b23d 8164 0abf
00000230: e045 30bc 020e 153f e260 443f a4fd 9fbe
00000240: c927 033f 65ce 3d3e df33 203e 1b68 1abe
00000250: 84fb 1bbe 8822 323f 46e5 02bf 812f 19bf
00000260: d128 f2be 3029 2f3f f01a 20bf 6175 3c3e
00000270: 40b6 bfbc cc2e fdbe 0df3 cd3e 8366 d4be
00000280: 12d0 ff3e 2086 f8be 641b 6b3d ad84 2b3f
00000290: 55de cd3e 114c bcbe bedb 323f b723 a6be
000002a0: 193a efbe 5a83 cb3e 8664 503f d662 11bf
000002b0: 1496 c7bd 1a84 893d 884d 073f d5bd ebbe
000002c0: b288 ecbe b347 a8be 4058 da3b 6087 54bf
000002d0: c0a4 dcbe b800 55be b322 c6bd 33a5 353f
000002e0: 805a c93e 7360 7abe 4f16 16bf 6263 d5be
000002f0: 6407 d7be 475d 4e3f 660a f83d c42d 66bf
00000300: e5b6 193e 15c1 343f c67a 1ebe f172 4f3e
00000310: c8d8 e73e cb2b 2ebe 802c 33bb c350 273e
00000320: d6e8 dabe c0a4 ecbe 54c4 3abe 322c ad3e
00000330: ac68 1b3f aaa0 82bd f00c 22be 070a 0f3f
00000340: b0c5 dd3c 28bb 81bc 3c8a 19bd 5570 053e
00000350: b51d 4e3e 15dd 503e 8ea1 163f effa 0abe
00000360: 2c07 c63e 0035 58bb 427e ecbe 2105 96bc
00000370: d961 533e 7763 4d3e 819d 223e 3ed9 03be
00000380: 9e4c bf3d bc81 063d 0094 7939 7cc7 9bbd
00000390: 0077 703a 4ab7 a33e ab8d cbbd c64e 3abe
000003a0: 1c9f 5dbd 376e 0dbe caca 4dbe d000 f33e
000003b0: 8e5f b1bd 7cfe 6e3d 9b23 4a3e 4022 82bb
000003c0: 5d6f 043f 3209 183f 66f0 a93d 4694 d6be
000003d0: d983 2c3e 92a7 8ebe c26b d2be bcce 3c3d
000003e0: c98c 543e ee78 53be ab05 f33e 4f78 383e
000003f0: 0f30 043f fcfd babd 0db8 debe 66ec 10bf

bias f4 [64]
-0.5573788 -0.42799917 -0.12786026 -0.52287555 -0.5126204 -0.35171342 -0.59341735 -0.45185572
-0.19952671 -0.60141414 -0.52257395 -0.5943212 -0.55377716 -0.60064065 -0.37227836 -0.571581
-0.5059988 -0.34901556 -0.59076446 -0.51645994 -0.60058916 -0.18265796 -0.6489115 -0.13600631
-0.39136666 -0.30004942 -0.3210622 -0.5258393 -0.45187992 -0.5562765 -0.14069253 -0.60641426
-0.5422404 -0.50320536 -0.2215442 -0.3050868 -0.7147544 -0.52287436 -0.25638694 -0.52287376
-0.60941577 -0.1830593 -0.5606907 -0.6005505 -0.31904256 -0.48572275 -0.22723962 0.0
-0.5741377 -0.5228749 -0.14591752 -0.45818293 -0.29223025 -0.38610345 -0.5162753 -0.24020596
-0.54834956 -0.3677117 -0.16686302 -0.53470314 -0.23252544 -0.52562284 -0.52688146 -0.33349565
00000000: 61b0 0ebf b522 dbbe cded 02be 2cdb 05bf
00000010: 173b 03bf c813 b4be 33ea 17bf a259 e7be
00000020: bb50 4cbe 47f6 19bf 68c7 05bf 6f25 18bf
00000030: 57c4 0dbf 96c3 19bf 459b bebe 2253 12bf
00000040: 2389 01bf 2bb2 b2be 573c 17bf b836 04bf
00000050: 36c0 19bf b00a 3bbe 101f 26bf 3d45 0bbe
00000060: 3661 c8be 14a0 99be 4462 a4be 689d 06bf
00000070: ce5c e7be 2368 0ebf b411 10be f73d 1bbf
00000080: 44d0 0abf 11d2 00bf 7cdc 62be 5634 9cbe
00000090: 25fa 36bf 18db 05bf 2645 83be 0edb 05bf
000000a0: ac02 1cbf e673 3bbe 6d89 0fbf adbd 19bf
000000b0: 8c59 a3be a7b0 f8be 81b1 68be 0000 0000
000000c0: b0fa 12bf 21db 05bf 676b 15be f496 eabe
000000d0: 349f 95be 5aaf c5be 9e2a 04bf 8df8 75be
000000e0: a360 0cbf b544 bcbe 24de 2abe 4ee2 08bf
000000f0: 261b 6ebe 388f 06bf b4e1 06bf f1bf aabe

weight f4 [64, 64]
-0.37394026 -0.47186643 -0.47055325 -0.64259875 -0.052652583 -0.43951166 -0.11373902 -0.14878276
-0.11221564 -0.6452796 -0.4778818 -0.4938224 -0.39261907 -0.3109651 -0.6503448 -0.46915916
-0.005881101 0.105726406 -0.7529719 -0.3408675 -0.46247223 -0.00026735663 -0.4103475 -0.5230086
-0.346692 -0.6854166 -0.18614079 -0.7159835 -0.62504494 -0.16593346 -0.12142777 -0.3141921
-0.14275727 -0.67148745 -0.75668466 0.055346087 -0.48515645 -0.34697488 -0.14587596 -0.17659634
-0.1776838 0.049521104 -0.15495744 -0.73812324 -0.5639379 -0.47595716 -0.39286005 0.18437986
-0.77175856 0.109862074 -0.36334017 0.04743482 -0.6948415 -0.4140619 -0.5500463 -0.28598908
-0.40954134 -0.4781751 0.20041786 -0.54877573 -0.6458394 -0.12294254 -0.12030593 -0.10159149
-0.04058887 -0.48952883 0.082966045 -0.47618106 -0.19420701 0.5353107 -0.13333935 0.19755362
-0.050001264 0.6312669 0.38930613 0.011965185 -0.19940577 0.47537622 0.10507375 -0.2989819
0.18141098 -0.15725912 -0.1881496 -0.2490104 -0.0026779175 0.036713794 -0.12557933 0.2059169
-0.18447432 -0.4276553 0.19296835 -0.20608324 0.13193135 -0.11213331 0.031481892 0.3621314
-0.5945492 -0.05053459 -0.03310521 -0.07197574 0.5227827 0.37940603 0.10875626 -0.40991098
-0.018773928 0.10759185 0.13447057 -0.6467725 -0.49885967 -0.5260112 -0.068539575 -0.08163063
-0.05340323 -0.16646987 -0.24191497 -0.0015736371 -0.52269924 0.5287041 0.03596343 0.42474344
-0.03194283 -0.4675794 0.07120331 -0.35554615 0.06853844 -0.667883 0.14571102 0.1179529
0.058212377 -0.43532303 0.64238214 -0.07316754 -0.028572306 0.65281814 0.46146128 -0.31827176
-0.08944066 0.31129655 0.5241646 0.005295247 0.34395948 0.25358725 0.78039616 -0.2318185
0.5701682 0.51655436 0.40947548 0.18293366 0.4083354 0.07659502 0.34938973 0.31728646
0.70520973 0.027282853 0.54880184 0.5906077 -0.1160711 0.4184266 -0.34336016 0.60699624
0.36117896 0.3567762 0.116129234 0.037135586 -0.49284303 0.7425289 -0.1376319 -0.4734768
0.5703146 0.62307274 -0.10576374 -0.24685404 0.30588087 0.35425213 0.62187326 0.22410122
0.5717279 0.42394862 0.15542069 -0.08304812 -0.14382437 0.69743395 0.57037586 -0.35294068
0.340505 0.6630447 0.43644834 0.53027076 0.46530807 0.3471172 -0.090761796 -0.08492416
0.111523524 -0.66584724 -0.17704669 -0.56135815 0.190399 -0.4557751 -0.09307511 -0.09022093
-0.10799353 -0.32429582 -0.63593197 -0.14755794 -0.08948848 -0.43617845 -0.6415195 -0.60477555
-0.0006971657 0.13359053 -0.058360696 -0.49425575 -0.09424013 -0.08900803 -0.13683605 -0.08331171
0.20385762 -0.6476639 0.18457378 -0.08762938 -0.114349164 -0.13455126 0.15468521 -0.36405173
-0.099770546 -0.17629127 -0.0106841475 -0.15732008 0.6162652 -0.40657 -0.0023900717 0.12770085
-0.116963364 -0.08800231 -0.040076092 -0.53111607 -0.6157974 -0.31057143 -0.05895692 0.02452673
0.20445417 0.13430826 -0.5111406 0.13037623 -0.6308929 -0.45477134 0.10222553 0.37733915
0.12471934 -0.3785431 -0.16715896 -0.65533406 0.13964154 -0.059833318 -0.05382116 0.20493658
00000000: 1975 bfbe 7a98 f1be 5bec f0be 5a81 24bf
00000010: 3caa 57bd ac07 e1be 01f0 e8bd 825a 18be
00000020: 50d1 e5bd 0b31 25bf ecac f4be 4ad6 fcbe
00000030: 5e05 c9be d136 9fbe ff7c 26bf a135 f0be
00000040: 40b6 c0bb 1687 d83d c4c2 40bf 2f86 aebe
00000050: 29c9 ecbe 002c 8cb9 1119 d2be e4e3 05bf
00000060: 9d81 b1be 7677 2fbf b19b 3ebe b24a 37bf
00000070: f202 20bf 76ea 29be 1faf f8bd c9dd a0be
00000080: f62e 12be 9ae6 2bbf 16b6 41bf 94b2 623d
00000090: 6d66 f8be b1a6 b1be 8260 15be acd5 34be
000000a0: bef2 35be a4d6 4a3d 2aad 1ebe a5f5 3cbf
000000b0: 3c5e 10bf a8b0 f3be f424 c9be 13ce 3c3e
000000c0: f891 45bf 5eff e03d b907 babe 044b 423d
000000d0: 22e1 31bf ecff d3be d6cf 0cbf 296d 92be
000000e0: 67af d1be 5ed3 f4be 573a 4d3e 917c 0cbf
000000f0: bb55 25bf 4cc9 fbbd f562 f6bd 330f d0bd
00000100: 8440 26bd 86a3 fabe 1aea a93d 01ce f3be
00000110: 34de 46be 1f0a 093f 1c8a 08be 7f4b 4a3e
00000120: 20ce 4cbd b59a 213f 2253 c73e a009 443c
00000130: 0731 4cbe 8364 f33e e830 d73d 2814 99be
00000140: cdc3 393e 8908 21be 4aaa 40be 95fc 7ebe
00000150: 0080 2fbb 3461 163d de97 00be e1db 523e
00000160: d6e6 3cbe a3f5 dabe 7f99 453e 7c07 53be
00000170: 0319 073e 26a6 e5bd 28f3 003d 4969 b93e
00000180: 6034 18bf 5cfd 4ebd 5499 07bd 0468 93bd
00000190: 16d5 053f 8241 c23e 9abb de3d dadf d1be
000001a0: c8cb 99bc 1e59 dc3d a7b2 093e e292 25bf
000001b0: 896a ffbe aca8 06bf 7a5e 8cbd f62d a7bd
000001c0: 58bd 5abd 1477 2abe 8fb8 77be 8042 ceba
000001d0: 9ecf 05bf 2759 073f 644e 133d f977 d93e
000001e0: 7cd6 02bd 9166 efbe 0ad3 913d 250a b6be
000001f0: e25d 8c3d 61fa 2abf 4535 153e 4a91 f13d
00000200: 1a70 6e3d a9e2 debe 2873 243f ddd8 95bd
00000210: 7810 eabc 171f 273f a744 ec3e 84f4 a2be
00000220: aa2c b7bd 4362 9f3e a72f 063f c083 ad3b
00000230: 751b b03e 30d6 813e 0bc8 473f d461 6dbe
00000240: 8bf6 113f e83c 043f c5a6 d13e f652 3b3e
00000250: 5611 d13e dadd 9c3d 36e3 b23e 5f73 a23e
00000260: a088 343f 4a80 df3c 477e 0c3f 1132 173f
00000270: afb6 edbd 033c d63e e7cc afbe 1b64 1b3f
00000280: 73ec b83e 5fab b63e 2ad5 ed3d 7c1b 183d
00000290: ec55 fcbe 6016 3e3f 60ef 0cbe 8d6b f2be
000002a0: 2300 123f b281 1f3f a99a d8bd 4ec7 7cbe
000002b0: 6b9c 9c3e 8960 b53e 1633 1f3f ca7a 653e
000002c0: c25c 123f cb0f d93e 9a26 1f3e 2215 aabd
000002d0: b246 13be 088b 323f 2704 123f a4b4 b4be
000002e0: ac56 ae3e 4cbd 293f 2876 df3e d3bf 073f
000002f0: dc3c ee3e 58b9 b13e 52e1 b9bd b8ec adbd
00000300: 7266 e43d f774 2abf ba4b 35be 2bb5 0fbf
00000310: f5f7 423e 5b5b e9be 2a9e bebd c0c5 b8bd
00000320: b62b ddbd 1a0a a6be 70cc 22bf 6e19 17be
00000330: bc45 b7bd c852 dfbe 9f3a 24bf 92d2 1abf
00000340: 00c2 36ba f5cb 083e a00b 6fbd 170f fdbe
00000350: f800 c1bd d849 b6bd c01e 0cbe 549f aabd
00000360: 0dc0 503e 4dcd 25bf e900 3d3e 0877 b3bd
00000370: e52f eabd cec7 09be cd65 1e3e fd64 babe
00000380: 8054 ccbd b385 34be 900c 2fbc 8418 21be
00000390: 8ec3 1d3f f129 d0be c0a2 1cbb 03c4 023e
000003a0: 7d8a efbd 8e3a b4bd d426 24bd 39f7 07bf
000003b0: e6a4 1dbf 3803 9fbe d07c 71bd 48ec c83c
000003c0: 6f5c 513e 1b88 093e 1cda 02bf 5981 053e
000003d0: 3282 21bf cad7 e8be 9e5b d13d 9932 c13e
000003e0: da6c ff3d 67d0 c1be b82b 2bbe f9c3 27bf
000003f0: 31fe 0e3e c813 75bd 9473 5cbd e5da 513e

bias f4 [5]
-0.036529005 -0.29848537 0.17915684 0.34473476 -1.6582932
00000000: 709f 15bd 13d3 98be e474 373e 1381 b03e
00000010: f442 d4bf

weight f4 [5, 64]
-0.6902441 -0.42438763 -0.11943584 0.29637754 -0.53634244 -0.34732306 0.5630676 -0.54702026
0.02042917 0.8161245 -0.7097207 -0.3991866 -0.6972884 0.34885415 -0.6916315 -0.21157785
-0.56508845 -0.22121917 1.1221088 -0.5215158 0.6389886 -0.07325559 -0.6058761 -0.19960386
0.22345154 -0.20803456 -0.051916074 0.19190909 -0.1809572 -0.46384457 -0.33315054 0.6104545
0.7817988 -0.26996997 -0.4183653 0.025877032 -0.27170405 0.5178055 -0.16135165 0.3609362
0.49889362 -0.21308734 -0.47573382 0.6341751 -0.4401494 0.34767494 -0.21407305 0.24885446
-0.53528184 0.45585597 -0.018684221 -0.20334998 -0.054422725 -0.25172812 -0.7739207 0.25528786
-0.24832626 0.14257644 0.06789216 0.6440593 -0.23627959 -0.23402613 0.3289606 -0.2264257
0.72789985 0.41511482 0.21504389 -0.5791104 0.5210892 0.42424178 -0.6348398 0.1924563
-0.050148174 -0.6257552 0.23275635 0.20841673 0.6920548 -0.45417553 0.6038116 0.695031
0.3918697 0.44312498 -0.79024893 0.34054255 -0.40125874 -0.004684945 0.14714214 0.22984542
-0.49262774 0.61582005 0.20206729 -0.15788703 0.28410065 0.8074964 0.19200082 -0.37088063
-0.58403385 0.56749433 0.67949325 -0.2533255 -0.3404644 -0.31493106 -0.03485518 -0.76215
-0.47741655 0.2532661 0.57112926 -0.4065423 0.3303145 0.60374135 0.1484752 -0.08258478
0.65595555 -0.58827966 0.19107458 0.5288184 -0.2511629 0.70637983 0.49785513 -0.31345016
0.69151986 -0.35510528 -0.018007157 -0.7215628 0.45841882 0.3005837 -0.5679096 0.37044606
-0.27777898 0.47165543 0.5591776 -0.37299553 0.3758377 -0.40332806 0.45654884 -0.32949057
-0.4548784 0.5834954 -0.4653239 0.6992176 -0.4442975 0.4379422 -0.45427972 -0.3311975
-0.18302327 0.49907303 -0.24013461 0.5363142 0.41659167 0.5591904 0.14713424 -0.41501665
0.29005262 0.27695838 0.20493004 -0.466421 -0.41721144 -0.44827038 -0.5580373 0.74835074
0.43682572 -0.23076326 -0.39894015 0.32504943 0.39423394 -0.658972 0.44793352 -0.44004187
0.55532146 -0.4906098 -0.38029674 0.3608382 -0.59607 -0.42770928 -0.11624667 0.2264812
-0.493278 -0.33811155 0.37451634 -0.196227 -0.1319193 -0.32701868 0.37416747 0.17508109
-0.43325657 0.35827357 0.21454993 0.38928032 -0.29156077 -0.2880082 0.49342462 0.62917787
-0.64362526 0.5529926 0.20819835 -0.45085818 0.37357807 -0.39678386 0.629677 -0.2324417
-0.017309893 0.35730115 -0.5286386 0.35435703 -0.29848772 0.7097891 -0.31179902 -0.14896877
-0.4333399 0.20766594 0.7571961 0.5942011 0.3167038 0.45682752 0.46146703 -0.11431825
-0.0005931777 0.73241335 -0.012175547 -0.0590614 -0.6509142 -0.324636 -0.3348028 0.6043289
0.34969798 -0.43528512 -0.21593647 0.5030787 0.7317801 -0.7437791 0.5269318 -0.37620094
0.357454 -0.17191951 -0.7797226 0.32266206 -0.14433308 -0.6827394 -0.16197374 0.088736445
-0.43044487 -0.25693002 0.18299346 -0.34373647 0.46545026 -0.17195304 0.5905545 -0.033878513
-0.18602172 0.56595635 0.3953787 0.2839119 -0.26344806 -0.57572514 -0.22526689 0.3842094
00000000: d6b3 30bf 5649 d9be c79a f4bd ccbe 973e
00000010: bd4d 09bf 54d4 b1be 3325 103f 8509 0cbf
00000020: 135b a73c 89ed 503f 41b0 35bf 3062 ccbe
00000030: 7e81 32bf 039d b23e c30e 31bf dda7 58be
00000040: a3a9 10bf 4787 62be 43a1 8f3f 0f82 05bf
00000050: c294 233f 0707 96bd b21a 1bbf f464 4cbe
00000060: 7bd0 643e 0307 55be f3a5 54bd d183 443e
00000070: d84c 39be 097d edbe b592 aabe bf46 1c3f
00000080: f723 483f 8139 8abe fa33 d6be 12fc d33c
00000090: cb1c 8bbe e78e 043f 5e39 25be a1cc b83e
000000a0: fc6e ff3e 9133 5abe 6293 f3be 4d59 223f
000000b0: 435b e1be 7302 b23e f735 5bbe b4d3 7e3e
000000c0: 3b08 09bf f465 e93e a70f 99bc fa3a 50be
000000d0: 5dea 5ebd 82e2 80be ab1f 46bf 17b5 823e
000000e0: 3d49 7ebe 8fff 113e 0b0b 8b3d 12e1 243f
000000f0: 47f3 71be 8ca4 6fbe 866d a83e 24dc 67be
00000100: a557 3a3f ee89 d43e 7734 5c3e 9440 14bf
00000110: 1a66 053f 3836 d93e dc84 22bf 4413 453e
00000120: 2c68 4dbd 7e31 20bf ae57 6e3e 326b 553e
00000130: 812a 313f b289 e8be 6693 1a3f 8ded 313f
00000140: 25a3 c83e 47e1 e23e c14d 4abf 985b ae3e
00000150: c971 cdbe 2b84 99bb 6eac 163e 995c 6b3e
00000160: b439 fcbe 62a6 1d3f baea 4e3e 23ad 21be
00000170: a475 913e 16b8 4e3f dd9b 443e 11e4 bdbe
00000180: 3e83 15bf 4f47 113f 45f3 2d3f e1b3 81be
00000190: 5a51 aebe a53e a1be 4ec4 0ebd 431c 43bf
000001a0: f16f f4be 18ac 813e 8735 123f 5026 d0be
000001b0: fb1e a93e cb8e 1a3f e209 183e 3622 a9bd
000001c0: b4ec 273f 7f99 16bf 0ea9 433e a560 073f
000001d0: 6c98 80be 4fd5 343f dee6 fe3e 8a7c a0be
000001e0: 7207 313f 5cd0 b5be bf83 93bc 57b8 38bf
000001f0: dfb5 ea3e 1be6 993e 8662 11bf 1bab bd3e
00000200: 0c39 8ebe d27c f13e 4326 0f3f 45f9 bebe
00000210: cd6d c03e 0481 cebe c5c0 e93e fdb2 a8be
00000220: d2e5 e8be f45f 153f ef3e eebe edff 323f
00000230: f67a e3be f639 e03e 5a97 e8be b892 a9be
00000240: 746a 3bbe 8086 ff3e d9e5 75be e34b 093f
00000250: 814b d53e 1a27 0f3f 5caa 163e 107d d4be
00000260: c781 943e 7dcd 8d3e 2ed9 513e bcce eebe
00000270: bd9c d5be b283 e5be 88db 0ebf ea93 3f3f
00000280: 9fa7 df3e 344d 6cbe e241 ccbe e16c a63e
00000290: 08d9 c93e 64b2 28bf 8b57 e53e 2b4d e1be
000002a0: 8c29 0e3f 3531 fbbe 41b6 c2be c9bf b83e
000002b0: 0b98 18bf b6fc dabe bc12 eebd b0ea 673e
000002c0: ef8e fcbe f51c adbe 9bc0 bf3e bbef 48be
000002d0: da15 07be fe6e a7be e192 bf3e 7548 333e
000002e0: ced3 ddbe a26f b73e fab2 5b3e c04f c73e
000002f0: 7447 95be d075 93be 27a2 fc3e cd11 213f
00000300: a0c4 24bf ec90 0d3f f331 553e e2d6 e6be
00000310: a045 bf3e 4127 cbbe 8332 213f 3205 6ebe
00000320: 7acd 8dbc 2df0 b63e dc54 07bf 496e b53e
00000330: 62d3 98be bdb4 353f 1fa4 9fbe 458b 18be
00000340: bade ddbe 61a6 543e 9bd7 413f 901d 183f
00000350: 0027 a23e 4ce5 e93e 6845 ec3e b01f eabd
00000360: 7b7f 1bba 717f 3b3f f27b 47bc 5eea 71bd
00000370: 50a2 26bf b136 a6be 466b abbe 4cb5 1a3f
00000380: 9d0b b33e b1dd debe 731e 5dbe c4c9 003f
00000390: f155 3b3f 4f68 3ebf 01e5 063f 699d c0be
000003a0: 3604 b73e ab0b 30be e69b 47bf f633 a53e
000003b0: 0dcc 13be 02c8 2ebf 72dc 25be 74bb b53d
000003c0: 4563 dcbe 558c 83be a362 3b3e 3afe afbe
000003d0: 7f4f ee3e 7514 30be 942e 173f 32c4 0abd
000003e0: 7a7c 3ebe 84e2 103f 146f ca3e e75c 913e
000003f0: aae2 86be b962 13bf 5dac 66be 18b7 c43e
