graph_classification_model_fold1.pt (torch, 98134 bytes, 10 tensors)

bias f4 [64]
00000000: 0000 0000 0000 0000 0000 0000 0000 0000
00000010: 182a bc3b 3f6b 1a3c 1daf b33b 8b35 d63a
00000020: 9ca4 433b e28a 6c3c 0000 0000 86a1 633c
00000030: 0000 0000 ae4e 3d3c 0000 0000 0000 0000
00000040: 0000 0000 4acf 02bc 0000 0000 0000 0000
00000050: 0000 0000 0000 0000 f18d e0bb 0000 0000
00000060: 0000 0000 0000 0000 0000 0000 0000 0000
00000070: b2db bbbb 0000 0000 0cfe f73a c76e 67bb
00000080: 3579 683a d5cd 313b 692c 45bb 3eca bc3b
00000090: 0000 0000 0000 0000 e6f3 3d3b 0000 0000
000000a0: 3bbf e1bb 0000 0000 2fa1 583b 0000 0000
000000b0: 0000 0000 e499 f13b 0000 0000 0000 0000
000000c0: 0000 0000 8ef2 3a3c 7491 1b3c 0000 0000
000000d0: 0000 0000 0000 0000 0000 0000 c816 65bb
000000e0: 0000 0000 4af1 0fbb 44c9 3e3c e7f8 ccbb
000000f0: 9d1c 413b 00ad 003c 0000 0000 0000 0000
0.0 0.0 0.0 0.0 0.0057423227 0.0094249835 0.0054835216 0.0016342861
0.0029852754 0.014437409 0.0 0.013893491 0.0 0.011554403 0.0 0.0
0.0 -0.007983992 0.0 0.0 0.0 0.0 -0.0068528582 0.0
0.0 0.0 0.0 0.0 -0.005732977 0.0 0.0018920316 -0.0035313831
0.0008868159 0.0027130742 -0.0030086285 0.005761414 0.0 0.0 0.0028984486 0.0
-0.0068892515 0.0 0.0033055057 0.0 0.0 0.0073730815 0.0 0.0
0.0 0.011410369 0.009495128 0.0 0.0 0.0 0.0 -0.0034956206
0.0 -0.0021963888 0.011644665 -0.0062552574 0.0029466518 0.007853746 0.0 0.0

weight f4 [64, 1]
00000000: e8f8 b6bd 1c63 76bd 8099 e3bd 044d 13be
00000010: f8db 763e d3dd 953e 6b50 0f3e 1994 8c3e
00000020: 2f51 d93d 5af4 7c3d c07b f7bd 3149 983e
00000030: 9a2f 5ebe 41a5 713e f8ee 1ebd 34d4 f5bd
00000040: 00d7 beba 1d0b 373e cfd0 89be ed30 71be
00000050: 94c3 63bd b52d 9abe 87fa 0c3d 5247 5cbe
00000060: c09f 8bbe 50c2 fcbd 0bb5 26be 005a cdba
00000070: aca4 4a3e c686 97bd 9a83 7f3d 0de9 083e
00000080: 8c36 a93d f2b3 903c fb90 3e3d ea0b 3d3e
00000090: f1a2 8bbe beca f7bd 81ff 8a3e 2036 a3bd
000000a0: 4bce 3d3e fb8d 78be 4abd 913d e086 11bc
000000b0: 301b 92be 9492 9a3d 30f9 03bd 9ffb 96be
000000c0: ca97 c1bd d0ff 853e 5f45 903d 63fb 3dbe
000000d0: db8e 20be ebf3 0dbe 6339 21be c204 5c3d
000000e0: d50d 12be fe2a 5b3e 480c 323e feb2 5d3e
000000f0: 5e9f 083c 1d97 903e 123a 82be 8bda 27be
-0.08934194 -0.06015311 -0.11113262 -0.14384848 0.24107349 0.292708 0.13995521 0.2745674
0.10611188 0.06175647 -0.1208415 0.2974334 -0.21697846 0.23598196 -0.038802117 -0.12003365
-0.0014559925 0.17875333 -0.2691712 -0.2355382 -0.05560644 -0.30112997 0.03441861 -0.21511582
-0.27270317 -0.1234175 -0.1628 -0.0015667081 0.1978938 -0.07398753 0.062381364 0.13370152
0.08262357 0.01766393 0.046524983 0.18461576 -0.27272752 -0.12099217 0.2714806 -0.07969308
0.18535726 -0.24272911 0.07116182 -0.008882254 -0.28536367 0.07547489 -0.032220066 -0.29488847
-0.094527796 0.26171732 0.070444815 -0.18552928 -0.15679495 -0.13862579 -0.15744548 0.053715475
-0.14263089 0.21403119 0.17387497 0.21650311 0.008338777 0.2824029 -0.2543493 -0.16391961

bias f4 [64]
00000000: 0000 0000 ed88 353b 402e 8ebb 0000 0000
00000010: e44a 3e3c 0000 0000 09fa 59bb 0000 0000
00000020: eb6a 60bb 0000 0000 0000 0000 150e 6e3c
00000030: 0000 0000 7541 cfbb 206b e235 bb63 c43b
00000040: 51b5 37bb 0000 0000 0000 0000 0000 0000
00000050: 0000 0000 d883 d2bb 9b6d 0e39 0000 0000
00000060: 28f2 063c 40df dbbb 0000 0000 0000 0000
00000070: 0000 0000 ecda c03b 33d6 25bc 0000 0000
00000080: c4ff 313b 6ae5 d03b 0000 0000 ac98 a03b
00000090: fe5b 25bc f353 e43a fdf6 e1ba c895 fd3a
000000a0: 0000 0000 b4c6 5abb 8f20 9b3b 2c30 6a3c
000000b0: 0000 0000 0000 0000 a3f7 44bc 0000 0000
000000c0: d2c7 37ba f8a0 e83b 0000 0000 c220 3639
000000d0: 0000 0000 0000 0000 0000 0000 7278 9cbb
000000e0: 7f65 05bc 0000 0000 fb1a 6d3c f6f5 3d3c
000000f0: 194e 333c 2350 4dbb 0000 0000 0000 0000
0.0 0.0027700022 -0.0043390095 0.0 0.011614535 0.0 -0.0033260605 0.0
-0.0034243416 0.0 0.0 0.014529725 0.0 -0.0063249418 1.686949e-06 0.005993334
-0.0028031657 0.0 0.0 0.0 0.0 -0.0064244084 0.00013583007 0.0
0.0082364455 -0.006709963 0.0 0.0 0.0 0.0058854725 -0.01012187 0.0
0.0027160505 0.0063750045 0.0 0.0049010124 -0.010092733 0.0017420038 -0.0017239746 0.0019347006
0.0 -0.0033382596 0.004734106 0.014293712 0.0 0.0 -0.012021932 0.0
-0.00070106715 0.007099267 0.0 0.00017369076 0.0 0.0 0.0 -0.0047751004
-0.008141874 0.0 0.014471765 0.011594286 0.010943913 -0.0031328283 0.0 0.0

weight f4 [64, 64]
00000000: 8294 46be b8a6 4cbd 48f0 a33c af68 413e
00000010: 18c8 bebc 7a08 16be 480c dbbd e37b cbbd
00000020: fc64 3cbd 989f 56bd b929 2a3e d05f 1dbe
00000030: 7a11 df3d 7dd5 eebd 6c35 2c3d 1eee de3d
00000040: c220 db3d 8c5f 5a3d ffb1 5c3e d8b3 083d
00000050: 837f 003e e574 52be 8603 e43d 18b1 1ebe
00000060: 98e6 08bd f0cc 33bc b151 583e eb19 59be
00000070: 40cf 0dbc 6b23 443e b3f7 383e 2615 2bbe
00000080: 3429 a6bd aea4 9a3d 6f1c 233e 1058 0ebc
00000090: 866f 59be d644 853d c0ed 80bb b836 26be
000000a0: b4d3 203d 88b3 4dbe 751b 023e 5c12 31be
000000b0: fca1 99bd 1cee 5b3d a5fe 093e fcac 40be
000000c0: d611 36be 498f 5d3e 06bd d7bd f0f7 4bbe
000000d0: 6ccf 43be cd36 4e3e 400c 6bbd 258c 2f3e
000000e0: 6a11 4cbe a0dc 67bd 27c2 433e c0a8 3ebe
000000f0: c89b 8fbd 5510 093e 9f8c 233e 46fc 923d
00000100: 153f 0c3e 501f 97bd 1acd c3bd 23bd 193e
00000110: 6924 4fbe f0b9 95bc 36f6 523e d51b b33d
00000120: f45c 3cbb 8bb3 73bd 8003 353c 7d6a 47bd
00000130: 8d4b 24be bf4f 89bd 4d56 5abe 9d55 483e
00000140: 57ab 52be 2b6f f13a 1288 8b3d 9788 5abe
00000150: 0a93 f33d 80c7 b3bc 8ddf e73a 10ca 9f3c
00000160: 58ec c9bc c4c2 743d 8e74 ac3d 1f72 2ebe
00000170: 8b80 16bd d63f 39be 7617 fbbd a8d2 0c3e
00000180: d2cf 40be 36c7 adbc 6181 633d 1c9b d83d
00000190: 22ec 9a3d 6584 51be 5570 5c3e 6014 943b
000001a0: 0ca4 f73d 3c29 203d cfa0 3f3e 2840 ee3c
000001b0: dcf4 bebd 742a 283e a035 ad3c b7a1 3c3e
000001c0: eaf8 3abe 58e2 2b3e 5c29 7fbd 8598 2f3e
000001d0: 0c41 41be c638 b03d e369 333e 72dc 5d3d
000001e0: 3cd5 1cbd be68 343e 9266 a1bd 2640 99bd
000001f0: 630b 023e cb8a 343e 6041 fcbd a371 59be
00000200: 869c 973d c88f a0bc b7e3 c6bd 8ed9 3abe
00000210: ff06 3f3e ab24 99bd 11dd 04bd fdd2 573a
00000220: 44b6 1abe 39c2 103e 8882 92bd b9dc 423d
00000230: 54a9 1a3d a10a 6f3d eb50 573e 8dfa 00be
00000240: 6474 edbd 48de ef3d 9829 b4bc 4035 3fbc
00000250: ccb4 04bd 00ba d83a a9fd 32bd 0cd3 583d
00000260: 8031 3cbe a83a b7bc 363f b93d b6f2 22be
00000270: 3996 9abd 0cf6 94bd 086c 00be 29d3 293e
00000280: 016c 98bb 5659 00be a01e 033e 27f8 5b3b
00000290: 948d ccbd 1dbc 54be 64da 593c 412f 443e
000002a0: 048e 39be 35c7 293e 786d 1b3e 8c22 163d
000002b0: e27e 19be 3e0f e03d f7bb 383e b4d6 a0bd
000002c0: d440 02be c5d3 3c3e fbad f43c 6cf7 f3bd
000002d0: 80cf 933b c096 773c 5152 3fbe dac5 d6bd
000002e0: c012 55bd 46c7 11bd 5f29 2fbe 3b60 463e
000002f0: 4221 483e 201f 93bd 351d 28be 821d d6bd
00000300: da63 a6bd 9607 26be dc0c a4bd 2e77 a73d
00000310: 94c8 16be d816 f9bd c6d4 5abe 20b6 7bbc
00000320: 9019 a9bc 0fd5 093e e179 eebd fcbb d5bd
00000330: c01f 02bb a01b 413c d805 023d f07d cfbd
00000340: 9c9d 063d 6e81 a93d f062 44be 248a 223d
00000350: 3f64 1d3e 00a1 dc3c bd84 57be 36df 24be
00000360: b49c 30be 3655 0fbe ea1a df3d b27b a7bd
00000370: 6c3c 07bd 9ae7 a73d b721 edbd cbcc 3ebe
00000380: 9803 c0bc 8a6b cc3d 027d d23d 20e3 0b3c
00000390: 0458 1bbd 80b6 30be 0764 4b3e 6498 703d
000003a0: 1a15 cf3d df18 473e 6465 34be 82e3 e4bd
000003b0: 75d0 4a3e 48a7 ecbc 0213 fc3d aa25 f33d
000003c0: 3412 fcbd e5c3 073e cac9 05be 98fd 47be
000003d0: efd0 233e c266 38be 35a7 083e 5040 e7bc
000003e0: 2071 3cbd c6f8 c03d 12e7 87bd 5dd4 583e
000003f0: 7411 253d 7f19 fcbd bcf4 163d c889 ff3c
-0.19392589 -0.049963683 0.020012036 0.1888759 -0.023288772 -0.14651671 -0.10695702 -0.09935739
-0.045994744 -0.052398294 0.16617478 -0.15368581 0.10892005 -0.116618134 0.042043135 0.10885261
0.106996074 0.053313777 0.21552275 0.033374637 0.12548642 -0.20552404 0.111334845 -0.15497243
-0.033423036 -0.010974154 0.21124913 -0.21201293 -0.008655369 0.19154136 0.1806324 -0.16707286
-0.081133276 0.075509414 0.15928815 -0.008687988 -0.21233949 0.0650727 -0.003934592 -0.16231811
0.039264396 -0.20088017 0.12705787 -0.1729216 -0.07501599 0.053693876 0.13476045 -0.18815988
-0.17780241 0.2163669 -0.105341 -0.199188 -0.19122094 0.20138092 -0.05738473 0.17143305
-0.19928518 -0.05660689 0.19117032 -0.1861906 -0.07012135 0.13385136 0.15971611 0.071770236
0.13695939 -0.07379019 -0.095606044 0.15013556 -0.20228733 -0.018277138 0.20601735 0.08745543
-0.0028741928 -0.059497397 0.011048198 -0.04868554 -0.16044445 -0.067046635 -0.21321984 0.19563909
-0.20573173 0.0018419971 0.06813063 -0.21341167 0.1189328 -0.021945715 0.0017690525 0.01950553
-0.02464883 0.059756055 0.084206685 -0.17035721 -0.036743682 -0.18090758 -0.12260334 0.13752234
-0.18829277 -0.021213155 0.055543307 0.1057646 0.0756457 -0.20460661 0.21527226 0.0045190305
0.12091836 0.039101824 0.18713687 0.029083326 -0.09324047 0.16422445 0.021143734 0.18421064
-0.18259016 0.16785562 -0.062295303 0.17148025 -0.1887247 0.08604579 0.17520861 0.05416531
-0.038289294 0.17618081 -0.07880892 -0.074829385 0.12699656 0.1763107 -0.12317157 -0.21234755
0.07402901 -0.01959981 -0.09711402 -0.18247053 0.18655013 -0.07477697 -0.032437388 0.0008233039
-0.15108591 0.1413659 -0.07153803 0.04757378 0.03775914 0.058359746 0.21026962 -0.12595578
-0.115944654 0.11712319 -0.02199249 -0.011670411 -0.032398984 0.0016534925 -0.04369894 0.052935645
-0.18378258 -0.022366837 0.0904526 -0.159129 -0.07548184 -0.07273492 -0.1254121 0.16584457
-0.004651547 -0.12534079 0.12804651 0.0033564658 -0.099879414 -0.20774885 0.013296697 0.19158651
-0.18120581 0.16579898 0.15178478 0.03665404 -0.14989808 0.10940407 0.18040453 -0.07853451
-0.12720042 0.18440159 0.029868117 -0.11912426 0.00451082 0.015111625 -0.18683745 -0.10486956
-0.052019835 -0.035590433 -0.17105626 0.19372647 0.19543937 -0.07183671 -0.16417392 -0.10454847
-0.08124514 -0.16213831 -0.08010265 0.081770286 -0.14724952 -0.1216256 -0.21370229 -0.015363246
-0.020642072 0.13460182 -0.1164434 -0.10436246 -0.001985535 0.0117863715 0.031743854 -0.101314425
0.03286515 0.0827664 -0.19178367 0.039682522 0.15370272 0.02693224 -0.2104673 -0.16100773
-0.17247277 -0.13997349 0.10893805 -0.0817789 -0.033016607 0.08198471 -0.11578696 -0.1863281
-0.023439214 0.09981449 0.102777496 0.008538038 -0.037925735 -0.17257118 0.19862376 0.05873908
0.10111447 0.19443081 -0.17616802 -0.11176206 0.19806083 -0.02888836 0.12308313 0.11872418
-0.123081595 0.13258322 -0.13065258 -0.19530332 0.1599767 -0.18007949 0.13345034 -0.028228909
-0.046006322 0.0942245 -0.0663587 0.2117476 0.040299848 -0.123095505 0.03685449 0.031193629

bias f4 [64]
00000000: 195d a53b 0000 0000 a56e c73b 0000 0000
00000010: 77c7 58bb 0000 0000 5416 16ba 0000 0000
00000020: 0000 0000 0000 0000 0000 0000 9f36 3fbb
00000030: fad3 113c 0000 0000 022f f4ba 0000 0000
00000040: b774 243b 0000 0000 14d2 0c3c 967d 06bc
00000050: f9cb 6f3c f0e7 96bb d257 8c3b 51ae 3a3c
00000060: 03df 483c 0000 0000 0000 0000 5a03 263c
00000070: bea5 f93b 420f a93b 0000 0000 0000 0000
00000080: 0000 0000 eef5 44bb bc82 8f3b 0000 0000
00000090: f2aa 16bb c252 003c 0000 0000 0000 0000
000000a0: 0000 0000 0000 0000 00cc 95bb 0000 0000
000000b0: cbc5 4c3b 852c 5dbb b8e0 423c 09bc 33bc
000000c0: b66c 623c 9859 f0bb 0000 0000 de44 a3bb
000000d0: 0000 0000 0000 0000 1cb5 163c 34fa d33b
000000e0: 3931 633c b709 19bb 0000 0000 385a 323c
000000f0: a6e8 e6bb 0000 0000 50c5 ad3b 0000 0000
0.0050464985 0.0 0.006086188 0.0 -0.0033077875 0.0 -0.0005725373 0.0
0.0 0.0 0.0 -0.0029176844 0.008900637 0.0 -0.0018629732 0.0
0.0025093982 0.0 0.008595008 -0.008208653 0.014636033 -0.004605286 0.00428293 0.011394099
0.012260201 0.0 0.0 0.010132635 0.007618635 0.0051592896 0.0 0.0
0.0 -0.0030053812 0.0043795984 0.0 -0.0022990075 0.007832231 0.0 0.0
0.0 0.0 -0.004571438 0.0 0.0031245823 -0.003374846 0.011894397 -0.010970124
0.013819864 -0.007334899 0.0 -0.004982575 0.0 0.0 0.009198453 0.0064690355
0.013866716 -0.0023351738 0.0 0.010885768 -0.007046777 0.0 0.0053030625 0.0

weight f4 [64, 64]
00000000: 2047 50be f65e b43d 4c4c 5c3e da11 963d
00000010: 11b6 18be 8c4a 7f3d 6cab 193e aa64 94bd
00000020: 4356 973c dbfe 503e 2085 d53b 6359 383e
00000030: be3d 1fbe 1ab7 0ebc c144 a13b 6f57 11be
00000040: 10f3 2fbe b485 263d e222 46be 449c 21be
00000050: a5ca 043e 247a b0bd b741 9c3d 7b68 51be
00000060: f5ee 00be dd6b 363e 84b9 59be 3090 1dbe
00000070: 1c7a 263d d119 0e3e 7d82 223e fc28 203d
00000080: c912 49be 9f1f c8bd 369e b43d ad9d 453d
00000090: a99e 29bd ddaa 87bd 7f4c 0b3e b8bc 463e
000000a0: 868d c93d 890f 6c3d c9e6 aebd 90c3 18be
000000b0: 78a1 ebbd 3f1a 4d3e ba3a 6f3d 7c92 b1bd
000000c0: 8e6c cbbd 5775 3a3e fddb 1fbe 2475 3fbe
000000d0: 5b57 163e 8f7f 2dbe 10b9 c8bc 4bd7 493d
000000e0: ac38 2e3e 7688 0cbe 4839 083e 883c d5bd
000000f0: 50ed 553d fa16 1e3e f615 f33d fe42 e33d
00000100: 1816 4bbe fb06 17be 6c8e 40be 8003 af3c
00000110: 1267 04be c8a1 0fbd 5af3 30be 16ec 09be
00000120: c7ed 0c3e 05b2 eebd 000a f2bc 7496 a5bd
00000130: ee18 07be 20a4 e53c 9184 4b3e 2b84 223e
00000140: 0c47 443d f7bc ebbd 4c6a 6a3d 4ca8 06bd
00000150: 040d 223d b7dc dfbd e4ed 733d 753e 18be
00000160: a09f 4abe 1283 dabd b433 6abd fd30 213e
00000170: fa1a f13d 679b d0bd 7043 43be 7f72 1c3e
00000180: 85da 493e ac10 91bd a0a6 f3bb 66a8 ed3d
00000190: f08c 1dbd 5aaa de3d 3f92 c9bd f97c 023e
000001a0: 72e0 c23d 2c70 52be 8f54 553e 4bec 163e
000001b0: 145f 32bd 32ed b0bd fe43 15be 6010 ae3c
000001c0: f0dc 26bc 7015 26bd f536 563e 7a21 883d
000001d0: 68dc 54be bcb2 6a3d d0dd f23c 93dc 0d3e
000001e0: d0c1 96bd d64c f73d c243 8fbd 9cdf 4cbd
000001f0: 2c18 f7bd 06bd 0ebe e80b c23c 5048 d03c
00000200: 9470 00be 47a6 323e 4077 51be 029f 98bd
00000210: 08ed 433e c087 7ebd 61f2 15be e03d dd3b
00000220: 1bbc 433d 8665 ae3d 6ec0 b23d eea2 8ebd
00000230: e045 30bc b2b4 44bc 9bc9 303e dd1f 233e
00000240: 820c a8bd 65ce 3d3e df33 203e 1b68 1abe
00000250: 84fb 1bbe a4b0 d13d 1cc3 25bd d871 82bd
00000260: f76d 80bb e595 b93d b974 1c3e 6175 3c3e
00000270: 40b6 bfbc 58ca c3bc a63b 42be b36d 103e
00000280: 01a6 c2bd f136 92bc 641b 6b3d 39bb 993d
00000290: 5972 42be 0891 d73d e8d3 d63d 4b3f 133e
000002a0: b909 2bbe 4650 49be 5b09 5f3e ecb2 c5bd
000002b0: 1496 c7bd 1a84 893d 0e92 82bd 2a7c c33d
000002c0: fd94 243c ea2b 133e 4058 da3b 3d4f 5bbe
000002d0: 3e89 ff3d b800 55be b322 c6bd f242 ec3d
000002e0: 4cca 4bbe 502f 2e3c 03f3 efbd 0c13 4d3d
000002f0: 8790 593d 9e95 593e 660a f83d 12c6 00be
00000300: e5b6 193e af3b 4d3e c67a 1ebe f172 4f3e
00000310: 6049 8fbd 3de2 043e 802c 33bb c350 273e
00000320: 907c 44bd 918d 24be 54c4 3abe bddb 31be
00000330: 9ec1 bd3d aaa0 82bd f00c 22be 74a4 1f3d
00000340: b0c5 dd3c 28bb 81bc 3c8a 19bd 5570 053e
00000350: b51d 4e3e 15dd 503e 3a1b 8e3d effa 0abe
00000360: ba4a 0bbe 0035 58bb f285 903d 783b 92bc
00000370: d961 533e 7763 4d3e 819d 223e 3ed9 03be
00000380: 9e4c bf3d bc81 063d 0094 7939 7cc7 9bbd
00000390: 0077 703a c3f6 4fbe ab8d cbbd c64e 3abe
000003a0: 1c9f 5dbd 376e 0dbe caca 4dbe 0083 45bd
000003b0: 8e5f b1bd 7cfe 6e3d 9b23 4a3e 4022 82bb
000003c0: a0f0 b4bb 9e7a 983d 66f0 a93d 65a3 333e
000003d0: d983 2c3e 6f3f 193e 70f7 bf3c bcce 3c3d
000003e0: c98c 543e 617c 393e 7862 45bd 4f78 383e
000003f0: a004 cbbb fcfd babd 0908 0ebe 2408 7cbd
-0.20339632 0.08807175 0.2151348 0.07327624 -0.14913203 0.062326953 0.15006799 -0.07245763
0.01847375 0.2040972 0.006516114 0.18002848 -0.15550897 -0.008710647 0.004921526 -0.1419351
-0.17182565 0.040654853 -0.19349244 -0.15782267 0.12967928 -0.086170465 0.076297216 -0.20450012
-0.12591155 0.17814584 -0.21262175 -0.15387034 0.040643796 0.13877036 0.1587009 0.039101586
-0.19636072 -0.09771656 0.08819239 0.048246074 -0.041411076 -0.066243865 0.136034 0.19407928
0.098414466 0.057632003 -0.085401125 -0.14918351 -0.11505407 0.20029543 0.058405615 -0.08670518
-0.099328145 0.18208824 -0.15611263 -0.1869703 0.14681761 -0.16943191 -0.024502307 0.049277585
0.17013806 -0.1372393 0.13303101 -0.10411936 0.052228272 0.15438452 0.11869423 0.11096762
-0.19832647 -0.14748757 -0.1880433 0.021363974 -0.12929943 -0.035066396 -0.17280331 -0.13468966
0.1376258 -0.11655048 -0.029545784 -0.08085337 -0.13193104 0.028032362 0.19874789 0.1587073
0.047919318 -0.115106516 0.05723028 -0.032875344 0.039563194 -0.1093077 0.059553042 -0.14867575
-0.19787455 -0.10669531 -0.057178214 0.15741344 0.117727235 -0.10185891 -0.19068694 0.15278052
0.19712265 -0.07083258 -0.0074356347 0.11604385 -0.038464487 0.10872336 -0.09842347 0.12742986
0.09515466 -0.20550603 0.20833038 0.14738576 -0.043547705 -0.086389914 -0.14576718 0.021248043
-0.010184512 -0.04054779 0.20919402 0.0664701 -0.20787203 0.05729936 0.029646784 0.13853674
-0.073611856 0.12075202 -0.06995346 -0.050017938 -0.12065157 -0.13939294 0.023687318 0.025425106
-0.12542945 0.17446242 -0.20455647 -0.07452203 0.19133389 -0.06214118 -0.14643241 0.006751761
0.047786813 0.08515458 0.08728109 -0.0696467 -0.010758847 -0.012005972 0.17264406 0.15930124
-0.08205511 0.18535765 0.15644787 -0.15078776 -0.15232664 0.1023877 -0.040469274 -0.0636937
-0.003919359 0.09061793 0.15278901 0.18404151 -0.023402333 -0.023900196 -0.18968067 0.14104347
-0.09504319 -0.017848464 0.05739917 0.07506413 -0.18988933 0.105257094 0.10489637 0.14379613
-0.16702928 -0.19659528 0.21780913 -0.09653267 -0.09745422 0.067146495 -0.06375514 0.09545167
0.010045287 0.1437222 0.0066633523 -0.21416946 0.12477349 -0.20801055 -0.09674587 0.11536206
-0.19901389 0.010631397 -0.11716273 0.050066993 0.053116348 0.2124848 0.12111358 -0.12575558
0.15011175 0.20042299 -0.15476522 0.2025869 -0.06996417 0.12976928 -0.0027339756 0.16339402
-0.047970355 -0.16069628 -0.18238956 -0.1736898 0.09265445 -0.063783005 -0.15825248 0.038975194
0.027071804 -0.015836313 -0.037485346 0.13031133 0.2012852 0.20396836 0.06938787 -0.13572286
-0.13602725 -0.0032990575 0.07056798 -0.017850623 0.20642795 0.20057474 0.15880395 -0.1287584
0.093407854 0.032838568 0.00023801625 -0.07606408 0.0009173006 -0.20308976 -0.099391304 -0.18194112
-0.054106817 -0.13811575 -0.20096889 -0.048220634 -0.08660804 0.058348164 0.19740145 -0.003971368
-0.005521849 0.07445262 0.082978055 0.17542799 0.16847171 0.14965604 0.023433417 0.046095595
0.2075683 0.18113853 -0.04818961 0.18014644 -0.0061956197 -0.09130475 -0.13870253 -0.0615312

bias f4 [64]
00000000: 988d ddbb 0000 0000 0000 0000 0000 0000
00000010: 0000 0000 1ed8 753c 82d1 56bc 4dd3 283c
00000020: 0000 0000 e344 a3bb 0000 0000 0000 0000
00000030: 1afb 1e3b d332 07bc 987b 9c3b 04fd 033c
00000040: da1b 9d3b 0000 0000 9228 e6bb 0000 0000
00000050: 05a4 4dbc 0000 0000 0000 0000 0000 0000
00000060: 0000 0000 5cf4 743b 2d47 323c 0000 0000
00000070: a184 973b 60cf 113a 2f86 1fbc 95c9 06bc
00000080: 0000 0000 3f2e 473c 5832 573c 0000 0000
00000090: d4e8 08bc 0000 0000 0000 0000 0000 0000
000000a0: 4d44 f7bb 6c90 9dbb b8d0 31bc c5bf 0cbc
000000b0: e51c 613b 0000 0000 c50e 6c3c 0000 0000
000000c0: 2248 bc3b 0000 0000 0000 0000 b6c9 233c
000000d0: 0000 0000 2690 353c 0000 0000 0000 0000
000000e0: d645 5f3c 0000 0000 0000 0000 0000 0000
000000f0: 776c 613c 92fc 443c 0000 0000 0000 0000
-0.006761264 0.0 0.0 0.0 0.0 0.01500514 -0.013111474 0.010304284
0.0 -0.004982577 0.0 0.0 0.0024258555 -0.0082518635 0.0047754757 0.008055929
0.00479458 0.0 -0.0070238793 0.0 -0.012551312 0.0 0.0 0.0
0.0 0.0037377095 0.010881227 0.0 0.004623965 0.00055622123 -0.009736582 -0.008226772
0.0 0.012157022 0.0131345615 0.0 -0.008356292 0.0 0.0 0.0
-0.007545984 -0.004808476 -0.010852985 -0.008590643 0.0034349498 0.0 0.014407818 0.0
0.0057459036 0.0 0.0 0.009996822 0.0 0.011081731 0.0 0.0
0.01362749 0.0 0.0 0.0 0.01375877 0.012023108 0.0 0.0

weight f4 [64, 64]
00000000: c18f 343e 0c5d 503d 0e9e a13d c781 f5bd
00000010: cb68 6fbd 7202 aa3d 9d1f f5bd 825a 18be
00000020: 50d1 e5bd 55e8 fabd 8c19 383d cdb5 6c3d
00000030: 16f7 203e 3dee 583e 4822 9cbd dcaa 5b3d
00000040: 5f0f 47bc 1687 d83d 83d8 4fbe 2db8 2e3e
00000050: f746 b23d 2410 7dbb 0194 0e3e 4be0 d73c
00000060: 5655 4f3e 9f7d 26be b19b 3ebe 5601 2bbe
00000070: 2d0e 9bbd 1f5c 30be 1faf f8bd 5798 553e
00000080: f62e 12be 780e f9bd 6887 53be 94b2 623d
00000090: effe a8bc 8660 4f3e 8260 15be acd5 34be
000000a0: bef2 35be a4d6 4a3d 2d79 24be 53d8 5cbe
000000b0: 015d 40bc 933d 333d e6a1 203e 0866 383e
000000c0: af87 63be 7294 d53d 8b55 233e 044b 423d
000000d0: 742d 30be 0249 de3d d085 2dba 9010 3b3e
000000e0: b149 0f3e de13 ff3c 573a 4d3e 204e aa3a
000000f0: f031 c2bd 4cc9 fbbd f51c 02be 330f d0bd
00000100: 8440 26bd 0002 50bd 1aea a93d a817 bbbc
00000110: 34de 46be f063 4c3c 1c8a 08be 7f4b 4a3e
00000120: 20ce 4cbd 567e de3d c231 acbd a009 443c
00000130: 0731 4cbe 3adc ab3d e0fe e3bb dd7d 0b3e
00000140: cdc3 393e 8908 21be 4aaa 40be d4f0 2abd
00000150: 0080 2fbb 3461 163d de97 00be e1db 523e
00000160: d6e6 3cbe e0e4 a23b 7f99 453e 7c07 53be
00000170: 0319 073e 26a6 e5bd 28f3 003d ac3e 1abe
00000180: 3868 a8bd 5cfd 4ebd 5499 07bd 0468 93bd
00000190: 6a98 ac3d 6458 0dbe 9abb de3d 565f d93d
000001a0: c8cb 99bc 1e59 dc3d a7b2 093e 09ab 4cbe
000001b0: b6cc e2bd 21c5 f6bd 7a5e 8cbd f62d a7bd
000001c0: 58bd 5abd 1477 2abe c3ab 313e 8042 ceba
000001d0: 0a37 b7bd a004 c03b 644e 133d 7817 b4bc
000001e0: 7cd6 02bd fa61 48be 0ad3 913d a061 d83c
000001f0: e25d 8c3d bb3d 1fbe 4535 153e 4a91 f13d
00000200: 74ee 5c3d 1474 63bd 9a87 dc3d 5de2 303e
00000210: 7810 eabc 7312 053e c838 51be 4796 593e
00000220: aa2c b7bd 4c99 58be 35ce f6bd c083 ad3b
00000230: a252 43be a5ce 4cbe 275e 543e 2e38 f53d
00000240: 3619 8b3d 7242 8b3d ea3b 00be 42a1 3dbe
00000250: e043 fbbd dadd 9c3d 7bc0 3dbe 5666 31be
00000260: e599 2e3e d07f 0e3c 7ada 823d dcf9 643d
00000270: afb6 edbd 18bc acbd a03e d2bb 6ab7 b53d
00000280: 24d2 00bd 62a2 25be 2ad5 ed3d 7c1b 183d
00000290: a828 ed3c 5dee 533e 60ef 0cbe 8c92 2e3d
000002a0: c4ff 113d ef26 1e3e a99a d8bd 9c9b 483d
000002b0: d86d 953c de81 9d3d 7686 b23d eecc 88bd
000002c0: 44ac 173d 9050 acbd f221 21be 2215 aabd
000002d0: 6f3f 5b3e 97c1 323e ec1d 123d 43f4 2c3e
000002e0: 1edc 46be 3048 2bbd 1939 c9bd a371 443e
000002f0: b01f 8ebd c491 02bd 52e1 b9bd b8ec adbd
00000300: 7266 e43d 6568 12be ba4b 35be 28a5 1dbd
00000310: f5f7 423e b665 893d 2a9e bebd c0c5 b8bd
00000320: b62b ddbd 9157 4b3e dd8a e7bd 6e19 17be
00000330: bc45 b7bd 4a8d b13d 06fe f2bd 92bc a7bd
00000340: 00c2 36ba f5cb 083e a00b 6fbd 4027 e13c
00000350: f800 c1bd d849 b6bd c01e 0cbe 549f aabd
00000360: 0dc0 503e cf91 ffbd e900 3d3e f0b7 97bd
00000370: e52f eabd cec7 09be cd65 1e3e e9a1 223e
00000380: 8054 ccbd b385 34be 900c 2fbc 8418 21be
00000390: 1609 c53d 2605 ec3d c0a2 1cbb 03c4 023e
000003a0: 7d8a efbd 8e3a b4bd d426 24bd 7040 07bc
000003b0: 6f4f bebd 0566 593e d07c 71bd 48ec c83c
000003c0: 6f5c 513e 1b88 093e 7041 403c 5981 053e
000003d0: 8e39 ddbd 4a75 8b3d 9e5b d13d 4d7d 12be
000003e0: da6c ff3d 05e7 113e b82b 2bbe aaa4 07be
000003f0: 31fe 0e3e c813 75bd 9473 5cbd e5da 513e
0.17632963 0.050869986 0.07891475 -0.11987644 -0.058449548 0.08301248 -0.119689204 -0.14878276
-0.11221564 -0.12251345 0.04494624 0.057790566 0.15719256 0.2118463 -0.07623726 0.05362974
-0.012149661 0.105726406 -0.20297436 0.17062445 0.08704942 -0.0038614357 0.13923647 0.026352068
0.20247397 -0.16258858 -0.18614079 -0.16699728 -0.07571063 -0.17222641 -0.12142777 0.20858894
-0.14275727 -0.12160963 -0.20657122 0.055346087 -0.020629374 0.20251665 -0.14587596 -0.17659634
-0.1776838 0.049521104 -0.1606185 -0.21566896 -0.011740924 0.043759894 0.1568676 0.18007672
-0.22219728 0.10428704 0.15950601 0.04743482 -0.17204839 0.10853769 -0.0006619366 0.18268037
0.13992955 0.031137403 0.20041786 0.0012993254 -0.09482181 -0.12294254 -0.12706359 -0.10159149
-0.04058887 -0.050783157 0.082966045 -0.022838429 -0.19420701 0.012474999 -0.13333935 0.19755362
-0.050001264 0.108639404 -0.08407928 0.011965185 -0.19940577 0.08391614 -0.0069578737 0.13622232
0.18141098 -0.15725912 -0.1881496 -0.041733578 -0.0026779175 0.036713794 -0.12557933 0.2059169
-0.18447432 0.0049711317 0.19296835 -0.20608324 0.13193135 -0.11213331 0.031481892 -0.1506297
-0.08223003 -0.05053459 -0.03310521 -0.07197574 0.08427508 -0.1380325 0.10875626 0.10613887
-0.018773928 0.10759185 0.13447057 -0.1998712 -0.11074202 -0.12049318 -0.068539575 -0.08163063
-0.05340323 -0.16646987 0.17350678 -0.0015736371 -0.08946045 0.0058599263 0.03596343 -0.021983847
-0.03194283 -0.19568625 0.07120331 0.026413739 0.06853844 -0.15550892 0.14571102 0.1179529
0.053938344 -0.055530623 0.107680514 0.1727385 -0.028572306 0.12995319 -0.20431817 0.21248733
-0.08944066 -0.21152228 -0.120510496 0.005295247 -0.1907449 -0.20000704 0.20739041 0.11973606
0.06791918 0.06799783 -0.12522855 -0.18518546 -0.122688055 0.07659502 -0.18530457 -0.17324194
0.17050894 0.008697465 0.06389327 0.055902347 -0.1160711 -0.084343135 -0.006416157 0.08872874
-0.031450406 -0.16175225 0.116129234 0.037135586 0.02895005 0.20696397 -0.1376319 0.042620227
0.035644308 0.1544454 -0.10576374 0.048976526 0.018240854 0.07690786 0.08717053 -0.06679712
0.03702952 -0.084138036 -0.15735605 -0.08304812 0.21410917 0.17456661 0.035673067 0.16890053
-0.19419906 -0.04181689 -0.09825344 0.19183974 -0.06939638 -0.031877294 -0.090761796 -0.08492416
0.111523524 -0.14297636 -0.17704669 -0.038487583 0.190399 0.06708853 -0.09307511 -0.09022093
-0.10799353 0.19857623 -0.11305783 -0.14755794 -0.08948848 0.08669527 -0.118648574 -0.08190264
-0.0006971657 0.13359053 -0.058360696 0.027484536 -0.09424013 -0.08900803 -0.13683605 -0.08331171
0.20385762 -0.12478983 0.18457378 -0.0740813 -0.114349164 -0.13455126 0.15468521 0.15882076
-0.099770546 -0.17629127 -0.0106841475 -0.15732008 0.09620874 0.115244195 -0.0023900717 0.12770085
-0.116963364 -0.08800231 -0.040076092 -0.008255109 -0.092924945 0.21230324 -0.05895692 0.02452673
0.20445417 0.13430826 0.0117343515 0.13037623 -0.10801993 0.068094805 0.10222553 -0.14305611
0.12471934 0.14248283 -0.16715896 -0.13246408 0.13964154 -0.059833318 -0.05382116 0.20493658

bias f4 [5]
00000000: f3d6 5c3b 0260 40bc 9595 e23b 9de5 643c
00000010: 3660 73bc
0.0033697456 -0.01174164 0.006914804 0.01397076 -0.014854481

weight f4 [5, 64]
00000000: d6a3 06be f800 093d 04fe 6c3e a8e8 67be
00000010: 1083 c3bc 9c16 e23d e93d 00be 94d0 b6bd
00000020: 3254 3d3e e0aa 573e d25c 45be 4000 733c
00000030: 1f15 8abe 2e86 7dbe e86a 70be f51f 583e
00000040: d758 4bbe 2c1b 663e 446a b53d c005 b1bb
00000050: d6f7 1a3d f4b4 7d3e e27b 5abe 300c 2dbe
00000060: ee34 abbd f354 7b3e 0b07 20be 1aac 43be
00000070: c5ac 8c3e e6f4 b83d d234 e4bd 4c6d e539
00000080: 90aa 643e dd74 373e dc8c 213d 100c 753e
00000090: 14af e2bd 0013 a6bb a8df 593e 0bd3 25be
000000a0: 378c d5bd 8216 5ebe 654b ab3d b35d 083d
000000b0: 5c61 c53d 40be 3bbe f55d c23d b4d3 7e3e
000000c0: 122e a1bd f2b2 88bd a6c3 323e 43ed 7a3e
000000d0: e212 60be 5e95 533e 10ae 8ebe 34b7 39bd
000000e0: 2d61 833e faee 8cbe d74d 59be 9010 e13d
000000f0: ddf0 a63d 0881 cb3d bc6c 39be a860 5f3e
00000100: d370 283e 9201 ebbd 8009 a63d 3c77 66bd
00000110: 00de 0a3c 735f 30bd 046b e0bc b9e4 8cbe
00000120: 2064 0d3c a76c a23b 694b 94be 18dd 2dbe
00000130: 8a64 903e fec1 0c3e b1f0 0d3e 6e05 803e
00000140: 57b3 29bc 78ae 62bd 6f65 773e 25ca 33be
00000150: 83f4 433e fb18 49be eade 48be f28d 923e
00000160: 12b2 6dbe 0cc2 d73d 9c8d 93be e8a3 70bd
00000170: 5fc2 3abe 635b 7f3e 0419 5b3d 6f1f 7c3e
00000180: 68d3 5ebd a0cf da3d 73ab 593e d8c0 503d
00000190: 441e 093e b4ee 543e 121d bbbd ff04 75be
000001a0: 2aa9 f93d 3cfe 253e 0bbb c33b 5742 413e
000001b0: 5ad6 f5bd d001 953d d500 fdbd 3622 a9bd
000001c0: c6e9 423e dac6 86bd e8d4 dc3d 21dd bf3d
000001d0: 2093 5cbc 08ec 743e 1007 8cbc c454 03be
000001e0: e610 663e f843 aa3d 54b5 693e 9476 3fbe
000001f0: a4f6 a63d 9392 b5bd f017 66bd 4c0d 6dbd
00000200: 0cc6 8b3e 80bc 8d3b f829 18be 1e6d 193e
00000210: d7fd 0bbe 9b8a 703d 6f7d 00be 2445 043e
00000220: f27d d2bd c9d5 c23d c879 673d b65a 923e
00000230: a220 813b 64a2 1fbe 9672 023c 1336 063e
00000240: b662 8c3e c0eb 3c3d 7d76 fb3d d0db a53c
00000250: c1fe 31be a088 e53c 62a4 7bbe 8057 4cbe
00000260: ce6d c7bd 8088 40be d63c 83bd 5661 66be
00000270: 42ef 3a3d 001a d83d 1800 04be 26fa 6e3e
00000280: 54db b2bd 1651 6d3e 5e76 813d 08e6 f93d
00000290: 50e9 86be 3c5e 0bbe d6d8 c6bd 68a2 a93d
000002a0: 94cc 2abc 9c02 f9bd a4a9 353e 5c58 6ebe
000002b0: 8d5b 18be fc49 d63d 5563 963e b0ea 673e
000002c0: ee91 fdbc 0aa5 3c3e 5419 843e 1644 883e
000002d0: e33a 14be ccf7 093e 0cc8 32be 8654 173e
000002e0: 710c a53c 806f 79bc 5e05 243e d5b4 14be
000002f0: fce2 2e3e 73ac 373e 80a4 bbbc 38ed 3c3e
00000300: 7c6f a3bd 14b7 b83d d63f 913e 80ce 8f3d
00000310: 4320 0ebe ebc2 913d c93e f53c 7bd3 723e
00000320: 18ce 223d 265f 72be 80ab cbbb 8ce7 b5bd
00000330: d28c fe3d 3937 f63d ab12 1d3e bdcc 9a3e
00000340: 494b bebb edda 80be 1629 cbbd f8d4 9f3d
00000350: 8658 8dbe 5f5b 43be 9064 d23c 9b05 8cbe
00000360: 5bf7 79be 0b73 8d3e f291 8a3e 7218 463e
00000370: 34c2 3cbe e479 6e3e fbc7 fdbd e79a 413c
00000380: 41b6 34be e9f7 c43c 8c12 813e a7d2 30be
00000390: 2003 eabd 5e3a 62be 38a6 7b3d 782c 163e
000003a0: a216 6cbe 906c 0abe 5616 59be a3fc 8abe
000003b0: 406f 963e 9d01 1bbe 0661 4a3e 74bb b53d
000003c0: c067 1b3d 4af6 863e 5c60 8b3e a79d c83d
000003d0: 3fc9 18be 2a6b 983e 20ae c23c 1d14 8bbe
000003e0: 2d56 8f3e 46c6 0b3e d078 423d a451 80be
000003f0: 7016 1c3e 9a45 1dbe e4aa 963e acea 89bd
-0.13148436 0.03344819 0.23143774 -0.22647345 -0.023866206 0.11039469 -0.12523617 -0.08926502
0.18489149 0.21061277 -0.1927369 0.014831603 -0.2696924 -0.24758217 -0.23478281 0.2110594
-0.19858108 0.22471303 0.08858159 -0.005402297 0.03783401 0.2477606 -0.2133632 -0.1689918
-0.08359705 0.24544124 -0.15627687 -0.1910862 0.27475563 0.09031086 -0.11142887 0.00043759716
0.2233069 0.17915674 0.039440975 0.23930383 -0.1106855 -0.005068183 0.21276724 -0.16193788
-0.104271345 -0.21688274 0.0836399 0.033292484 0.096377105 -0.18334293 0.09490577 0.24885446
-0.07870115 -0.06674756 0.17457446 0.2450457 -0.21882203 0.20662448 -0.27867174 -0.04534073
0.25660077 -0.27526075 -0.212211 0.10989487 0.0815141 0.0993672 -0.18107885 0.21814215
0.16449289 -0.11474909 0.08107281 -0.056266055 0.0084757805 -0.043059777 -0.027394779 -0.27518252
0.008629829 0.0049568 -0.28963783 -0.16978872 0.28201705 0.13745877 0.13861348 0.25004143
-0.010357699 -0.055342168 0.24159788 -0.17557581 0.19136243 -0.19638436 -0.19616285 0.2862392
-0.2321246 0.105350584 -0.28818977 -0.058750063 -0.18238209 0.24937205 0.053490654 0.24621366
-0.05440083 0.106841326 0.21256809 0.05096516 0.13390452 0.20794183 -0.09136404 -0.23927687
0.121904686 0.16210264 0.005973225 0.18872963 -0.12003775 0.07275736 -0.12353674 -0.08258478
0.1903449 -0.06580897 0.10782796 0.09368349 -0.013462812 0.23918164 -0.017093211 -0.12825304
0.22467384 0.08313745 0.22823077 -0.18697578 0.08152512 -0.088658474 -0.056175172 -0.05787401
0.27299535 0.0043254495 -0.1485976 0.14983031 -0.13671051 0.058725934 -0.12547849 0.12917
-0.102779284 0.095134325 0.056512624 0.28584832 0.0039406577 -0.15589291 0.00796189 0.13106565
0.2741906 0.046123266 0.12278459 0.020246416 -0.17382337 0.02801925 -0.24574426 -0.19955254
-0.097377405 -0.1880207 -0.06408088 -0.22498068 0.04563833 0.10551834 -0.12890661 0.23337612
-0.0873324 0.23175463 0.06321405 0.12202078 -0.26349878 -0.13610166 -0.09709327 0.0828293
-0.010424752 -0.12158701 0.17740494 -0.23275894 -0.14878674 0.1046333 0.2937266 0.2264812
-0.030953374 0.18422332 0.25800574 0.26614445 -0.14475589 0.13473433 -0.17459124 0.14778337
0.020147534 -0.015224338 0.16017672 -0.14522107 0.17078775 0.17936878 -0.022905588 0.18449867
-0.07980248 0.090192944 0.28369015 0.070218086 -0.13879494 0.07117256 0.029937165 0.23713486
0.039747328 -0.23669109 -0.0062155128 -0.08882055 0.12429203 0.12022252 0.15339153 0.30234328
-0.0058073145 -0.25167027 -0.09919946 0.078042924 -0.276066 -0.19077824 0.025682718 -0.27348027
-0.24410765 0.27626833 0.27064472 0.19345263 -0.18433458 0.23288685 -0.12391659 0.011816717
-0.1764765 0.024043994 0.25209463 -0.17267857 -0.11426377 -0.22092578 0.061437815 0.14665401
-0.23055509 -0.13517976 -0.21199927 -0.27145872 0.29381752 -0.15137334 0.19763574 0.088736445
0.03794074 0.2635978 0.27221954 0.09795695 -0.1492052 0.2976926 0.02376467 -0.27163783
0.27995434 0.13649854 0.047478497 -0.25062287 0.15242934 -0.15358582 0.29427254 -0.06734213
