graph_classification_model.pt (torch, 35142 bytes, 6 tensors)

bias f4 [32]
00000000: 5a9c 66bc 8081 403c 672a 953c 82d7 85bc
00000010: 5ea0 bd3b acad 16bc 6f75 2c3b d4b2 773c
00000020: 157b 193c 032f 8b3c a010 85bc 7f6e 72bc
00000030: 3e89 1cb9 9745 0fbc ad6e 90bc be68 81bc
00000040: 0ca0 90bc 18b5 7f3c e05c 84bc 7652 683c
00000050: 6d00 61bc 7ddd 84bc c094 813b e5ea 513b
00000060: c5d6 913c 3e16 8ebc 6a21 9f3c a8d8 6bbc
00000070: b3d3 8bbc beb3 6fbc d4b3 81bc 7166 60bc
-0.014075363 0.011749625 0.018208696 -0.016338114 0.0057869395 -0.00919668 0.0026315113 0.01511832
0.009367724 0.01699019 -0.016243279 -0.014796852 -0.00014928446 -0.008744619 -0.0176309 -0.015797015
-0.017654441 0.015607141 -0.016157568 0.0141798165 -0.013733012 -0.016218895 0.0039545 0.0032030877
0.017802605 -0.01734459 0.019425113 -0.014394917 -0.01706872 -0.014630256 -0.015832819 -0.013696299

weight f4 [32, 11]
00000000: 2def 96be 5b08 953e 01eb 75be 4785 a33e
00000010: c32a ef3d 4663 383e 45ee babe 8b0c a73e
00000020: 9447 59be a807 e73d 0a09 b0bd 0b64 e23d
00000030: 170e 703e 76a3 fbbc 2cba 91be d202 42be
00000040: 7c34 8a3e 2191 bf3d 99c4 5bbe 0adc 623e
00000050: 86d7 713e ecf3 943e 5faf bf3d 373f 483e
00000060: 05e5 8dbe 893f 17be c88b c53d 6ad5 993c
00000070: 99c0 b9bd fee7 a8bd 38c2 f5bd 8de8 953e
00000080: 89d6 12be 6a6f 6e3e 7acd acbe ca4b ef3d
00000090: c181 a5be 13b2 d83d c591 46be 7123 823e
000000a0: d2c3 9abe d0c6 b53e 433d a73e c9a1 f83d
000000b0: 709d bb3e 8e66 b0be fe38 25bc 0e58 96be
000000c0: 5d50 723e 9bc6 c2bc c4e6 713e 4d9b 9bbd
000000d0: 94b8 263e 41bb 983e 3774 81be 4aef a73e
000000e0: b63e c2be 2cd9 0fbd 86e5 d1bd 0ea9 f4bd
000000f0: b78c b53e cdb9 7ebe ca15 213c ebf0 373c
00000100: 547d f93d 3890 c6bd e192 913e 3d30 b53e
00000110: 666a 5dbe 584c e8bd 68f5 87be d26e 683e
00000120: e6eb abbe 7302 00be a08f 2abe f007 453d
00000130: 001a 02be 10f1 9a3e df90 fd3d 33d3 c83d
00000140: 4c00 773e e431 a7bc 7cf9 c53d f200 29be
00000150: c620 303e f9f6 ccbd 3df8 973e 7c49 12be
00000160: 3273 4dbd 6c61 a3be f0aa 703e 28f5 60be
00000170: cca0 af3e b327 fa3d b49b 35bc 2d76 10be
00000180: 0556 9cbd 7ec6 81be 30cc f83d db34 b3be
00000190: da2a 26be 0ced 83be 69ae 043e 19c0 f83d
000001a0: f33d b43e 0bdc 35bd 26b3 9f3e 6564 79be
000001b0: e541 6abe c94c 88be c84f c1bb f674 b4be
000001c0: 6ca9 723e ec83 9dbe 7786 123e 247b 36be
000001d0: 27fc e8bb b181 f0bd e9e1 243e 7952 ad3e
000001e0: 7f6e c4be f12d abbe 84d8 2ebd ff33 3cbb
000001f0: 0fff ae3e e55e 193e dc26 7ebc cc61 aabe
00000200: f524 8a3d 98d3 20be 287b 023e ec44 15be
00000210: fbf3 63bc 519e 7e3e 21c3 ab3e d6b7 a6be
00000220: be27 6bbe 09e8 11be 1717 28bc 16ec 813e
00000230: 2764 673e 0c32 fbbc 9fe2 4fbe 058a a33e
00000240: 6602 12be 55af 27be bf04 243e 2a9f 483e
00000250: fc82 d83d d001 c4bd a816 24be ace8 f8bd
00000260: 49ae 863e ac0b 523e 73b2 153e 3178 55bd
00000270: b04d 263e a59b 023d 4770 24be 2e54 26be
00000280: 0d73 183e 9d3d 6bbc 06fe 893e b1eb 703e
00000290: b98f 463e d930 9abe 9d13 b7be 2923 193e
000002a0: 250a 1ebd f957 c5be 2bea 34be 4404 45be
000002b0: 665f 82be e501 783d 5bd7 da3d c579 72be
000002c0: e63b abbe 616a 6a3e 820f 443e 0d58 ce3d
000002d0: 05b2 ee3d aff4 99bd 2b8b 80bd 884d bbbd
000002e0: d39c 4bbe 7783 8dbe 275d 593e e4a2 35bd
000002f0: ef12 113c 662e 96be 78c0 603c 005a 803c
00000300: a466 8dbe e194 a6be c2bf 94be 3b83 afbe
00000310: e285 a03e 29ef 37be 7a73 c3bd 9f17 623e
00000320: ab49 a63d b8a4 bb3c 7c2c 96bc 62e1 6dbc
00000330: 8630 8dbc 9807 1dbe a14d 8f3c e6e1 0b3e
00000340: a7c7 56be 36fb 983e fef7 c23d 85b8 bebd
00000350: 43e6 1e3e 4de4 193e af59 1e3e cb16 b5bd
00000360: 3de9 853e 764e ce3c 77d5 8f3e 742f eabd
00000370: 26f4 0abe 8254 133e 6548 0c3d 6fc6 e63d
00000380: f20e 50be b18b 09bd 8a30 b03e 0c5f 2dbe
00000390: 9d37 263e 168b c0be 15b2 3e3e 14c8 843e
000003a0: fa01 23bc ce33 b9bd acc3 033e 82b2 803d
000003b0: 8e55 353e 3750 133d a0ad 9cbe 5ace 99be
000003c0: fda4 7a3e eba0 98bc 126b 933e 2139 3d3e
000003d0: c2f7 53be fb96 7bbe 8541 743e b0f8 e7bd
000003e0: dc1c 6c3e 6f95 83be 5baf 67bd d237 403d
000003f0: 2c31 9cbc 02b0 943e 2002 0abd fbd8 d23d
-0.29479352 0.29107937 -0.24015428 0.3193762 0.11678078 0.1800662 -0.3650991 0.32626757
-0.21218711 0.11280757 -0.08595474 0.11054238 0.23442875 -0.030717593 -0.2846235 -0.18946388
0.26993167 0.09353853 -0.21461715 0.2215425 0.23617372 0.29092348 0.09359621 0.19555365
-0.2771379 -0.1477033 0.09645802 0.018778522 -0.09069938 -0.08247374 -0.11999935 0.29278985
-0.14339651 0.23284689 -0.33750516 0.116843775 -0.32325557 0.1058084 -0.19391544 0.25417665
-0.30227524 0.35503244 0.32663926 0.12140233 0.36643553 -0.34453243 -0.010084389 -0.29364055
0.23663469 -0.023776343 0.23623186 -0.07597981 0.16281348 0.29830363 -0.25283977 0.3279975
-0.3793847 -0.03511922 -0.10248856 -0.11946307 0.3545892 -0.24875565 0.009831855 0.011226873
0.121821076 -0.09695476 0.28432372 0.35388365 -0.21622619 -0.113426864 -0.26554418 0.22698525
-0.33578414 -0.12500934 -0.16656351 0.048103273 -0.1270523 0.3026204 0.123811476 0.09805908
0.24121207 -0.020409532 0.09666726 -0.16504267 0.17200002 -0.10008044 0.29681578 -0.14285845
-0.050158687 -0.31910264 0.23502707 -0.2196852 0.34302366 0.12214603 -0.011084486 -0.1410758
-0.076335944 -0.2534675 0.12148321 -0.35001263 -0.16227284 -0.2576679 0.12957157 0.12146015
0.35203514 -0.044399302 0.31191367 -0.24354704 -0.228767 -0.26621082 -0.0058994032 -0.35245484
0.23697442 -0.3076471 0.14309107 -0.17820412 -0.007110137 -0.11743487 0.16101803 0.33851984
-0.38365552 -0.33433488 -0.042686954 -0.0028717516 0.3417897 0.14977606 -0.0155121945 -0.33277738
0.0674533 -0.15705717 0.12742293 -0.14577073 -0.01391315 0.2486508 0.3354731 -0.3256213
-0.22964379 -0.1424867 -0.010259411 0.25375432 0.22596799 -0.030663513 -0.20301293 0.31941238
-0.14258727 -0.16375478 0.16017435 0.19591966 0.10571858 -0.09570658 -0.16024268 -0.12153754
0.26304844 0.20512265 0.14618854 -0.052116577 0.16240573 0.031886715 -0.16058455 -0.1624305
0.14887638 -0.0143579515 0.26951617 0.23527409 0.19390763 -0.30115393 -0.3575715 0.14954819
-0.038583893 -0.3854368 -0.17667453 -0.19239908 -0.25463408 0.06054868 0.10685607 -0.23679264
-0.33444136 0.22892143 0.19146541 0.10075388 0.11655048 -0.07517373 -0.06276544 -0.09145647
-0.19884042 -0.27639362 0.21226941 -0.044344798 0.008854612 -0.29332274 0.013717763 0.015667915
-0.2761737 -0.3253546 -0.2905255 -0.34279808 0.31352144 -0.17962326 -0.0954351 0.22079323
0.0811952 0.022905692 -0.018331759 -0.0145190675 -0.017235052 -0.15334928 0.017493071 0.13660392
-0.20974599 0.2987916 0.09519957 -0.09312538 0.15517525 0.15028496 0.15463899 -0.08842238
0.2615451 0.025183897 0.28092548 -0.11434832 -0.13569698 0.14387706 0.03424873 0.11268317
-0.20318201 -0.033580486 0.34412032 -0.16930789 0.16232152 -0.37606114 0.1862262 0.25933897
-0.009949202 -0.09043084 0.12867612 0.06284048 0.17708418 0.03596517 -0.30601215 -0.30040246
0.24477 -0.01863142 0.28792626 0.18478824 -0.20699981 -0.24569313 0.23853119 -0.1132673
0.23057884 -0.25699946 -0.056563716 0.046928234 -0.019066416 0.29040533 -0.033693433 0.10295292

bias f4 [32]
00000000: 4e83 81bc d823 32bc 1c21 88bb a4d6 00bc
00000010: 48bb 0dbc c0af 28bc 8c0b 203c 3aa2 81bc
00000020: 0000 0000 473a 8e3c 4c91 8fbc 0000 0000
00000030: 5275 88bc 053c 763b 7e64 ccbb d3c2 06bc
00000040: ec58 6dbc 0c2e 03bc 0000 0000 1dc4 05bc
00000050: 532f d4bb c5de 20bc 386b 203c 8a5c 5bbc
00000060: 0e38 02bc b15e bc3b 2fce 8abc 130d 343b
00000070: 074c 8fbc 0a51 8c3c 1db5 63bc a5ac 5e3c
-0.015809681 -0.010872804 -0.0041543376 -0.007863674 -0.008650608 -0.010295808 0.009768378 -0.015824426
0.0 0.017361773 -0.017525338 0.0 -0.016657505 0.0037572396 -0.0062375655 -0.008225161
-0.014486533 -0.008006584 0.0 -0.008164433 -0.006475368 -0.009818737 0.009791188 -0.013388762
-0.007947935 0.005748593 -0.01694402 0.0027473613 -0.017492307 0.017128486 -0.013898161 0.013590966

weight f4 [32, 32]
00000000: 8c3e e53d 0f57 62be adea 9f3d c4c0 d7bd
00000010: 56a2 653e 1600 2cbd 2aec 2dbe 121d 3bbe
00000020: de62 debd ecb6 243d 9e0e 08bd 1e87 d73d
00000030: 41a1 64be b24e 2cbe 2bce 2abe 7397 903e
00000040: c42b 2f3e 1ab3 2a3e 9c70 ccbd 537f fdbd
00000050: 4739 ffbd 3038 763d acd1 7a3e 727b 893e
00000060: 5f81 3b3e 364c 823e 1a78 133e d0f9 2dbe
00000070: 5d1f 4c3e 5df6 4bbe 8582 443e 114f 05be
00000080: 619e 373e c1b0 8d3e a165 24bd cab0 1dbd
00000090: b8ce 9ebe 7a83 bf3d 3436 4b3d 4bfc 72be
000000a0: 7c7f 9bbe 1196 1ebe a029 8e3d 4555 c73b
000000b0: 8b3a b7bd 5631 3bbe 23c7 953e 70a1 1e3e
000000c0: ba36 15be ed05 653e 41e0 0f3d 7a60 183e
000000d0: 03fa 33bd 984f 463e 3210 89be d9ca 0c3e
000000e0: 6653 09be 5717 22bc cfd4 8dbe 726b 5c3d
000000f0: 4e67 90be a062 95be fbc4 6dbe e967 9bbc
00000100: 447f 7c3e 790f 023e 3d62 873e 4b32 5fbe
00000110: 105b 933e fcdd 513d 6817 473d 0f56 5bbe
00000120: 08ea 3e3e 0202 773e 18da 4abe f9fe ac3d
00000130: 6691 98be f19d 33be 8b64 76be 32f5 54bd
00000140: 03e0 323e 4739 8b3e dd38 ebbc c407 2d3d
00000150: c052 56be 85e9 443e ae65 ddbd 0889 a1bc
00000160: d512 2abe c369 3fbe d210 ddbd 9879 4b3e
00000170: 3453 90bd 4137 31bd 8d2e 05be 46fe 8b3e
00000180: faa4 9bbe d997 0abe 20e7 d13c 7c14 ca3c
00000190: dcf2 a73d 55db 943e 301d 8abe 6083 253c
000001a0: fe07 853e cc3b 05be 0e34 81bd 8074 00bc
000001b0: bf99 6f3e 84df 97be 02fd 82be 9ea7 133e
000001c0: 182e a43d 827d 543e a07b ce3c caf4 f5bd
000001d0: 234c 0bbd c3d5 8bbe e5c1 883e 6e5e ae3d
000001e0: 2d34 0ebe 9dca 8fbe 70bf d7bd 558e 153d
000001f0: e8d1 6fbe ad25 493e 7fe6 07be 9432 59be
00000200: c339 933e 39bd 3c3d 7b83 e93d 32b5 5ebe
00000210: 1f55 5dbe 0fce 853d 6a04 ea3d 4983 593e
00000220: f3f8 1dbe cf0f 023c b502 3bbe 611f 703e
00000230: 0f4e febd 4afc b2bd 5cd8 f6bd b99b 7dbe
00000240: 6871 043d 243a 253e 722a 3d3e c312 6bbe
00000250: 8560 883d ea48 d3bc ba86 353e 8396 1a3c
00000260: 21df 78be 8b39 403e 2549 0ebe 4053 2c3e
00000270: 4bba 31be a1bc 5d3d fca8 f33c 340f b63d
00000280: 7f4f 663e 70a4 133e f146 6f3e 2edc 4dbd
00000290: 710f 84be 9ceb 26bd dbfd 3cbe 4233 b83d
000002a0: 8688 1c3e 2106 413e d2e8 743e 92dc 6dbe
000002b0: 42ec 87be 2fe0 04be 2521 aabd 1e74 d5bd
000002c0: a5c4 1d3c 8580 2f3e c8aa 65be e4e7 8a3e
000002d0: b8b7 4ebe 4fba 0fbe e50e c3b9 56d4 b83d
000002e0: e1f5 c4bc 1d96 93be 5eab 17be 2f36 913e
000002f0: 06ad 7e3e e47f 753e e6cb 76be b79d 113e
00000300: 162f e93d 3deb 813e c1ac 77be 7c01 523d
00000310: 9456 5ebe 0525 e43d fd37 243c 3e5c 16be
00000320: eb5e 4dbd ec91 04be 4ce8 123e 6a01 efbd
00000330: 4c46 7c3e cef4 133e 74ff a2bd 40c1 b03d
00000340: ba85 eabc 459c 703e c862 11be bd80 ce3d
00000350: 3847 bd3c ca56 0fbd 75c3 803e 7b5f 563e
00000360: 816b 59be bbb5 8f3d e0e2 71be 56ed 8abd
00000370: 73da 303e 78b8 82be f833 5b3e 5408 e93d
00000380: a95e e73d d908 92be cdcd fe3c 4de6 d5bd
00000390: 2bbe ef3c b7f1 f3bb 523e bbbc f0e7 8a3d
000003a0: 556c 8b3e 0ca4 563e 3e38 933e e09f 15bb
000003b0: c4ac 8abe 2428 7c3e 3452 a0bd 58d4 63bd
000003c0: ef57 2bbe 778f 72be cf05 22be 55b7 7f3e
000003d0: ac07 47be 07f0 36be b9c7 1f3e 818e 05be
000003e0: dce6 6c3e 1059 a0be 09b4 ccbc aa78 02be
000003f0: b8cc eb3d 43b4 293e 83a2 503c 566c 6dbe
0.111935705 -0.22103523 0.07808433 -0.10534814 0.22425207 -0.04199227 -0.1698462 -0.18272808
-0.10858701 0.04021351 -0.033217065 0.105238184 -0.22327138 -0.16826895 -0.1668021 0.28240547
0.17106539 0.16669884 -0.09982416 -0.12377801 -0.12462097 0.06011218 0.24494046 0.26851994
0.1831107 0.2544877 0.14401284 -0.16989827 0.19933839 -0.19918199 0.19190414 -0.13018443
0.1793151 0.27673915 -0.040135983 -0.038498677 -0.3101709 0.09351249 0.04961224 -0.23729055
-0.303707 -0.15486933 0.06941533 0.006083163 -0.08946713 -0.18280539 0.29253492 0.15491271
-0.14571658 0.22365542 0.035125975 0.14880553 -0.0439396 0.193663 -0.2677017 0.13749255
-0.1341072 -0.00989326 -0.27701423 0.053813405 -0.28203815 -0.29176807 -0.23219673 -0.018970447
0.24657923 0.12701215 0.26442137 -0.21796529 0.28780413 0.05123709 0.048606306 -0.21419547
0.18643963 0.2412186 -0.19809759 0.0844707 -0.2979843 -0.17540719 -0.24061792 -0.05199165
0.17468266 0.27192137 -0.028713638 0.042243734 -0.20930004 0.19229706 -0.108104095 -0.019718662
-0.16608746 -0.18692689 -0.10794224 0.19870603 -0.0704712 -0.043265585 -0.13006039 0.27342433
-0.30399305 -0.13534488 0.025622904 0.02466797 0.082006186 0.29073587 -0.26975393 0.010102123
0.2598266 -0.13011092 -0.06308757 -0.007840276 0.23398493 -0.29662716 -0.25583655 0.1441941
0.08016604 0.20751002 0.025205433 -0.120095804 -0.034008157 -0.27311525 0.2671043 0.08514105
-0.13887091 -0.2808427 -0.10534561 0.03651269 -0.23419917 0.19643278 -0.13271521 -0.212107
0.28755006 0.046078894 0.11402031 -0.21748808 -0.21614502 0.06533443 0.11426623 0.21241488
-0.15426998 0.007938339 -0.18262751 0.2344947 -0.12417232 -0.087395266 -0.12052986 -0.24766435
0.032334715 0.1613546 0.18473223 -0.22956376 0.06659035 -0.025791604 0.17727175 0.009435299
-0.24303867 0.18771951 -0.1389509 0.16828632 -0.17356221 0.05413497 0.029743664 0.088896185
0.22491263 0.14418197 0.23366906 -0.050258808 -0.2579303 -0.04075204 -0.18456213 0.08994152
0.15286455 0.18849994 0.23916939 -0.23228672 -0.26547438 -0.12976144 -0.08307103 -0.10422538
0.009629403 0.1713887 -0.22428429 0.27130044 -0.2018727 -0.14035915 -0.00037204396 0.09024875
-0.024043025 -0.28825465 -0.14811465 0.2836165 0.2487069 0.23974568 -0.24101219 0.1422032
0.11385934 0.25374785 -0.24186994 0.051270947 -0.21712714 0.111398734 0.010023114 -0.14683625
-0.05013935 -0.1294629 0.14346427 -0.116701916 0.24636191 0.14448854 -0.0795888 0.086306095
-0.028628219 0.23497112 -0.14197838 0.10083149 0.023105249 -0.034994878 0.25149122 0.2093486
-0.21232416 0.07017084 -0.23621702 -0.067835495 0.17270832 -0.25531363 0.21406543 0.113785416
0.11297352 -0.28522375 0.031103993 -0.10444317 0.029265484 -0.007444586 -0.022856865 0.0678252
0.27231088 0.20961016 0.28753847 -0.0022830889 -0.27084935 0.24624687 -0.07828179 -0.05562243
-0.16732763 -0.2368754 -0.15822528 0.2497228 -0.1943652 -0.17865 0.15603532 -0.13042642
0.23134941 -0.3131795 -0.024988191 -0.12741342 0.115136564 0.1657267 0.012734058 -0.23185858

bias f4 [4]
00000000: d90c 8fbc 83a1 33bc 8fa3 79bc e733 5fbc
-0.01746218 -0.0109638 -0.015236749 -0.013623214

weight f4 [4, 32]
00000000: 1277 3ebe 4471 ccbe d488 9f3e cbb6 81be
00000010: 91aa ca3e 817e 7d3e b0c6 093e 849a 9ebd
00000020: 05fd a8be 1849 3ebd cc79 843c 6c98 b83e
00000030: 15f6 523e a889 f93d 7e59 ba3e 901d db3a
00000040: 5ef4 c33d 2270 533e cae3 c53e ee11 ee3d
00000050: 0774 4cbe 6764 44be d7dd 213e 7a10 9ebe
00000060: 0b8e a03e 3b71 9bbe 7eb8 c53e ef4b 96be
00000070: 5a7f 83bc 2176 8bbe 116b 193e bf58 903e
00000080: 234b 823d 6f0c 84be 53ac 5f3d 7c7f b33d
00000090: e04c aa3e 28cf 83be cb89 283d e58e dd3d
000000a0: 2ab0 88be d7eb babe 58d8 08be a037 c0bd
000000b0: 1dbb 953d e060 a03e 1c9f 1f3e e9f5 2f3e
000000c0: c321 58be 2d31 5fbe 20ed ec3c 8e50 15be
000000d0: 43de b8be 60c0 91bd ee2b b8be 60d8 383e
000000e0: 8da6 bbbd 6d7b 0dbe b8c6 f8bd ccc4 6f3e
000000f0: cac7 b6be c307 543e 12d8 9abe 3b75 97be
00000100: 733e 943e f032 c13e 064c 88be 32e6 933e
00000110: 8123 263e aa04 963e ffc6 acbe d9d6 c73e
00000120: 7068 d93d 84f1 eabd afb8 1b3e 1271 40be
00000130: fafc 8b3e 4969 b0be f5f0 303e fb78 a03e
00000140: 630c a53d a7a9 0f3e c8e2 4ebe 2d8c 1d3d
00000150: de6e 243e a144 be3e c42d 76be 4a1f c33e
00000160: 176e 71be c952 1e3e 698f 553e 74f8 4c3d
00000170: 99da 063e 8650 1fbe 1a63 bd3e 5a6d d5be
00000180: df29 b43e 6214 a13e 2c4d aebe f7d3 1dbe
00000190: abeb 45be aca6 833e 388a 2b3e baee 603e
000001a0: c4b0 c33e 7bb9 8bbd 3d2f 783e e2f6 a03e
000001b0: f236 313d 2ea3 4f3d 03e8 c43e fac2 4dbe
000001c0: 39f7 e9bd 6a36 bfbe 7c71 b33e 8b7e 9cbe
000001d0: dd5e e53d 6bcb 51be 9fb9 41be 2716 c23d
000001e0: 13cc a13e 2716 f83c bdc1 c93c 9cec a63e
000001f0: 8954 923e 6712 0c3d a8e2 92be 5824 07be
-0.18600109 -0.39930165 0.3115908 -0.25334772 0.39583257 0.24755289 0.134547 -0.07744315
-0.3300554 -0.046456426 0.016171359 0.3605379 0.20601685 0.12184459 0.36396402 0.0016717184
0.09568094 0.20648244 0.38650352 0.116245136 -0.19966136 -0.19178925 0.15807281 -0.30871946
0.3135837 -0.30359825 0.3861732 -0.29354808 -0.016051937 -0.27238563 0.14982249 0.28192708
0.063619874 -0.25790736 0.0546077 0.0876455 0.33261776 -0.25743985 0.041147035 0.108182706
-0.26696903 -0.36508057 -0.13363779 -0.093856096 0.0731108 0.3132391 0.15588039 0.17183651
-0.21106629 -0.21796103 0.028921664 -0.1458151 -0.36107072 -0.07116771 -0.35971016 0.1805129
-0.091626264 -0.13816614 -0.121472776 0.23414916 -0.35699302 0.20706086 -0.30242974 -0.29581627
0.28953895 0.37734175 -0.266205 0.28886563 0.16224481 0.29300433 -0.33745572 0.39031103
0.10615623 -0.11471847 0.1520717 -0.18793133 0.27341443 -0.34455326 0.17279418 0.313423
0.08059003 0.14029561 -0.20203698 0.03846376 0.16057917 0.37161735 -0.24040896 0.3810981
-0.23577152 0.15461268 0.20855488 0.05004163 0.13169326 -0.15558061 0.3698967 -0.4168499
0.35188195 0.31460863 -0.34043252 -0.1541289 -0.19328181 0.25713098 0.16751945 0.21966067
0.382208 -0.06822487 0.2423677 0.31438357 0.04326529 0.05069273 0.3845826 -0.20093909
-0.11424107 -0.37346202 0.3504752 -0.30565295 0.11199734 -0.20487754 -0.18918465 0.094768815
0.3160101 0.030284 0.024628514 0.32602394 0.2858012 0.034197237 -0.2868855 -0.13197458
