graph_classification_model.pt (torch, 225106 bytes, 23 tensors)

bias f4 [64]
-0.009059013 0.022338035 0.020905644 0.018273827 -0.010704628 0.009206224 -0.0038551956 0.0030960524
0.019006327 0.019282138 0.019914819 0.008727545 0.009590355 0.019295437 -0.01869904 -0.009243819
-0.01669992 0.019599408 -0.00895715 -0.003779486 0.01789949 -0.006499827 -0.0062682866 -0.009072214
0.021481983 0.017077884 0.014693582 0.009999489 -0.011559142 0.0051501715 -0.009954039 -0.0064833076
0.01906468 -0.014932513 0.0154662905 -0.005469896 -0.014406931 0.02340487 0.003259851 -0.0010823751
-0.014743847 0.024572212 -0.0017837343 -0.011081398 0.012850234 0.0022881043 -0.009286996 0.012638049
0.023745451 0.0030378655 0.0038469892 0.020273453 -0.004784829 0.0203784 0.021526696 0.011535135
0.01804124 -0.0011153716 -0.012161182 0.008939982 0.016737126 0.00910306 -0.00022891433 0.011266915
00000000: 416c 14bc 41fe b63c 5042 ab3c feb2 953c
00000010: 7762 2fbc b4d5 163c 73a7 7cbb 24e7 4a3b
00000020: 28b3 9b3c 93f5 9d3c 6724 a33c fafd 0e3c
00000030: dd20 1d3c 7711 9e3c bb2e 99bc 6373 17bc
00000040: 45ce 88bc f08e a03c 03c1 12bc 41b1 77bb
00000050: f4a1 923c 80fc d4bb 3366 cdbb a0a3 14bc
00000060: fcfa af3c ebe6 8b3c 5abd 703c e6d4 233c
00000070: 8e62 3dbc c5c2 a83b 4416 23bc ed71 d4bb
00000080: 882d 9c3c 80a7 74bc 5366 7d3c d03c b3bb
00000090: 0c0b 6cbc 92bb bf3c 39a3 553b 7bde 8dba
000000a0: 2d90 71bc aa4b c93c 31cc e9ba c18e 35bc
000000b0: ca89 523c 05f4 153b 7c28 18bc d20f 4f3c
000000c0: d285 c23c ed16 473b c51d 7c3b 8314 a63c
000000d0: 0eca 9cbb 9af0 a63c c158 b03c ddfd 3c3c
000000e0: 39cb 933c a931 92ba b23f 47bc 0179 123c
000000f0: 4c1c 893c 0025 153c b908 70b9 de98 383c

weight f4 [64, 1]
-0.13580331 0.22426884 -0.24795084 0.12371167 -0.25729156 0.11076022 -0.14706501 0.21313493
-0.22099054 0.3159612 0.2918971 0.113794155 0.29777783 -0.2744906 -0.029709721 -0.2563718
0.17569037 -0.012344425 0.16933438 -0.074111104 0.13530844 0.23321508 -0.21575789 0.26905733
-0.28497574 -0.010809525 -0.06511992 -0.08738733 0.28952155 -0.19363001 0.0027521749 0.0045652483
0.11515729 -0.081611544 0.23781604 0.2755068 -0.19389327 -0.07626224 -0.2157265 0.17462534
-0.29564685 -0.08113457 -0.14851941 0.02018193 -0.08784776 0.23163982 0.081203505 0.07459438
0.20543286 -0.02845745 0.06766466 -0.12623627 0.12741889 -0.07843954 0.2458934 -0.120528735
-0.03575818 -0.2651933 0.17139818 -0.18678649 0.28097552 0.09567526 -0.025706619 -0.106291875
00000000: 0610 0bbe bba6 653e d3e6 7dbe 8b5c fd3d
00000010: b8bb 83be 41d6 e23d 3698 16be 0b40 5a3e
00000020: 584b 62be abc5 a13e 8973 953e e90c e93d
00000030: 5676 983e 088a 8cbe cd61 f3bc 2a43 83be
00000040: 2de8 333e 4540 4abc fe65 2d3e 90c7 97bd
00000050: 4c8e 0a3e efcf 6e3e a3ef 5cbe e2c1 893e
00000060: 57e8 91be 6f1a 31bc 985d 85bd 21f8 b2bd
00000070: 2b3c 943e f246 46be d55d 343b 1498 953b
00000080: 96d7 eb3d f423 a7bd 0c86 733e 3a0f 8d3e
00000090: f58b 46be 612f 9cbd 68e7 5cbe fcd0 323e
000000a0: 065f 97be e229 a6bd 7915 18be 9354 a53c
000000b0: 87e9 b3bd fd32 6d3e 064e a63d f0c4 983d
000000c0: fe5c 523e 991f e9bc c593 8a3d 1544 01be
000000d0: 197a 023e e9a4 a0bd 7bcb 7b3e c5d7 f6bd
000000e0: 2b77 12bd 6bc7 87be 0183 2f3e f544 3fbe
000000f0: 06dc 8f3e 64f1 c33d b096 d2bc 8eaf d9bd

weight f4 [64, 1]
-0.064793766 -0.2275021 0.07871353 -0.3004967 -0.12834492 -0.2224729 0.102423616 0.11506669
0.26028177 -0.059636537 0.23872356 -0.21325363 -0.18964636 -0.23644169 0.025907975 -0.2652969
0.22076264 -0.25742844 0.1439119 -0.12928995 0.0031882273 -0.08014996 0.14894159 0.28165165
-0.3092651 -0.27000844 -0.0294081 0.0026980464 0.30107734 0.13536838 0.01005967 -0.25404778
0.056521907 -0.112748206 0.11140377 -0.0919329 0.0015511798 0.20432754 0.26915863 -0.26436952
-0.16933213 -0.13583215 -0.004726211 0.22183038 0.17348109 -0.023474127 -0.15531752 0.26199573
-0.12889984 -0.13515736 0.14101963 0.15404779 0.08646185 -0.08527687 -0.13620707 -0.097709425
0.20663664 0.17647491 0.1324225 -0.02140822 0.13895874 0.03457086 -0.10987781 -0.12655178
00000000: 98b2 84bd 4ff6 68be 8f34 a13d b4da 99be
00000010: da6c 03be f0cf 63be 79c3 d13d 16a8 eb3d
00000020: a743 853e 7145 74bd f373 743e 295f 5abe
00000030: a832 42be c51d 72be f63c d43c ffd4 87be
00000040: 9a0f 623e a9cd 83be a45d 133e 9664 04be
00000050: 94f1 503b aa25 a4bd 2584 183e a534 903e
00000060: ff57 9ebe 8c3e 8abe 41e9 f0bc b5d1 303b
00000070: cf26 9a3e 029e 0a3e 50d1 243c 8d12 82be
00000080: 8483 673d 88e8 e6bd a927 e43d 5147 bcbd
00000090: f550 cb3a 3d3b 513e 29cf 893e 715b 87be
000000a0: 6765 2dbe 9517 0bbe 55de 9abb 8127 633e
000000b0: 07a5 313e d04c c0bc 8e0b 1fbe 4e24 863e
000000c0: 52fe 03be b166 0abe 7367 103e b4be 1d3e
000000d0: e912 b13d a4a5 aebd de79 0bbe e11b c8bd
000000e0: 8e98 533e d7b5 343e c499 073e 4b60 afbc
000000f0: 334b 0e3e 2d9a 0d3d 9e07 e1bd ca96 01be

weight f4 [64, 1]
0.1275916 -0.009748616 0.24268158 0.22106197 0.16461171 -0.22025008 -0.27763382 0.113902025
-0.018478436 -0.28807628 -0.12845472 -0.13740727 -0.21689855 0.081764475 0.08063196 -0.19050634
-0.24004419 0.2189803 0.16378103 0.09845683 0.107928835 -0.049210973 -0.034479912 -0.06572346
-0.16397965 -0.21176656 0.1867422 -0.035431556 0.0058164727 -0.24984588 0.0015955282 -0.012061034
-0.22414497 -0.26425785 -0.2657269 -0.2834415 0.22635272 -0.15873644 -0.0479648 0.18850696
0.06469265 0.046834443 -0.008368955 0.012148397 -0.015735302 -0.10865215 0.018538782 0.1321544
-0.14572847 0.23315942 0.06685561 -0.081479356 0.12604967 0.12045716 0.13156188 -0.085611485
0.22061956 0.0005544318 0.20172262 -0.1186995 -0.122344986 0.13359506 0.03832824 0.10971272
00000000: 5fa7 023e a9b8 1fbc 8581 783e 125e 623e
00000010: f98f 283e 3d89 61be 0526 8ebe 7745 e93d
00000020: 1760 97bc bc7e 93be a289 03be 7eb4 0cbe
00000030: a71a 5ebe 2274 a73d 5e22 a53d 1814 43be
00000040: 25ce 75be 5f3c 603e 37b6 273e bca3 c93d
00000050: cb09 dd3d 7291 49bd cf3a 0dbd 059a 86bd
00000060: 48ea 27be 55d9 58be 5939 3f3e ae20 11bd
00000070: 1c98 be3b 99d7 7fbe 0b21 d13a a59b 45bc
00000080: 4286 65be ce4c 87be 5b0d 88be 3f1f 91be
00000090: 02c9 673e ce8b 22be bd76 44bd f807 413e
000000a0: 957d 843d 79d5 3f3d f11d 09bc 120a 473c
000000b0: 52e7 80bc 0585 debd a5de 973c 7c53 073e
000000c0: d839 15be 58c1 6e3e 98eb 883d a6de a6bd
000000d0: 2a13 013e 3eb2 f63d 28b8 063e 1355 afbd
000000e0: 18ea 613e 4a57 113a 6090 4e3e b918 f3bd
000000f0: 0290 fabd 25cd 083e 13fe 1c3d 10b1 e03d

weight f4 [64, 1]
-0.15288639 -0.02812744 0.2809159 -0.14180756 0.15331471 -0.3070235 0.1666327 0.23130713
0.01764217 -0.07164941 0.109474525 0.058475673 0.18093672 0.024395011 -0.21922176 -0.2254118
0.1980743 -0.022815192 0.22368617 0.1562365 -0.1700485 -0.20126644 0.20285802 -0.103054434
0.183191 -0.20452654 -0.04910412 0.03342139 -0.012554427 0.2476199 -0.015390798 0.09170347
0.2419477 -0.28773183 0.089420035 0.1871784 -0.028598445 0.041725237 0.19107534 0.11894114
-0.06904082 0.23033859 -0.1532972 0.20243397 0.31359544 0.20402634 0.09386043 -0.16592176
0.21407272 -0.020016108 -0.23950565 0.17423089 0.034623872 0.18839322 -0.09564836 0.049174204
0.06443084 -0.1534712 0.09169736 0.22257641 0.23070231 0.108272366 0.21504284 -0.09350471
00000000: 408e 1cbe 846b e6bc 35d4 8f3e 0036 11be
00000010: 88fe 1c3e 2f32 9dbe c3a1 2a3e c7db 6c3e
00000020: 5086 903c edbc 92bd 2e34 e03d 3084 6f3d
00000030: 7a47 393e 0cd8 c73c ab7b 60be 5ad2 66be
00000040: fdd3 4a3e ede6 babc fd0d 653e 76fc 1f3e
00000050: 3221 2ebe ca18 4ebe 03ba 4f3e 340e d3bd
00000060: 6c96 3b3e 686f 51be 6721 49bd dee4 083d
00000070: 15b1 4dbc 1290 7d3e b029 7cbc 07cf bb3d
00000080: 23c1 773e 9651 93be da21 b73d b2ab 3f3e
00000090: 4947 eabc 15e8 2a3d 41a9 433e 6a97 f33d
000000a0: 4665 8dbd e1dd 6b3e f1f9 1cbe da4a 4f3e
000000b0: 958f a03e 48ec 503e e639 c03d 65e7 29be
000000c0: e135 5b3e d2f8 a3bc f840 75be 9569 323e
000000d0: c3d1 0d3d 27ea 403e 4ae3 c3bd e46a 493d
000000e0: 51f4 833d 8e27 1dbe d3cb bb3d 12eb 633e
000000f0: 3a3d 6c3e e7bd dd3d 3134 5c3e 667f bfbd

weight f4 [64, 1]
-0.10727903 -0.024053615 0.2996304 -0.098452985 -0.18481329 0.15764506 0.0014828561 -0.18188764
-0.22644791 0.242363 0.089245975 0.26120093 -0.19068295 0.2896093 -0.078387424 -0.018218787
0.095767885 -0.14986716 -0.0635311 -0.09507294 0.18690653 -0.22408934 0.06614336 -0.24836749
-0.088078 -0.0958799 -0.12520634 -0.11816478 0.06587855 -0.18440825 -0.10435867 -0.17635262
0.04050565 0.021545509 -0.13142642 0.015149548 0.24194741 -0.005000219 -0.20771083 -0.28690556
0.24057199 0.14073041 0.21338452 0.18951741 -0.061053332 0.031647656 0.05252512 0.119153835
-0.079494104 -0.3004289 0.29073808 0.18182015 -0.008097073 0.21777666 -0.08503954 -0.28055432
0.039038815 -0.2048 -0.21044852 0.22970495 -0.15410097 0.16080147 0.21597332 -0.21442774
00000000: 1cb5 dbbd 160c c5bc 2869 993e b8a1 c9bd
00000010: b23f 3dbe b56d 213e 655c c23a c140 3abe
00000020: f6e1 67be 022e 783e 98c6 b63d 21bc 853e
00000030: 6442 43be ac47 943e 9689 a0bd 913f 95bc
00000040: f421 c43d c776 19be 981c 82bd 9ab5 c2bd
00000050: 6d64 3f3e ad77 65be 2c76 873d 0c54 7ebe
00000060: 3d62 b4bd ae5c c4bd 1736 00be 6000 f2bd
00000070: 55eb 863d 84d5 3cbe 00ba d5bd c895 34be
00000080: 41e9 253d 3580 b03c a694 06be cf35 783c
00000090: 10c1 773e e1d8 a3bb 26b2 54be 49e5 92be
000000a0: 8158 763e a21b 103e 7981 5a3e da10 423e
000000b0: 0f13 7abd f9a0 013d 9524 573d ed06 f43d
000000c0: cecd a2bd d1d1 99be 9fdb 943e 102f 3a3e
000000d0: 96a9 04bc d800 5f3e 3629 aebd d1a4 8fbe
000000e0: 2ae7 1f3d 17b7 51be d17f 57be c637 6b3e
000000f0: a5cc 1dbe 24a9 243e 1c28 5d3e f292 5bbe

weight f4 [64, 1]
-0.050261833 -0.30356172 -0.24490264 0.039288044 0.12938537 0.16798125 0.07311148 0.31162122
-0.099817425 -0.2410225 -0.007011219 -0.14632791 0.116196714 -0.22166544 -0.09137803 -0.05004852
-0.27241826 0.28463185 0.105877034 0.24785383 0.29208475 0.006098118 0.00081660465 0.28222525
-0.073460944 -0.089092046 -0.07974175 -0.27769604 -0.081339985 -0.118538655 -0.09210442 -0.038988683
-0.1916128 0.1710594 -0.16628262 0.08734887 0.23364578 -0.25088456 0.27325833 0.18385383
-0.2169282 -0.30369636 0.026528768 -0.04123239 -0.024183238 0.037038896 0.049091943 0.15514114
-0.19838135 0.11302034 0.044083316 -0.2192935 0.018048543 -0.20116198 -0.23427899 -0.04327906
-0.31636193 0.24571647 0.2669537 -0.21525063 0.21100639 0.10918722 0.21682848 -0.09207868
00000000: 5adf 4dbd 716c 9bbe c2c7 7abe 80ec 203d
00000010: 997d 043e 4703 2c3e 79bb 953d d18c 9f3e
00000020: 146d ccbd 9ace 76be 5ebe e5bb fcd6 15be
00000030: 8bf8 ed3d 44fc 62be 6824 bbbd adff 4cbd
00000040: 687a 8bbe 44bb 913e 0fd6 d83d 65cd 7d3e
00000050: 228c 953e b9d2 c73b 6911 563a d47f 903e
00000060: b172 96bd e475 b6bd a54f a3bd 2d2e 8ebe
00000070: 9495 a6bd 65c4 f2bd 3ea1 bcbd 99b2 1fbd
00000080: 2536 44be 322a 2f3e fe45 2abe f7e3 b23d
00000090: d740 6f3e f173 80be 84e8 8b3e 2e44 3c3e
000000a0: 6d22 5ebe 177e 9bbe dc52 d93c 4be3 28bd
000000b0: ed1b c6bc 19b6 173d a214 493d 52dd 1e3e
000000c0: 7b24 4bbe 3577 e73d b590 343d 7a8e 60be
000000d0: 8ada 933c 68fd 4dbe d5e6 6fbe 6245 31bd
000000e0: 31fa a1be 199d 7b3e 28ae 883e a96a 5cbe
000000f0: 0f12 583e 8d9d df3d 4908 5e3e bf93 bcbd

bias f4 [64]
0.0047628027 -0.011376851 -0.00750152 0.023742273 0.009875619 -0.0064512477 0.021508768 0.01122948
0.014399484 0.013918288 -0.0011804951 0.0013135232 0.0038231334 0.01608299 -0.006030959 0.009154912
0.024274314 0.015114581 0.001186104 -0.008734861 0.01732448 -0.0015403364 0.0066811005 0.00074328826
-0.011539944 0.014959476 -0.008830134 -0.011197806 0.014562714 0.016065324 0.02069132 0.016606702
-0.012648702 0.015980233 -0.005490826 -0.014782616 0.015513664 0.017606683 0.017770084 0.025683103
-0.017744483 0.005029058 0.023947854 0.019847395 -0.00046993553 -0.013204863 -0.016119163 -0.010200435
0.023845695 0.0076636197 -0.011250075 0.019504232 0.021966204 0.014773782 0.008843113 0.008085361
0.020927507 0.011047766 0.019985562 -0.01565309 0.009268514 -0.0020908334 0.0013366971 0.0015290886
00000000: 4911 9c3b f965 3abc 50cf f5bb 287f c23c
00000010: 59cd 213c fd64 d3bb 2833 b03c dafb 373c
00000020: d0eb 6b3c 8809 643c d8ba 9aba 862a ac3a
00000030: 898d 7a3b 7ac0 833c 5a9f c5bb 7cfe 153c
00000040: edda c63c 26a3 773c 0c77 9b3a aa1c 0fbc
00000050: 11ec 8d3c 1de5 c9ba 22ed da3b 3bd9 423a
00000060: 0912 3dbc 9718 753c 44ac 10bc 0177 37bc
00000070: 7398 6e3c 6d9b 833c d880 a93c c70a 883c
00000080: 803c 4fbc fae8 823c 63ec b3bb c932 72bc
00000090: 062d 7e3c e43b 903c 9192 913c 5f65 d23c
000000a0: e15c 91bc ccca a43b 4a2e c43c 0197 a23c
000000b0: ae61 f6b9 3659 58bc 560c 84bc ba1f 27bc
000000c0: 0c58 c33c 1a1f fb3b 3c52 38bc 57c7 9f3c
000000d0: 78f2 b33c bc0d 723c b4e2 103c 7678 043c
000000e0: 2a70 ab3c b001 353c c3b8 a33c e93a 80bc
000000f0: f7da 173c 5d06 09bb 1d34 af3a b36b c83a

weight f4 [64, 64]
0.041934185 -0.1944717 0.060211815 0.13278502 -0.010353488 0.053147145 0.14066711 0.13092618
-0.12175603 -0.2052541 -0.023356503 0.00014975757 0.19442658 0.21238726 -0.16183533 0.09087675
-0.18955763 -0.20153354 -0.045494877 0.07545452 -0.20356284 -0.13470219 -0.10565326 0.17386158
0.19618718 -0.052021354 0.04080341 -0.16403985 -0.022258379 -0.07349956 0.034644384 0.13937153
-0.08421543 -0.13709417 0.12215583 -0.171087 0.16152972 -0.13278846 0.12096267 -0.14474984
-0.21543522 0.052141383 -0.020233724 0.09038085 -0.05719828 0.06617521 0.0254089 -0.14705774
-0.11117307 0.11051386 0.009615805 0.15580161 0.077404745 -0.05757961 0.1562199 0.11858255
0.16895281 -0.047309067 -0.1532249 0.17227998 0.08944447 -0.11292821 -0.049332764 -0.12796374
-0.033818595 0.14475639 -0.026996765 -0.0736709 0.101528876 0.018536944 -0.07072136 0.15901735
-0.15206175 -0.009118246 -0.117126115 -0.15063083 -0.11514167 -0.16254936 -0.06824869 0.035098642
0.053783044 0.018877044 -0.039190695 -0.1370854 0.17126405 -0.18279332 0.08903776 0.16338019
0.15660033 -0.0528676 -0.07040764 -0.20481935 -0.07815057 0.10983847 0.0059268107 -0.010467898
0.047184505 0.0688667 0.09823233 0.19466569 0.11960303 -0.22189817 -0.22086263 0.17044388
-0.08775092 0.1332413 -0.03292625 -0.22722779 -0.073360585 0.109914094 0.19129434 0.19255662
0.008273681 0.18934974 0.04882957 0.1732887 -0.07251031 0.16028993 0.0320768 0.18903132
-0.13757226 -0.18059367 0.087675415 -0.035127662 -0.18201908 -0.16570503 0.19174911 -0.09750107
0.09038045 0.1352631 0.036494534 -0.046540722 0.1570563 0.058729447 -0.1336497 0.04990751
0.113554806 0.043199964 -0.21450804 0.12619123 -0.13170852 -0.13456102 0.208107 0.029619807
-0.05217039 0.0024516361 -0.21504109 -0.1649827 0.10365179 0.018345049 -0.053017277 0.1389298
-0.17632052 -0.09941027 -0.14617334 0.09988976 -0.038966894 -0.103854574 -0.11849404 0.086486205
0.12798083 0.13389277 -0.15804416 0.063688755 -0.08893601 0.1603131 0.10704508 0.020571642
0.007281457 -0.20662887 -0.1922739 -0.06911372 0.07135323 0.063955426 -0.08461495 -0.19884537
-0.034543663 -0.20930742 0.15064925 -0.11175208 0.052776992 -0.20742802 0.033949614 -0.17916307
-0.08516037 0.022217289 0.07995469 -0.04542287 0.07469666 -0.18250805 0.026743911 -0.051367503
0.15977761 -0.059703942 0.11511803 0.06260295 0.13542467 -0.18603796 -0.1876359 0.11505912
-0.051259708 0.21209075 0.08617009 -0.06742 0.17931083 0.0058357134 -0.085751615 0.1101174
0.17486103 -0.1511159 -0.13817804 -0.0037676508 0.028641116 -0.033536702 -0.082329124 0.048640136
0.1407168 -0.070563205 -0.19232668 -0.13180576 -0.04818182 -0.108230464 -0.0172533 0.15176749
-0.116507694 -0.14756413 0.07998168 -0.108501725 0.21856274 0.08176833 0.18766752 0.09381361
0.08350271 0.2306602 0.07848251 0.041218802 0.19639142 -0.11090109 0.17833665 0.2006784
-0.18793078 -0.018047014 0.0991724 -0.02736456 0.010920854 0.1384092 -0.0733884 0.00038547532
0.009173065 -0.1604015 0.0018577622 0.026785353 0.22653034 -0.17825112 -0.012744393 -0.16724849
00000000: 2ec3 2b3d 9723 47be aaa0 763d ccf8 073e
00000010: ada1 29bc d2b0 593d 0a0b 103e 8311 063e
00000020: 3a5b f9bd 212e 52be 2356 bfbc 3e08 1d39
00000030: c317 473e 0c7c 593e 29b8 25be 971d ba3d
00000040: 651b 42be cf5e 4ebe d658 3abd e687 9a3d
00000050: c772 50be 5fef 09be bd60 d8bd c508 323e
00000060: 4be5 483e 5814 55bd 7a21 273d 10fa 27be
00000070: 3457 b6bc f086 96bd 45e7 0d3d 69b7 0e3e
00000080: 2479 acbd 6a62 0cbe d62c fa3d 6e31 2fbe
00000090: 0c68 253e b3f9 07be 47bb f73d 4d39 14be
000000a0: 0d9b 5cbe 3492 553d 32c1 a5bc 9819 b93d
000000b0: be48 6abd de86 873d 5326 d03c 4e96 16be
000000c0: b5ae e3bd 1755 e23d 9c8b 1d3c 758a 1f3e
000000d0: 6186 9e3d 99d8 6bbd 1cf8 1f3e 68db f23d
000000e0: f701 2d3e 27c7 41bd fde6 1cbe 2a6a 303e
000000f0: aa2e b73d e846 e7bd 2711 4abd ed08 03be
00000100: 5e85 0abd 053b 143e 5228 ddbc c5e0 96bd
00000110: 5fee cf3d cada 973c 5cd6 90bd 72d5 223e
00000120: 13b6 1bbe b264 15bc d1df efbd f83e 1abe
00000130: 65cf ebbd 5773 26be f8c5 8bbd 98c3 0f3d
00000140: 9c4b 5c3d 08a4 9a3c 6c86 20bd 1d60 0cbe
00000150: d85f 2f3e 2c2e 3bbe 6e59 b63d 234d 273e
00000160: d65b 203e b28b 58bd e131 90bd 2abc 51be
00000170: 680d a0bd fef2 e03d b135 c23b 8c81 2bbc
00000180: 8a44 413d fc09 8d3d 082e c93d 7156 473e
00000190: 6ff2 f43d 4639 63be d029 62be d788 2e3e
000001a0: c1b6 b3bd 6870 083e addd 06bd 67ae 68be
000001b0: 133e 96bd a41a e13d aae2 433e 902d 453e
000001c0: 558e 073c e6e4 413e 8401 483d 9872 313e
000001d0: 4980 94bd 0b23 243e f662 033d 6d91 413e
000001e0: bedf 0cbe 8ced 38be 2b8f b33d 06e2 0fbd
000001f0: 3663 3abe 94ae 29be e159 443e a4ae c7bd
00000200: 6319 b93d 6982 0a3e 4b7b 153d 7ca1 3ebd
00000210: 5ed3 203e 4a8e 703d 78db 08be d16b 4c3d
00000220: 6c8f e83d 72f2 303d ffa7 5bbe 4638 013e
00000230: 99de 06be 5dca 09be 001a 553e 3da5 f23c
00000240: 9eb0 55bd a1ab 203b bb33 5cbe 3af1 28be
00000250: 6447 d43d 5b48 963c a528 59bd 9d43 0e3e
00000260: 5e8d 34be 9d97 cbbd 77ae 15be 0193 cc3d
00000270: c09b 1fbd b5b1 d4bd 01ad f2bd ae1f b13d
00000280: 680d 033e 301b 093e 54d6 21be 406f 823d
00000290: 1524 b6bd 1e29 243e 733a db3d dc85 a83c
000002a0: 4a99 ee3b 8596 53be 73e3 44be 7e8b 8dbd
000002b0: a421 923d 10fb 823d 9a4a adbd 1f9e 4bbe
000002c0: a87d 0dbd af54 56be cc43 1a3e 46de e4bd
000002d0: b02c 583d 0368 54be c00e 0b3d 8676 37be
000002e0: 8f68 aebd 0801 b63c 49bf a33d 550d 3abd
000002f0: 90fa 983d 64e3 3abe 0c16 db3c bb66 52bd
00000300: be9c 233e 1f8c 74bd 00c3 eb3d fa35 803d
00000310: c4ac 0a3e bc80 3ebe a023 40be 1ea4 eb3d
00000320: b3f5 51bd 512e 593e f279 b03d 7f13 8abd
00000330: 429d 373e 8339 bf3b 8b9e afbd 3b85 e13d
00000340: c50e 333e 20be 1abe 8b7e 0dbe b1ea 76bb
00000350: c6a0 ea3c c85d 09bd 2c9c a8bd e13a 473d
00000360: 1118 103e 7183 90bd 49f1 44be 17f8 06be
00000370: 4d5a 45bd efa7 ddbd cb56 8dbc f068 1b3e
00000380: 969b eebd 0d1b 17be 6fcd a33d 2736 debd
00000390: e9ce 5f3e 2776 a73d ea2b 403e 5a21 c03d
000003a0: 7803 ab3d 3032 6c3e 70bb a03d 0cd5 283d
000003b0: d51a 493e 1c20 e3bd e29d 363e a37e 4d3e
000003c0: ed70 40be 55d7 93bc e61a cb3d a42b e0bc
000003d0: 62ed 323c 24bb 0d3e a84c 96bd 9f19 ca39
000003e0: a04a 163c 4a40 24be 2880 f33a f56c db3c
000003f0: 92f7 673e 7687 36be dccd 50bc 3043 2bbe

weight f4 [64, 64]
0.11853017 -0.1734369 -0.056142583 0.21821755 0.09538788 0.024417106 -0.10029385 -0.083263166
0.04433205 -0.20792684 -0.16535904 0.08762509 0.046869986 -0.12302714 -0.069338724 0.10241155
0.11572424 -0.21486299 0.054634854 -0.13250776 -0.10781527 0.025896668 0.04594755 -0.131113
-0.011898858 0.045867357 0.0034039128 -0.057769556 0.06228143 -0.14118813 -0.100054376 0.025718259
0.19016534 -0.015519677 0.026777288 -0.02422539 0.027743638 0.1533738 -0.13174851 -0.083072715
-0.17130475 -0.025624769 0.20266408 -0.11495021 -0.012982487 0.097220115 0.1808622 0.036605936
0.120998494 -0.11816875 -0.09688752 -0.01591512 0.15608463 -0.1701723 0.110795036 -0.20049116
0.1058167 -0.17808867 -0.09879106 0.19557878 -0.12736832 -0.09224889 0.09843555 -0.121941306
-0.0655283 0.1661603 0.042841468 -0.13726127 0.19986391 0.022041855 -0.009380706 -0.13520387
0.1311965 0.14416026 0.015938884 0.18933375 0.11578654 0.19727746 -0.14154579 0.09541456
0.1584268 -0.07139175 0.19601211 -0.103046775 -0.045591693 -0.0596535 0.066766046 0.077173606
-0.079417855 -0.13539083 -0.14802752 0.18484832 0.03223363 -0.057298224 0.15288721 -0.17898096
-0.1336858 -0.07921797 0.044243615 -0.18811333 -0.021462517 -0.11100568 0.011372362 0.11365896
-0.09425788 -0.07535173 0.1645319 0.077500895 -0.026523339 0.21770258 0.17490523 0.104852885
0.075134285 0.024719235 -0.05184094 0.035863858 0.017428646 0.037289347 0.08800627 0.09829974
0.026671901 -0.10959061 0.11575805 0.0004971653 -0.17922449 -0.03478357 -0.05413186 0.023060564
-0.12931003 -0.067883335 -0.080000214 0.17135744 -0.091633864 -0.1413618 -0.19679445 0.15769379
-0.096198015 0.047773324 0.11239069 -0.018051885 0.04022062 0.1656529 0.045775495 -0.089314945
0.114584476 0.17911342 0.2109937 0.16458258 0.02770711 0.008528201 0.026510179 -0.017370695
0.2045353 -0.17042074 -0.15091212 0.11282165 -0.032674033 0.17682223 0.2168773 0.03747989
0.1984478 0.058873374 0.19647416 -0.05560943 0.09275904 -0.17139673 0.06139225 0.19882807
0.22085643 -0.13099632 0.002065512 0.014729815 -0.019692002 0.16425234 -0.12418491 0.118186206
-0.07611588 -0.09531838 0.20158407 0.025423553 0.18273705 -0.072759084 0.21327525 0.13872972
-0.13107519 0.13557038 0.032319136 0.107304566 0.14823528 -0.08171245 0.16464609 -0.19226803
-0.13209863 -0.1711334 0.112134434 -0.024660189 -0.19778904 0.028773703 -0.096914835 -0.13306193
-0.081305146 0.07972687 0.035534065 0.19005263 -0.10598853 -0.15457836 0.044076968 -0.21672082
0.048691586 -0.002811549 -0.15084895 -0.21863562 0.035195462 0.15277332 0.00849465 0.074698985
-0.034042533 -0.030470379 0.11801785 0.05604547 0.06866943 -0.15652242 0.16649042 -0.17300314
-0.109110564 0.122412756 -0.17998137 0.12074847 -0.1717537 0.021226995 -0.086439155 -0.06499195
-0.12238823 0.09927091 0.12538776 -0.05629517 0.006039824 0.104606256 -0.13988897 0.15273558
0.08097744 -0.20404121 0.16766138 -0.12911338 -0.075208746 0.15656176 0.105492644 -0.071221516
0.12220478 -0.15158029 -0.002316091 -0.0788709 -0.17391868 -0.15339242 0.061954916 -0.057492673
00000000: f2bf f23d 7199 31be c4f5 65bd 6c74 5f3e
00000010: b95a c33d 6206 c83c dd66 cdbd e185 aabd
00000020: 8695 353d c6ea 54be e153 29be c874 b33d
00000030: befa 3f3d a7f5 fbbd 7601 8ebd 26bd d13d
00000040: d500 ed3d 0b05 5cbe ccc8 5f3d 1db0 07be
00000050: 41ce dcbd 4025 d43c 8033 3c3d 7c42 06be
00000060: 6df3 42bc 69df 3b3d 2e14 5f3b c59f 6cbd
00000070: d01a 7f3d 9f93 10be 4fe9 ccbd 19af d23c
00000080: b4ba 423e 3e46 7ebc 0b5c db3c 5374 c6bc
00000090: a046 e33c 050e 1d3e 15e9 06be 0722 aabd
000000a0: 836a 2fbe 09eb d1bc 2c87 4f3e 046b ebbd
000000b0: 7fb4 54bc 571b c73d f133 393e 1bf0 153d
000000c0: 0fce f73d 7502 f2bd f76c c6bd 6d60 82bc
000000d0: a6d4 1f3e a641 2ebe 82e8 e23d 8e4d 4dbe
000000e0: 6db6 d83d e05c 36be f852 cabd ce45 483e
000000f0: d76c 02be fcec bcbd 9498 c93d 5dbc f9bd
00000100: b433 86bd ed25 2a3e 897a 2f3d 388e 0cbe
00000110: 20a9 4c3e 1f91 b43c 88b1 19bc e272 0abe
00000120: 6058 063e bf9e 133e 4392 823c b5e0 413e
00000130: 7e21 ed3d 1a03 4a3e 61f1 10be b568 c33d
00000140: a33a 223e d635 92bd 66b7 483e 300a d3bd
00000150: 5bbe 3abd 3a57 74bd a3bc 883d 320d 9e3d
00000160: d4a5 a2bd e5a3 0abe 8794 17be e148 3d3e
00000170: 6907 043d 8bb1 6abd 778e 1c3e c946 37be
00000180: eee4 08be 083d a2bd cb38 353d c8a0 40be
00000190: 29d2 afbc f256 e3bd 2553 3a3c 07c6 e83d
000001a0: 460a c1bd 0252 9abd 0d7b 283e cab8 9e3d
000001b0: 7947 d9bc 6ded 5e3e 5b1a 333e 1cbd d63d
000001c0: 01e0 993d fe7f ca3c 2a57 54bd fbe5 123d
000001d0: 85c6 8e3c b7bc 183d a23c b43d 6051 c93d
000001e0: 087f da3c 0b71 e0bd 8e12 ed3d 3354 023a
000001f0: a086 37be 3779 0ebd 5fb9 5dbd 82e9 bc3c
00000200: d969 04be 6b06 8bbd 27d7 a3bd 5378 2f3e
00000210: 89aa bbbd 26c1 10be 7c84 49be 7b7a 213e
00000220: 7703 c5bd f6ad 433d 172d e63d 8ce1 93bc
00000230: 60be 243d eaa0 293e 167f 3b3d c1ea b6bd
00000240: 44ab ea3d 8269 373e bc0e 583e 5688 283e
00000250: 05fa e23c deb9 0b3c e02b d93c fd4c 8ebc
00000260: b471 513e c682 2ebe b588 1abe 0a0f e73d
00000270: 35d5 05bd e310 353e 1515 5e3e 8384 193d
00000280: e635 4b3e 3525 713d 8630 493e b7c6 63bd
00000290: 74f8 bd3d a082 2fbe 7176 7b3d 9699 4b3e
000002a0: 3028 623e e623 06be 8a5d 073b 5255 713c
000002b0: 1f51 a1bc c431 283e a854 febd 9c0b f23d
000002c0: a4e2 9bbd 4836 c3bd 0e6c 4e3e 0e45 d03c
000002d0: 6c1f 3b3e b702 95bd d464 5a3e 2a0f 0e3e
000002e0: 9338 06be f6d2 0a3e 1261 043d 7fc2 db3d
000002f0: fdca 173e db58 a7bd fc98 283e e9e1 44be
00000300: dd44 07be 983d 2fbe bda6 e53d 2a04 cabc
00000310: 3689 4abe d4b6 eb3c 497b c6bd 6341 08be
00000320: 5083 a6bd d747 a33d 2b8c 113d 289d 423e
00000330: 8410 d9bd ca49 1ebe 0d8a 343d 10ec 5dbe
00000340: d470 473d f741 38bb 2678 1abe 04e2 5fbe
00000350: 1e29 103d 9c70 1c3e 252d 0b3c c8fb 983d
00000360: 2f70 0bbd 049d f9bc 58b3 f13d ef8f 653d
00000370: 8fa2 8c3d 6a47 20be 777c 2a3e bc27 31be
00000380: 5c75 dfbd 8ab3 fa3d 094d 38be f94a f73d
00000390: 34e0 2fbe 3ce4 ad3c 0307 b1bd 801a 85bd
000003a0: aea6 fabd 8c4e cb3d a665 003e c495 66bd
000003b0: b7e9 c53b ce3b d63d 0e3f 0fbe b766 1c3e
000003c0: 80d7 a53d 2ef0 50be 6daf 2b3e 4c36 04be
000003d0: 0b07 9abd ba51 203e 870c d83d 96dc 91bd
000003e0: 8046 fa3d dd37 1bbe 8fc9 17bb 1187 a1bd
000003f0: bd17 32be e712 1dbe 70c4 7d3d 707d 6bbd

weight f4 [64, 64]
-0.11880205 0.032084376 -0.017010596 -0.068987034 -0.109437265 -0.019001337 0.06776311 -0.22251384
0.18443389 -0.03764227 -0.087364756 0.0533323 -0.18505593 -0.21310182 0.11003557 0.10157739
0.19666453 -0.10705946 0.18639544 0.08115594 0.034221593 -0.20163941 0.21082145 0.08521343
-0.07447905 -0.13801849 -0.20452882 0.18903147 0.16131431 0.020140512 -0.08194558 0.050118048
-0.10093861 0.17638437 -0.17815395 0.081357 0.18751243 0.04251937 0.1772108 0.04142987
-0.07880094 0.015746482 0.16983813 0.1946578 0.04595155 -0.16304776 0.08044269 -0.22383377
-0.17151059 0.102416486 -0.08488357 -0.02160868 0.039382372 0.12104935 -0.15819922 -0.1848955
-0.052327394 -0.04259649 -0.18501124 0.19341102 -0.03611208 0.01791619 -0.073813275 0.024967669
-0.10056758 0.049554557 -0.14506026 0.13646981 0.069181785 0.13424471 0.08583516 -0.1483597
-0.13350399 -0.10866163 0.093694665 0.0016314132 0.17003952 -0.07772125 -0.02359477 0.14600644
-0.15678908 0.020576151 0.09581183 -0.0058551286 0.05091288 -0.014408307 0.014221208 0.015603736
-0.17123613 -0.020289816 -0.056792755 0.18129501 -0.034030914 0.15365699 -0.068587705 -0.11934968
0.028084235 -0.20935695 0.19635303 -0.0025593564 -0.108042866 0.1823815 -0.05253959 0.0041072373
-0.048991922 0.1054318 -0.044469345 -0.1665982 0.17598352 -0.20172365 -0.18813097 0.18817033
0.14963864 -0.012049448 -0.15109216 0.093555234 -0.04275411 -0.073851496 -0.04310819 -0.13090767
-0.08582519 -0.16828737 0.16970952 -0.0128491325 0.040709537 -0.033270717 0.19463333 0.1222931
-0.12452832 0.105647124 0.12617922 -0.041943368 -0.1664745 0.064253494 -0.124879114 0.023562295
-0.024558455 -0.12596145 0.02152895 0.052084267 0.035624024 -0.14085512 0.086047634 0.062382933
-0.049419537 0.1546575 0.1253542 0.073718295 -0.19422093 -0.16919623 0.18451795 -0.05659275
0.1401383 0.014148266 -0.21025477 -0.17440926 -0.07604723 -0.16675527 -0.0013076812 0.15051608
-0.0116179995 0.16975906 0.0061477814 -0.2122417 -0.070888765 -0.059505265 -0.12283617 -0.20054655
0.112103105 -0.007049759 -0.039113656 -0.059564523 -0.18293932 -0.12561104 0.04028594 0.007779814
0.1712242 0.011349136 0.20582944 -0.18165168 -0.007108228 0.12803312 0.14934456 -0.091121525
-0.06359321 0.15878099 -0.1803188 -0.09559018 -0.009777693 -0.021549148 0.055164885 -0.091632985
-0.03452286 -0.10845994 0.14193767 -0.1947166 -0.027075518 -0.019652795 0.09937918 -0.08544812
-0.044720527 -0.1734995 -0.11707938 0.0294777 0.18049829 -0.14138637 0.10719694 0.10683489
-0.08199251 -0.068211004 -0.07241095 0.014170904 -0.24339168 0.09071634 0.18015672 -0.07688409
-0.078012936 -0.18022491 -0.008091903 0.04271983 -0.016098645 -0.12436902 0.02672012 -0.16829789
-0.093035795 0.16675533 -0.09151799 0.034791622 -0.063845046 -0.21986355 -0.20915268 0.11810378
0.005529421 -0.020921892 0.19363804 0.13744085 -0.10251887 -0.06163023 0.021319145 0.00067956996
0.01969394 0.050394267 0.16464323 -0.03643296 0.06943776 -0.13858399 0.097885005 -0.0042077075
-0.075591646 0.056727044 -0.18777189 0.072839536 -0.110351734 -0.1600227 -0.028375693 -0.10187721
00000000: 7d4e f3bd e86a 033d ce59 8bbc 1349 8dbd
00000010: a520 e0bd b1a8 9bbc 63c7 8a3d abda 63be
00000020: 3ddc 3c3e c82e 1abd 4bec b2bd f872 5a3d
00000030: 4d7f 3dbe 5d37 5abe 545a e13d cf07 d03d
00000040: 6d62 493e fd41 dbbd 72de 3e3e 1635 a63d
00000050: f12b 0c3d 907a 4ebe 94e1 573e 6184 ae3d
00000060: 7988 98bd b854 0dbe 0170 51be 7791 413e
00000070: 942f 253e b7fd a43c 16d3 a7bd 9548 4d3d
00000080: e7b8 cebd 1b9e 343e fd6d 36be 809e a63d
00000090: 4203 403e ca28 2e3d bf76 353e 5eb2 293d
000000a0: 6362 a1bd c4fe 803c 0cea 2d3e 6054 473e
000000b0: b137 3c3d fef5 26be 23bf a43d ae34 65be
000000c0: 79a0 2fbe bcbf d13d 70d7 adbd b004 b1bc
000000d0: 694f 213d b9e8 f73d fafe 21be 3f55 3dbe
000000e0: 4055 56bd a879 2ebd 9673 3dbe 8a0d 463e
000000f0: 43ea 13bd f9c4 923c 6a2b 97bd ff88 cc3c
00000100: 60f6 cdbd b8f9 4a3d ad8a 14be bebe 0b3e
00000110: 2eaf 8d3d 7277 093e 58ca af3d 9beb 17be
00000120: 45b5 08be fd89 debd fde2 bf3d 25d5 d53a
00000130: d71e 2e3e 522c 9fbd d249 c1bc b682 153e
00000140: 518d 20be 518f a83c fe38 c43d 61dc bfbb
00000150: 068a 503d d210 6cbc 1200 693c d0a6 7f3c
00000160: 8658 2fbe d436 a6bc 859f 68bd 66a5 393e
00000170: 0064 0bbd 4258 1d3e b677 8cbd 9b6d f4bd
00000180: e910 e63c ab61 56be c510 493e e0ba 27bb
00000190: 9445 ddbd 37c2 3a3e c133 57bd 0196 863b
000001a0: c1ab 48bd a1ec d73d 7d25 36bd b898 2abe
000001b0: 0635 343e a590 4ebe 68a5 40be b9af 403e
000001c0: df3a 193e 0c6b 45bc e7b7 1abe e399 bf3d
000001d0: ef1e 2fbd 743f 97bd 3792 30bd a90c 06be
000001e0: 1ec5 afbd 8653 2cbe 55c8 2d3e 2b85 52bc
000001f0: 0bbf 263d e046 08bd f64d 473e ce74 fa3d
00000200: b408 ffbd 855d d83d 2035 013e cfcc 2bbd
00000210: 4b78 2abe 5697 833d 9fc0 ffbd b705 c13c
00000220: d02e c9bc 0afc 00be 7b5d b03c 5056 553d
00000230: 7fea 113d 533c 10be be39 b03d 3f85 7f3d
00000240: 246c 4abd 895e 1e3e da5c 003e 9ef9 963d
00000250: dae1 46be c741 2dbe 46f2 3c3e cdcd 67bd
00000260: 6a80 0f3e 21ce 673c 074d 57be 5798 32be
00000270: a6be 9bbd e5c1 2abe 8066 abba e320 1a3e
00000280: 6c59 3ebc 52d5 2d3e 5473 c93b e355 59be
00000290: 212e 91bd cbbb 73bd 8891 fbbd 135c 4dbe
000002a0: 5096 e53d aa01 e7bb a435 20bd eef9 73bd
000002b0: 7254 3bbe 2ea0 00be df02 253d cfed fe3b
000002c0: 6655 2f3e baf1 393c f4c4 523e e602 3abe
000002d0: 23ec e8bb 1d1b 033e c8ed 183e ec9d babd
000002e0: 283d 82bd 7c97 223e 7ea5 38be c9c4 c3bd
000002f0: 9e32 20bc d787 b0bc 93f4 613d 13aa bbbd
00000300: d867 0dbd 3f20 debd 1c58 113e ca63 47be
00000310: 7acd ddbc e6fe a0bc 5087 cb3d 6dff aebd
00000320: df2c 37bd daa9 31be 50c7 efbd 387b f13c
00000330: 8bd4 383e 97c7 10be 128a db3d 40cc da3d
00000340: b0eb a7bd 36b2 8bbd 314c 94bd 142d 683c
00000350: ab3b 79be 7dc9 b93d 017b 383e 6875 9dbd
00000360: 3fc5 9fbd e18c 38be e793 04bc fdfa 2e3d
00000370: 4ee1 83bc 2fb5 febd 27e4 da3c 4856 2cbe
00000380: 8d89 bebd e9c1 2a3e c96d bbbd a981 0e3d
00000390: 31c1 82bd e923 61be 1f2c 56be 65e0 f13d
000003a0: 2530 b53b 6364 abbc 0d49 463e 4bbd 0c3e
000003b0: 6af5 d1bd fb6f 7cbd 7da5 ae3c 2b25 323a
000003c0: 3055 a13c 386a 4e3d 3c98 283e ba3a 15bd
000003d0: 6235 8e3d f6e8 0dbe ef77 c83d cfe0 89bb
000003e0: cbcf 9abd 9e5a 683d 4647 40be e52c 953d
000003f0: 1700 e2bd fedc 23be 2474 e8bc 00a5 d0bd

weight f4 [64, 64]
-0.07345798 0.19659568 0.18780613 -0.04957596 0.10711545 0.159842 -0.123617366 0.17843087
0.092313744 -0.048867647 -0.06922811 0.16468525 0.07869426 0.13219218 0.22420038 0.052725732
0.08320514 0.06524418 -0.13343522 0.032049056 -0.11082626 -0.0530007 -0.054914862 -0.19131336
0.040432777 0.059925444 -0.1667676 0.016635532 0.18214999 -0.06686592 -0.14101708 -0.012577086
0.08028068 -0.20573582 0.0065316604 0.0314321 -0.12800127 -0.19845718 -0.120403826 0.08068007
-0.16119856 -0.12382219 0.21218291 0.040557776 0.167909 0.17349349 0.13789466 -0.0071628033
0.028129136 0.12053996 -0.15954313 -0.12079003 0.16578308 -0.16439076 -0.14309157 0.22345717
0.084781826 -0.1460138 -0.008976243 0.07511903 -0.05000185 0.09872452 0.11617936 0.22468795
-0.07912562 -0.10820449 0.012540143 -0.18122575 -0.11076901 -0.041670226 0.03329652 -0.001806553
0.10695167 0.16852853 -0.08145333 -0.08562436 0.18610047 0.17693403 0.046324607 -0.011864765
0.1790115 0.09871856 0.044568103 -0.12295349 -0.026724068 0.00094065827 -0.08970717 0.15280737
0.015589759 0.036453474 -0.09284395 0.07144092 0.17423499 -0.031951476 0.060365837 -0.041041043
0.19158205 0.12407026 0.04425939 -0.17206328 -0.17436934 -0.023524823 -0.1768028 -0.18847252
-0.016385442 -0.022648456 -0.113303624 -0.0067859525 0.07694158 -0.17563458 -0.09449258 -0.19484442
0.20228302 -0.16674416 0.02455334 -0.17865309 0.20632955 0.116771705 0.11667821 -0.10345167
0.13543852 -0.026020527 -0.16430016 -0.20623063 -0.1000348 0.16316068 -0.16807286 -0.103144005
0.17273617 0.14726423 0.02933255 -0.11113909 0.06502898 0.10131084 -0.16743489 0.09010042
0.1119666 -0.04538717 0.20028868 -0.17783763 0.16191705 0.031737745 -0.17056437 -0.037330486
-0.11628229 0.066869415 0.05616943 0.1960786 0.020689577 0.22332194 0.17042774 0.21403512
-0.011249241 -0.056902878 -0.12518544 -0.1230677 -0.1486947 -0.07000914 -0.05416668 -0.1454091
-0.11218491 0.10418983 -0.04598898 -0.14497603 -0.19039251 -0.028559133 -0.042002875 0.21229477
-0.0833414 -0.12978691 0.07937229 0.168487 0.09145967 -0.16158779 -0.15645315 -0.2143809
-0.080021374 0.06827545 -0.19587871 -0.1536686 0.18586902 0.13845426 -0.055353098 -0.21373807
0.0012418684 0.10924562 0.14959459 0.15230994 0.11540594 -0.2013734 0.13628526 -0.19342288
-0.149659 0.1601044 -0.100544475 -0.13965762 0.13728441 -0.050593935 0.046375982 -0.19824064
-0.11092864 0.18980962 0.14574651 -0.14258033 -0.19927084 0.013225528 0.203734 -0.07405029
0.12733744 -0.21376774 0.011680585 0.11940016 0.06731662 0.030740622 0.122191265 -0.12657659
-0.108308315 -0.018277539 -0.117266975 -0.20180373 -0.0022452269 0.06535773 0.1150823 0.05652563
0.00927158 -0.1711565 -0.09170242 0.055568054 0.12084851 -0.13362947 -0.043341506 -0.079038225
-0.0025956517 0.14949878 0.047068007 -0.01794148 -0.08483636 0.20194907 -0.07616474 0.016415924
-0.10717094 0.21157114 0.19205098 -0.09876625 -0.09505099 0.115314715 -0.19799162 -0.13728648
0.0015098713 0.18259197 -0.0029766404 -0.09124537 -0.015375484 0.13866326 -0.11987648 -0.08367781
00000000: 2371 96bd 6150 493e 4050 403e 2910 4bbd
00000010: 585f db3d 9fad 233e 1a2b fdbd 95b6 363e
00000020: fd0e bd3d 7129 48bd 78c7 8dbd 40a3 283e
00000030: 752a a13d 635d 073e c994 653e f0f6 573d
00000040: 7567 aa3d be9e 853d 3ea3 08be df45 033d
00000050: e1f8 e2bd 4317 59bd 68ee 60bd a6e7 43be
00000060: d79c 253d 6274 753d 20c5 2abe 3d47 883c
00000070: 8785 3a3e 00f1 88bd c866 10be 1f10 4ebc
00000080: 326a a43d 69ac 52be 8a07 d63b f2be 003d
00000090: c412 03be 5c38 4bbe 4896 f6bd 983b a53d
000000a0: 3c11 25be 7d96 fdbd 7a46 593e e91f 263d
000000b0: 56f0 2b3e 47a8 313e 4234 0d3e f3b5 eabb
000000c0: 136f e63c a8dd f63d 465f 23be c360 f7bd
000000d0: 0ac3 293e 0d56 28be 9986 12be f5d1 643e
000000e0: 18a2 ad3d a484 15be 1811 13bc 02d8 993d
000000f0: bdce 4cbd 1530 ca3d 72ef ed3d 9914 663e
00000100: 9d0c a2bd 519a ddbd 2c75 4d3c 3e93 39be
00000110: ddda e2bd 66ae 2abd ef61 083d dcc9 ecba
00000120: 7a09 db3d be92 2c3e 01d1 a6bd d35b afbd
00000130: 1f91 3e3e 322e 353e dfbe 3d3d 6e64 42bc
00000140: ca4e 373e f52c ca3d 0b8d 363d 0acf fbbd
00000150: 6fec dabc 8296 763a 65b8 b7bd 8979 1c3e
00000160: 306c 7f3c 3d50 153d f824 bebd 9e4f 923d
00000170: a86a 323e 8ddf 02bd 2b42 773d a71a 28bd
00000180: 162e 443e 8c18 fe3d 5649 353d 5b31 30be
00000190: e08d 32be 21b7 c0bc cb0b 35be f1fe 40be
000001a0: c33a 86bc 4189 b9bc bb0b e8bd b25c debb
000001b0: 8c93 9d3d 8dd9 33be 5385 c1bd 4c85 47be
000001c0: 4823 4f3e fbbe 2abe 1624 c93c d6f0 36be
000001d0: 0e48 533e 0126 ef3d fcf4 ee3d 78de d3bd
000001e0: 65b0 0a3e 0029 d5bc 4d3e 28be 1f2e 53be
000001f0: 0cdf ccbd 9813 273e 4b1b 2cbe 2a3d d3bd
00000200: c0e1 303e 6fcc 163e d14a f03c e49c e3bd
00000210: ea2d 853d 0f7c cf3d 0d74 2bbe 9286 b83d
00000220: bf4e e53d e6e7 39bd 7a18 4d3e 111b 36be
00000230: 95cd 253e 70ff 013d 6da8 2ebe dae7 18bd
00000240: 6925 eebd d5f2 883d eb11 663d d4c8 483e
00000250: 307d a93c 82ae 643e 9c84 2e3e 062c 5b3e
00000260: bd4e 38bc fe12 69bd 9d30 00be eb0a fcbd
00000270: 6c43 18be f460 8fbd e1dd 5dbd 20e6 14be
00000280: 34c1 e5bd 7a61 d53d f15e 3cbd 9974 14be
00000290: 41f6 42be d8f4 e9bc 350b 2cbd cd63 593e
000002a0: e5ae aabd dce6 04be f08d a23d db87 2c3e
000002b0: 354f bb3d 4577 25be 4135 20be ab86 5bbe
000002c0: 3fe2 a3bd 00d4 8b3d 6e94 48be 4d5b 1dbe
000002d0: 7354 3e3e f4c6 0d3e eeb9 62bd 27de 5abe
000002e0: 30c6 a23a 2bbc df3d 532f 193e 23f7 1b3e
000002f0: f359 ec3d d434 4ebe 5d8e 0b3e a610 46be
00000300: 3540 19be 68f2 233e 43ea cdbd 6802 0fbe
00000310: 4994 0c3e 963b 4fbd bef4 3d3d 98ff 4abe
00000320: 8e2e e3bd 745d 423e 933e 153e 9400 12be
00000330: a80d 4cbe e3af 583c a59f 503e aea7 97bd
00000340: bf64 023e eee5 5abe ed5f 3f3c 1288 f43d
00000350: 4cdd 893d c2d3 fb3c 6a3f fa3d 4b9d 01be
00000360: c0d0 ddbd c7ba 95bc ab29 f0bd a3a5 4ebe
00000370: a824 13bb 46da 853d 45b0 eb3d 6b87 673d
00000380: d3e7 173c a643 2fbe 7ace bbbd 549b 633d
00000390: 6c7f f73d 2ad6 08be dd86 31bd cbde a1bd
000003a0: cf1b 2abb 3516 193e 62ca 403d 03fa 92bc
000003b0: afbe adbd bdcb 4e3e 42fc 9bbd b07a 863c
000003c0: 707c dbbd 1ba6 583e 03a9 443e f645 cabd
000003d0: 18aa c2bd 1f2a ec3d 51be 4abe d494 0cbe
000003e0: e0e6 c53a 64f9 3a3e bd13 43bb dade babd
000003f0: 74e9 7bbc befd 0d3e cd81 f5bd 465f abbd

weight f4 [64, 64]
-0.011571298 0.07752843 0.095437154 -0.16870703 0.20089762 0.007732343 -0.10564211 -0.18005662
0.06044063 -0.015118913 0.07541483 -0.18490031 0.21193507 0.047455035 -0.20235212 -0.15123548
-0.011164193 -0.07134866 -0.08943866 0.0028098738 0.11346031 -0.097801946 -0.047684126 0.05150233
0.12688082 -0.15253194 0.14630152 -0.0038513972 -0.026509894 -0.11764257 -0.19501533 -0.13917316
0.02585432 -0.0023012108 -0.18117289 -0.0143601885 0.003910672 0.1870972 -0.12690493 -0.010744123
-0.08327179 -0.09028353 -0.10258613 0.07303171 -0.010686365 0.18501145 0.12788406 0.1333443
0.18583739 -0.10671867 0.069931455 0.00726305 0.014387484 0.13347477 -0.040858492 0.021667508
-0.16100852 0.062901005 -0.09161581 -0.09048385 0.09417163 -0.058050856 0.04439466 0.060021456
-0.23075897 -0.18903913 -0.21771628 -0.2059427 -0.052197512 -0.07142859 0.12356633 0.06338287
-0.09170853 -0.028054755 0.15561578 -0.13241574 0.06342998 0.1850064 0.14826085 0.057148375
0.058638714 -0.16482851 0.1357325 -0.18952066 -0.17385599 0.08382313 -0.10644771 0.07907188
-0.24220456 -0.18593806 -0.040570766 0.15155791 0.1772742 -0.16529351 -0.1919043 -0.11042299
-0.042424407 0.10870375 0.058986016 0.14419091 -0.20566902 0.18369412 -0.14287363 -0.08219359
-0.04499871 0.067062154 -0.22278754 0.06912256 -0.07319211 -0.19013287 0.000608098 0.027694227
-0.19354235 -0.13473034 0.063028775 -0.18887131 -0.108290404 -0.2343596 0.026038367 -0.0032576667
-0.18089844 0.108565696 0.080026686 -0.15413004 -0.025675137 0.06208402 0.08393652 0.16474448
0.08728955 -0.1850937 -0.085807025 -0.15795143 0.03265884 0.096669145 -0.15464033 -0.13314669
-0.1558476 -0.13483554 -0.17230657 0.13614056 0.032292046 -0.23062696 -0.02922365 0.1533401
0.037720293 -0.18961112 -0.05330158 0.2234492 0.1716336 0.0171234 -0.10505433 -0.17912562
0.08532868 -0.011152364 -0.0481091 0.118246116 0.19785191 -0.010903049 -0.00048389458 0.095644906
-0.15470584 0.057301875 0.0767511 0.04292816 0.15997483 -0.11146471 0.09323806 0.07634539
-0.0003828127 -0.18439016 0.1117949 0.10455914 0.07645463 0.039406702 0.017495051 0.07307871
-0.13666107 0.1954969 0.14688241 0.17339942 0.16882174 0.03253609 -0.19181167 -0.008157763
-0.22881994 -0.033886213 0.06981125 0.11700436 0.18597199 -0.18446589 0.14114341 -0.12309487
0.05746821 0.1902875 0.2307498 0.06676662 -0.13172269 0.111520015 -0.12109887 -0.1454315
-0.030674424 -0.13177964 -0.010514037 -0.010689757 -0.0936782 -0.16222933 -0.029405762 0.12417285
0.051546577 0.2296233 -0.06654906 -0.08832571 -0.1072368 0.041295476 -0.084416986 -0.17265415
-0.16868624 0.015952656 0.17391172 0.16234957 -0.06750899 0.090851836 0.103492714 0.060954895
0.119949915 -0.021945834 -0.05285527 0.15288584 -0.030939588 0.17527324 0.1515068 0.19198184
0.0051368033 0.2034563 -0.15227354 0.15538315 -0.04164683 0.030370584 -0.07451387 0.19109619
0.20643517 -0.085269935 0.043342408 0.15247127 -0.1541921 0.040670376 0.18695724 0.1586097
-0.12557912 0.21237212 0.21532224 0.22423804 0.035495058 -0.016259728 -0.11484842 -0.09850437
00000000: 8b95 3dbc 3ac7 9e3d 8e74 c33d 89c1 2cbe
00000010: 1bb8 4d3e 985f fd3b e45a d8bd c360 38be
00000020: 9890 773d 51b5 77bc 1773 9a3d 8256 3dbe
00000030: 8205 593e 3660 423d 6535 4fbe 79dd 1abe
00000040: 05ea 36bc 3f1f 92bd 9e2b b7bd dc25 383b
00000050: e15d e83d 634c c8bd 6e50 43bd 1bf4 523d
00000060: 0ced 013e 5531 1cbe 11d0 153e b967 7cbb
00000070: 472b d9bc 96ee f0bd 19b2 47be 6983 0ebe
00000080: 70cc d33c e9cf 16bb 6385 39be ff46 6bbc
00000090: 1825 803b 6996 3f3e 5ef3 01be 1e08 30bc
000000a0: 668a aabd 92e6 b8bd ad18 d2bd a691 953d
000000b0: dd15 2fbc a473 3d3e 0af4 023e 688b 083e
000000c0: 284c 3e3e 518f dabd 3938 8f3d e1fe ed3b
000000d0: 7bb9 6b3c 9cad 083e 3c5b 27bd 0f80 b13c
000000e0: 6bdf 24be 3ed2 803d 12a1 bbbd 994f b9bd
000000f0: 0edd c03d bcc6 6dbd 2dd7 353d 0fd9 753d
00000100: 144c 6cbe 7993 41be 04f1 5ebe a5e2 52be
00000110: 0fcd 55bd 2749 92bd 5810 fd3d e1ce 813d
00000120: afd1 bbbd 16d3 e5bc be59 1f3e fe97 07be
00000130: 94e7 813d 5172 3d3e b1d1 173e 6a14 6a3d
00000140: 262f 703d cec8 28be 76fd 0a3e b411 42be
00000150: 4e07 32be 76ab ab3d 4201 dabd 70f0 a13d
00000160: 7904 78be 8c66 3ebe 882d 26bd ff31 1b3e
00000170: 5e87 353e b442 29be 9082 44be 7325 e2bd
00000180: 37c5 2dbd 12a0 de3d 529b 713d c8a6 133e
00000190: e69a 52be 501a 3c3e 774d 12be 1d55 a8bd
000001a0: 9150 38bd e257 893d 6b22 64be 2190 8d3d
000001b0: bfe5 95bd 31b2 42be c468 1f3a 01df e23c
000001c0: f72f 46be c0f6 09be 3b15 813d 7b67 41be
000001d0: 5cc7 ddbd f7fb 6fbe 6a4e d53c 947e 55bb
000001e0: 713d 39be b157 de3d 08e5 a33d 44d4 1dbe
000001f0: aa54 d2bc d04b 7e3d e9e6 ab3d c7b2 283e
00000200: ddc4 b23d 3489 3dbe 98bb afbd 05be 21be
00000210: 47c5 053d 79fa c53d 095a 1ebe 9b57 08be
00000220: 8396 1fbe 5412 0abe 2271 30be 6e68 0b3e
00000230: aa44 043d 7929 6cbe 7066 efbc 3005 1d3e
00000240: 9880 1a3d 6b29 42be c252 5abd decf 643e
00000250: b8c0 2f3e 5f46 8c3c b926 d7bd b56c 37be
00000260: cec0 ae3d 68b8 36bc 0c0e 45bd 052b f23d
00000270: b199 4a3e b4a2 32bc 3bb3 fdb9 7ae1 c33d
00000280: 356b 1ebe 5fb5 6a3d ae2f 9d3d 70d5 2f3d
00000290: 71d0 233e 9c47 e4bd 99f3 be3d f95a 9c3d
000002a0: 40b4 c8b9 c6d0 3cbe b9f4 e43d 1a23 d63d
000002b0: 3f94 9c3d ec68 213d c851 8f3c 4aaa 953d
000002c0: e1f0 0bbe 5730 483e 5868 163e 9e8f 313e
000002d0: 9bdf 2c3e 9044 053d 476a 44be 23a8 05bc
000002e0: c64f 6abe 45cc 0abd 33f9 8e3d fb9f ef3d
000002f0: 716f 3e3e a0e4 3cbe e687 103e 2a19 fcbd
00000300: c963 6b3d bada 423e ad49 6c3e f0bc 883d
00000310: 50e2 06be 9b64 e43d af02 f8bd ffeb 14be
00000320: ee48 fbbc 3ef1 06be 1143 2cbc 1724 2fbc
00000330: 5bda bfbd 721f 26be 5ae4 f0bc 564e fe3d
00000340: 8122 533d 5f22 6b3e e04a 88bd 1ce4 b4bd
00000350: f89e dbbd 7225 293d d0e2 acbd 40cc 30be
00000360: 16bc 2cbe 25af 823c ea15 323e f73e 263e
00000370: 2742 8abd 8710 ba3d fdf3 d33d d7ab 793d
00000380: 4da8 f53d c0c7 b3bc c57e 58bd 1b8e 1c3e
00000390: 0575 fdbc d47a 333e 9924 1b3e e396 443e
000003a0: a152 a83b d956 503e 98ed 1bbe c31c 1f3e
000003b0: de95 2abd bbcb f83c ba9a 98bd b8ae 433e
000003c0: be63 533e 01a2 aebd cf87 313d 6e21 1c3e
000003d0: 89e4 1dbe fb95 263d b871 3f3e 956a 223e
000003e0: d097 00be 1478 593e 6f7d 5c3e a89e 653e
000003f0: 4463 113d 1f33 85bc a635 ebbd a9bc c9bd

weight f4 [64, 64]
0.12782766 0.09472917 0.034710173 -0.21947518 0.023231948 0.011327644 -0.19878125 0.0025017837
0.07084568 0.06667483 -0.18233821 -0.033888087 -0.19717325 -0.051134914 0.21497549 0.092544205
-0.10335382 0.18473957 0.09705678 -0.21710335 0.07230274 0.19897008 -0.11910891 0.20572847
-0.18237701 -0.09842174 -0.21629782 0.021204628 0.09088227 -0.09464971 -0.0051690023 -0.17296931
-0.03106307 0.1376943 0.17665212 -0.05506586 0.10291942 0.0043757036 0.12726165 0.14916252
-0.17733565 -0.18257654 -0.20877059 0.08957854 -0.15390076 -0.05044823 -0.11039022 0.0016279203
0.077164695 -0.20592186 -0.18458943 0.028554628 0.096862614 0.07175123 0.10143595 -0.060048394
0.19340006 0.10117427 -0.0064812126 0.16839057 -0.2215178 -0.1842991 0.08603349 -0.07895533
0.15490615 0.21883976 0.048947774 -0.10387072 -0.09649258 -0.050109655 0.06435891 -0.15791452
-0.20230855 -0.12601969 -0.10990959 -0.030682715 0.21580622 0.11828092 -0.18725584 0.091909125
0.2163634 -0.051227797 -0.10710408 -0.098975144 -0.007522777 0.19757518 -0.008681602 -0.17454298
0.027623827 -0.1710663 -0.13571791 0.04507175 -0.004699674 0.072111286 0.17438236 0.20070823
0.01726738 0.008097034 -0.111905515 0.046920475 0.0903778 -0.065736495 0.082904644 -0.14741941
0.09563346 -0.020514144 0.07418567 -0.11822889 0.13816425 -0.06771759 -0.05608042 0.18729672
0.07754236 -0.064815134 -0.0047659706 0.16437232 0.17661217 0.21674709 -0.20071118 -0.026047783
-0.15784338 0.029420462 -0.015617567 0.03709864 -0.16589893 -0.09826431 -0.12745364 0.054563794
0.19905034 -0.023028506 0.10971722 -0.18121 0.13146524 0.018969093 0.08814406 0.021979313
0.09102258 0.16399929 0.13434672 -0.008582223 -0.011214021 0.2331766 0.026671011 -0.11457247
0.095350586 -0.18201219 -0.17452708 -0.18729974 0.14375785 -0.07310198 -0.052943606 0.038195297
-0.18266445 -0.17338744 0.116862856 0.06539551 0.05797297 -0.09836595 -0.16856858 -0.014008207
-0.11531334 -0.18172087 0.08371421 0.02478572 -0.13306451 0.18837172 -0.05501471 -0.026348194
0.075843014 0.03357707 0.15525383 0.1284357 0.20707811 0.043079842 -0.04739253 -0.121042654
0.18054943 0.1560688 -0.20045061 -0.08421927 0.008444846 -0.09556413 0.015569513 -0.045428626
-0.17164934 0.08752239 -0.1312205 0.08046198 0.052953966 0.10441166 -0.10075592 -0.030094637
0.051320534 -0.069736965 0.148392 0.17764771 -0.17297211 -0.2043722 -0.104369506 -0.06896932
-0.19138147 0.120418966 0.14243893 0.11340883 -0.05817388 -0.19097626 -0.022070928 -0.09034025
-0.0957585 -0.151006 0.13387004 0.19224073 -0.07765228 0.03458534 -0.10792578 -0.19133592
0.009470003 -0.19880481 0.12897567 0.07498564 0.009325504 -0.13690494 -0.042616576 -0.13375685
0.0083185835 -0.17819923 -0.2034982 0.036475744 0.08190676 -0.044019096 -0.16728981 -0.13352932
0.029796468 -0.04927064 0.09093769 -0.024066119 -0.0033756183 0.014136435 -0.14315936 0.051159892
-0.07112767 -0.018835254 0.1883027 -0.0849856 -0.2068829 0.03739962 0.01437183 -0.22250475
0.16212243 -0.10724235 -0.028816596 0.13669255 0.11076034 0.05464167 0.0556071 -0.22467585
00000000: 41e5 023e 5e01 c23d 412c 0e3d 1abe 60be
00000010: ed50 be3c 9597 393c 508d 4bbe f7f4 233b
00000020: 8a17 913d d08c 883d deb6 3abe 3cce 0abd
00000030: c9e7 49be d872 51bd 8922 5c3e d187 bd3d
00000040: 2bab d3bd 5f2c 3d3e b4c5 c63d 5750 5ebe
00000050: 7513 943d d0be 4b3e 5fef f3bd 7caa 523e
00000060: 0ac1 3abe 5691 c9bd 2d7d 5dbe 54b5 ad3c
00000070: 7c20 ba3d b5d7 c1bd bc60 a9bb de1e 31be
00000080: fb77 febc bcff 0c3e 4be4 343e bd8c 61bd
00000090: 6bc7 d23d 1062 8f3b e150 023e 0fbe 183e
000000a0: 7a97 35be 58f5 3abe f5c7 55be f474 b73d
000000b0: 2998 1dbe cea2 4ebd 4514 e2bd f15f d53a
000000c0: 8608 9e3d 2edd 52be 0305 3dbe 65eb e93c
000000d0: e85f c63d 4ff2 923d a7bd cf3d 4ef5 75bd
000000e0: aa0a 463e 7534 cf3d 5a60 d4bb 946e 2c3e
000000f0: 90d5 62be e7b8 3cbe 5432 b03d 55b3 a1bd
00000100: b89f 1e3e 8817 603e 767d 483d 2cba d4bd
00000110: e79d c5bd c83f 4dbd 9bce 833d 58b4 21be
00000120: f929 4fbe 4e0b 01be 4718 e1bd 515a fbbc
00000130: 4efc 5c3e 443d f23d ffbf 3fbe da3a bc3d
00000140: 5e8e 5d3e 3dd4 51bd 6259 dbbd 7bb3 cabd
00000150: a181 f6bb 2651 4a3e 473d 0ebc 65bb 32be
00000160: 5d4b e23c 012c 2fbe a3f9 0abe 289d 383d
00000170: b9ff 99bb 15af 933d 4a91 323e 7586 4d3e
00000180: 5274 8d3c 6ca9 043c b82e e5bd af2f 403d
00000190: ff17 b93d dba0 86bd e9c9 a93d 1df5 16be
000001a0: 7adb c33d 470d a8bc a8ee 973d fd21 f2bd
000001b0: ee7a 0d3e 85af 8abd 95b4 65bd b6ca 3f3e
000001c0: 87ce 9e3d ccbd 84bd dc2b 9cbb 3851 283e
000001d0: d2d9 343e f3f2 5d3e 3b87 4dbe 2962 d5bc
000001e0: b2a1 21be 2e03 f13c d3e0 7fbc bef4 173d
000001f0: 69e1 29be cc3e c9bd 3583 02be 497e 5f3d
00000200: dad3 4b3e 47a6 bcbc 6cb3 e03d 1d8f 39be
00000210: d39e 063e 1265 9b3c df84 b43d f60d b43c
00000220: 0c6a ba3d 6eef 273e 3092 093e 749c 0cbc
00000230: 03bb 37bc d9c5 6e3e 2a7d da3c f9a4 eabd
00000240: 2b47 c33d 6761 3abe 3ab7 32be 81cb 3fbe
00000250: 4235 133e 7eb6 95bd 65db 58bd ac72 1c3d
00000260: 640c 3bbe 7a8c 31be cb55 ef3d 15ee 853d
00000270: 1175 6d3d 1674 c9bd 3e9d 2cbe ae82 65bc
00000280: 6729 ecbd 0915 3abe 5b72 ab3d 6c0b cb3c
00000290: 1042 08be 84e4 403e 1b57 61bd 2bd8 d7bc
000002a0: 9553 9b3d 1c88 093d dcfa 1e3e a684 033e
000002b0: 490c 543e 7d74 303d ab1e 42bd 36e5 f7bd
000002c0: f3e1 383e 80d0 1f3e ed42 4dbe 277b acbd
000002d0: 405c 0a3c 20b7 c3bd 4517 7f3c 5e13 3abd
000002e0: d8c4 2fbe f03e b33d ab5e 06be 40c9 a43d
000002f0: 42e6 583d c8d5 d53d 1f59 cebd 0789 f6bc
00000300: 7b35 523d 41d2 8ebd 13f4 173e 48e9 353e
00000310: 9a1f 31be f246 51be aebf d5bd c93f 8dbd
00000320: 81f9 43be 389e f63d 83db 113e e342 e83d
00000330: bc47 6ebd 488f 43be 17ce b4bc 4f04 b9bd
00000340: 081d c4bd 51a1 1abe 3a15 093e c1da 443e
00000350: 2908 9fbd 5ca9 0d3d 3108 ddbd 90ed 43be
00000360: 1228 1b3c 7d93 4bbe 3312 043e 1292 993d
00000370: 00ca 183c cf30 0cbe b88e 2ebd 8ef7 08be
00000380: ab4a 083c dc79 36be d561 50be 9767 153d
00000390: bbbe a73d 5e4d 34bd 054e 2bbe e9bb 08be
000003a0: b917 f43c 03d0 49bd 8a3d ba3d 4f26 c5bc
000003b0: 7a39 5dbb 829c 673c 5e98 12be 098d 513d
000003c0: 62ab 91bd 644c 9abc 6cd2 403e ee0c aebd
000003d0: 1cd9 53be 5830 193d d377 6b3c 49d8 63be
000003e0: 6c03 263e e1a1 dbbd c810 ecbc 22f9 0b3e
000003f0: 51d6 e23d f2cf 5f3d 45c4 633d 6d11 66be
