models/graph_classification_model_train_with_130_50_epochs_4.pt (torch, 64674 bytes, 12 tensors)

att_src f4 [1, 1, 32]
00000000: a830 85bd 9009 e2be 4257 a2be 2ce1 4a3d
00000010: 4cb1 203e 4655 663e 19c1 013e b55c c63e
00000020: 9a98 b7bd 3246 93be 8bff d2bc fff0 47be
00000030: ddb8 063e 2fcb 84be 7480 3abe 77cc e4bd
00000040: 3966 bebe a7fd e53e 9f10 0e3e c26a 9c3e
00000050: 33cd da3e 66db f33c e5a8 e33c b500 b33e
00000060: 163f f2bd 427e 0fbe 45a7 aabd 5cd5 b2be
00000070: ec80 1cbe fe70 09be e04c 38be a253 b8bd
-0.06503421 -0.4414792 -0.31707197 0.049531147 0.15692633 0.22493467 0.12671317 0.38742605
-0.08964653 -0.28764492 -0.025756618 -0.19525526 0.13156457 -0.25936267 -0.18213063 -0.11171811
-0.37187365 0.44920084 0.13873528 0.305502 0.4273468 0.029767703 0.027790496 0.34961477
-0.11828439 -0.14013007 -0.083326854 -0.34928405 -0.15283555 -0.1342201 -0.17998075 -0.09000327

att_dst f4 [1, 1, 32]
00000000: 86e9 89be 6025 6d3e fb8d 73be f84b 8f3d
00000010: 7170 8e3e 50ca a5be 871e ca3e 3e05 703e
00000020: 6051 a6be af88 bebe 5fe4 ff3b 016b acbd
00000030: 2a8b 5b3b 3352 6d3c 7a90 e23c 8c1f 823e
00000040: 6dfc 6abe cc2d 353e b748 4f3d 8bcd 9fbe
00000050: 0258 453d 74c4 8cbe 25f2 a7be b919 53bd
00000060: 9e43 e3be 7ba0 9e3e 0931 c83e 7f40 a7be
00000070: 5d44 ab3e 3b6a 0d3e ccc9 893e 0ad0 d6bd
-0.26935977 0.23158789 -0.2378463 0.06996912 0.2782016 -0.32380915 0.39476416 0.234395
-0.3248396 -0.37213656 0.0078092064 -0.08418847 0.0033499696 0.01448493 0.027656782 0.25414693
-0.22947855 0.17693251 0.050606456 -0.31211504 0.048179634 -0.27493632 -0.3280193 -0.051538203
-0.44387525 0.30981812 0.3909991 -0.32666394 0.33450595 0.13810055 0.2691177 -0.10488899

bias f4 [32]
00000000: df6d d4bc a03e bcbc 40b5 673c a819 06bd
00000010: 46c5 013d 6880 e3bc a5c7 a63c a2a8 04bd
00000020: cf64 d2bc 921e 00bd 590b d1bc 4cf1 88bc
00000030: 9023 0bbd 40a4 c43c 4463 663c cdb2 0fbd
00000040: 0a02 0dbd b922 fbbc b49e aabc cbf7 c5bb
00000050: ad58 f93c e0c5 86ba f071 e2bc 0ee1 44bc
00000060: e745 92bc d523 7cbc 7592 f83c 6ab1 d9bc
00000070: 46b5 c03c 169b e93c e634 183b f4a0 abbc
-0.025931297 -0.02297908 0.014142334 -0.03273931 0.031682275 -0.02777119 0.02035887 -0.032387383
-0.025682835 -0.031279154 -0.025518106 -0.016716622 -0.033969462 0.024004102 0.014061753 -0.035082627
-0.034425773 -0.030656205 -0.020827629 -0.006041502 0.030437792 -0.001028236 -0.02764222 -0.012016548
-0.017855598 -0.015389402 0.030343274 -0.026573855 0.023523938 0.028516334 0.002322489 -0.020950772

weight f4 [32, 11]
00000000: e289 9dbe 2536 8e3e 2667 80be 0882 9d3e
00000010: 80af d83d e5f9 283e ec49 c2be e9a4 a13e
00000020: 8987 65be ec49 cf3d f405 ccbd cc68 9c3d
00000030: 8b3e 523e c2ea 84bd ea4c a3be 6268 66be
00000040: e3e2 723e 410a 7a3d 4e12 7fbe 5e3e 3f3e
00000050: 4309 4f3e 837a 833e 732d b33d e97b 4a3e
00000060: 9b5d 94be 8d5d 1fbe 1d39 c93d 6c3c c63c
00000070: 1447 a4bd 6fcc b7bd 4cf5 fabd b73e 943e
00000080: 2584 40be 8ca7 5d3e 54b5 b5be 6fdf cf3d
00000090: f211 aebe 8ee4 b43d 24ed 57be d346 733e
000000a0: f1e9 a3be b95f ad3e 9cb8 9e3e faca d83d
000000b0: ca38 c83e 83c4 a6be 24e7 893c c03c 8bbe
000000c0: 2cef 893e ad4c 25bc 88b7 7e3e e285 30bd
000000d0: 0a01 423e 5803 a63e 0cac 6bbe 480a a03e
000000e0: 24a5 c9be ee33 61bd 795a eebd cb8a 0ebe
000000f0: 0a73 ae3e e0be 85be 130f 86bc a23c 03bc
00000100: 5c4f d53d a65d e9bd 746a 9e3e 258f bb3e
00000110: 18bc 7fbe 1cb5 b0bd 7c09 72be aa9d 713e
00000120: dfbc abbe 426e 1abe 4b01 1fbe 1f14 823d
00000130: 998d d3bd c4f1 813e 73dd a43d 385a 4b3d
00000140: b95c 443e 5245 86bd 6473 5a3d 83fc 4dbe
00000150: a792 fd3d d024 16be 4a02 7f3e 861f 45be
00000160: debf b2bd 43f5 98be 008c 4c3e d37b 79be
00000170: a81d 9e3e 3eb0 b23d f435 3abd 4fa7 dfbd
00000180: 7131 e4bd 00c0 70be 43cd b23d 6d28 c0be
00000190: f175 06be c716 69be 9053 223e c8d8 b63d
000001a0: 94ef 9c3e 5ff9 b8bd c237 913e 4066 69be
000001b0: 02b4 59be aca8 98be 5d19 7bbc ed26 b7be
000001c0: 1812 733e 955d a2be 623a 093e e354 42be
000001d0: 30ac a1bc e4d1 f6bd 44e6 1a3e 8761 a93e
000001e0: e451 c5be d3f9 a6be 06bb 29bd 28a6 aebb
000001f0: 024e b43e 34c9 193e 6cc2 54bc 7178 b4be
00000200: 8dfb 903d f5ae 24be 3eef 023e 3fb6 16be
00000210: 1b73 5fbd d423 673e e825 9b3e 81d8 b9be
00000220: 2f2a 85be ee47 35be e138 33bd dccd 663e
00000230: e68f 453e 2eff 85bd 6902 72be 6a64 b83e
00000240: 87d6 d7bd 8f3e 15be b662 4b3e 6052 703e
00000250: b2b1 c23d c062 f1bd 6dbd ecbd a975 afbd
00000260: 5193 9a3e 1b42 643e a7ae 3a3e 03b9 e7bc
00000270: 7690 3f3e 8927 8a3d 45be 2cbe 88df fcbd
00000280: 0988 423e 2ecf fabc 35f1 993e 2ce9 853e
00000290: 7cb6 6c3e d889 91be 99bd bebe f6e5 083e
000002a0: 024e f1bc 4795 cdbe 5864 46be 8e26 57be
000002b0: 25a4 8abe 33b5 263d 23b5 b83d af1c 81be
000002c0: 586d b0be d07a 8c3e ecf3 313e 4e69 0e3e
000002d0: b577 d23d e085 a6bd 9e43 8bbd db2b 70bd
000002e0: 0878 51be 989b 74be a76a 473e 4629 2dbd
000002f0: 5c9e 38bc 6e4d aebe 72a8 92bc 16fb f13c
00000300: 4310 6fbe 94f4 90be e533 acbe 9cac c4be
00000310: 1c8e 893e 3cdb 19be 1c19 d1bd 8abd 5e3e
00000320: a59b 9b3d 445f 843c 345a afbc f835 91bc
00000330: e19d aebc cb74 25be 0a30 583c 2b2e 083e
00000340: 9bf6 62be 4f91 8f3e 265e a43d cfd1 e0bd
00000350: 6305 0c3e 8291 073e 4b75 e43d 68c8 01be
00000360: 8ff5 763e 6412 913b aefc 863e b4dd 1ebe
00000370: dbae babd f44d 3e3e 45e2 9e3d e3fb 203e
00000380: 089f 21be 2e65 f53b e045 c43e 0b48 fabd
00000390: 2a9f 533e e0d0 a9be 1ab0 6a3e 52a8 9b3e
000003a0: d2d8 b3bb 037b a6bd 424a 313e b50b 9e3d
000003b0: 2f28 663e fc6e 7b3c 6d5e 96be fb98 8fbe
000003c0: aaa3 833e 287f f43c b515 823e c161 273e
000003d0: b5f0 6fbe f438 8ebe fbef 643e 6ebd 14be
000003e0: ff62 483e 7dd5 88be 39c6 b2bd 9113 b03c
000003f0: f5cf 5cbd febc 8d3e ad04 39bd dc15 a83d
-0.3076926 0.27775684 -0.25078696 0.30763268 0.10580349 0.16501577 -0.37947023 0.3157113
-0.22414984 0.10121521 -0.09962073 0.07637176 0.20531671 -0.06490089 -0.31894618 -0.22500756
0.23719363 0.061044935 -0.24909326 0.18676135 0.20218377 0.25679407 0.08748903 0.1977383
-0.28977665 -0.1556303 0.098253466 0.024198733 -0.080213696 -0.089745395 -0.12253818 0.28954098
-0.18800409 0.21645945 -0.35489905 0.101500385 -0.33998066 0.08832656 -0.21086556 0.23757486
-0.3201442 0.33862093 0.3100022 0.1058559 0.39105827 -0.32571802 0.01683385 -0.27194786
0.26940286 -0.010089082 0.24874699 -0.04309643 0.18945709 0.32424426 -0.2301485 0.31257844
-0.39383805 -0.054981165 -0.1163835 -0.13920133 0.34072143 -0.2612219 -0.01636461 -0.008010061
0.10415527 -0.11394815 0.30940592 0.36632648 -0.24974096 -0.08628294 -0.2363643 0.235953
-0.33542535 -0.15081123 -0.15527837 0.06351494 -0.10329742 0.25379765 0.080500506 0.049646586
0.19175996 -0.065561906 0.0533327 -0.20115857 0.12381487 -0.1466248 0.24903217 -0.19250306
-0.08728002 -0.2987462 0.19975281 -0.24363641 0.30882 0.08725022 -0.04546161 -0.109205835
-0.11142243 -0.23510742 0.08730557 -0.37530842 -0.13130929 -0.22762595 0.15852189 0.089280665
0.30651534 -0.09031939 0.28362852 -0.22792912 -0.21260074 -0.29816186 -0.015325871 -0.35771886
0.23737371 -0.31712022 0.13401178 -0.18977694 -0.019735426 -0.12051752 0.15126902 0.3308222
-0.3853904 -0.32612476 -0.041438125 -0.005329866 0.35215765 0.15018159 -0.012985807 -0.3524814
0.070792295 -0.16082366 0.12786576 -0.14717959 -0.054553133 0.22572261 0.30302358 -0.36297992
-0.26008746 -0.1770322 -0.043755416 0.22539467 0.19293174 -0.06542812 -0.23633732 0.3601411
-0.10538965 -0.14574645 0.19861874 0.23468924 0.09506549 -0.11786413 -0.115595676 -0.08567364
0.30190518 0.22290842 0.18230687 -0.028286463 0.18707451 0.06745822 -0.16869457 -0.12347323
0.18997206 -0.03061637 0.3006684 0.2615446 0.23116487 -0.2842548 -0.37254027 0.13368973
-0.029456142 -0.40152952 -0.19374216 -0.21010801 -0.27078357 0.04070015 0.09018924 -0.25217196
-0.34458423 0.27437449 0.17378205 0.13907358 0.102767386 -0.081310034 -0.06800006 -0.058635574
-0.20455945 -0.2388748 0.19474278 -0.04227569 -0.011268225 -0.3404345 -0.017902587 0.029538672
-0.23346047 -0.28311598 -0.33633342 -0.3841294 0.26866233 -0.15025038 -0.10209867 0.21751991
0.07598046 0.016158707 -0.021405317 -0.01772593 -0.021315517 -0.16157834 0.013195047 0.13298862
-0.22164385 0.2804055 0.0802577 -0.10977518 0.1367393 0.132391 0.11155184 -0.12674105
0.2411711 0.004427241 0.26364654 -0.1551426 -0.09115382 0.18584424 0.07758001 0.15721087
-0.15783322 0.007488868 0.3833456 -0.12220772 0.20666185 -0.3316717 0.2291874 0.30401856
-0.0054884935 -0.081289314 0.17313483 0.07717077 0.22476266 0.015346285 -0.29368916 -0.28046402
0.25710803 0.02984579 0.25407186 0.16345884 -0.23431666 -0.27777827 0.2235717 -0.14525387
0.19569014 -0.2672538 -0.08729214 0.021493705 -0.05390926 0.27683252 -0.045170475 0.08207294

att_src f4 [1, 1, 32]
00000000: 7a21 82be 8aaa 36be 10ca c5be 3286 b3be
00000010: 3931 89be 59ee fd3d fa37 69be e1ad 473e
00000020: c509 913e c03a ac3d f99b 7b3e 7a49 63be
00000030: 1f69 42bd d73f 8fbe 63b3 2e3e 8e38 71be
00000040: ba00 8a3d 27a9 a83d fd84 99be 835b bdbe
00000050: 6b38 813e 3bca 2dbe f18d 913e 89fa 2e3d
00000060: 814a 29be 6884 9d3b e122 433e e434 87be
00000070: 6a99 903e ff06 cfbe 4812 7cbe cad1 853d
-0.25416166 -0.17838493 -0.38630724 -0.3506332 -0.26795366 0.12398977 -0.2277526 0.19499923
0.28327766 0.08409643 0.24571218 -0.22195998 -0.047463533 -0.27978393 0.17060618 -0.2355673
0.0673842 0.08235388 -0.29984275 -0.3698388 0.25238356 -0.16971676 0.28428605 0.042719398
-0.16532327 0.004807044 0.19056274 -0.2640754 0.28242046 -0.40435025 -0.24616349 0.06534155

att_dst f4 [1, 1, 32]
00000000: ef8b 73be 5b42 b83e 48aa c5be 3c7c ff3d
00000010: 23d4 83be a1b7 16be 957f e73d 2f65 58be
00000020: a4e0 ca3e 9274 573e 3cd4 48bd 9bf2 14be
00000030: b829 b4be fb2b c3be e3c7 d23e c722 3d3e
00000040: d364 463e d8c7 ba3e 1fd1 97be 54e4 c13e
00000050: b57c 6dbe 3e55 b93e 1721 8e3d f5b5 ad3e
00000060: 1694 8f3e 4d93 f73d 652a f23c f88c 00b9
00000070: 739e 51bd 7c89 3e3d 5126 913e eeba 11bd
-0.23783849 0.35988125 -0.38606477 0.12474868 -0.25747785 -0.14718486 0.11303631 -0.21132348
0.39624512 0.21040562 -0.049030527 -0.14545672 -0.3518808 -0.38119492 0.41168126 0.18470298
0.19374399 0.36480594 -0.29651734 0.37869513 -0.23192103 0.36197847 0.06939905 0.33927885
0.28042668 0.12088642 0.02956123 -0.00012259546 -0.0511765 0.046517834 0.28349546 -0.03557866

bias f4 [32]
00000000: f1da d23b 0000 0000 b5a6 d8bc 38ff d5bc
00000010: 91eb 08bd a179 30bb 0000 0000 2b9b 083d
00000020: 0f09 fbbc 0000 0000 a4a0 053d 1c3c 8c3c
00000030: 24cc ea3b d6ab e2bb 1325 f13c bfaa e93c
00000040: 0000 0000 7f52 b3bc a694 d6bc 86d6 d5bc
00000050: a91b d6bc 20c1 82bc d8ed d5bc 11a0 893c
00000060: cbe4 c73c 96cd b03a 0cd9 ccbc dd0e dabc
00000070: 78be cebc 379d d5bc 7900 723b 82fa 073d
0.0064347913 0.0 -0.02644668 -0.026122674 -0.03342778 -0.0026927965 0.0 0.033351105
-0.030643968 0.0 0.032623902 0.017118506 0.0071654487 -0.006917457 0.029436624 0.0285238
0.0 -0.021889923 -0.026193928 -0.02610327 -0.026136236 -0.01596123 -0.02611439 0.016799958
0.02440109 0.0013489004 -0.02500584 -0.026618415 -0.025237307 -0.026075942 0.0036926551 0.033197887

weight f4 [32, 32]
00000000: 3974 7e3e fe39 1c3e c759 763e b887 3dbe
00000010: caf7 a13e 62fc 9f3d 0875 373d 293c 55be
00000020: 98f7 593e b3de 863e f2f6 28be 4e53 b83d
00000030: fc19 89be 720c 2cbe c76d 5dbe 3287 c9bc
00000040: 7f1a 4b3e 447d 863e c386 6fbc 6239 0e3d
00000050: 62a2 37be b8cb 513e 20e9 dabd 9ec3 9ebb
00000060: 37e6 11be 650e 24be 1052 dbbd 5038 603e
00000070: c5fa 1dbd d04e d3bc 51f5 e0bd 48cf 9b3e
00000080: bd15 90be 6874 c9bd 6a94 2f3d dea5 7f3d
00000090: ccb7 e43d df03 a13e 6c07 83be cbf5 1a3d
000000a0: f8a0 7f3e 6173 05be b844 0cbd 21f0 6f3c
000000b0: 7d80 8b3e 4544 a0be 1306 5fbe 5c28 2f3e
000000c0: a6da 8f3d ff4b 623e 4607 4d3d baeb c2bd
000000d0: ca78 61bb 721f 80be a9c3 893e bc5d e13d
000000e0: 40a1 debd 67b2 78be 5181 d4bd dc66 813d
000000f0: 4821 50be 161d 643e 6f8d cfbd 37d6 3abe
00000100: ac10 8b3e 10c2 ea3c c939 c73d 6ccc 70be
00000110: 63ce 51be b109 493d 0ba2 c53d 44a4 493e
00000120: d823 31be 7f37 0cbc 72a6 0ebe b4ed 5f3e
00000130: d25d 10be a551 d7bd 0dd4 0dbe 84ca 5cbe
00000140: eed2 5f3c eb29 153e c727 2c3e d828 7cbe
00000150: 71d5 443d cee4 2dbd fcf5 253e da5a 08bc
00000160: 6bdd 83be 7c14 2e3e d44d 0dbe c231 193e
00000170: 0a18 10be c263 143d ca4a 653c 079a 9b3d
00000180: ed8b 613e 9655 063e d910 7a3e 3fc1 84bd
00000190: c86e 56be c2d8 38bd f3f7 3ebe ea89 0c3e
000001a0: 749a 093e a6b3 343e ea8d 923e b352 5cbe
000001b0: e7ad 8abe e948 11be ba21 ccbd 43a2 84bd
000001c0: 1220 21bc 38d4 303e 75f9 3abe 8415 913e
000001d0: d763 5fbe 9c7b 17be a0d9 69bb 271d 9a3d
000001e0: 36df ba3c 6c2b 9cbe 369b 11be 053b 873e
000001f0: d8e9 8f3e d24f 663e ade1 44be be3c 3f3e
00000200: e1dd 933d c95c 583e 80cb 91be 2a36 003c
00000210: d2bc 85be 7384 943d 3690 02bd cc30 3fbe
00000220: a07a a7bd 4aba 22be db9c cc3d ba26 22be
00000230: d04b 503e a6b1 cb3d 831d fdbd b3ec 343d
00000240: cddd 7fbd f939 483e cf25 3bbe 7f72 6c3d
00000250: 77bd acbc b73d 9dbd b582 5c3e be44 2c3e
00000260: 1aa2 82be 1fe7 db3c 535e 8abe 99ce d8bd
00000270: 3962 023e f8f1 97be 811c 2e3e ea54 903d
00000280: 7b17 113e 72a7 8abe 7511 533d 6196 b7bd
00000290: 6235 2d3d ad1b 943c 0ce1 a0bc 7267 b63d
000002a0: add4 963e 2669 5f3e c839 9b3e 85d3 da3c
000002b0: 4e5b 85be 3b94 853e 0837 8cbd 797d 62bd
000002c0: ba32 26be 41ba 4cbe cb21 0ebe 86dc 873e
000002d0: 6bb4 5ebe 6a77 25be 84ad 483e 0ebc f9bd
000002e0: bfa2 7f3e 6a39 99be f60c 43bc a742 dbbd
000002f0: a918 ac3d 1453 323e 83a6 c23c da51 5ebe
00000300: 6ffb 00be a5d3 8abe 6da6 9abd 4ee2 fb3c
00000310: 18a2 9f3c 1c35 a83e 52bd 72be 257f 80bd
00000320: eddd 02be 9a65 c3bc 189e f33a 658b bb3d
00000330: d802 7c3e 8201 0b3c f31d 8cbe 33a7 46be
00000340: d695 51be 7e1f d93d 29ac 86be 1a8d 62be
00000350: 3675 86be a658 e5bd 32ba 1f3e cad3 0cbe
00000360: 9414 ee3d 1257 6fbe de2f b7bd 653a 863e
00000370: 7114 38be fabe 803e c481 603e c65d 88be
00000380: a31e ea3d ee57 913e 4229 0f3e 0f77 283e
00000390: 5df1 503e cea5 eabd 624a 73be 550f 6ebe
000003a0: c832 e43d c147 14be 901f 7b3e 2884 333e
000003b0: 0f9e b9bd 10c7 2abc bead 84be 1778 25be
000003c0: 3edd c5bd 9192 d73d 4a4c cabd afc7 2f3e
000003d0: e1d3 ebbd f547 903d 95d4 78be 1760 7a3e
000003e0: 6d9f 773d c827 0f3e 9422 70bd 66c8 71be
000003f0: 648e 15bd 3f25 11be f6d4 e0bd b583 043e
0.24849023 0.15256497 0.24057685 -0.18508804 0.3163436 0.0781181 0.044789344 -0.2082373
0.21285856 0.2634178 -0.16500452 0.09000264 -0.26777637 -0.16801623 -0.21623908 -0.024600599
0.19834326 0.26267445 -0.014619532 0.034722693 -0.17933038 0.20487869 -0.10688996 -0.0048450967
-0.14247976 -0.16021116 -0.107090116 0.21896482 -0.03856923 -0.025794417 -0.109842904 0.3043158
-0.28141585 -0.09836656 0.042866148 0.062414043 0.11167869 0.31448266 -0.255916 0.037832063
0.24963748 -0.13032295 -0.034245223 0.014644654 0.27246466 -0.31302086 -0.21779661 0.1710524
0.07024126 0.22099303 0.050055765 -0.095176175 -0.0034404271 -0.2502399 0.2690709 0.110042065
-0.108706 -0.24286805 -0.10376228 0.06318447 -0.20325196 0.2227672 -0.10134398 -0.18245779
0.27161157 0.02865699 0.097278185 -0.23515481 -0.20488887 0.049081508 0.09650048 0.19691569
-0.1729883 -0.008558153 -0.13930681 0.2186802 -0.1409829 -0.10513619 -0.13850422 -0.21561629
0.013661129 0.14566772 0.16812049 -0.24624956 0.048055116 -0.042454533 0.16207117 -0.008322442
-0.25754866 0.17000002 -0.1379922 0.14960387 -0.1407167 0.03622795 0.013994882 0.07597738
0.22026034 0.13118586 0.2442049 -0.06482171 -0.20940697 -0.04512859 -0.18649273 0.13724485
0.13437825 0.17646655 0.28623897 -0.21515922 -0.27085802 -0.1418797 -0.0996737 -0.064762615
-0.009834306 0.17268455 -0.18259223 0.28336728 -0.2181543 -0.14793247 -0.0035682693 0.075250916
0.022811513 -0.30501878 -0.14219365 0.26412216 0.28108096 0.22491387 -0.19226713 0.18675515
0.072200544 0.21129145 -0.2847557 0.007825414 -0.2612062 0.07251825 -0.03187581 -0.18670958
-0.08177686 -0.15891376 0.09990855 -0.15835086 0.2034142 0.09945993 -0.123591445 0.044171046
-0.062467385 0.19553365 -0.18276142 0.05772638 -0.021086438 -0.07677787 0.21534236 0.16823098
-0.255143 0.026843606 -0.2702509 -0.105862804 0.12732781 -0.29676795 0.17003061 0.07047446
0.14169113 -0.27080876 0.05153032 -0.089642294 0.042287238 0.018079603 -0.01963856 0.089064494
0.29459134 0.21817455 0.3031752 0.026712188 -0.26046222 0.26089653 -0.06846434 -0.05529544
-0.16230288 -0.19992925 -0.13880078 0.26535434 -0.21748511 -0.16158834 0.19597441 -0.12194072
0.24964426 -0.29926616 -0.011904946 -0.10706072 0.08403141 0.17414504 0.02376104 -0.21710911
-0.12595914 -0.27114597 -0.075512744 0.030747559 0.019486472 0.3285302 -0.23705032 -0.06274251
-0.1277997 -0.023852158 0.0018586544 0.09157447 0.2461046 0.008484246 -0.273666 -0.19399719
-0.20467314 0.1060171 -0.26303223 -0.22124138 -0.262613 -0.11198549 0.15598372 -0.13752666
0.11625019 -0.23373058 -0.08944677 0.26216426 -0.17976548 0.25145704 0.21924502 -0.26634043
0.11431625 0.28387398 0.13980582 0.16451667 0.20404573 -0.11457406 -0.23758844 -0.23248036
0.11142498 -0.14480497 0.24523759 0.17530882 -0.090633504 -0.010423437 -0.25913805 -0.16159092
-0.09661339 0.10526002 -0.09877832 0.17166017 -0.11515022 0.07044975 -0.24299844 0.24450718
0.060454775 0.13980019 -0.058626726 -0.23611602 -0.036512747 -0.14174365 -0.10978119 0.12940867

att_src f4 [1, 1, 4]
00000000: 155a 513f e125 783f 3ef1 57bf 8276 95bd
0.8177808 0.969328 -0.8435248 -0.07297994

att_dst f4 [1, 1, 4]
00000000: 089b 5fbf fddb 4d3f 3a06 0f3f 85ae 743f
-0.87345934 0.804138 0.55868876 0.95578796

bias f4 [4]
00000000: 0ad7 02bd 5ba6 0bbd fce2 95bc c3ff d5bc
-0.03194336 -0.034094196 -0.018296711 -0.026122933

weight f4 [4, 32]
00000000: 6b95 66bd c08a cc3e 72e5 bf3e ad93 343e
00000010: aff9 893d edb1 d1bb 2081 c63e a301 853d
00000020: 5d23 1c3d 7458 103e 20cd bc3e dee8 b8be
00000030: 6753 a4be 48a7 0bbe 6586 9abe 2b4f 453e
00000040: 6095 7d3e 6ead 733d e693 053e c81d 7dbe
00000050: 89b2 843d 7442 263d 4cb4 adbe 58e1 7bbd
00000060: 721e 29be 5252 32be 6fa9 a23e 3c77 583d
00000070: 4ec4 22bc aadd 96be a240 ddbe 5388 94bd
00000080: 032d 863e f8e7 f33d 54da 973e 3425 bb3b
00000090: 7ea2 9e3e 849c 8b3d ba69 b33e bc80 b7be
000000a0: 042e 1a3e e41d 0f3e fbb8 c9be 8f25 38bd
000000b0: 21e0 d33b 893a b43e b869 bebd 97ba 75be
000000c0: 6552 8ebe 6a4d 033e a5fe 653e 4e38 c2be
000000d0: 0bb9 913e b5b6 c83e 06ba ac3e 4206 213e
000000e0: 6f86 0dbe 0c1c 543e 5f68 f73c 8dd7 b73e
000000f0: 8428 aebc 90d0 ef3d 2d60 743e ff6a 82be
00000100: 21f5 abbe b027 c03d c141 bb3e 1f93 b43e
00000110: 53b3 debd db8b f13d f4ce 1cbe 8209 b2bd
00000120: 645e ab3c 86d4 a2be eace 073e 280f d13d
00000130: ea8c 97bd c29d 0bbe 72c9 c13e b399 a73c
00000140: 286b c5be 9c0a 343e cf27 76be 28c2 443e
00000150: c871 d3be bc1c 9c3e 0f2d 7c3e 4319 c2bb
00000160: 736e a93e 1a29 4fbe be3b ad3e 61e1 b1bb
00000170: 804d 343d 175e 39be 96c8 8abe 78f3 cfbe
00000180: f1e9 c2be 0c4a a53e 18cf 013e 397a 83bd
00000190: 3eee 013e 8df4 b6be 200d 3f3d eb62 24be
000001a0: 86ad 493e 189d 6dbd 9daf 94be f858 8fbe
000001b0: c586 7dbe a7db 99be 66e6 4ebe aa1f 99be
000001c0: 064f a33e f94b 43be d76a 9e3e 4b03 b53e
000001d0: 8a73 a23e dfba a23e f1d4 413e 03ef b8be
000001e0: 8c81 aabd ffbd 29be 7acd b13e 7850 6ebb
000001f0: f95d 583d 1893 a23e 24d0 46be 36cc d5be
-0.05629484 0.39949608 0.3747974 0.17634459 0.067370765 -0.0063993842 0.3877039 0.06494453
0.038119663 0.14096242 0.36875248 -0.36115164 -0.3209488 -0.13638031 -0.3018066 0.19268481
0.24764013 0.059491567 0.130447 -0.24718392 0.064793654 0.04059072 -0.33926618 -0.0614942
-0.1651552 -0.17414215 0.31769893 0.052848086 -0.009934498 -0.2946599 -0.43213373 -0.07252564
0.26206216 0.11909479 0.2965876 0.005711222 0.30983347 0.06816962 0.350416 -0.35840404
0.15056616 0.13976246 -0.3939894 -0.044957694 0.006465927 0.3520091 -0.09297508 -0.2399696
-0.27797237 0.128225 0.2246042 -0.37933582 0.2846149 0.39201894 0.33735675 0.15725043
-0.13820814 0.20713824 0.030201135 0.3590664 -0.021259554 0.11709702 0.23864813 -0.25472257
-0.33585456 0.0938257 0.36573604 0.35268494 -0.10874047 0.117942534 -0.15313321 -0.0869322
0.020919032 -0.31802768 0.13262525 0.10207969 -0.07399924 -0.13634399 0.37849003 0.020459032
-0.38558316 0.17582172 -0.24038623 0.1921469 -0.41297746 0.30490673 0.24626563 -0.0059234216
0.3309208 -0.20230523 0.33834642 -0.0054284786 0.044019222 -0.18102299 -0.2710616 -0.4061544
-0.38069108 0.32283056 0.12676656 -0.064197965 0.12688538 -0.35733452 0.046643376 -0.16053359
0.196951 -0.058011144 -0.29040232 -0.27997565 -0.24758442 -0.30050394 -0.20205078 -0.2990697
0.31896228 -0.1907195 0.30940887 0.35354075 0.31728774 0.31783196 0.18928887 -0.3611985
-0.0832549 -0.16576384 0.3472708 -0.003636388 0.052823994 0.3175285 -0.19415337 -0.41757363
