models/graph_classification_model_train_with_115.pt (torch, 64674 bytes, 12 tensors)

att_src f4 [1, 1, 32]
00000000: 6ff0 803e e920 57bf 83bd 96be f829 6abe
00000010: 7ea3 7abc 6f18 c63e 0e28 ac3e 708d 3c3f
00000020: 0f65 09bf 9e53 493d 7df9 22bd d4b2 2d3e
00000030: 2698 e4bd c145 a4bc ca4a d6bd 8f57 383e
00000040: 43c2 38bf c85c 3e3f 2f2b 023f 0d44 253f
00000050: 7921 053e 9271 a23e 8b17 863b cfd9 433f
00000060: f5cb b0be b833 66be 1877 2cbf ed7e 3bbf
00000070: 0a27 07bf 0984 393c 866f c9be b196 bb3d
0.25183436 -0.8403459 -0.2944146 -0.22867572 -0.015297769 0.38690516 0.3362431 0.73653316
-0.5366983 0.04915201 -0.03978871 0.16962749 -0.111618325 -0.020052793 -0.10463484 0.18002151
-0.7217142 0.7436032 0.5084714 0.6455696 0.1300105 0.31727272 0.004092162 0.76504225
-0.34530607 -0.22480667 -0.6736922 -0.7324055 -0.52793944 0.011322984 -0.39342898 0.091596015

att_dst f4 [1, 1, 32]
00000000: 1c1f 9bbe c7b2 db3e 69a7 b9be d4b7 813e
00000010: 78f9 d33e 471a 46be cadc a83e c68c ad3e
00000020: 6119 e4be 91bc 18bf 752e 113d e72c 24be
00000030: 1f0b db3d c48d 203e f4da 7f3e c019 243d
00000040: 93bc 89be 2108 06bc aa7b cdbd ef74 3ebe
00000050: 9c95 fb3d d987 b1be 8aa9 5fbe ac2a f63d
00000060: b842 bbbe 87f8 fb3e 1f00 b33e 1df4 88be
00000070: 3804 e13e 785b 0f3d 7843 e53e 454e 4a3d
-0.30297172 0.42909834 -0.36260536 0.25335562 0.41401267 -0.19345962 0.3298095 0.33896464
-0.44550613 -0.5966273 0.035444696 -0.16032754 0.106954806 0.1567908 0.24985868 0.04006362
-0.26901683 -0.008180649 -0.10033353 -0.18599294 0.12284395 -0.34673956 -0.21842018 0.12019858
-0.3657434 0.4921305 0.3496103 -0.26748744 0.4394853 0.03499934 0.44778037 0.04939105

bias f4 [32]
00000000: c0e4 423d 6528 1b3d 9fb8 67bc 9e1c ac3c
00000010: 0a43 a4bc fbb1 89bc 679a 383d 07b3 7c3d
00000020: 6c87 f73b 078f b33d 994e 3cbd 3d8b aa3c
00000030: e729 0c3d 5e6d 07bb e336 543d 2473 49bc
00000040: a9dc 0b3e 3102 ad3d a07c adbc b0ca 343d
00000050: 7e96 2d3c 7b04 253d 09e1 883d 2adc 1f3d
00000060: 8cae febc face 823b 4c7e f03c 6349 1e3d
00000070: 54c1 093d 4416 ac3d febf 2e3d 63a3 01bd
0.047581434 0.03788032 -0.014143138 0.02100974 -0.020051498 -0.0168085 0.045069125 0.06169417
0.0075539853 0.08767515 -0.045973394 0.020818347 0.03421965 -0.0020664553 0.051810157 -0.012295518
0.13658394 0.084476836 -0.02117759 0.04413861 0.010594962 0.040287476 0.06683547 0.039028324
-0.03108909 0.0039919587 0.029357098 0.038644206 0.033631638 0.08402684 0.042663567 -0.03164996

weight f4 [32, 11]
00000000: 8d40 90be 6483 993e 66c9 c3be ce93 1a3f
00000010: df22 633e 341b 953d 6b49 43bf 7414 363f
00000020: bc95 1fbe fc28 763e c619 00be 6197 383e
00000030: 3fe6 993e e516 26bd 682b 93be 847c a6bd
00000040: 4f5b 603e 1670 e4bd 6b4d e7bd 26e5 813e
00000050: b486 763e 981c 973e 4fef bf3d f51d 5f3e
00000060: d417 8ebe f629 00bf 5908 1a3e 0008 0dbd
00000070: 1e15 9fbe 7f2f 8dbe 2aa8 3abd 1100 223e
00000080: 0657 4c3d e669 903e 50c0 9abe 1cc5 c73d
00000090: 710e 3cbe cdf6 663e 884e 82be 7b3e 913c
000000a0: 0472 d4bc 96e3 c93e cfce c93e 8301 cf3d
000000b0: 6348 c33e 38e4 babe a55d c0bc b94e 95be
000000c0: cbe6 273e 4842 ea3b 949c e73e ef68 48be
000000d0: 4d4c 083e a1c2 933e 99a0 8bbe 96cd 843e
000000e0: ffc3 ddbe b6f4 48bd 4e1e 883c baab 1abe
000000f0: 3fda ad3e 8155 36be fc6d 593d 0530 af38
00000100: 0bcb 1e3e 6fb6 19be 7e5a 903e 06fb af3e
00000110: 7b52 a1be 3f1c 453e a665 5bbe 81e0 003e
00000120: 1049 24bf 5c73 c53e 5e9d 23be fb4d 4a3e
00000130: 0c6d 5dbe a662 a73e 16fc 0c3e 3ce3 8d3d
00000140: f6a2 f53e b108 9f3d 8088 203d 8c8b d0be
00000150: 415f 023f edf7 71bd feab d23e e2b7 3fbe
00000160: 7c8a 323e 1c99 74be 042e 573e 6aec 34bf
00000170: 84f4 003f a46b 8c3d dd26 8bbe 973a 17bf
00000180: 9260 de3c 65f1 f5be 00ac 143e 209a bcbe
00000190: f714 41be cacc bfbe 96e0 e03e 17a0 853e
000001a0: 6c55 6f3e 325f ddbe 9c06 403f 7d48 6ebe
000001b0: 9380 a2bd 57e0 c0be 1860 99bc 388c bebe
000001c0: a6f0 5d3e 1b88 b0be fa0c bf3d 6d4e 3ebe
000001d0: 7b5c 603d b912 46be c1c0 053e bb3e 9d3e
000001e0: 1c2e cabe 4292 a4be 9055 06bc 99d6 f4bd
000001f0: 910f 143f 65ef 4b3e 4389 6bbd 6bdf 2bbf
00000200: a7d1 dd3e fa03 dfbd 514e 603e e35f 1ebe
00000210: 93ba 903c 63b4 923e b521 a73e 66c7 30be
00000220: eea3 0bbe a36e 36be 7d40 4abe 060b fc3e
00000230: 615e 843e a084 263d 8b0a 63be 4b0c 883e
00000240: 8982 57be 5684 c4be 7ebc ab3e 88eb 1f3e
00000250: e515 3fbc 75c2 d8be be55 c43d a343 13be
00000260: c279 ac3e abee c93d 4032 663e 4517 d6ba
00000270: 2d3d 303e 816a 6e3e 3694 47bd 0384 40be
00000280: ab8f 89bc 3fda 903e c368 ac3e 428e ae3e
00000290: baa3 4f3e 1f53 a0be 79fc bfbe 30c1 043e
000002a0: 29f8 883d 782e adbe b468 54be e008 a7be
000002b0: d624 bbbd d2fe 7b3d e151 073e b364 8bbe
000002c0: 2344 74bd 4c8f b53e 4e7f b33e 96c4 78be
000002d0: ca24 603e 327e a93d 9bab 1d3e e150 0bbf
000002e0: a0e3 473e 794e febe 25c8 d43e f3fc 43bd
000002f0: b71c 883d 60a2 bebe 34a9 b43e 4aca 003e
00000300: 0d85 a3be e94a 42bf ce9e 193e b8b5 9abe
00000310: 9b9f e23e 92dc 52be 9af3 2cbe 5b01 093e
00000320: c8bb 13bc a35c 843e d61d d0bd 3e83 58bd
00000330: bbec ebbd 9e56 ec3c 2409 fabc 62ee 583e
00000340: bc99 98be b3f6 a43e 5905 ce3d d851 f8bd
00000350: fe56 bd3e d834 6f3e 2752 b33d c384 a0be
00000360: d06a 123f f126 423d 5f0b c03e 7c87 1dbe
00000370: a83e f6bd 53fd 483e 3415 8f3d fedf 6c3e
00000380: fa45 68be c125 463d 8242 033f e45b 18be
00000390: 2690 363e 38fd a7be 19b6 773e 9a20 4a3e
000003a0: e64b e9bd 294d 59be a617 b43e 5a28 11bd
000003b0: 9cfe e73d be0c 1dbe 5a94 8a3e 30e5 b6be
000003c0: 12d9 b03e 36e1 2cbe 7f85 ac3e fa95 703e
000003d0: 1b7a 4ebe 8c33 d2bc ee46 c13e fc4b 1fbe
000003e0: 38bc d73c 0758 ce3d f5f8 7b3b d05b 2b3e
000003f0: bf54 febc 10f5 9e3e 0d81 abbc 4aa0 a53d
-0.28174248 0.29983056 -0.38239592 0.6038178 0.22181271 0.07280579 -0.762839 0.7112496
-0.15584463 0.24039072 -0.12509832 0.18026496 0.30058476 -0.040549178 -0.28744054 -0.08129218
0.21909831 -0.11154191 -0.11294063 0.2537014 0.24074823 0.29514003 0.09371816 0.21788771
-0.27752554 -0.5006403 0.15042247 -0.034431458 -0.310708 -0.275753 -0.04557053 0.15820338
0.04988768 0.28205794 -0.30224848 0.097543925 -0.18364884 0.22555085 -0.2545054 0.017729988
-0.025933273 0.39431447 0.39415595 0.1010771 0.38141164 -0.36502242 -0.023482153 -0.29161623
0.16396634 0.0071490146 0.45236647 -0.19571279 0.13310356 0.28859428 -0.27270964 0.259381
-0.43313596 -0.0490615 0.016616013 -0.15104571 0.3395557 -0.17806055 0.053083405 8.3535946e-05
0.15507142 -0.15010999 0.2819404 0.34371203 -0.3150824 0.19249056 -0.21425495 0.12585641
-0.64173985 0.38564575 -0.15978 0.1975631 -0.2162363 0.3269245 0.13768038 0.06928107
0.47975892 0.0776533 0.039192677 -0.40731466 0.50926596 -0.05907433 0.41146845 -0.1872249
0.1743564 -0.23886532 0.21013647 -0.7067324 0.503731 0.06856468 -0.27178088 -0.59073776
0.027145658 -0.48035732 0.14518738 -0.36836338 -0.18855654 -0.3746093 0.43921345 0.260987
0.2337243 -0.4323669 0.75010085 -0.2326984 -0.0793468 -0.37671158 -0.018722579 -0.37216353
0.21673831 -0.3447884 0.09328647 -0.18584605 0.054775696 -0.1934308 0.13061811 0.30711922
-0.39488304 -0.32142836 -0.008199111 -0.11954994 0.5783625 0.1991554 -0.05750395 -0.67137784
0.43324015 -0.1088943 0.21904875 -0.15466265 0.01766709 0.2865325 0.32642904 -0.17263564
-0.13636753 -0.17815642 -0.19751163 0.4922716 0.25853255 0.040653825 -0.2217199 0.2657188
-0.21045889 -0.38382214 0.33542246 0.15617192 -0.011662935 -0.4233586 0.095866665 -0.1438127
0.33686644 0.098599754 0.22480106 -0.0016333839 0.17210837 0.23282816 -0.04872533 -0.18800358
-0.016792139 0.2829151 0.33673677 0.3409291 0.202773 -0.31313416 -0.3749731 0.1296432
0.06687958 -0.33824515 -0.20743066 -0.3262396 -0.09137885 0.061522312 0.13214828 -0.27225265
-0.059635293 0.3546089 0.35058063 -0.24293742 0.21889034 0.08276023 0.15397494 -0.54420286
0.19520426 -0.49669245 0.41558948 -0.047848653 0.06646102 -0.37233257 0.35285342 0.12577167
-0.31937447 -0.75895554 0.15001985 -0.30216765 0.44262394 -0.20591953 -0.16889802 0.13379423
-0.0090169385 0.25851926 -0.10161941 -0.052859537 -0.11519762 0.028849896 -0.030521937 0.21184686
-0.2980479 0.32219467 0.10059614 -0.121249855 0.36980432 0.23360002 0.08755904 -0.3135129
0.5719423 0.04740042 0.37508675 -0.15383714 -0.120236695 0.19627886 0.06986466 0.23132321
-0.22682944 0.04837585 0.5127336 -0.14878803 0.17828426 -0.32810378 0.24190558 0.19738999
-0.113914296 -0.2122084 0.35174292 -0.035438873 0.1132786 -0.15336892 0.27066308 -0.3572173
0.34540612 -0.16882786 0.336956 0.23494712 -0.20163767 -0.025659345 0.37749428 -0.1555633
0.026334867 0.10075384 0.003844795 0.16734242 -0.03104627 0.31046343 -0.02093556 0.08087213

att_src f4 [1, 1, 32]
00000000: f3e9 babe e711 00bf 8d3a f6bd fc99 b8bd
00000010: 30e1 c5bd 1405 dd3e ea76 16bf fb4b 0c3f
00000020: f8bd e93e d5a0 993e 2742 2a3e 7fd3 14bf
00000030: ae9a c53d d812 24bf 51b3 213e e157 1abf
00000040: 4905 d43e 41f6 8b3e 8b9c 21be 148a 29bf
00000050: 5828 033f 58a2 af3d e4da 8fbc d0df 913e
00000060: d96a dabe a17f 383e 53a6 e93e 7283 1dbf
00000070: ff9d ef3e 7e2d ffbd fed6 a3bd 4e7e 3bbe
-0.36506614 -0.50027317 -0.120228864 -0.09013745 -0.09662092 0.43167937 -0.587752 0.54803437
0.45652747 0.30005518 0.16626798 -0.5813522 0.096486434 -0.64091253 0.1579106 -0.6029034
0.41410282 0.27336314 -0.15782373 -0.66226315 0.51233435 0.085758865 -0.01756043 0.28491068
-0.42659643 0.18017437 0.45634708 -0.61528695 0.4680023 -0.12459849 -0.07999991 -0.183099

att_dst f4 [1, 1, 32]
00000000: 3fd3 67be 61a9 ac3e 5138 d0be c298 dc3d
00000010: ca5a 82be f82e 09be 21c6 e53d 8ef1 40be
00000020: 51c1 ce3e 909b 883e d6a4 cabc a93c 16be
00000030: 81d3 a4be a8ab cabe fba0 013f 37f5 0f3e
00000040: 3996 543e b201 af3e 54e3 9fbe 5873 b73e
00000050: b8a6 62be ab9f ad3e b54b 2d3d 2912 a93e
00000060: d066 983e eed7 ef3d f149 e33c 8346 5fb9
00000070: 6ef4 87bc e4bf 203d fa19 903e 0965 2cbc
-0.22639178 0.33722976 -0.40667966 0.10771324 -0.25459892 -0.13396823 0.11219431 -0.18842146
0.40381864 0.26681185 -0.024736803 -0.14671578 -0.32192615 -0.39584088 0.5063626 0.14058386
0.2076043 0.3418098 -0.31228125 0.35830188 -0.2213391 0.3391088 0.042308528 0.33021668
0.2976594 0.11711107 0.027745219 -0.00021293205 -0.016596045 0.0392455 0.2814482 -0.0105221355

bias f4 [32]
00000000: 2c23 0cbd e687 b0bd 9627 833d 3c85 903d
00000010: 1c93 313d 82ca e13c 37a2 9abd 1535 9fbc
00000020: 2122 c2bb a985 643c 7ece 823b a397 cb3d
00000030: d5a6 713c 0432 14bc 4ca6 26bc 4612 fc3c
00000040: f18a 88be 0563 5e3d 48b3 0f3d 3455 11bb
00000050: fa93 f63c 9844 8e3d b835 633d 5208 e33c
00000060: 384f b6bc 4cb7 3a3d 479a a73b cf0c dcbb
00000070: 2161 93bc 6652 2c3d 81dc 0c3d 9336 a63d
-0.03421323 -0.086196706 0.06404035 0.070566624 0.043353185 0.027562384 -0.07550471 -0.019434491
-0.0059244786 0.013947883 0.003991901 0.09941032 0.0147492485 -0.009045128 -0.010171484 0.030770432
-0.26668504 0.05429365 0.035083085 -0.002217603 0.030099858 0.06946677 0.055471152 0.027713928
-0.022254571 0.04558496 0.005114827 -0.006715394 -0.01799065 0.04207077 0.034389976 0.08115878

weight f4 [32, 32]
00000000: 662c babd c1b6 a33e 153c 6d3e 8ade 57bc
00000010: 8c12 673e 78fd 43bd 00e4 47be a15b fabe
00000020: 2e0a fc3d d894 28be 56aa 32be 4657 74be
00000030: 64ef cdbd 0377 cbbe 59f8 47be c661 0fbd
00000040: fdb5 513e f8b3 80bd c7ae 34be 6f08 47be
00000050: 8182 15be 4c10 5ebd 4a35 02be fe3c 95be
00000060: 3a25 ee3b 6f49 76bd 8814 2cbe e8db 533e
00000070: 855a 6b3e bd73 5ebe 5be4 cf3d 6aed 673e
00000080: 062d 2dbf e984 32bc 676b 5dbc 60d7 393e
00000090: 3038 953d 058d f93d fdce 0abf a8a9 97be
000000a0: 9bd6 563e 5b71 13bf 2644 343c 44ac b2be
000000b0: d547 e33e 0200 14bf 5b27 9bbe 36f5 343e
000000c0: b5c5 033e 498a 0cbe af23 13be e7df c6be
000000d0: 2e34 953c c20e 17bf 6f4d 143e 6f9e 39be
000000e0: 7f96 e63d 5e2e 77be b5ef a0bd de1d 593d
000000f0: 4f5b f83d de8c 0d3b 7899 0a3e a1cf 6bbe
00000100: c060 0b3f c121 ed3d 5972 3c3e b304 15be
00000110: 3148 34be e941 133e 24c4 883e 1564 a63e
00000120: 2a6f 52be ab86 4f3e f978 e2bd 731d e33e
00000130: 5406 4dbd f670 083e 8401 41bd a4ac 40be
00000140: e2b0 0ebe 101d b03e f615 a13e c33d f0bd
00000150: b296 693d d39b 3b3e fa9b 883e 5d1e b23d
00000160: a142 27be 410f 863e b876 42be 9180 af3d
00000170: 75f3 f0bd de57 80bd 440d ef3d a7ce 2f3e
00000180: b5a7 f43e c34a 633e 7133 963e 6944 023d
00000190: 3beb 63be cceb 1e3d 0acf 0cbd 8176 4d3e
000001a0: 77ba c13d ae40 bc3e 67e9 a03e 19b5 6abd
000001b0: 2396 3abe 0c6c b33d 3e17 25b9 9afc 32bd
000001c0: 1e56 31be b334 b33e cebd dbbd 7d5b c23e
000001d0: d5da 61be 4b87 483d 54a1 a13d bab6 333e
000001e0: bea7 6f3d 1c60 52be 6d52 2abe de56 603e
000001f0: 4ce2 953e 21b1 f63d 3bba 14be cb32 663e
00000200: 910d a13e 3ddd 923e 3838 51be 63fe b03d
00000210: 7dd5 50be 35af 0d3e c997 093e 412f 80bd
00000220: e288 e3bd 48f1 553d 1d1c 293e 4c96 e03c
00000230: a9c3 913e 7bdf 8d3e 88b6 29bd cd1a be3d
00000240: 1bb1 46be 56cf c73e 1cfe d1bd 3e57 353e
00000250: ad86 133c 5269 043e ccae a33e 6b6b 833e
00000260: ab20 41be f0f4 d23d 294a 80be 2b50 13be
00000270: a6e7 363e e95b c1be db7a 813e da77 123e
00000280: 7f4f cd3e 73d5 a2be fc7e 99bc a44c e7bd
00000290: 1943 adbd d0cd 9e3c 9b20 313e 3ed6 863e
000002a0: b3c8 0f3e 6ba4 023f 86d4 e53d 3149 643e
000002b0: 3bff a3be 8f41 f83e 07d9 eebc 68ab babd
000002c0: 9d96 bcbe e53b 983d 0cad cebc 57ce d03e
000002d0: ebcb c5be 37b2 be3d d48c 5d3e 4b6f 613d
000002e0: 9007 1f3e 5edb 92be ddae 10be f3c5 63be
000002f0: 08ee 1abe 6e46 6ebd f025 c03c 9c42 7ebe
00000300: c732 09bf cdb2 dcbc 493f 13be eb59 873e
00000310: 3303 8dbc b746 033e 2958 08bf a2f4 c7be
00000320: e9f1 42be b58a f8be f213 623d 05e0 8fbe
00000330: 67c7 f73e b9e1 8ebe 29a5 8dbe c821 43be
00000340: 7eea ffbd fbd2 87be 5ffd eebe 24c3 02bf
00000350: d9d8 4cbe d06d edbe 231a b03d ba5d 03bf
00000360: a298 b23e 65ee ecbd 8c2d 8ebd 4398 953e
00000370: 4357 253e 704a dfbd cb3c f33e ae74 a7be
00000380: 4d2b 1b3e 7d1d 6c3e 105f a73d 9d25 e43d
00000390: faef 1b3e 813e 26be df09 4abe 8c25 93be
000003a0: cf91 d33d eaf9 f43d cf7d 473e b93d 373e
000003b0: 9d8f 13be 72ab 79bd eab8 a0be 3422 57be
000003c0: 7801 6abe afa6 8a3e b873 15be bd5b e43d
000003d0: cfaa 2abe 991f 8c3d 8fc1 d4be 6ac9 423e
000003e0: 201f 1e3c 5b3d b33d 917c dabd c5bc a3be
000003f0: d664 bdbd faf9 05be 194c 28be 8a34 a23d
-0.090904996 0.31975368 0.2316745 -0.013175616 0.22565669 -0.04784915 -0.19520569 -0.48898032
0.12306629 -0.1646303 -0.1744779 -0.23861417 -0.10055426 -0.39739236 -0.19528331 -0.035005353
0.2047958 -0.06284326 -0.17644797 -0.19436811 -0.14600565 -0.05421476 -0.1271564 -0.29148096
0.0072676213 -0.060128625 -0.16804707 0.20689356 0.22983749 -0.21723838 0.10150977 0.2264916
-0.67646825 -0.010895946 -0.013514376 0.18148565 0.072861075 0.121851005 -0.5422209 -0.29621625
0.20980303 -0.5759484 0.011002576 -0.34897053 0.4439074 -0.5781251 -0.30303463 0.17671666
0.12868388 -0.13724627 -0.14369081 -0.388427 0.018213358 -0.59006894 0.14482664 -0.18126844
0.112591736 -0.24138781 -0.078582205 0.053007 0.12126791 0.0021598856 0.13535106 -0.23028423
0.54444504 0.11578704 0.18402995 -0.14552574 -0.17605664 0.14380611 0.26712143 0.32498232
-0.20550218 0.20266216 -0.1105823 0.44358405 -0.050054863 0.13324341 -0.047120586 -0.18815857
-0.13934663 0.34397173 0.31462067 -0.1173053 0.05702848 0.18321161 0.266815 0.086971976
-0.1633401 0.26183513 -0.189906 0.08569444 -0.11765186 -0.06266759 0.11672452 0.17168675
0.477842 0.22196488 0.29336122 0.031803522 -0.22257702 0.038799092 -0.034377135 0.20064737
0.094593935 0.36768097 0.31428072 -0.057301614 -0.18221335 0.08760843 -0.00015744285 -0.04369793
-0.17318007 0.35001144 -0.10729562 0.37960425 -0.22056134 0.04895715 0.07892099 0.17550173
0.05850958 -0.20544475 -0.16633005 0.21908137 0.29274213 0.120455034 -0.14524166 0.22480313
0.31455663 0.28684416 -0.20431602 0.086422704 -0.2039394 0.13836367 0.13436808 -0.06259013
-0.11110093 0.052232057 0.1651463 0.027415417 0.2846959 0.27709565 -0.04143384 0.092824556
-0.19403498 0.39025372 -0.10253546 0.17709062 0.009004277 0.12930802 0.31969297 0.2566789
-0.18860118 0.10300624 -0.2505658 -0.1438605 0.17861804 -0.37765434 0.25289044 0.14303532
0.40099713 -0.31803474 -0.018737309 -0.11293915 -0.084600635 0.019385248 0.17297594 0.2633533
0.14041404 0.5103213 0.11222176 0.22293545 -0.32030663 0.48487517 -0.029156221 -0.091147244
-0.3683366 0.07433299 -0.025229 0.40782425 -0.3863214 0.093113355 0.21635753 0.055037778
0.15530229 -0.2868299 -0.14129205 -0.2224348 -0.15129864 -0.058172636 0.02345559 -0.24830097
-0.53593105 -0.026940728 -0.1437961 0.2643579 -0.01721344 0.12819944 -0.5325952 -0.39053828
-0.19037594 -0.48543325 0.055194803 -0.281006 0.4839432 -0.27906588 -0.2766507 -0.19055855
-0.12495898 -0.26528153 -0.46677682 -0.5107901 -0.20004596 -0.46372843 0.08598735 -0.5131489
0.34882075 -0.11568908 -0.06942281 0.2921773 0.16146569 -0.1090287 0.4750732 -0.32706207
0.15153237 0.23058124 0.081724286 0.11139987 0.15228263 -0.16234781 -0.19730328 -0.28739583
0.10330545 0.1196173 0.19481586 0.17894639 -0.14410253 -0.06095452 -0.31391078 -0.21009141
-0.22852123 0.27080294 -0.14594924 0.1115031 -0.16666721 0.06841964 -0.41553923 0.19022146
0.0096509755 0.08751937 -0.106682904 -0.31979957 -0.092477486 -0.1308364 -0.16435279 0.07920177

att_src f4 [1, 1, 3]
00000000: 82da a0bf 80fb 3a3f 8f77 b13f
-1.2566683 0.7304001 1.3864611

att_dst f4 [1, 1, 3]
00000000: 1173 963f cd9d 6cbe 3a72 a63e
1.1753865 -0.23107071 0.32509023

bias f4 [3]
00000000: 37f1 acbc 3fbf 3dbc 89a7 383d
-0.021111114 -0.011581241 0.04508165

weight f4 [3, 32]
00000000: ae61 a53e 1562 823e b32f 26bf 7e1f d2be
00000010: 093d 5ebe b0e6 1abd 0d7b 323e bfbf 613e
00000020: 1c23 bb3e b074 bbbe efb6 703e 10b0 9f3e
00000030: 79bd 7ebd 28b4 2b3d af34 bc3e 5cf7 86be
00000040: 94f7 dfbd c1e4 06bf 346f 403e f8b1 a8be
00000050: 26fb 72be b520 0ebf ba65 7abe 4c00 573d
00000060: 0e83 9f3e 3c69 963c c36e 233c f859 ad3e
00000070: c4d3 903e 0837 8b3c 40f1 9bbe d90e 20be
00000080: 0c2d 8fbd 17e7 de3e 7373 8f3e c868 613d
00000090: 78ba 9a3d 746d 583d 7951 cc3e 58ad a83d
000000a0: a242 5f3d b25e 2d3e fd54 ca3e 6cc5 d3be
000000b0: 639b b9be a462 0dbe eac7 8fbe 7b5f 653e
000000c0: e7c2 883d a862 143d e014 a3bd 4cd0 71be
000000d0: 7166 e73d a236 0dbd 2819 0cbf 98b4 88bd
000000e0: 9bdc 14be f12e 2abe 163d ac3e 86c9 943d
000000f0: 7e82 cd3b 8a19 98be 71c2 d9be 7016 e4bd
00000100: 083b 953e d3de 853c b989 d93e 1a91 f93d
00000110: 2285 d23e 6c13 a23e 7ecd 933e d9a3 a0be
00000120: 77fa 7e3e 3c9f 613e 65b2 cfbe 6adb f2bd
00000130: 754b f93d 85ad bb3e 3853 bebd 0557 86be
00000140: 278c 17be 3574 ac3e c2e7 ad3e 7e45 a8be
00000150: 276c c33e 391c f83e 9d3b de3e 4606 8c3e
00000160: 1d40 b8bd 0a10 9f3e 8585 013e d259 cb3e
00000170: 9a30 b13d 55b1 5e3e 0b28 ae3e 53f8 92be
0.32301086 0.25465456 -0.64916533 -0.41039652 -0.2170297 -0.037817657 0.17429753 0.22045802
0.36550224 -0.36612463 0.23507284 0.31189013 -0.062192414 0.041919857 0.36758944 -0.26360595
-0.10935894 -0.526928 0.1879242 -0.3294828 -0.23728618 -0.55518657 -0.24452868 0.052490517
0.31154674 0.018360727 0.009975138 0.33857703 0.28286564 0.016994014 -0.30457497 -0.15630664
-0.06991014 0.43535683 0.28017768 0.055031568 0.07555097 0.052838758 0.3990591 0.08236188
0.054506905 0.16930655 0.39517966 -0.41361558 -0.36251363 -0.1380716 -0.2808221 0.22399704
0.066778 0.0362269 -0.07962966 -0.23614615 0.11298836 -0.03447593 -0.54725885 -0.066750705
-0.1453728 -0.16619469 0.33640355 0.07265 0.0062716594 -0.29706985 -0.4253116 -0.11137092
0.291466 0.016341602 0.42487887 0.12185879 0.41117197 0.31655443 0.28867716 -0.31375006
0.24900232 0.220334 -0.40565792 -0.11858256 0.121725954 0.36655822 -0.092932165 -0.26238266
-0.14799558 0.3368241 0.3396588 -0.32865518 0.3816845 0.48459032 0.43404856 0.27348536
-0.08996604 0.31066924 0.1264859 0.39716965 0.08651848 0.21747334 0.34014925 -0.2870508
